nesy/jnghvxpr/checkpoints/epoch=9-step=250.ckpt (torch, 290467 bytes, 12 tensors)

neural_predicates.digit.net.0.weight f4 [30, 784]
000000 da a4 00 bc 62 ae c9 bc 4a 20 98 3b 0f e7 20 bb
       -0.007851804 -0.024619285 0.004642521 -0.0024551784
000010 e1 f1 71 bb fa b6 06 bd 49 c6 a1 ba e4 6a cf bc
       -0.0036917853 -0.032889344 -0.0012342419 -0.025319524
000020 92 de 50 3c 73 c6 ee 3c ca bd 0a bd 42 96 6f 3b
       0.012748377 0.029147362 -0.033872403 0.0036558066
000030 5c 2f 0a bd 84 4f 71 3c 7f cc 37 bc df 04 a2 3c
       -0.03373657 0.014728431 -0.011218189 0.019777713
000040 4d 1d b5 3c b3 8f a4 3b 90 73 ab 3c 59 2f da bb
       0.022108698 0.005022013 0.020929128 -0.0066584763
000050 b6 c8 44 3c ab cf 0a bc 43 ce e6 bc d7 5e d7 3c
       0.012010744 -0.008472363 -0.028174525 0.02629034
000060 67 30 16 bd fb 43 b7 bc c2 10 af bc a3 fa 03 3c
       -0.036667254 -0.022371283 -0.021370295 0.008055362
000070 63 17 87 bb d5 65 dd 3c 9b db 71 bb ef e5 1f bc
       -0.004122661 0.027026096 -0.0036904577 -0.00975941
000080 a1 b3 fd 3c d5 d6 cd bc b4 bb 84 3c 1f c0 a0 bc
       0.030969443 -0.025126854 0.016202785 -0.01962286
000090 79 34 11 bd c2 b6 3e bc ab af 1d bc 5e f0 86 bc
       -0.035450432 -0.011640253 -0.009624402 -0.016472038
0000a0 45 3b aa 3c 6a 72 2b bc d2 e7 80 bc fd 70 94 3c
       0.020780215 -0.01046429 -0.01573554 0.018120283
0000b0 3e d9 d2 bc 85 36 b3 3c b0 15 5e bc 8a 1a 8d 3c
       -0.025738355 0.021876583 -0.013554975 0.017224569
0000c0 40 d2 33 3c 4b 34 c5 bc 77 4a 19 bc c7 48 5b bc
       0.0109754205 -0.024072787 -0.009356133 -0.013384051
0000d0 ea 1c 02 3d 78 5e 4f bc 85 ef ed 3c be ac 05 3d
       0.031765856 -0.0126568 0.029044876 0.032635443
0000e0 50 b7 20 ba 24 f6 ae bc 46 dc b8 bc 40 ae 0f bd
       -0.00061308313 -0.021357603 -0.022565972 -0.035078287
0000f0 6f 6c ce bc ec df 08 bd e9 83 4c 3a 8b c2 af bb
       -0.02519819 -0.033416674 0.00078016386 -0.0053637675
000100 7d 85 ec 3b 98 64 38 bc 18 08 1a bd c5 49 70 bc
       0.0072180615 -0.011254452 -0.037605375 -0.0146660255
000110 91 f9 d3 3c 30 61 6c bc b3 bf 83 3c d3 a6 59 3c
       0.025875838 -0.014427468 0.01608262 0.013284403
000120 56 5a 55 bc 02 e6 26 3d 20 56 fc bc a0 25 d6 bc
       -0.013022026 0.040746696 -0.030802786 -0.026140988
000130 85 88 12 3c 70 2b d8 bb bc 70 38 bc 09 28 94 3c
       0.008943682 -0.006596975 -0.011257347 0.018085497
000140 ff 40 1a 3c 40 a4 53 bc d8 af 86 bc 95 1a 6a bc
       0.00941491 -0.012917578 -0.01644127 -0.014288564
000150 c8 bc 8e 3b 12 48 70 bb 24 9d 23 3c aa de 07 bd
       0.0043560006 -0.003666405 0.009986196 -0.033171333
000160 11 ee bf 3c 81 76 66 bb 87 00 f1 bc d7 bb 2b 3c
       0.023428949 -0.0035165849 -0.029419197 0.010481796
000170 c3 2a b0 3c 7f 1a 0d 3c 75 7e 01 3d d5 86 e2 3c
       0.021504765 0.008612274 0.03161474 0.027652184
000180 a8 37 df bc 57 d8 94 3c 57 e1 8f bc ee 8b db bc
       -0.027248219 0.018169565 -0.017563505 -0.026800122
000190 13 83 cb bb d3 cd 31 3d 7b 07 ab bc 66 11 0e 3d
       -0.0062106936 0.04340918 -0.02087759 0.03468456
0001a0 a6 5c 8f bc e6 af 9f bc 00 86 d3 3c fb 19 fc bb
       -0.017500233 -0.019493055 0.025820732 -0.007693527
0001b0 e5 fe ac 3c ce 5e a0 bb 6f 80 68 3b 56 28 e0 bc
       0.021117637 -0.004894114 0.0035476943 -0.027362984
0001c0 e9 0d 29 bb 9d 66 2b 3c c1 bf df bc 5b de e7 3c
       -0.0025795645 0.010461477 -0.027313115 0.02830427
0001d0 ea f0 06 bc f4 69 04 bd 7d c4 ec bc 39 2d 88 3c
       -0.008236149 -0.032327607 -0.028902287 0.016623126
0001e0 95 34 68 3a 0c 44 63 bc d8 86 f3 bc 62 5c 10 3d
       0.0008857933 -0.013871204 -0.029727384 0.035244353
0001f0 ec 81 03 3d 14 92 1a 3d d9 2b ea bc f4 e4 47 3b
       0.032106325 0.037736967 -0.028585361 0.0030501457
000200 c3 41 6b bc 97 98 36 3d 1c 8b ea bb ff 5d 23 bd
       -0.0143589405 0.044579115 -0.0071576964 -0.039884564
000210 95 7c c2 3a 51 c2 ad 3c 88 e9 dc bc 5b 04 82 bb
       0.0014838154 0.021210821 -0.026966825 -0.0039678044
000220 63 75 98 3c 42 d3 f8 bc 4a 8a 00 bd 8b 04 b6 bc
       0.018610662 -0.030374173 -0.031381883 -0.022218963
000230 5b 53 fe 3c 7f 67 82 b9 21 60 c7 3b 86 3a ea 3b
       0.031045606 -0.00024872643 0.0060844575 0.00714809
000240 3e 1a ba bb 09 65 a7 bc e7 5d 5e 3c 9b f8 36 bc
       -0.005679398 -0.02043392 0.013572193 -0.011167671
000250 9d ca 04 3c 97 64 ab 3c dc 4f 0c 3d b9 69 26 bd
       0.008104947 0.020921988 0.034255847 -0.04062817
000260 21 6f 15 3c 84 2f b0 3c 62 79 57 bd b4 60 19 bd
       0.0091207335 0.021507032 -0.052605994 -0.03744574
000270 fb 89 21 bd a6 de 8d 39 7e d6 00 bd 98 d5 1a bd
       -0.03943823 0.00027059502 -0.031454556 -0.037801355
000280 af 6a 14 3d a0 6d 85 38 96 3b f1 3c 8f 5b 53 bc
       0.036234554 6.3623535e-05 0.029447358 -0.012900247
000290 af 78 0b bd a4 7c 93 bc c1 59 14 bc 97 c4 2b bb
       -0.03405064 -0.01800377 -0.009054602 -0.0026209706
0002a0 d6 6e b1 3b 63 e8 ff bb c8 75 34 3c 9d 00 bd 3c
       0.005414824 -0.007809685 0.011014409 0.023071581
0002b0 90 7f c9 bc b3 e6 f8 bb 65 40 17 bc cb fb b2 3a
       -0.02459696 -0.007595861 -0.009231661 0.0013655362
0002c0 a5 c9 93 bc a8 7a b1 3c cb 98 e1 bc 31 18 69 bc
       -0.018040488 0.021664932 -0.027538678 -0.014226959
0002d0 a3 97 bd bc 49 1d 14 bd 24 f2 7f 3b 64 8e de bc
       -0.023143595 -0.03616074 0.003905424 -0.027167507
0002e0 f4 15 16 bd 2d 79 64 3b 5e 2d af 3c 6b 41 62 3c
       -0.03664203 0.0034862265 0.021383937 0.013809542
0002f0 f6 23 fc bb 26 2d 43 3d b1 48 08 bc 34 fd 1a bd
       -0.0076947166 0.04765048 -0.008318112 -0.03783913
000300 ce 8f 0c 3c 90 b9 38 bc e3 68 5a bc 86 bd d0 3c
       0.008579208 -0.01127471 -0.013330671 0.025480997
000310 2c e2 5d bc a9 23 8d 3c 78 21 06 bb 2a 70 98 3c
       -0.013542693 0.017228918 -0.0020466726 0.018608171
000320 43 bd 5e 3a e2 4f 07 bd b8 29 c2 bb 3d 83 ed 3c
       0.000849683 -0.033035167 -0.0059253834 0.028993243
000330 77 94 8f bc 41 6a ab 39 cb 68 e6 bc c2 57 8b bd
       -0.017526848 0.00032694827 -0.028126141 -0.06803848
000340 4e 1f 43 bc 2d af b0 3c 9d 1d 14 bd 0f 51 ee bc
       -0.011909319 0.021567905 -0.036161054 -0.029091386
000350 8a 17 3c bd a9 d3 59 bd 61 3c dd ba ba c1 f0 bc
       -0.045920886 -0.05318037 -0.0016878956 -0.029389251
000360 3d b3 db 3c 19 36 b2 3c b1 ee 6a bc 80 67 1e bd
       0.026818866 0.021754311 -0.014339135 -0.038672924
000370 7f ae 81 3c c7 6e b6 bc 27 69 be 3c 5f 75 c3 bc
       0.015830277 -0.02226962 0.0232435 -0.023859678
000380 54 4f 16 bd e7 86 24 bb 72 f7 c9 bc 13 cb 87 3c
       -0.036696747 -0.0025104822 -0.024654124 0.016576326
000390 d9 d3 86 3c e6 e5 4f 3c e5 84 fc bb 29 76 87 bb
       0.016458439 0.012689089 -0.007706272 -0.004133959
0003a0 68 0d aa bc ac 86 7c 3a fd 30 cd bc f7 43 d0 3b
       -0.020758346 0.0009633105 -0.025047773 0.0063557583
0003b0 57 03 07 3c 5a 66 6a 3c 9f 0c d7 3a 93 ae bf bb
       0.008240542 0.014306629 0.001640696 -0.0058496683
0003c0 10 15 b3 bd 85 5c 18 bd 7b f9 b9 bc 58 85 43 bc
       -0.08744252 -0.03719761 -0.02270197 -0.011933647
0003d0 29 14 e0 3b 78 ec bc bc 1a 88 34 b9 b1 1d e1 bb
       0.006838341 -0.023061976 -0.0001721684 -0.0068699946
0003e0 56 0f 16 bd ae c2 ee 3b 5f f2 2b 3c 81 c1 72 3c
       -0.03663572 0.007286391 0.0104947975 0.014816643
0003f0 55 cb dc bc 02 25 7a 3c 00 6f cd 3c 46 5c c3 3c
       -0.026952425 0.015267612 0.025077343 0.02384771

neural_predicates.digit.net.0.bias f4 [30]
000000 7f 1b ab 3c e8 71 5d bc 03 6a c1 3b a8 61 17 3d
       0.020887135 -0.013515927 0.00590253 0.036958367
000010 6b 27 31 3c f0 a7 8d 3c 9e 57 93 3c a1 c7 cd bc
       0.010812621 0.017291993 0.017986115 -0.025119605
000020 ea c3 46 bb ad cc a8 bc 65 73 70 bb 54 fe 16 bb
       -0.0030329176 -0.02060541 -0.0036689874 -0.0023039775
000030 e5 d6 e2 3c a6 b4 1a bd 45 fa 85 3c 67 e0 86 bc
       0.02769036 -0.037769936 0.01635469 -0.016464425
000040 7b 67 07 3d 0a a2 16 bd 58 92 af bc 0c 61 7b 3c
       0.03305767 -0.036775626 -0.021432087 0.015342962
000050 10 fb c8 3c ea ae 12 bd ba 86 b0 3c c0 6e 2e ba
       0.024533778 -0.035811342 0.021548618 -0.0006654076
000060 f0 04 de 3c 9d 95 06 3b d1 b9 1d bc 43 c2 f0 3b
       0.027101964 0.0020535954 -0.009626822 0.0073473766
000070 ab 0a ac bc f1 b3 cb 3b
       -0.02100118 0.006216519

neural_predicates.digit.net.2.weight f4 [2, 30]
000000 23 e5 cf bd 78 95 40 3e 23 7f 3a bc 57 8b 54 bd
       -0.10151126 0.18807018 -0.011382851 -0.051890697
000010 e0 d4 9e 3d af 15 ab 3d 50 ac 28 be 95 4e cf bd
       0.077554464 0.08353745 -0.16471982 -0.1012241
000020 a3 be e4 3d cf 3a 13 be 33 fe 8a bb b1 b2 21 3d
       0.111691736 -0.14377902 -0.0042417287 0.039477054
000030 2f 46 d7 bd 84 3e 6f bd 32 35 99 bd f9 4d 2a bd
       -0.10511433 -0.05840923 -0.07480849 -0.041578267
000040 f8 9c d2 bd cf 1f 14 be 80 58 bf bc 5b 0b 41 3e
       -0.10283846 -0.14465259 -0.02335763 0.18851988
000050 c4 b5 44 be 4f ab ad 3d 9c fd 50 3e 6b 92 bf 3d
       -0.19209963 0.0847994 0.20409244 0.09354099
000060 ce 12 1e 3d 14 3c 3c bd 0d 3a 4f 3e 60 f8 11 be
       0.038592152 -0.045955732 0.20236988 -0.14254904
000070 ef ba 9d bd 59 91 60 be f0 1e ce 3d 72 f5 ec bc
       -0.077016704 -0.21930446 0.100644946 -0.028925631
000080 60 a8 01 3e 66 93 68 be c6 b5 07 be ae 34 98 bd
       0.12661886 -0.22712478 -0.13252935 -0.07431923
000090 18 53 84 3e 92 e4 07 bc 14 33 42 be 2f f2 2a be
       0.25844646 -0.0082942415 -0.18964797 -0.16693948
0000a0 70 f9 31 be 1a b4 14 be 23 19 c9 3c 4f e7 83 bd
       -0.17380309 -0.14521828 0.024548119 -0.06440603
0000b0 e8 da 61 be a9 6a b2 3d 1c 87 43 3e 0b 1d 14 be
       -0.22056162 0.0871175 0.19094509 -0.14464204
0000c0 18 95 8f 3d a5 2f f1 bd 9b 72 96 3d 0d ce bb 3d
       0.07010859 -0.117766656 0.07346078 0.091701604
0000d0 5b 99 c8 bd 77 a2 2e be 2c 30 83 be 33 a4 54 be
       -0.09794875 -0.17054163 -0.2562269 -0.20765762
0000e0 01 37 3b be 51 41 51 3d cc ea 50 3d b9 9c 64 3e
       -0.18282701 0.05108768 0.05100517 0.2232541

neural_predicates.digit.net.2.bias f4 [2]
000000 c2 19 0a 3e 2f 88 b1 3d
       0.13486388 0.08668553

exp_avg f4 [30, 784]
000000 2b 76 84 37 2b 76 84 37 2b 76 84 37 2b 76 84 37
       1.5790652e-05 1.5790652e-05 1.5790652e-05 1.5790652e-05
000010 2b 76 84 37 2b 76 84 37 2b 76 84 37 2b 76 84 37
       1.5790652e-05 1.5790652e-05 1.5790652e-05 1.5790652e-05
000020 2b 76 84 37 2b 76 84 37 2b 76 84 37 2b 76 84 37
       1.5790652e-05 1.5790652e-05 1.5790652e-05 1.5790652e-05
000030 2b 76 84 37 2b 76 84 37 2b 76 84 37 2b 76 84 37
       1.5790652e-05 1.5790652e-05 1.5790652e-05 1.5790652e-05
000040 2b 76 84 37 2b 76 84 37 2b 76 84 37 2b 76 84 37
       1.5790652e-05 1.5790652e-05 1.5790652e-05 1.5790652e-05
000050 2b 76 84 37 2b 76 84 37 2b 76 84 37 2b 76 84 37
       1.5790652e-05 1.5790652e-05 1.5790652e-05 1.5790652e-05
000060 2b 76 84 37 2b 76 84 37 2b 76 84 37 2b 76 84 37
       1.5790652e-05 1.5790652e-05 1.5790652e-05 1.5790652e-05
000070 2b 76 84 37 2b 76 84 37 2b 76 84 37 2b 76 84 37
       1.5790652e-05 1.5790652e-05 1.5790652e-05 1.5790652e-05
000080 2b 76 84 37 2b 76 84 37 2b 76 84 37 2b 76 84 37
       1.5790652e-05 1.5790652e-05 1.5790652e-05 1.5790652e-05
000090 2b 76 84 37 2b 76 84 37 2b 76 84 37 4d 76 84 37
       1.5790652e-05 1.5790652e-05 1.5790652e-05 1.5790714e-05
0000a0 6f 76 84 37 46 76 84 37 c7 64 84 37 c7 ca 85 37
       1.5790776e-05 1.5790702e-05 1.5782554e-05 1.5949261e-05
0000b0 29 5d 88 37 13 53 86 37 2b 76 84 37 2b 76 84 37
       1.6255844e-05 1.601273e-05 1.5790652e-05 1.5790652e-05
0000c0 2b 76 84 37 2b 76 84 37 2b 76 84 37 2b 76 84 37
       1.5790652e-05 1.5790652e-05 1.5790652e-05 1.5790652e-05
0000d0 2b 76 84 37 2b 76 84 37 2b 76 84 37 2b 76 84 37
       1.5790652e-05 1.5790652e-05 1.5790652e-05 1.5790652e-05
0000e0 2b 76 84 37 2b 76 84 37 2b 76 84 37 2b 76 84 37
       1.5790652e-05 1.5790652e-05 1.5790652e-05 1.5790652e-05
0000f0 2b 76 84 37 2b 76 84 37 3e 76 84 37 2e 76 84 37
       1.5790652e-05 1.5790652e-05 1.5790687e-05 1.5790658e-05
000100 2b 76 84 37 2b 76 84 37 0c 76 84 37 fb 75 84 37
       1.5790652e-05 1.5790652e-05 1.5790596e-05 1.5790565e-05
000110 7d 9c 83 37 af 12 76 37 77 a9 83 37 f5 b8 83 37
       1.5689287e-05 1.4667093e-05 1.569533e-05 1.5702544e-05
000120 66 4e a4 36 ba 6b 25 b7 20 52 20 37 c0 55 82 37
       4.8967077e-06 -9.859848e-06 9.555864e-06 1.5537138e-05
000130 0f f5 83 37 2b 76 84 37 2b 76 84 37 2b 76 84 37
       1.5730531e-05 1.5790652e-05 1.5790652e-05 1.5790652e-05
000140 2b 76 84 37 2b 76 84 37 2b 76 84 37 2b 76 84 37
       1.5790652e-05 1.5790652e-05 1.5790652e-05 1.5790652e-05
000150 2b 76 84 37 2b 76 84 37 23 76 84 37 28 76 84 37
       1.5790652e-05 1.5790652e-05 1.5790638e-05 1.5790647e-05
000160 2b 76 84 37 2b 76 84 37 2b 76 84 37 a8 77 84 37
       1.5790652e-05 1.5790652e-05 1.5790652e-05 1.5791346e-05
000170 0c 90 68 37 37 a4 6d 37 e3 38 86 37 93 bf 88 37
       1.3861816e-05 1.4164535e-05 1.6000535e-05 1.6301672e-05
000180 1b a9 85 37 85 95 91 37 a3 d1 9c 37 3e 0b 01 37
       1.5933581e-05 1.7354972e-05 1.8694269e-05 7.691617e-06
000190 ac 64 61 b7 88 71 af b7 bf e9 57 b6 c1 67 82 37
       -1.3434485e-05 -2.0914493e-05 -3.2173555e-06 1.5545522e-05
0001a0 5c 2b 84 37 88 89 84 37 11 81 84 37 e9 78 84 37
       1.5755817e-05 1.579967e-05 1.5795727e-05 1.579193e-05
0001b0 54 7a 84 37 5c 77 84 37 2b 76 84 37 2b 76 84 37
       1.579259e-05 1.5791207e-05 1.5790652e-05 1.5790652e-05
0001c0 2b 76 84 37 2b 76 84 37 12 76 84 37 26 76 84 37
       1.5790652e-05 1.5790652e-05 1.5790607e-05 1.5790643e-05
0001d0 0c 76 84 37 88 6a 84 37 71 3b 85 37 47 24 87 37
       1.5790596e-05 1.5785234e-05 1.5882515e-05 1.6110147e-05
0001e0 77 6a f7 b4 c5 32 e4 b6 9c ee ce 36 48 65 d7 36
       -4.6084799e-07 -6.80084e-06 6.167056e-06 6.41929e-06
0001f0 b5 2a f2 36 f6 df e3 36 99 14 88 37 3d 15 96 36
       7.2171338e-06 6.7911997e-06 1.6222055e-05 4.472821e-06
000200 9a 9d 58 b7 bb 2e 04 b8 f5 b2 13 b6 39 0b 87 37
       -1.2911298e-05 -3.1514774e-05 -2.2008874e-06 1.609848e-05
000210 9a fe 46 37 80 fb 74 37 74 87 81 37 ef 0a 84 37
       1.1860999e-05 1.460209e-05 1.5441074e-05 1.5740718e-05
000220 8f e8 84 37 49 76 84 37 2b 76 84 37 2b 76 84 37
       1.584392e-05 1.5790707e-05 1.5790652e-05 1.5790652e-05
000230 2b 76 84 37 2b 76 84 37 c2 75 84 37 ed 75 84 37
       1.5790652e-05 1.5790652e-05 1.5790461e-05 1.579054e-05
000240 c0 74 84 37 ff b5 84 37 5b 1c 88 37 35 70 91 37
       1.5789992e-05 1.5820375e-05 1.6225667e-05 1.7337597e-05
000250 7b ca dc b6 b2 a2 27 b7 56 cd ee b6 7a 1d 8b b5
       -6.5800828e-06 -9.991856e-06 -7.116857e-06 -1.0364886e-06
000260 69 01 05 b7 b4 2b b8 b7 46 da 14 38 3f b5 02 38
       -7.927746e-06 -2.195486e-05 3.5489233e-05 3.1163214e-05
000270 75 b7 2e b7 06 62 20 b8 21 f6 b2 b7 8d 7a ef b4
       -1.0413923e-05 -3.8238264e-05 -2.1333866e-05 -4.4606386e-07
000280 44 cd f3 b6 04 94 e6 b6 79 1a 10 b7 1b 31 46 b3
       -7.2658604e-06 -6.8717654e-06 -8.5892325e-06 -4.614513e-08
000290 6f 06 83 37 be 75 84 37 25 76 84 37 2b 76 84 37
       1.5619413e-05 1.5790454e-05 1.5790642e-05 1.5790652e-05
0002a0 2b 76 84 37 2b 76 84 37 12 76 84 37 81 75 84 37
       1.5790652e-05 1.5790652e-05 1.5790607e-05 1.5790343e-05
0002b0 b4 72 84 37 60 01 86 37 48 f7 87 37 1d 1c 89 37
       1.5789039e-05 1.5974685e-05 1.6208403e-05 1.6344764e-05
0002c0 8d 7f 46 37 da 55 34 34 6d f8 6a b6 17 b4 b9 36
       1.1831417e-05 1.6795039e-07 -3.501332e-06 5.534395e-06
0002d0 2c e2 f2 b5 1e 0a 1a 36 13 03 bb 37 06 07 24 38
       -1.809623e-06 2.2953677e-06 2.2293569e-05 3.9107188e-05
0002e0 61 07 09 37 ae 2a c6 b7 1e a3 e5 b7 f1 0a 05 b7
       8.167554e-06 -2.3623314e-05 -2.7374885e-05 -7.929965e-06
0002f0 64 83 80 b7 11 2a 88 b6 f1 7a 6d 37 3a 17 be 37
       -1.5319973e-05 -4.058013e-06 1.4154925e-05 2.266058e-05
000300 37 27 98 37 96 bc 84 37 39 78 84 37 2b 76 84 37
       1.8138073e-05 1.5823443e-05 1.579161e-05 1.5790652e-05
000310 2b 76 84 37 2b 76 84 37 19 76 84 37 d5 75 84 37
       1.5790652e-05 1.5790652e-05 1.579062e-05 1.5790496e-05
000320 03 4d 51 37 75 08 52 37 4f e6 84 37 40 93 6c 37
       1.2475301e-05 1.25189445e-05 1.5842872e-05 1.41009805e-05
000330 49 6e 93 37 e2 cd bc 37 04 b7 c9 37 f8 93 04 38
       1.7575121e-05 2.2507218e-05 2.404629e-05 3.160906e-05
000340 00 49 68 37 25 98 84 37 66 bc 9d 37 dc 2d 0f 38
       1.3845274e-05 1.5806474e-05 1.8803588e-05 3.4136567e-05
000350 06 6b 84 37 f0 62 bb b6 63 9f b7 b6 99 49 57 36
       1.5785463e-05 -5.584552e-06 -5.47238e-06 3.2080336e-06
000360 14 39 31 b6 81 58 e6 36 ec 7e d2 37 f8 0f 0a 38
       -2.640828e-06 6.8648374e-06 2.5093053e-05 3.2916636e-05
000370 dc 57 e4 37 b7 1a 9d 37 12 76 84 37 2c 76 84 37
       2.722063e-05 1.8728299e-05 1.5790607e-05 1.5790654e-05
000380 92 87 84 37 2b 76 84 37 4c 76 84 37 26 76 84 37
       1.5798756e-05 1.5790652e-05 1.5790712e-05 1.5790643e-05
000390 e0 48 55 37 eb 81 49 37 ea df 83 37 39 f7 84 37
       1.2712757e-05 1.20107825e-05 1.5720685e-05 1.5850748e-05
0003a0 15 11 83 37 8f 97 95 37 5a e7 b6 37 09 69 da 37
       1.5624371e-05 1.783276e-05 2.1803822e-05 2.6036536e-05
0003b0 c5 7c c2 36 bf 31 d0 36 30 58 3a 37 8d 3d fa 37
       5.7961756e-06 6.2046743e-06 1.1106997e-05 2.9830984e-05
0003c0 20 1a 0c 38 39 50 5a 37 76 d9 84 b7 ca 37 01 b6
       3.3402932e-05 1.3012491e-05 -1.583689e-05 -1.9254971e-06
0003d0 24 00 cb 36 15 5a 50 37 c3 f7 d5 37 10 0a c2 37
       6.049888e-06 1.241874e-05 2.5506952e-05 2.3131288e-05
0003e0 d8 29 a8 37 ba c3 8b 37 2b 76 84 37 2b 76 84 37
       2.0046646e-05 1.6661234e-05 1.5790652e-05 1.5790652e-05
0003f0 2b 76 84 37 26 76 84 37 08 7c 84 37 75 77 84 37
       1.5790652e-05 1.5790643e-05 1.5793383e-05 1.5791253e-05

exp_avg_sq f4 [30, 784]
000000 a1 f8 1f 33 a1 f8 1f 33 a1 f8 1f 33 a1 f8 1f 33
       3.72462e-08 3.72462e-08 3.72462e-08 3.72462e-08
000010 a1 f8 1f 33 a1 f8 1f 33 a1 f8 1f 33 a1 f8 1f 33
       3.72462e-08 3.72462e-08 3.72462e-08 3.72462e-08
000020 a1 f8 1f 33 a1 f8 1f 33 a1 f8 1f 33 a1 f8 1f 33
       3.72462e-08 3.72462e-08 3.72462e-08 3.72462e-08
000030 a1 f8 1f 33 a1 f8 1f 33 a1 f8 1f 33 a1 f8 1f 33
       3.72462e-08 3.72462e-08 3.72462e-08 3.72462e-08
000040 a1 f8 1f 33 a1 f8 1f 33 a1 f8 1f 33 a1 f8 1f 33
       3.72462e-08 3.72462e-08 3.72462e-08 3.72462e-08
000050 a1 f8 1f 33 a1 f8 1f 33 a1 f8 1f 33 a1 f8 1f 33
       3.72462e-08 3.72462e-08 3.72462e-08 3.72462e-08
000060 a1 f8 1f 33 a1 f8 1f 33 a1 f8 1f 33 a1 f8 1f 33
       3.72462e-08 3.72462e-08 3.72462e-08 3.72462e-08
000070 a1 f8 1f 33 a1 f8 1f 33 a1 f8 1f 33 a1 f8 1f 33
       3.72462e-08 3.72462e-08 3.72462e-08 3.72462e-08
000080 a1 f8 1f 33 a1 f8 1f 33 a1 f8 1f 33 a1 f8 1f 33
       3.72462e-08 3.72462e-08 3.72462e-08 3.72462e-08
000090 a1 f8 1f 33 a1 f8 1f 33 a1 f8 1f 33 ac f8 1f 33
       3.72462e-08 3.72462e-08 3.72462e-08 3.7246238e-08
0000a0 b8 f8 1f 33 aa f8 1f 33 ab f7 1f 33 71 30 1f 33
       3.724628e-08 3.724623e-08 3.7245325e-08 3.706413e-08
0000b0 8d e9 1d 33 fd f7 1e 33 a1 f8 1f 33 a1 f8 1f 33
       3.6766824e-08 3.7012786e-08 3.72462e-08 3.72462e-08
0000c0 a1 f8 1f 33 a1 f8 1f 33 a1 f8 1f 33 a1 f8 1f 33
       3.72462e-08 3.72462e-08 3.72462e-08 3.72462e-08
0000d0 a1 f8 1f 33 a1 f8 1f 33 a1 f8 1f 33 a1 f8 1f 33
       3.72462e-08 3.72462e-08 3.72462e-08 3.72462e-08
0000e0 a1 f8 1f 33 a1 f8 1f 33 a1 f8 1f 33 a1 f8 1f 33
       3.72462e-08 3.72462e-08 3.72462e-08 3.72462e-08
0000f0 a1 f8 1f 33 a1 f8 1f 33 5c f8 1f 33 8a f8 1f 33
       3.72462e-08 3.72462e-08 3.7245954e-08 3.7246117e-08
000100 a0 f8 1f 33 a1 f8 1f 33 a2 f8 1f 33 a9 f8 1f 33
       3.7246195e-08 3.72462e-08 3.7246203e-08 3.7246227e-08
000110 31 bd 1f 33 03 8b 1c 33 17 ea 1e 33 59 d3 1f 33
       3.719214e-08 3.644801e-08 3.7000145e-08 3.7212292e-08
000120 83 9f 1f 33 6e f0 25 33 a9 8e 1f 33 a5 c0 1f 33
       3.7165147e-08 3.8635726e-08 3.714982e-08 3.719528e-08
000130 9b ea 1f 33 a1 f8 1f 33 a1 f8 1f 33 a1 f8 1f 33
       3.7233445e-08 3.72462e-08 3.72462e-08 3.72462e-08
000140 a1 f8 1f 33 a1 f8 1f 33 a1 f8 1f 33 a1 f8 1f 33
       3.72462e-08 3.72462e-08 3.72462e-08 3.72462e-08
000150 a1 f8 1f 33 a1 f8 1f 33 9b f8 1f 33 9f f8 1f 33
       3.72462e-08 3.72462e-08 3.7246178e-08 3.7246192e-08
000160 a1 f8 1f 33 a1 f8 1f 33 a1 f8 1f 33 c6 f7 1f 33
       3.72462e-08 3.72462e-08 3.72462e-08 3.724542e-08
000170 05 be 1f 33 7b c4 1f 33 24 e9 1f 33 db 97 1f 33
       3.7192894e-08 3.719877e-08 3.7232113e-08 3.7158184e-08
000180 b9 27 1d 33 a7 7f 1a 33 e1 ac 19 33 e7 84 1b 33
       3.659054e-08 3.597202e-08 3.578032e-08 3.6209624e-08
000190 ab ef 1d 33 00 97 1f 33 ba 73 1f 33 8e 77 1f 33
       3.6772388e-08 3.7157406e-08 3.7125325e-08 3.7128807e-08
0001a0 35 d4 1f 33 77 ee 1f 33 e7 f4 1f 33 b0 f7 1f 33
       3.7213074e-08 3.7236955e-08 3.724281e-08 3.7245343e-08
0001b0 58 f7 1f 33 43 f8 1f 33 a1 f8 1f 33 a1 f8 1f 33
       3.724503e-08 3.7245865e-08 3.72462e-08 3.72462e-08
0001c0 a1 f8 1f 33 a1 f8 1f 33 8d f8 1f 33 9b f8 1f 33
       3.72462e-08 3.72462e-08 3.7246128e-08 3.7246178e-08
0001d0 c0 f8 1f 33 25 fa 1f 33 59 f4 1f 33 f4 df 1f 33
       3.724631e-08 3.7247577e-08 3.7242305e-08 3.7223757e-08
0001e0 50 5f 21 33 b7 d3 23 33 f1 88 1e 33 0e 57 1d 33
       3.757242e-08 3.814395e-08 3.691179e-08 3.6633587e-08
0001f0 95 f9 15 33 11 ef ef 32 5c 7a eb 32 f7 22 eb 32
       3.491876e-08 2.7931977e-08 2.7413243e-08 2.73735e-08
000200 e8 4e c2 32 f4 e6 d5 32 3e 02 d1 32 f3 7a f0 32
       2.2620455e-08 2.4901489e-08 2.4331822e-08 2.7995588e-08
000210 ae 25 09 33 8c 26 17 33 2c a9 1c 33 21 ee 1e 33
       3.1932068e-08 3.5192485e-08 3.647544e-08 3.700382e-08
000220 95 b6 1f 33 97 f8 1f 33 a1 f8 1f 33 a1 f8 1f 33
       3.718613e-08 3.7246163e-08 3.72462e-08 3.72462e-08
000230 a1 f8 1f 33 a1 f8 1f 33 a0 f8 1f 33 d6 f6 1f 33
       3.72462e-08 3.72462e-08 3.7246195e-08 3.724457e-08
000240 e5 f8 1f 33 1b fa 1f 33 e1 c0 1f 33 41 0c 1d 33
       3.724644e-08 3.7247542e-08 3.7195495e-08 3.6565556e-08
000250 96 0c 21 33 7f 2a 21 33 1b 1a 20 33 b8 5b 1c 33
       3.749718e-08 3.7524384e-08 3.7276646e-08 3.6404998e-08
000260 88 5d fc 32 27 a8 bf 32 1b 64 99 32 dc 19 96 32
       2.9379194e-08 2.2311793e-08 1.7857067e-08 1.7474058e-08
000270 5a 82 a1 32 84 41 8f 32 7c f9 8a 32 89 a7 99 32
       1.8802144e-08 1.6677184e-08 1.6178767e-08 1.788773e-08
000280 ba fc ba 32 67 c5 e6 32 3d ae 08 33 6e c5 0a 33
       2.1768177e-08 2.6865292e-08 3.1823436e-08 3.231019e-08
000290 32 f0 1e 33 98 f3 1f 33 a1 f8 1f 33 a1 f8 1f 33
       3.7005698e-08 3.724162e-08 3.72462e-08 3.72462e-08
0002a0 a1 f8 1f 33 a1 f8 1f 33 a1 f8 1f 33 6b f8 1f 33
       3.72462e-08 3.72462e-08 3.72462e-08 3.7246007e-08
0002b0 58 f9 1f 33 77 f0 1f 33 89 5d 1e 33 53 16 17 33
       3.724685e-08 3.7238774e-08 3.687231e-08 3.517773e-08
0002c0 a4 3b 17 33 45 ee 1a 33 43 54 18 33 3a 5c 13 33
       3.521167e-08 3.6072624e-08 3.5466893e-08 3.4309984e-08
0002d0 11 8b e9 32 12 75 a0 32 89 d1 8b 32 93 81 b2 32
       2.718801e-08 1.8679689e-08 1.6277015e-08 2.078085e-08
0002e0 d3 a5 8b 32 e3 a6 a6 32 27 c2 98 32 90 82 9d 32
       1.6257138e-08 1.9400835e-08 1.778342e-08 1.8336578e-08
0002f0 3f e6 aa 32 20 af d1 32 ac 67 01 33 7e 27 15 33
       1.9895309e-08 2.441044e-08 3.0129442e-08 3.4727684e-08
000300 34 25 1d 33 97 e5 1f 33 ef f7 1f 33 a1 f8 1f 33
       3.6588247e-08 3.7228883e-08 3.7245567e-08 3.72462e-08
000310 a1 f8 1f 33 a1 f8 1f 33 a3 f8 1f 33 95 f8 1f 33
       3.72462e-08 3.72462e-08 3.7246206e-08 3.7246156e-08
000320 ea d6 1c 33 93 48 1c 33 af 0c 1b 33 57 b2 13 33
       3.6517044e-08 3.6387586e-08 3.6100285e-08 3.4388304e-08
000330 85 18 15 33 37 53 10 33 fb 84 0b 33 0a 8d 06 33
       3.4714066e-08 3.3603296e-08 3.2484404e-08 3.132758e-08
000340 39 8b c8 32 21 81 9d 32 05 e9 9d 32 50 ae af 32
       2.3346375e-08 1.8335927e-08 1.838317e-08 2.045195e-08
000350 2e d1 99 32 e8 a2 93 32 7c f1 8e 32 5d 0a 94 32
       1.7906668e-08 1.7187133e-08 1.664079e-08 1.723418e-08
000360 65 79 a2 32 43 b4 cc 32 59 23 fd 32 58 e5 16 33
       1.8914486e-08 2.38307e-08 2.946915e-08 3.5133183e-08
000370 42 9b 18 33 8d 94 1b 33 a2 f8 1f 33 a1 f8 1f 33
       3.5531464e-08 3.6223856e-08 3.7246203e-08 3.72462e-08
000380 f5 f5 1f 33 a1 f8 1f 33 9e f8 1f 33 a0 f8 1f 33
       3.724377e-08 3.72462e-08 3.724619e-08 3.7246195e-08
000390 b1 ee 1c 33 74 93 1b 33 98 8a 17 33 e1 cd 0f 33
       3.653867e-08 3.6222858e-08 3.5283477e-08 3.3482028e-08
0003a0 b9 53 0b 33 af ae 06 33 78 39 01 33 ab af ef 32
       3.2439605e-08 3.135818e-08 3.008742e-08 2.7903146e-08
0003b0 5e 06 97 32 78 7a 8a 32 d9 b9 96 32 54 f4 a0 32
       1.7581609e-08 1.6121007e-08 1.7546812e-08 1.8737559e-08
0003c0 53 7f b8 32 84 bd a6 32 7f c8 77 32 05 ac 85 32
       2.147832e-08 1.9411125e-08 1.442288e-08 1.5561463e-08
0003d0 cf 45 b6 32 ba d2 dc 32 95 e8 02 33 d9 44 19 33
       2.1219334e-08 2.5707198e-08 3.0479516e-08 3.5685705e-08
0003e0 c9 44 1b 33 b9 d2 1d 33 a1 f8 1f 33 a1 f8 1f 33
       3.615131e-08 3.6746062e-08 3.72462e-08 3.72462e-08
0003f0 a1 f8 1f 33 a0 f8 1f 33 f8 f8 1f 33 b3 f8 1f 33
       3.72462e-08 3.7246195e-08 3.7246508e-08 3.7246263e-08

exp_avg f4 [30]
000000 2b 76 84 b7 0d fa 8a 37 0f d4 33 b7 81 49 60 37
       -1.5790652e-05 1.6567321e-05 -1.0718605e-05 1.3368554e-05
000010 27 52 86 37 6a f3 4a 37 d8 04 0b b8 00 00 00 00
       1.60123e-05 1.20968125e-05 -3.3144694e-05 0.0
000020 3a d6 c1 37 00 00 00 00 1a 9d 5d 37 7f 18 6d 37
       2.310715e-05 0.0 1.3209205e-05 1.4132004e-05
000030 6f e3 28 b7 00 00 00 00 90 28 3b 37 00 00 00 00
       -1.0066534e-05 0.0 1.1155513e-05 0.0
000040 3d 1c c1 b7 00 00 00 00 00 00 00 00 99 55 c5 37
       -2.3020542e-05 0.0 0.0 2.352409e-05
000050 fd 6f ae b7 00 00 00 00 eb 28 bd 37 30 67 a9 37
       -2.0794565e-05 0.0 2.254961e-05 2.019442e-05
000060 8f 7c be 37 11 ab 4f 37 d8 17 f7 37 00 00 00 00
       2.2707767e-05 1.2377991e-05 2.9455798e-05 0.0
000070 ce c0 26 b7 bc c9 11 b8
       -9.939262e-06 -3.4758574e-05

exp_avg_sq f4 [30]
000000 a1 f8 1f 33 b2 5d 25 33 d4 1e 60 32 6f b4 ba 32
       3.72462e-08 3.850227e-08 1.30455255e-08 2.1735302e-08
000010 79 ff 10 33 26 6d 8d 32 d3 6b 19 34 00 00 00 00
       3.3759964e-08 1.6464195e-08 1.4288462e-07 0.0
000020 9c 84 ad 33 00 00 00 00 98 f3 a5 32 57 5a d5 32
       8.080062e-08 0.0 1.9319302e-08 2.4837545e-08
000030 9c 04 52 32 00 00 00 00 aa 71 75 32 00 00 00 00
       1.2224657e-08 0.0 1.4286721e-08 0.0
000040 0d a6 af 33 00 00 00 00 00 00 00 00 69 30 b5 33
       8.179277e-08 0.0 0.0 8.437275e-08
000050 f0 71 8b 33 00 00 00 00 8a 37 a1 33 d8 8a 75 33
       6.493417e-08 0.0 7.507249e-08 5.7169785e-08
000060 c2 a2 99 33 eb ea 92 32 24 5a 0e 34 00 00 00 00
       7.154223e-08 1.7103465e-08 1.3257574e-07 0.0
000070 f1 87 5c 32 08 71 49 34
       1.2836595e-08 1.8760704e-07

exp_avg f4 [2, 30]
000000 2c 5b 27 3a 5d a4 3f b9 16 9d 59 3a 2d 6e 69 b9
       0.000638413 -0.0001827641 0.00083013007 -0.00022261655
000010 13 04 72 b9 c3 af 8d b9 6a 49 34 3a 00 00 00 00
       -0.00023080436 -0.00027024568 0.00068773946 0.0
000020 e6 7f ea b8 00 00 00 00 22 ee bd b9 23 0a 83 b9
       -0.000111818124 0.0 -0.00036226312 -0.0002499382
000030 59 4e 49 3a 00 00 00 00 c3 38 70 b9 00 00 00 00
       0.0007679216 0.0 -0.00022909329 0.0
000040 62 49 30 3a 00 00 00 00 00 00 00 00 7e 16 03 b9
       0.0006724802 0.0 0.0 -0.00012501513
000050 63 33 14 3a 00 00 00 00 1d de 91 b9 ad b9 e2 b8
       0.0005653409 0.0 -0.00027822042 -0.000108111046
000060 41 b4 89 b9 28 d6 76 b9 31 c8 31 b9 00 00 00 00
       -0.00026264976 -0.00023540168 -0.00016954613 0.0
000070 d3 86 44 3a c0 9c 05 3a 2c 5b 27 ba 1b a7 3f 39
       0.0007496897 0.0005096905 -0.000638413 0.00018277431
000080 1a 9d 59 ba 30 71 69 39 d0 06 72 39 65 b1 8d 39
       -0.0008301303 0.00022262777 0.00023081456 0.00027025785
000090 63 49 34 ba 00 00 00 00 b9 85 ea 38 00 00 00 00
       -0.00068773906 0.0 0.00011182897 0.0
0000a0 4c f0 bd 39 ba 0b 83 39 5e 4e 49 ba 00 00 00 00
       0.00036227924 0.00024995004 -0.0007679219 0.0
0000b0 0b 3c 70 39 00 00 00 00 68 49 30 ba 00 00 00 00
       0.00022910551 0.0 -0.00067248056 0.0
0000c0 00 00 00 00 53 19 03 39 67 33 14 ba 00 00 00 00
       0.0 0.00012502568 -0.00056534115 0.0
0000d0 bf df 91 39 95 c0 e2 38 b6 b5 89 39 68 d9 76 39
       0.0002782326 0.00010812391 0.00026266061 0.00023541378
0000e0 40 cb 31 39 00 00 00 00 d9 86 44 ba c8 9c 05 ba
       0.00016955752 0.0 -0.00074969005 -0.00050969096

exp_avg_sq f4 [2, 30]
000000 30 07 8b 37 7e 59 a6 36 f8 5d aa 37 6c 14 9c 36
       1.6573438e-05 4.957604e-06 2.0309337e-05 4.6515397e-06
000010 39 91 aa 36 bf fb 0b 37 6c 09 99 36 00 00 00 00
       5.083301e-06 8.34366e-06 4.560852e-06 0.0
000020 a1 36 ac 36 00 00 00 00 83 65 95 37 63 6e a1 36
       5.132359e-06 0.0 1.7809454e-05 4.8110246e-06
000030 ed ea a0 37 00 00 00 00 58 14 f4 36 00 00 00 00
       1.9182882e-05 0.0 7.274135e-06 0.0
000040 c1 28 c0 37 00 00 00 00 00 00 00 00 9f 60 ae 36
       2.2907161e-05 0.0 0.0 5.1968523e-06
000050 7e 54 6e 37 00 00 00 00 e8 16 60 37 fc 80 87 36
       1.4205578e-05 0.0 1.3356774e-05 4.0383293e-06
000060 30 a1 ad 36 06 22 a4 36 b7 42 9c 36 00 00 00 00
       5.1745665e-06 4.8915417e-06 4.656929e-06 0.0
000070 a4 2b ae 37 69 b5 63 37 32 07 8b 37 7f 59 a6 36
       2.0762738e-05 1.3572492e-05 1.6573442e-05 4.9576042e-06
000080 f2 5d aa 37 6e 14 9c 36 3c 91 aa 36 c5 fb 0b 37
       2.0309326e-05 4.6515406e-06 5.0833023e-06 8.343665e-06
000090 68 09 99 36 00 00 00 00 a3 36 ac 36 00 00 00 00
       4.5608504e-06 0.0 5.13236e-06 0.0
0000a0 8a 65 95 37 6a 6e a1 36 ea ea a0 37 00 00 00 00
       1.7809467e-05 4.811028e-06 1.9182877e-05 0.0
0000b0 5a 14 f4 36 00 00 00 00 c0 28 c0 37 00 00 00 00
       7.274136e-06 0.0 2.290716e-05 0.0
0000c0 00 00 00 00 9e 60 ae 36 7b 54 6e 37 00 00 00 00
       0.0 5.196852e-06 1.4205575e-05 0.0
0000d0 f1 16 60 37 02 81 87 36 35 a1 ad 36 0b 22 a4 36
       1.3356782e-05 4.038332e-06 5.1745687e-06 4.891544e-06
0000e0 b8 42 9c 36 00 00 00 00 a5 2b ae 37 67 b5 63 37
       4.6569294e-06 0.0 2.076274e-05 1.357249e-05

exp_avg f4 [2]
000000 e8 66 a5 38 02 66 a5 b8
       7.886981e-05 -7.8868135e-05

exp_avg_sq f4 [2]
000000 07 fd 87 35 09 fd 87 35
       1.0131924e-06 1.0131927e-06
