nesy/1ccfzsnc/checkpoints/epoch=9-step=120.ckpt (torch, 291235 bytes, 12 tensors)

neural_predicates.digit.net.0.weight f4 [30, 784]
000000 59 1d 04 ba ed c1 72 bc b6 bf 9e bc 55 5c 92 3c
       -0.00050397735 -0.014816743 -0.019378524 0.017866293
000010 10 52 d8 bc 01 46 09 3d 0c 7b 16 bc 22 52 71 bc
       -0.026406318 0.033514027 -0.00918461 -0.014729055
000020 46 1d 1e 3c d0 1c bd bb e5 5e 7c bc ed d4 a8 bc
       0.009650534 -0.005771257 -0.015403484 -0.020609343
000030 b7 34 a2 3c 9e 1b d2 bb 65 9e 60 bc 2d 88 7d bc
       0.019800527 -0.0064119836 -0.013709639 -0.015474361
000040 fd 0c 3f bc 2c 0c 2f bb 1b 2d d2 bc f9 22 ca 3c
       -0.0116608115 -0.0026710136 -0.025656274 0.02467488
000050 43 42 01 3d 1c dd 85 bc 2f 6c c1 bc 09 26 2c bc
       0.031557333 -0.016340785 -0.023611156 -0.010507115
000060 ed 8c 22 3d 6e 3d 9f bc ab 34 54 3c 64 e0 d8 bb
       0.03968518 -0.019438472 0.01295201 -0.0066185463
000070 4d 76 e6 bc e7 e5 d5 3c 19 0a 61 ba 80 b4 b5 bb
       -0.028132582 0.026110603 -0.00085845735 -0.005545199
000080 f2 a2 53 bc e3 95 29 3b 35 b0 ea bc ad 22 65 bc
       -0.012917267 0.0025876693 -0.028648475 -0.013985318
000090 60 5a d0 3b 73 30 97 bc 1c b5 ee bb c0 6d 0f 3d
       0.00635843 -0.01845572 -0.0072847735 0.035016775
0000a0 8a 7b 1a 3c 44 be af 3b cd f6 13 3d 5f 93 0b 3d
       0.009428868 0.0053632576 0.03612404 0.03407609
0000b0 96 36 20 bb 5f 4b f7 3c d2 33 ba bb f1 9c 46 3c
       -0.0024446598 0.030187307 -0.005682447 0.012122379
0000c0 0d 3e e4 3c db 76 c4 3c 8d 58 eb bc cf 58 9b 3c
       0.02786162 0.023982456 -0.028728748 0.018963246
0000d0 2d 71 24 3c f9 5a b2 3c 61 94 10 3d d6 b8 8f b9
       0.010036749 0.021771895 0.035297755 -0.000274128
0000e0 56 dc b2 bc 1f c0 ae 3c 0e 33 a7 bb 77 4f 1d 3d
       -0.02183358 0.021331845 -0.0051025217 0.03840586
0000f0 aa a5 20 3d 59 04 73 3c 0e f2 72 bb 47 c9 7c bc
       0.03922049 0.0148325795 -0.0037070545 -0.015428848
000100 75 29 0b 3c 07 db 8b 3c 54 7e 4b 3b a0 c6 0f 3d
       0.008493771 0.017072214 0.003105064 0.035101533
000110 d5 e6 fe 3c da 7c e2 bc d6 ec c8 3b 80 93 9e bb
       0.031115929 -0.027647424 0.0061317487 -0.0048393607
000120 47 95 cd bc c5 4e 16 3c ad c4 b2 3c 9e 20 94 3c
       -0.025095595 0.009174054 0.021822298 0.01808196
000130 6a f7 bc bc 9c 1a d0 3b c8 8e 09 3d dd 90 9d 3c
       -0.023067195 0.0063508283 0.033583432 0.019234115
000140 25 a5 4f 3c ed 66 36 3c 41 58 97 bc c9 91 7e 3c
       0.012673651 0.011132938 -0.0184747 0.015537688
000150 21 b2 46 bc 47 48 55 bc b7 f6 83 3b 26 6a 23 3d
       -0.01212743 -0.013017721 0.0040272134 0.039896153
000160 d0 41 ee bc c4 72 47 bb d5 c1 a7 3c 3c 28 11 3d
       -0.029084116 -0.0030433396 0.020478169 0.03543876
000170 31 26 d8 3b ca 2c 47 bd 16 f7 d9 bb d0 9e 4b bc
       0.0065963496 -0.0486267 -0.0066517694 -0.012428001
000180 6d 05 0d bc 2b 57 07 bd b3 77 b7 bc 6b 6a e9 bc
       -0.008607251 -0.033042114 -0.022395944 -0.028493127
000190 d1 99 7c 3b ee 1a 2f 3c b7 12 14 bd 2a 42 3d 3c
       0.003854383 0.010687573 -0.03615066 0.011551419
0001a0 b7 ae 05 3d 6f bc ee 3c 0f 5e af bc 27 83 3f bc
       0.032637324 0.029142587 -0.021407155 -0.011688984
0001b0 fb 63 3c bc 90 a9 11 3d 70 cc df bc c4 ce b7 3c
       -0.011498447 0.035562098 -0.027319163 0.02243746
0001c0 24 3b 12 3d 88 fb 73 bc fc 49 ef bc d5 da a6 3c
       0.035700932 -0.014891513 -0.029210083 0.02036802
0001d0 31 fe 80 bc 2a 86 e5 bc 27 25 6f 3b 48 10 51 bc
       -0.015746208 -0.028018076 0.003649065 -0.012760229
0001e0 68 62 eb bb 55 f0 79 bd b8 64 37 bd cb 48 1d bd
       -0.007183362 -0.061020214 -0.044773787 -0.0383995
0001f0 ac 88 b5 bd 59 98 ab bc 1f e1 8c bd a8 47 8b bd
       -0.08863959 -0.020946668 -0.06878876 -0.06800777
000200 c7 90 51 bd 83 a2 47 3c 06 d4 de 3c ac b8 c5 3c
       -0.05116346 0.012184742 0.02720071 0.02413591
000210 dc 23 8c 3c e6 07 08 3d 2f cb 71 3c 89 48 fb 3c
       0.017106943 0.033210658 0.014757915 0.030674236
000220 5f ba 94 3c ec e3 f1 3c 39 bb e1 bc 8a f4 ac 3c
       0.018155275 0.029527627 -0.027555095 0.021112699
000230 88 f2 f4 bb 2a 17 fa 3c fe 1a 9f bc 59 d4 2b 3c
       -0.007475201 0.030528624 -0.01942205 0.010487639
000240 02 43 d6 bc 51 dc 00 3d f9 b6 f7 bc eb 63 da bc
       -0.026154999 0.03146011 -0.030238615 -0.026658973
000250 a9 a7 62 bd 2b 45 b5 bd d2 e8 8a bd 19 c4 23 bd
       -0.055335674 -0.08851083 -0.06782688 -0.039981935
000260 d1 83 63 bd 12 fd 84 bd 1f eb 95 bd 6a a8 a4 bc
       -0.05554563 -0.06493582 -0.073202364 -0.020099837
000270 62 3b 5b bd 57 d0 39 bd e0 a6 50 3d 6b 26 cd 3b
       -0.05352343 -0.045364704 0.050940394 0.0062606833
000280 0c f0 9d 3c d0 da d2 3c 0f 4a 90 3b ab bc f7 3c
       0.019279502 0.025739104 0.0044033597 0.030241331
000290 ba b3 84 bc f0 21 f6 ba b2 72 ac 3a b9 28 d9 bc
       -0.016198982 -0.0018778425 0.001315674 -0.026508676
0002a0 87 75 ab bb a7 0c 15 3c bf a3 e5 3c 90 25 95 bc
       -0.005232516 0.009097255 0.028032182 -0.018206388
0002b0 94 82 0a 3c f4 da 4d 39 b8 a1 33 bd ee 11 24 bd
       0.008453984 0.0001963189 -0.0438554 -0.04005616
0002c0 0a 43 9d bd 1a c0 13 bd 11 60 70 bd c3 18 df bc
       -0.07678802 -0.036071874 -0.058685366 -0.027233487
0002d0 a6 e1 ab bd b3 a5 5a bd 37 0f a4 bc e1 ea e2 bc
       -0.083926484 -0.05338068 -0.020026786 -0.02769989
0002e0 a8 d5 ba bd e2 59 47 bb de 1c c1 3b cf 41 f0 3c
       -0.09122783 -0.0030418565 0.005893334 0.029328255
0002f0 50 7a 2c 3d 1c 18 1c 3d 97 a6 71 bc f1 b3 0e bc
       0.042108834 0.03810893 -0.014749191 -0.008709894
000300 35 98 ed 3c 27 c7 23 bb 08 ae 88 3c 69 7a e1 bc
       0.029003242 -0.002499053 0.016684547 -0.02752419
000310 65 10 11 3d 36 c6 9c bc d6 ff d8 3c f2 88 1f 3d
       0.035416026 -0.019137483 0.02648918 0.03894896
000320 a7 f2 aa 3c eb 7d 25 bd c6 07 74 bd 58 6b 36 bd
       0.020867659 -0.040403288 -0.059577726 -0.044535965
000330 b5 cf bc bc 51 80 f2 bc 1f cc 89 bd 25 2d 12 bd
       -0.023048261 -0.029602202 -0.06728386 -0.035687584
000340 fd 35 38 bc 66 1a 86 bc c9 32 53 bd c5 4b 38 bd
       -0.011243341 -0.01637001 -0.051562104 -0.044994134
000350 a2 37 62 bd 48 fb f8 bc 91 c4 c1 3b 68 ae 19 3c
       -0.055228837 -0.030393258 0.005913325 0.009379961
000360 f2 b7 32 3c a9 2c 56 3c d9 45 eb bc 1d 7c cd 3c
       0.010908114 0.013072171 -0.02871983 0.025083596
000370 c9 b4 35 bc 9f 8c f9 3c 5c c1 dd 3c 76 86 09 bc
       -0.011090466 0.030462561 0.02706974 -0.008393874
000380 9c 28 e7 bc b9 65 61 3b 5a af 14 3c 77 e7 a6 3c
       -0.028217606 0.0034392907 0.00907501 0.020374043
000390 27 fe 17 3d 5c 5b b6 bc 3e 5e 4b bc 7b c8 a0 bd
       0.037107613 -0.02226036 -0.012412606 -0.078507386
0003a0 dc 9a 06 bd ca 30 8d bd dd 8e 3d bd 52 a4 7f bd
       -0.03286253 -0.068940714 -0.046278823 -0.062412567
0003b0 56 5f 8b bc bf ed 05 bc 29 cf ae 3d b9 bb 47 3c
       -0.017013233 -0.008174359 0.085356064 0.012190753
0003c0 e2 9d 5f 3d 82 6c 03 bd 7c d6 82 3b bc 26 84 3b
       0.05459393 -0.032085903 0.0039928537 0.004032938
0003d0 45 06 1e bd c9 21 50 bd bf f7 5f bd f9 5e 72 3b
       -0.038580198 -0.05081347 -0.05467963 0.0036982878
0003e0 c9 db d7 bc 76 8e 4d bb 63 a4 66 ba b1 ce f2 3b
       -0.026349919 -0.003136543 -0.0008798299 0.0074098934
0003f0 62 92 b1 3b 4e a4 eb 39 2a b5 2d 3c a9 97 24 bc
       0.0054190615 0.0004494511 0.010602275 -0.010045924

neural_predicates.digit.net.0.bias f4 [30]
000000 75 fd 80 3c 8d f4 54 3c 3d ef 3b 3b 64 8c 3a 3b
       0.015745858 0.012997759 0.0028676533 0.0028465027
000010 c5 76 9d 3c 8f f0 d4 3c ee 42 28 3a ed 8e 83 bc
       0.019221673 0.025993614 0.00064186647 -0.016059363
000020 f4 fa bd 3b 4d aa f5 bc 84 7e 8d 3c 8d 01 1e 3d
       0.005797738 -0.029988432 0.017272241 0.038575698
000030 4c 7d d1 3c e2 ec b1 bb c5 c6 04 bd c2 90 77 bc
       0.025572442 -0.00542985 -0.032416124 -0.015110197
000040 f4 4d 25 3c f8 5a 1a bd 76 7d b3 bb 88 af e3 3c
       0.010089386 -0.03768441 -0.0054776026 0.02779366
000050 91 ab 0e bd b7 38 44 bc 81 ed 9b 3c d7 76 06 bd
       -0.034831587 -0.0119764125 0.01903415 -0.03282818
000060 7e a7 e8 bc a6 80 18 3d 66 42 3f 3d 7e fb 56 bc
       -0.028400179 0.037232064 0.04669418 -0.013121484
000070 24 9d a6 bb d3 41 28 bd
       -0.0050846506 -0.0410784

neural_predicates.digit.net.2.weight f4 [4, 30]
000000 55 e3 f4 bd af a3 2f 3e 4f 51 0b 3d 92 90 b1 3d
       -0.11957423 0.17152284 0.03401309 0.08670153
000010 03 a8 09 bd 7a 73 21 bd 4a 32 4f 3e 6f ba 6c bd
       -0.033607494 -0.039416768 0.20234028 -0.057794984
000020 96 7b 41 3e 40 2a 75 bd bb 28 90 bd 37 9b 5e 3e
       0.188948 -0.059854746 -0.07039019 0.21738897
000030 77 f2 f2 bd 88 af 19 3e 3d bb 75 3c 4f 62 0a be
       -0.11862653 0.15008366 0.014998254 -0.13514064
000040 40 fe 5d 3e 27 97 1d be cb 8e 4a be e6 ba 9c bd
       0.2167902 -0.15389691 -0.19781034 -0.076528355
000050 4f 39 37 bd 56 60 24 be 3f e6 03 be 4d 82 09 3e
       -0.044732388 -0.16052374 -0.128808 0.13428612
000060 ef d1 3f bd 48 5f 7a be 67 ec 1a bd 28 df 4a be
       -0.046831068 -0.2445041 -0.037823107 -0.1981169
000070 a6 88 15 bd 17 55 c2 3d 76 74 1a 3e ce 0d 99 bd
       -0.03650727 0.09488886 0.15083489 -0.07473336
000080 79 65 f9 bb ac 9c 86 bd 01 7a 4f 3e 1d ae 35 bd
       -0.0076109734 -0.065728515 0.20261385 -0.0443555
000090 69 9c 4d be 4f 1e 30 3e 27 47 8b 3d f1 ec 7c 3c
       -0.20079197 0.17199062 0.068006806 0.015437351
0000a0 41 3e c5 3d b3 a7 1b 3e 61 a1 32 3e 19 e1 8b 3d
       0.096310146 0.15200691 0.17444374 0.06830043
0000b0 bf 60 86 3d ca d9 60 3e 13 91 4b be 91 65 fa 3d
       0.065614216 0.2195808 -0.1987956 0.122264035
0000c0 88 5f 89 bd f1 30 fa 3d af e5 06 3e af d7 34 bd
       -0.06707674 0.12216366 0.13173555 -0.044151004
0000d0 ac a4 97 bd 9a 4d 4f 3d 7b f9 27 3e ad 6b a0 3d
       -0.074044555 0.050611116 0.16403763 0.078330375
0000e0 bc 99 de bd 4e 2a 51 bc 2d bd 09 3c 11 b7 ee bd
       -0.10869166 -0.012766434 0.008406919 -0.11656011
0000f0 09 06 3d be 77 83 e9 3d 4c 93 2d 39 47 cc a8 3d
       -0.18459333 0.11402028 0.00016553438 0.08242088
000100 35 dd 5c 3e 6b 12 2d 3e b1 b8 f0 3c 68 24 cf bc
       0.21568759 0.16901557 0.029384943 -0.025285915
000110 d3 6f 1d be 1e 3c 93 3d 15 1f da 3c cc 03 42 be
       -0.15374689 0.07189201 0.02662615 -0.18946761
000120 fe e4 a2 3d 50 3f 35 3e 90 3a 10 be 15 47 d5 3c
       0.07953833 0.17699933 -0.1408484 0.026034871
000130 d6 ec 3b 3e 86 86 19 3d b6 20 3f be 14 17 59 be
       0.18352064 0.037481807 -0.18664822 -0.2120021
000140 5b 4c d7 bd de 69 a1 bc 95 1c 5d 3c 5d 84 10 3d
       -0.105126105 -0.019703802 0.013495584 0.03528248
000150 0b 59 7e bb 79 e3 1d 3d 26 37 11 3d da c1 36 3e
       -0.0038810398 0.038547013 0.035452984 0.17847386
000160 75 5e b2 3d f2 f1 15 be 4d e3 89 3c fc 6d a3 3d
       0.087094225 -0.14643076 0.016832018 0.07979962
000170 cd ab 20 3e e7 1c af 3d 35 2a 8a bd bb 88 f7 3d
       0.15690537 0.085504346 -0.067463316 0.12086626
000180 54 2b 1a 3e 1f 01 91 3d a9 af 49 be dc 82 33 be
       0.15055591 0.07080292 -0.19695915 -0.17530388
000190 fe 0c d0 3d e3 03 18 3e 68 88 d2 bd 8d d7 6f be
       0.10158728 0.14845233 -0.10279924 -0.2342207
0001a0 18 80 cf 3d e6 be 6b be 49 5a a1 3c c3 66 2f 3d
       0.10131854 -0.2302204 0.019696372 0.04282261
0001b0 96 ca 72 3e c8 8a 2f 3e 51 5d dd bd 7a 84 e6 3d
       0.23710093 0.17142785 -0.10808814 0.11255737
0001c0 ba 34 07 3e c7 c4 27 3e df a1 17 be db 64 9e bd
       0.13203707 0.16383658 -0.14807843 -0.077340804
0001d0 0d 03 ab 3c 4b 5d 98 3d 38 bb 29 be a9 3b 2e be
       0.020875478 0.07439669 -0.16575325 -0.17014946

neural_predicates.digit.net.2.bias f4 [4]
000000 1b e8 c3 3c 17 60 dc 3d cd 72 5c 3d 83 2b 0a 3e
       0.023914387 0.10760515 0.05382042 0.13493161

exp_avg f4 [30, 784]
000000 79 10 7e 3a 79 10 7e 3a 79 10 7e 3a 79 10 7e 3a
       0.00096917857 0.00096917857 0.00096917857 0.00096917857
000010 79 10 7e 3a 79 10 7e 3a 79 10 7e 3a 79 10 7e 3a
       0.00096917857 0.00096917857 0.00096917857 0.00096917857
000020 79 10 7e 3a 79 10 7e 3a 79 10 7e 3a 79 10 7e 3a
       0.00096917857 0.00096917857 0.00096917857 0.00096917857
000030 13 11 7e 3a 7a 1d 7e 3a 7a 1d 7e 3a 05 11 7e 3a
       0.00096918753 0.00096937234 0.00096937234 0.0009691867
000040 79 10 7e 3a 79 10 7e 3a 79 10 7e 3a 79 10 7e 3a
       0.00096917857 0.00096917857 0.00096917857 0.00096917857
000050 79 10 7e 3a 79 10 7e 3a 79 10 7e 3a 79 10 7e 3a
       0.00096917857 0.00096917857 0.00096917857 0.00096917857
000060 79 10 7e 3a 79 10 7e 3a 79 10 7e 3a 79 10 7e 3a
       0.00096917857 0.00096917857 0.00096917857 0.00096917857
000070 79 10 7e 3a 79 10 7e 3a 79 10 7e 3a 79 10 7e 3a
       0.00096917857 0.00096917857 0.00096917857 0.00096917857
000080 79 10 7e 3a 79 10 7e 3a 79 10 7e 3a 79 10 7e 3a
       0.00096917857 0.00096917857 0.00096917857 0.00096917857
000090 79 10 7e 3a 6d 74 7e 3a 7b cc 7e 3a c5 1f 7f 3a
       0.00096917857 0.000970668 0.0009719801 0.0009732212
0000a0 38 27 7f 3a 52 ad 7e 3a 4a 49 6d 3a a0 a4 6c 3a
       0.0009733322 0.0009715158 0.00090517534 0.00090272166
0000b0 45 1e 85 3a 56 95 81 3a 79 10 7e 3a 79 10 7e 3a
       0.0010156116 0.0009886425 0.00096917857 0.00096917857
0000c0 79 10 7e 3a 79 10 7e 3a 79 10 7e 3a 79 10 7e 3a
       0.00096917857 0.00096917857 0.00096917857 0.00096917857
0000d0 79 10 7e 3a 79 10 7e 3a 79 10 7e 3a 79 10 7e 3a
       0.00096917857 0.00096917857 0.00096917857 0.00096917857
0000e0 79 10 7e 3a 79 10 7e 3a 79 10 7e 3a 79 10 7e 3a
       0.00096917857 0.00096917857 0.00096917857 0.00096917857
0000f0 79 10 7e 3a 79 10 7e 3a 79 10 7e 3a bd 16 7e 3a
       0.00096917857 0.00096917857 0.00096917857 0.00096927193
000100 83 4c 84 3a c4 b7 8a 3a df 88 86 3a 5b a9 8b 3a
       0.0010093603 0.0010583331 0.001026418 0.001065533
000110 ff a1 97 3a fe 5d a4 3a 8d 0f 7f 3a ed 38 5d 3a
       0.0011568664 0.0012540219 0.0009729795 0.00084389636
000120 a6 0a 6d 3a b0 7e 75 3a e1 79 6d 3a 09 4d 77 3a
       0.0009042419 0.0009364886 0.0009058994 0.00094337814
000130 ff 43 7d 3a 79 10 7e 3a 79 10 7e 3a 62 42 7e 3a
       0.0009661316 0.00096917857 0.00096917857 0.0009699223
000140 02 27 7e 3a 79 10 7e 3a 79 10 7e 3a 79 10 7e 3a
       0.00096951437 0.00096917857 0.00096917857 0.00096917857
000150 79 10 7e 3a 79 10 7e 3a 79 10 7e 3a 79 10 7e 3a
       0.00096917857 0.00096917857 0.00096917857 0.00096917857
000160 5c 11 7e 3a 35 46 7f 3a e0 5f 80 3a 87 ae 85 3a
       0.0009691918 0.00097379397 0.0009794198 0.0010199108
000170 39 b0 9b 3a 7b c9 c7 3a 9c b5 d2 3a 62 6a d1 3a
       0.001187808 0.0015242541 0.0016075852 0.0015977139
000180 b1 a7 9c 3a 6a cc 9b 3a 75 74 26 3a 24 78 ad 39
       0.0011951831 0.0011886482 0.0006349751 0.00033086643
000190 e1 29 16 3a ec f3 26 3a a4 f7 11 3a 72 14 14 3a
       0.00057282863 0.00063687447 0.00055682124 0.00056487985
0001a0 58 cc 0a 3a 23 46 51 3a 14 f8 79 3a 6a 05 7c 3a
       0.0005294732 0.00079831685 0.0009535563 0.0009613844
0001b0 b6 18 7e 3a 79 10 7e 3a 79 10 7e 3a 79 10 7e 3a
       0.0009693013 0.00096917857 0.00096917857 0.00096917857
0001c0 79 10 7e 3a 79 10 7e 3a 79 10 7e 3a 0d 95 77 3a
       0.00096917857 0.00096917857 0.00096917857 0.00094445125
0001d0 8a fc 61 3a d5 5c 55 3a c9 53 74 3a bf 20 95 3a
       0.00086207 0.0008139138 0.0009320346 0.0011377557
0001e0 8b c6 8d 3a 7b 1f aa 3a 04 41 a8 3a 18 06 ae 3a
       0.0010816617 0.0012979353 0.0012836759 0.0013276963
0001f0 e5 6e 47 3a 55 d2 0d b9 a5 02 ec b9 58 ab d3 b9
       0.0007607772 -0.00013525163 -0.00045015398 -0.00040372717
000200 e3 0d 6b 39 14 01 c9 39 15 e0 cb 39 73 9f ab 39
       0.0002241652 0.0003833851 0.0003888613 0.0003273446
000210 c8 92 85 39 d8 b5 49 39 0d a7 47 3a cc 60 89 3a
       0.00025477097 0.00019236596 0.000761614 0.0010481118
000220 0d 2d 8a 3a 06 95 7e 3a 79 10 7e 3a 79 10 7e 3a
       0.0010541991 0.0009711537 0.00096917857 0.00096917857
000230 79 10 7e 3a 79 10 7e 3a 9c 81 7d 3a 46 7f 7f 3a
       0.00096917857 0.00096917857 0.00096704974 0.0009746443
000240 3f d6 7b 3a d7 ac 82 3a 48 ab 86 3a 96 71 96 3a
       0.00096068153 0.0009969723 0.0010274434 0.0011477943
000250 c3 02 9f 3a 2b 0a 86 3a 65 f5 b4 3a af da e2 3a
       0.001213156 0.0010226419 0.0013806043 0.0017307604
000260 89 51 af 3a a8 ee 0f 3a 9e 71 f4 38 2e 68 9c b9
       0.001337574 0.00054905796 0.000116559895 -0.0002983226
000270 b8 6b 8f 39 3b eb e2 b7 ea 25 ab b6 58 88 80 39
       0.00027355342 -2.7050837e-05 -5.100611e-06 0.00024515647
000280 73 d5 b6 39 c7 07 c9 39 6a 4d 72 3a 30 44 86 3a
       0.00034872777 0.00038343502 0.0009243103 0.001024371
000290 49 a8 82 3a 8b 9e 7f 3a e6 f9 7d 3a 79 10 7e 3a
       0.0009968366 0.0009751103 0.0009688422 0.00096917857
0002a0 79 10 7e 3a 79 10 7e 3a 28 cb 7a 3a c2 ed 76 3a
       0.00096917857 0.00096917857 0.0009567016 0.0009419584
0002b0 29 33 76 3a 50 57 8d 3a 04 91 8a 3a 8d d3 c2 3a
       0.0009391779 0.0010783467 0.0010571782 0.0014864072
0002c0 11 53 99 3a 41 d7 ed 39 db 4a 9f 39 43 d7 a1 39
       0.0011697729 0.0004536454 0.00030382615 0.00030868695
0002d0 5f 60 19 3a b6 3f f0 39 b1 66 0d 39 36 b2 92 b8
       0.0005850847 0.00045823836 0.00013485063 -6.995017e-05
0002e0 10 a7 38 b9 e3 ce d2 b9 ab 78 33 ba 7e 64 80 b9
       -0.00017609843 -0.00040208464 -0.0006846289 -0.00024488935
0002f0 a9 1c 99 38 6f 88 35 3a a9 32 4d 3a c2 cc 89 3a
       7.300947e-05 0.0006924932 0.00078276783 0.0010513293
000300 84 ea 89 3a 9d 29 7e 3a 79 10 7e 3a 79 10 7e 3a
       0.0010522162 0.0009695532 0.00096917857 0.00096917857
000310 79 10 7e 3a 60 d4 7d 3a 3d 73 80 3a 96 ad 76 3a
       0.00096917857 0.00096828304 0.0009799969 0.00094100216
000320 ac 7a 77 3a ea e3 6c 3a 61 b5 9e 3a 25 ec 96 3a
       0.0009440582 0.00090366474 0.0012108498 0.0011514468
000330 39 48 7c 3a d4 5a 88 38 ec a3 f2 b8 ee 9a 53 39
       0.0009623799 6.5019034e-05 -0.00011569992 0.00020180244
000340 5b 01 3d 39 e5 ed 8a 3a b5 c4 cc 39 bf 4f a3 39
       0.0001802495 0.0010599463 0.0003905647 0.00031149198
000350 d0 23 90 b9 f6 49 13 ba e1 18 5e ba 69 34 cc b9
       -0.00027492503 -0.0005618626 -0.0008472335 -0.0003894896
000360 b4 34 94 b8 02 e2 86 3a 3d e2 62 3a d9 88 85 3a
       -7.067007e-05 0.0010290744 0.0008654928 0.0010187879
000370 d7 47 8b 3a 6d 10 7e 3a 79 10 7e 3a 79 10 7e 3a
       0.0010626268 0.00096917787 0.00096917857 0.00096917857
000380 79 10 7e 3a 79 10 7e 3a dc 56 80 3a ff b9 83 3a
       0.00096917857 0.00096917857 0.0009791511 0.0010049938
000390 70 05 4a 3a 7d 3b a6 3a 1c 37 ab 3a 1f b6 a3 3a
       0.0007706499 0.0012682524 0.0013062689 0.0012490189
0003a0 85 19 36 3a 34 78 97 39 35 12 02 b9 fe a1 95 b9
       0.0006946552 0.00028890523 -0.00012404549 -0.00028540188
0003b0 bc 5e 15 39 cc 83 ec 39 00 19 9d b9 da f4 81 b9
       0.00014245039 0.00045111624 -0.00029964 -0.00024787226
0003c0 fb a5 c3 b9 4b dc 9b b8 2f 38 31 ba 16 f8 6e b8
       -0.00037316963 -7.432009e-05 -0.0006760386 -5.697467e-05
0003d0 40 af 69 b6 ac 0c 62 3a 43 18 6e 3a f4 a1 96 3a
       -3.4821715e-06 0.0008623104 0.0009082595 0.0011492358
0003e0 8d 74 87 3a 67 26 7e 3a 79 10 7e 3a 79 10 7e 3a
       0.0010334417 0.00096950534 0.00096917857 0.00096917857
0003f0 79 10 7e 3a 3e b1 7c 3a d9 2d 79 3a 8e c5 63 3a
       0.00096917857 0.0009639448 0.0009505428 0.0008688801

exp_avg_sq f4 [30, 784]
000000 36 8a 39 36 36 8a 39 36 36 8a 39 36 36 8a 39 36
       2.7647598e-06 2.7647598e-06 2.7647598e-06 2.7647598e-06
000010 36 8a 39 36 36 8a 39 36 36 8a 39 36 36 8a 39 36
       2.7647598e-06 2.7647598e-06 2.7647598e-06 2.7647598e-06
000020 36 8a 39 36 36 8a 39 36 36 8a 39 36 36 8a 39 36
       2.7647598e-06 2.7647598e-06 2.7647598e-06 2.7647598e-06
000030 1f 84 39 36 1f 11 39 36 1f 11 39 36 b9 84 39 36
       2.7644053e-06 2.7577114e-06 2.7577114e-06 2.7644403e-06
000040 36 8a 39 36 36 8a 39 36 36 8a 39 36 36 8a 39 36
       2.7647598e-06 2.7647598e-06 2.7647598e-06 2.7647598e-06
000050 36 8a 39 36 36 8a 39 36 36 8a 39 36 36 8a 39 36
       2.7647598e-06 2.7647598e-06 2.7647598e-06 2.7647598e-06
000060 36 8a 39 36 36 8a 39 36 36 8a 39 36 36 8a 39 36
       2.7647598e-06 2.7647598e-06 2.7647598e-06 2.7647598e-06
000070 36 8a 39 36 36 8a 39 36 36 8a 39 36 36 8a 39 36
       2.7647598e-06 2.7647598e-06 2.7647598e-06 2.7647598e-06
000080 36 8a 39 36 36 8a 39 36 36 8a 39 36 36 8a 39 36
       2.7647598e-06 2.7647598e-06 2.7647598e-06 2.7647598e-06
000090 36 8a 39 36 4a 43 39 36 ad 08 39 36 96 d4 38 36
       2.7647598e-06 2.7606316e-06 2.7572198e-06 2.7541878e-06
0000a0 42 cd 38 36 de 9f 38 36 c3 e6 33 36 f5 2b 34 36
       2.7537612e-06 2.7511192e-06 2.68074e-06 2.6847677e-06
0000b0 55 49 38 36 d5 e5 38 36 36 8a 39 36 36 8a 39 36
       2.7460821e-06 2.7551916e-06 2.7647598e-06 2.7647598e-06
0000c0 36 8a 39 36 36 8a 39 36 36 8a 39 36 36 8a 39 36
       2.7647598e-06 2.7647598e-06 2.7647598e-06 2.7647598e-06
0000d0 36 8a 39 36 36 8a 39 36 36 8a 39 36 36 8a 39 36
       2.7647598e-06 2.7647598e-06 2.7647598e-06 2.7647598e-06
0000e0 36 8a 39 36 36 8a 39 36 36 8a 39 36 36 8a 39 36
       2.7647598e-06 2.7647598e-06 2.7647598e-06 2.7647598e-06
0000f0 36 8a 39 36 36 8a 39 36 36 8a 39 36 1b 64 39 36
       2.7647598e-06 2.7647598e-06 2.7647598e-06 2.7625417e-06
000100 41 cd 37 36 f8 ed 36 36 92 85 37 36 99 28 35 36
       2.7388598e-06 2.725863e-06 2.7346873e-06 2.6994733e-06
000110 17 99 34 36 c3 e1 38 36 86 a5 40 36 c2 1a 42 36
       2.69112e-06 2.7549547e-06 2.8706577e-06 2.8923828e-06
000120 45 dd 3c 36 0a a3 39 36 b2 fc 3a 36 b0 61 3a 36
       2.8142979e-06 2.766205e-06 2.7863248e-06 2.7773021e-06
000130 5d b2 39 36 36 8a 39 36 36 8a 39 36 64 12 3a 36
       2.767097e-06 2.7647598e-06 2.7647598e-06 2.7726865e-06
000140 0f c7 39 36 36 8a 39 36 36 8a 39 36 36 8a 39 36
       2.7683016e-06 2.7647598e-06 2.7647598e-06 2.7647598e-06
000150 36 8a 39 36 36 8a 39 36 36 8a 39 36 36 8a 39 36
       2.7647598e-06 2.7647598e-06 2.7647598e-06 2.7647598e-06
000160 4d 8f 39 36 c1 d7 38 36 1c e4 37 36 6c 9a 35 36
       2.765056e-06 2.7543722e-06 2.7401902e-06 2.7060987e-06
000170 89 e5 32 36 b0 4c 34 36 78 64 3a 36 21 b7 42 36
       2.6657674e-06 2.6866728e-06 2.777464e-06 2.9014848e-06
000180 fc 60 43 36 6b 74 49 36 c4 9a 49 36 12 fd 44 36
       2.9113717e-06 3.0019098e-06 3.004142e-06 2.9353582e-06
000190 9f 20 44 36 77 74 34 36 2b b7 35 36 70 bb 36 36
       2.9225264e-06 2.6889882e-06 2.707772e-06 2.7229216e-06
0001a0 98 fb 3a 36 c9 5a 38 36 a1 32 38 36 e5 c3 39 36
       2.7862607e-06 2.747098e-06 2.7447606e-06 2.7681174e-06
0001b0 56 a0 39 36 36 8a 39 36 36 8a 39 36 36 8a 39 36
       2.7660476e-06 2.7647598e-06 2.7647598e-06 2.7647598e-06
0001c0 36 8a 39 36 36 8a 39 36 36 8a 39 36 2d 38 39 36
       2.7647598e-06 2.7647598e-06 2.7647598e-06 2.7599847e-06
0001d0 8b 34 38 36 b6 e5 37 36 f2 02 36 36 90 8d 36 36
       2.744872e-06 2.7402834e-06 2.7121828e-06 2.7202514e-06
0001e0 7c 88 39 36 0f 9b 4a 36 ec b3 62 36 dd 0b 86 36
       2.7646593e-06 3.0190602e-06 3.3781353e-06 3.9948923e-06
0001f0 5c d4 86 36 d3 db 64 36 b8 dc 46 36 94 50 3c 36
       4.018233e-06 3.4102602e-06 2.9632774e-06 2.8061086e-06
000200 2d 95 2e 36 40 f6 f9 35 3b 31 ff 35 ca 41 1d 36
       2.6014852e-06 1.8623614e-06 1.9013308e-06 2.3433117e-06
000210 1a 0b 28 36 db 43 24 36 6c b2 28 36 1d 6b 34 36
       2.5040413e-06 2.4477401e-06 2.5137806e-06 2.6884438e-06
000220 99 34 37 36 e6 88 39 36 36 8a 39 36 36 8a 39 36
       2.729974e-06 2.7646834e-06 2.7647598e-06 2.7647598e-06
000230 36 8a 39 36 36 8a 39 36 75 8b 39 36 e8 cc 39 36
       2.7647598e-06 2.7647598e-06 2.7648323e-06 2.768642e-06
000240 14 f5 37 36 54 f2 33 36 8e ac 2d 36 73 aa 2e 36
       2.741178e-06 2.6814132e-06 2.587945e-06 2.6027235e-06
000250 32 a3 49 36 35 f3 7c 36 57 0d a7 36 34 54 c1 36
       3.0046326e-06 3.7692491e-06 4.978541e-06 5.7616508e-06
000260 14 f2 b4 36 c2 b5 85 36 0c c0 41 36 25 ee 17 36
       5.3925996e-06 3.9848683e-06 2.8871027e-06 2.2639372e-06
000270 03 48 0f 36 b2 9d bc 35 c9 2c cf 35 c9 01 19 36
       2.1350577e-06 1.4052987e-06 1.5435736e-06 2.2799816e-06
000280 bf aa 29 36 86 38 1c 36 51 b9 20 36 60 71 30 36
       2.528235e-06 2.3278712e-06 2.3949726e-06 2.6292037e-06
000290 8d 17 31 36 7b 88 39 36 ba 8e 39 36 36 8a 39 36
       2.6388764e-06 2.764659e-06 2.7650226e-06 2.7647598e-06
0002a0 36 8a 39 36 36 8a 39 36 24 78 39 36 01 9e 39 36
       2.7647598e-06 2.7647598e-06 2.763708e-06 2.7659119e-06
0002b0 c4 4d 34 36 8d e5 26 36 aa f8 22 36 df af 39 36
       2.6867356e-06 2.4869544e-06 2.4284623e-06 2.7669519e-06
0002c0 52 8f 5f 36 d9 23 8e 36 a6 0b b3 36 c6 d1 bc 36
       3.3313013e-06 4.236103e-06 5.3359718e-06 5.6272575e-06
0002d0 3b 3d 9e 36 94 c2 51 36 ae 13 0a 36 53 3e f7 35
       4.715895e-06 3.1256686e-06 2.0575058e-06 1.8421073e-06
0002e0 14 a9 ed 35 fd 6e c8 35 46 c4 e1 35 b7 4e 16 36
       1.7707084e-06 1.4933463e-06 1.6820929e-06 2.239756e-06
0002f0 e3 39 1c 36 82 9a 0a 36 08 43 1b 36 9b d4 2f 36
       2.3279506e-06 2.0653538e-06 2.3135817e-06 2.6200785e-06
000300 76 fb 33 36 af 89 39 36 36 8a 39 36 36 8a 39 36
       2.6819448e-06 2.764729e-06 2.7647598e-06 2.7647598e-06
000310 36 8a 39 36 0f 5a 39 36 66 5d 39 36 10 44 39 36
       2.7647598e-06 2.761957e-06 2.7621513e-06 2.7606766e-06
000320 31 5a 30 36 ba 5c 22 36 72 69 2a 36 57 6a 41 36
       2.6278542e-06 2.4193855e-06 2.5393351e-06 2.882114e-06
000330 f2 c5 61 36 db 5f 82 36 e2 e7 96 36 8d 13 9d 36
       3.3642832e-06 3.885461e-06 4.497343e-06 4.6812406e-06
000340 95 af 74 36 51 d1 13 36 1a 33 97 35 20 97 7b 35
       3.6461036e-06 2.2026545e-06 1.1265249e-06 9.37247e-07
000350 85 ff 7c 35 1f 6d a3 35 06 65 f3 35 81 4c 1e 36
       9.4249145e-07 1.2176205e-06 1.8134313e-06 2.3588366e-06
000360 92 b8 2a 36 f9 2b 16 36 5c 48 1b 36 60 9b 2c 36
       2.5439408e-06 2.2377337e-06 2.3138919e-06 2.5720437e-06
000370 ab 77 36 36 0f 88 39 36 36 8a 39 36 36 8a 39 36
       2.718977e-06 2.7646345e-06 2.7647598e-06 2.7647598e-06
000380 36 8a 39 36 36 8a 39 36 78 77 39 36 01 2f 38 36
       2.7647598e-06 2.7647598e-06 2.7636688e-06 2.7445496e-06
000390 8a 91 2e 36 17 37 1e 36 be 42 2a 36 a1 5a 35 36
       2.6012735e-06 2.3575901e-06 2.5370823e-06 2.7023855e-06
0003a0 f8 5f 41 36 e4 a2 58 36 d8 c7 82 36 92 ff 87 36
       2.8815102e-06 3.2281323e-06 3.897567e-06 4.053066e-06
0003b0 c9 80 46 36 3a 13 b7 35 9a 41 b0 35 6b 54 bd 35
       2.9579262e-06 1.3640158e-06 1.3132114e-06 1.4106166e-06
0003c0 00 95 89 35 e9 8b 89 35 7b 2f 01 36 07 86 3f 36
       1.025066e-06 1.0248015e-06 1.9250135e-06 2.8539232e-06
0003d0 f2 fb 47 36 d3 5f 2f 36 fc 1b 25 36 3e 82 2c 36
       2.9799962e-06 2.613281e-06 2.4603205e-06 2.5705808e-06
0003e0 ae a0 36 36 69 81 39 36 36 8a 39 36 36 8a 39 36
       2.7213641e-06 2.7642475e-06 2.7647598e-06 2.7647598e-06
0003f0 36 8a 39 36 77 8d 39 36 f9 e8 38 36 bb d2 37 36
       2.7647598e-06 2.7649492e-06 2.7553745e-06 2.7391786e-06

exp_avg f4 [30]
000000 79 10 7e ba 95 93 8e 39 96 6e 78 30 02 8a 11 b9
       -0.00096917857 0.00027194308 9.0379026e-10 -0.0001387969
000010 5f 84 ae 3a d8 a3 2b 31 b3 98 f9 b9 56 7f fb 2f
       0.0013314596 2.497691e-09 -0.0004760675 4.5747112e-10
000020 ff 42 dd 3a a3 29 2f 32 6c 83 4d 30 da dd 40 ba
       0.0016880928 1.0195808e-08 7.476533e-10 -0.0007357277
000030 0f 3a 81 3a b3 be 33 3b 70 f1 82 2e 4b af c9 3a
       0.0009859222 0.0027426898 5.9546035e-11 0.0015387324
000040 0e 67 6f 3a da 85 ee 30 a8 1a 3f bb 56 82 08 bb
       0.0009132483 1.7354822e-09 -0.0029160175 -0.002082964
000050 64 5a 40 30 a2 38 c8 ba e0 d0 b8 ba 78 c3 6c 31
       6.9977646e-10 -0.0015275667 -0.0014100336 3.445363e-09
000060 8a 8f f5 2e d7 4d 46 b9 d8 af 92 b9 ad 8f 52 ba
       1.1166808e-10 -0.00018911749 -0.00027978304 -0.00080322736
000070 43 94 c0 30 df 26 b7 30
       1.4011977e-09 1.332605e-09

exp_avg_sq f4 [30]
000000 36 8a 39 36 b0 c9 68 35 5c ce d5 31 a4 f6 04 35
       2.7647598e-06 8.672023e-07 6.2225762e-09 4.953274e-07
000010 ab 74 ac 36 26 97 34 33 7b 44 8f 36 78 6c c9 30
       5.1395814e-06 4.2046985e-08 4.2697043e-06 1.4655503e-09
000020 be 34 cd 36 3a 14 9e 34 45 71 84 31 2d fa 06 37
       6.115616e-06 2.944451e-07 3.854583e-09 8.045271e-06
000030 52 83 57 36 f4 cf 47 37 0b 11 d7 2d 24 c0 e2 36
       3.2113935e-06 1.1909742e-05 2.4450239e-11 6.757693e-06
000040 3e 34 8f 36 c8 18 4a 32 bb 0f 51 37 05 0b c4 36
       4.267814e-06 1.1763582e-08 1.2461033e-05 5.842538e-06
000050 ee 0b 68 31 0e ba 14 36 5c 03 24 36 1d c5 a4 33
       3.3767225e-09 2.2162017e-06 2.443986e-06 7.6727e-08
000060 9b 16 bd 2e e3 d8 1c 36 63 dc ea 34 bb 1c 80 36
       8.5987405e-11 2.3372056e-06 4.374625e-07 3.818042e-06
000070 a7 1d d6 32 ad 60 52 32
       2.4926363e-08 1.224559e-08

exp_avg f4 [4, 30]
000000 e4 da 94 3c a5 a9 05 3c 86 46 97 2f 7a 5f 5e 3c
       0.018170781 0.008158122 2.751685e-10 0.013572568
000010 6a d1 57 3c 98 23 74 b1 6a 47 5d 3b 23 37 b3 af
       0.013172487 -3.5526906e-09 0.003376449 -3.2599087e-10
000020 40 da 2c bc 29 f8 bc b3 fa c3 96 b0 a7 98 0f 3c
       -0.010550082 -8.799572e-08 -1.0969636e-09 0.0087644225
000030 86 4e 8c 3c d0 d0 60 3b b6 e5 f4 2c e5 cb dc 3b
       0.017127287 0.003430415 6.9604e-12 0.0067381733
000040 c7 72 49 3c e4 70 4e b1 14 3b ad 3c b0 d2 9f 3c
       0.012295431 -3.0041116e-09 0.021146335 0.019509643
000050 27 d3 6f 2f 43 34 11 3d e1 f1 03 3d 9e 3b a5 b1
       2.181194e-10 0.03545023 0.032213096 -4.8089097e-09
000060 eb a4 03 b0 a1 34 1d 3d b8 a1 c2 3c e0 9e 16 3d
       -4.7891885e-10 0.03838027 0.023758754 0.03677261
000070 ce 38 fd b1 25 47 c4 2f df 7d 92 bc 0a 8d bf 3c
       -7.369727e-09 3.5702744e-10 -0.017882286 0.023382682
000080 c7 97 2d b0 65 eb ca 3c c8 40 9a 3a 33 b5 42 b0
       -6.315272e-10 0.024770448 0.0011768574 -7.083429e-10
000090 a8 68 b2 3c 61 eb f4 2c d2 cd c3 3b b0 64 e0 32
       0.02177842 6.9610294e-12 0.0059754634 2.612282e-08
0000a0 05 de db af e6 e8 86 bb c9 bc 00 bc 18 f4 53 3c
       -3.9993622e-10 -0.004117119 -0.00785751 0.012936614
0000b0 69 32 e6 2d f7 a4 18 bc ea 52 c1 3c b9 94 ae b0
       2.617036e-11 -0.009316674 0.023599107 -1.2702436e-09
0000c0 e7 42 d1 bb 5a e3 78 bc 47 3d 2c 2f 1d 3e ad bb
       -0.006386149 -0.015190924 1.5665079e-10 -0.0052869455
0000d0 7b dc 98 ba e9 cd cd b1 b7 3a c2 2e 3c 8b b5 bb
       -0.0011662388 -5.9896945e-09 8.8325285e-11 -0.0055402797
0000e0 10 a4 b5 3c 00 9d 1a 3b 99 13 21 31 bc d8 94 2d
       0.022172958 0.0023592114 2.3439723e-09 1.6921901e-11
0000f0 68 ba 04 3d 26 3f e4 3b c6 2d e2 af 4e eb c2 3b
       0.032404333 0.0069655357 -4.1141685e-10 0.0059484607
000100 85 2f 5e bb f6 1c 81 30 ae d8 13 3c 9a 20 a5 2e
       -0.0033902836 9.394217e-10 0.009023828 7.5091225e-11
000110 50 82 29 3c df a6 26 33 2e c5 2c 30 b9 f9 ef 3c
       0.01034601 3.8801655e-08 6.2853445e-10 0.029293882
000120 63 8d fc 3a 89 da e6 bb c9 0d 9c ad 77 6f 84 b8
       0.0019268211 -0.0070450944 -1.7741269e-11 -6.3150124e-05
000130 34 6e cb 3b 25 38 dc 2f 92 f5 e2 3c 29 88 10 3d
       0.0062082056 4.005766e-10 0.027704988 0.035286102
000140 19 f1 86 af 67 fd bc 3c ce 55 9b 3c 14 00 85 b1
       -2.4545768e-10 0.02307005 0.018961813 -3.8708183e-09
000150 b0 8f 14 2f 5e 82 84 3c 9d e1 ad 3b 05 ff 06 3c
       1.351157e-10 0.016175445 0.005306436 0.008239512
000160 a1 d2 48 31 9a 2d 12 ad 0d e9 05 bd 09 b9 1d bd
       2.922356e-09 -8.309265e-12 -0.032692958 -0.03850654
000170 59 0b 53 30 20 6b 35 bd 02 8e 33 bc 66 42 64 31
       7.677748e-10 -0.044291615 -0.01095915 3.321611e-09
000180 10 ff 0b bd 58 1b 86 2f 8d 1e bd bb 14 2e c6 32
       -0.034178793 2.4393887e-10 -0.005771464 2.3071188e-08
000190 cd b1 6e 30 10 06 0b bd 3c 72 37 bc 91 bb 18 bc
       8.6836566e-10 -0.03394133 -0.011196669 -0.009322063
0001a0 19 5e 87 ad d7 1e 2d 3b 1b 74 2c bd 20 1a 85 31
       -1.538951e-11 0.0026416087 -0.042102914 3.8737795e-09
0001b0 08 f0 2d bd c3 38 22 bd 34 2e 0e af 4c 0b 5a bd
       -0.04246524 -0.039604913 -1.293124e-10 -0.05323343
0001c0 05 d6 4c bd d5 04 7c 32 58 73 8c 2f a4 c4 48 bd
       -0.050008792 1.4669429e-08 2.5547808e-10 -0.049015656
0001d0 4c df 51 bd 9e 08 42 bd 57 8b 10 31 48 03 c9 af
       -0.051238343 -0.0473715 2.1033963e-09 -3.6564018e-10

exp_avg_sq f4 [4, 30]
000000 4f 8e 4e 39 02 a1 d9 3a 80 be a1 2f 38 49 82 3a
       0.00019698705 0.001660377 2.9421088e-10 0.0009940034
000010 57 10 51 39 ff 65 b2 33 44 49 47 3a 17 dc 51 30
       0.0001993788 8.307324e-08 0.0007602165 7.6346524e-10
000020 60 e3 af 3a 81 c1 1b 37 fe 8d 0e 32 84 77 78 3a
       0.0013419203 9.283774e-06 8.297773e-09 0.00094782584
000030 9f 0c a4 39 05 93 13 3a 69 11 bc 2a 84 2a ab 38
       0.0003128992 0.00056295126 3.340759e-13 8.1618346e-05
000040 9f 3f d9 3a 03 a5 7a 33 6d 1d b7 39 1d a0 bd 38
       0.0016574747 5.8357738e-08 0.00034926404 9.042046e-05
000050 a0 5b b4 2f 81 ba 0f 3a 5d 9f 12 3a 9f 40 fa 33
       3.2806913e-10 0.00054828083 0.0005593205 1.1653287e-07
000060 27 60 d9 30 ee b1 6a 3a 33 45 53 3a e8 b3 73 3a
       1.5816156e-09 0.0008952905 0.0008059323 0.00092965225
000070 3a c8 38 34 ea 9c 71 30 d8 74 b4 3a c8 19 8a 3a
       1.7209177e-07 8.789828e-10 0.0013767732 0.0010536248
000080 ae b4 82 31 fd 3e 7a 3a 7a 08 22 3a 55 29 80 31
       3.804039e-09 0.0009546129 0.00061810727 3.729989e-09
000090 91 08 d1 39 98 4d 2c 2b cf ba 95 39 03 d7 eb 35
       0.0003986997 6.121436e-13 0.00028558678 1.7571441e-06
0000a0 db 96 97 30 74 f8 18 3a ae 0a 87 3a af 82 d2 39
       1.1029572e-09 0.0005835362 0.0010302865 0.00040151688
0000b0 eb 2a a6 2c b9 32 16 3a 82 5c 8b 3a 09 e2 4e 32
       4.7227686e-12 0.0005729604 0.0010632428 1.2042173e-08
0000c0 13 3d a8 39 36 5e 6a 39 1f 0e 3a 2f bc a4 e4 39
       0.0003208896 0.00022351075 1.6921618e-10 0.00043610286
0000d0 1a bb cc 39 8f a6 80 34 7f 98 6c 2e e6 7b d6 3a
       0.00039049314 2.3963045e-07 5.379563e-11 0.0016363829
0000e0 bf 59 87 3a e0 97 38 3a 65 2d cc 32 e2 f2 0a 2c
       0.0010326429 0.0007041674 2.3769369e-08 1.9745807e-12
0000f0 e1 26 9a 3a fb a9 33 3b f1 2f 65 30 e9 b5 21 3b
       0.0011760854 0.0027414549 8.3377844e-10 0.0024675077
000100 d9 26 6c 3a c1 84 bb 31 86 bf c7 3a db 4e 5a 2e
       0.00090084743 5.4575087e-09 0.0015239574 4.96375e-11
000110 2e e6 17 3a 43 1c 1e 36 41 34 3b 31 40 75 eb 3a
       0.00057944923 2.3560285e-06 2.7241784e-09 0.001796402
000120 58 9a 74 3a 8d 47 9f 3a 0c bb 18 2c 07 b8 d5 39
       0.00093308603 0.0012152061 2.170433e-12 0.00040763637
000130 11 77 56 3b 1b 67 8c 30 99 ac 3f 3a 67 1f d7 39
       0.0032724778 1.0215645e-09 0.0007311791 0.00041031392
000140 f4 66 e4 2f 8c 27 7c 3a ba 87 85 3a 83 e1 b9 33
       4.154611e-10 0.000961893 0.0010187544 8.655754e-08
000150 a0 6a 0a 2f d1 a4 11 3b 63 b0 3b 3b 3d 61 12 3b
       1.2588908e-10 0.0022223482 0.002863907 0.002233579
000160 2d 35 39 33 f6 02 06 2b 38 cd 84 3a d7 a7 33 3b
       4.3122032e-08 4.761047e-13 0.0010131961 0.0027413273
000170 3f f8 bd 31 9c 31 2b 3b 76 df 39 3a 3b e7 a2 33
       5.5288463e-09 0.0026122099 0.0007090488 7.5857734e-08
000180 3a d2 d3 3a 33 b8 d8 2f 01 4b 58 3a 7d 25 e5 35
       0.0016160675 3.9421053e-10 0.00082509225 1.707274e-06
000190 72 a9 b2 31 7d 4c c0 3a fd c0 5b 3a d1 54 a7 3a
       5.1997455e-09 0.0014671233 0.00083829445 0.0012766366
0001a0 82 d8 e5 2b 0c 84 c7 39 d6 16 4a 3b 13 d0 da 33
       1.6331522e-12 0.0003805462 0.0030836365 1.01892645e-07
0001b0 72 4e d7 3a 42 a9 14 3a 47 90 fd 2e 08 03 f8 3a
       0.0016426577 0.00056709733 1.1530737e-10 0.0018921802
0001c0 cf 66 ee 3a ff 5d a8 35 4e 6e f7 2f 90 2f 18 3b
       0.0018188598 1.2544332e-06 4.5007414e-10 0.0023221709
0001d0 b2 06 42 3b 61 5e 06 3b f4 8a db 31 05 69 7d 30
       0.0029606041 0.0020503032 6.389536e-09 9.2190106e-10

exp_avg f4 [4]
000000 dc 90 67 3b 13 f9 89 3a d4 4a 29 3b 5d ec ea bb
       0.0035334146 0.00105265 0.0025831955 -0.00716929

exp_avg_sq f4 [4]
000000 28 7f 23 38 65 2c 3d 38 3a ec a1 38 e5 c0 ce 38
       3.8980652e-05 4.5102457e-05 7.721079e-05 9.858775e-05
