nesy/9b4ngcu9/checkpoints/epoch=9-step=1200.ckpt (torch, 303959 bytes, 16 tensors)

neural_predicates.digit.conv1.0.weight f4 [4, 1, 9, 9]
0	0xbd765c7c	-0.060146794
1	0xbcf2b95f	-0.029629407
2	0xbe4ccf43	-0.20000939
3	0xbe3b99f3	-0.18320446
4	0xbd184698	-0.0371767
5	0xbdc45ce5	-0.09588031
6	0x3d91be77	0.071164064
7	0x3cfee097	0.031112952
8	0x3d430652	0.04761345
9	0xbdeaa44c	-0.114571184
10	0xbc072f94	-0.00825109
11	0x3cd4f61c	0.02599626
12	0xbd85395c	-0.06505081
13	0x3df0f9d8	0.11766404
14	0x3d27ce73	0.04096837
15	0x3e198f80	0.14996147
16	0x3e318516	0.17335925
17	0x3e553be7	0.20823632
18	0xbcfc6ee8	-0.030814603
19	0x3ccbedf0	0.02489373
20	0x3b5df656	0.0033868751
21	0x3e4c0572	0.19923952
22	0x3e93d9b8	0.28877044
23	0x3e8ddecf	0.27709052
24	0x3dd178be	0.10228108
25	0x3e494f45	0.19659145
26	0x3db1ab27	0.08675223
27	0x3dce2f26	0.100675866
28	0x3dfdcf55	0.12393061
29	0x3e86d599	0.26334837
30	0x3e100cd2	0.1406739
31	0x3e34eb93	0.1766799
32	0x3e536420	0.20643663
33	0x3de373fb	0.11106106
34	0xbc86969b	-0.016429236
35	0xbc9d840e	-0.019228008
36	0x3e389bb6	0.18028149
37	0x3e1541c7	0.14575873
38	0x3e3c95f8	0.18416584
39	0x3dd4a2b3	0.10382595
40	0xbdedf198	-0.11618346
41	0xbdfc6b5e	-0.12325166
42	0xbd2b2d69	-0.041791353
43	0xbe1c4d09	-0.15263762
44	0x3bd6fa76	0.006560619
45	0x3dd645d8	0.104625404
46	0x3dc488b1	0.09596384
47	0xbdde536b	-0.108557545
48	0xbdbcebab	-0.092246376
49	0xbd843dc6	-0.06457095
50	0xbe7e9ae6	-0.24863777
51	0xbe357aab	-0.17722575
52	0xbe5a6c04	-0.21330267
53	0xbe3d1498	-0.18464887
54	0xbdfeceb6	-0.12441771
55	0xbcb59927	-0.022167755
56	0xbe24fa14	-0.16111022
57	0xbdf37993	-0.11888423
58	0xbd7ed5de	-0.06221568
59	0xbcd12fbf	-0.025535462
60	0xbdf92381	-0.12164975
61	0xbc042722	-0.008065971
62	0x3cdab4e9	0.026697593
63	0x3cc7c5d1	0.024386318
64	0xbd0b6ca6	-0.034039162
65	0xbe0a8778	-0.1352824
66	0xbe07be39	-0.13256158
67	0xbbe4c917	-0.0069819796
68	0x3c58e22d	0.013237518
69	0xbc94383e	-0.018093225
70	0x3d914b9d	0.070945
71	0x3cae3e25	0.021269867
72	0xbe23a714	-0.15981704
73	0xbe161b95	-0.14658959
74	0xbd61e134	-0.05514641
75	0xbe1fa7b7	-0.15591322
76	0xbdac6fe8	-0.08419782
77	0xbd5c70d4	-0.05381854
78	0xbd8d2d1a	-0.06893368
79	0x3d2b433c	0.041812167
80	0xbdd15cce	-0.10222779
81	0x3df58409	0.11988074
82	0x3d19d766	0.037558936
83	0xbd05974c	-0.03261499
84	0x3caee772	0.021350596
85	0x3d29a28d	0.041414786
86	0x3e09e5ce	0.1346657
87	0x3e4298a1	0.19003536
88	0x3ccb9394	0.024850644
89	0x3e0ab601	0.13545991
90	0xbe121f0f	-0.1426966
91	0xbe4161a8	-0.18884909
92	0xb98bf84c	-0.00026697142
93	0xbde2fc2c	-0.11083254
94	0xbe0be3f3	-0.13661174
95	0x3e39f4fa	0.18159857
96	0x3e5e6866	0.21719512
97	0x3e61622a	0.22010103
98	0x3e23622c	0.15955418
99	0xbe67710d	-0.22601719
100	0xbe3ddfa4	-0.18542343
101	0xbe30a1f1	-0.17249276
102	0x3d3972d5	0.045275528
103	0xbd2bb5b9	-0.04192135
104	0xbc25e8ac	-0.010126274
105	0x3e540fea	0.20709196
106	0x3db6f69e	0.08933757
107	0x3e3b8d80	0.18315697
108	0xbd84f770	-0.064925075
109	0x3d0164f0	0.031590402
110	0xbd957587	-0.07297807
111	0xbdd0695a	-0.10176344
112	0x3cf86172	0.030319903
113	0xbd5ee04b	-0.05441312
114	0xbd033ffe	-0.03204345
115	0x3cfc4ff8	0.03079985
116	0x3e0bb733	0.13644104
117	0x3e0b8282	0.13624004
118	0x3d34b934	0.044121936
119	0xbc802a63	-0.015645212
120	0xbdcfea1f	-0.10152077
121	0x3b1140e9	0.0022163934
122	0xbe5322ea	-0.20618787
123	0xbe281688	-0.16414845
124	0x3c5126f2	0.012765633
125	0x3dc8ae56	0.09798877
126	0x3df61ab1	0.1201681
127	0x3e2737d6	0.16329893
128	0x3e00dac2	0.1258345
129	0xbd6956d9	-0.05696759
130	0xbdb1cc63	-0.08681562
131	0xbdfcdbe6	-0.1234663
132	0xbe1b5759	-0.15170039
133	0xbde50c43	-0.11183979
134	0x3c880299	0.016602801
135	0x3d7f1d11	0.06228358
136	0xbd1615d0	-0.036641896
137	0x3cc91408	0.024545684
138	0xbd82eb7b	-0.063925706
139	0xbcdce12f	-0.026962845
140	0xbddc2e44	-0.10751012
141	0xbdbbc7f2	-0.09168996
142	0xbda8b124	-0.08236912
143	0xbdd71458	-0.10501927
144	0xbe2c9739	-0.16854562
145	0xbcf5a376	-0.02998517
146	0xbdbe9b43	-0.093069576
147	0xbd823ccc	-0.06359252
148	0x3d8d6931	0.06904829
149	0xbdd2fa58	-0.103016555
150	0xbd0acd60	-0.033887267
151	0xbe0e97c4	-0.13925081
152	0xbe20e4b3	-0.15712242
153	0x3b1aca76	0.0023619211
154	0x3d5f2b97	0.05448493
155	0x3e2044c2	0.15651229
156	0x3db97321	0.09055162
157	0x3da64191	0.081179745
158	0x3d432ed8	0.047652096
159	0xbda5f981	-0.0810423
160	0x3cf6e706	0.030139457
161	0xbd268fac	-0.04066436
162	0xbe039ba2	-0.12852338
163	0xbe278379	-0.16358747
164	0xbd0490e9	-0.03236476
165	0xbe1a4c78	-0.15068233
166	0x3c43eaf1	0.01195787
167	0xbdefda84	-0.117116004
168	0xbdb2df96	-0.08734052
169	0xbd97e440	-0.07416582
170	0xbd81f0f6	-0.06344788
171	0xbe3d114e	-0.18463632
172	0xbcc3fbaa	-0.023923714
173	0xbd9519ca	-0.072803095
174	0xbe2053b4	-0.1565693
175	0xbde5727e	-0.11203478
176	0xbd61711b	-0.055039506
177	0xbd9a3652	-0.07529892
178	0xbe12fb72	-0.14353731
179	0xbe15baa3	-0.14621978
180	0x3bac4896	0.0052576764
181	0x3d2986f3	0.041388463
182	0xbdce941f	-0.100868456
183	0xbe24b5d7	-0.16084991
184	0xbe038d48	-0.12846863
185	0xbd84bed0	-0.06481707
186	0xbd3af3fa	-0.04564283
187	0xbe2d72f7	-0.16938387
188	0xbe35a9e3	-0.17740588
189	0x3d838988	0.064227164
190	0xbd82ae98	-0.06380957
191	0xbe31dee4	-0.17370182
192	0xbe060b74	-0.13090307
193	0xbb83e7e8	-0.004025448
194	0xbcfbafd5	-0.030723492
195	0xbd7a92ba	-0.061175086
196	0xbd10a2c3	-0.03531147
197	0xbd32c816	-0.043647848
198	0x3d0c28f0	0.03421873
199	0x3df09b26	0.11748342
200	0x3be1a919	0.006886613
201	0x3c7a2ec9	0.0152699435
202	0xbdb63fb9	-0.08898873
203	0x3da61cf6	0.081109926
204	0xbcb03d78	-0.021513686
205	0xbe362d5e	-0.17790744
206	0xbe4d225b	-0.20032637
207	0x3d533847	0.051567342
208	0x3dc75518	0.09733027
209	0x3cd3dd8f	0.025862483
210	0x3dfd3082	0.12362768
211	0x3c21dbc0	0.009879053
212	0xbd82a1c5	-0.06378511
213	0xbde3bd77	-0.11120122
214	0xbd4f4a56	-0.050608
215	0xbde40ed7	-0.11135643
216	0x3e0b03e9	0.1357571
217	0x3e687c0f	0.22703575
218	0x3e0b1bfa	0.13584891
219	0xbca173f8	-0.019708619
220	0xbd9dd537	-0.07706683
221	0xbd609783	-0.054831993
222	0xbe17d7da	-0.14828435
223	0xbce2b5aa	-0.027674515
224	0xbd9e153d	-0.07718895
225	0x3e4db15e	0.20087191
226	0x3de6b1db	0.11264392
227	0x3e420173	0.18945865
228	0xbc1e12b1	-0.009648011
229	0x3d52fa2c	0.051508114
230	0xbd429292	-0.04750306
231	0x3d3ea22f	0.04654139
232	0xbd3f1097	-0.04664668
233	0x3db86b3c	0.09004828
234	0x3e31d372	0.17365816
235	0x3e48b454	0.1960004
236	0x3e61963d	0.22029968
237	0x3dd94fb8	0.10610908
238	0x3e00d8db	0.12582724
239	0x3df0177e	0.11723231
240	0x3e4f93ec	0.20271271
241	0x3d6bc05c	0.057556495
242	0x3dee9a3b	0.11650511
243	0x3e0bdbd6	0.1365808
244	0x3e5e34c4	0.21699816
245	0x3e9bd0f3	0.30432853
246	0xbcf1a0c0	-0.029495597
247	0xbe1ae7c6	-0.15127477
248	0xbe60e60d	-0.21962757
249	0xbe23bb8f	-0.15989517
250	0x3d32ba30	0.043634593
251	0x3cccef0b	0.025016328
252	0x3e97535d	0.2955579
253	0x3ea1f46c	0.31631792
254	0x3e2f0425	0.17091425
255	0xbe8bd29a	-0.27309114

neural_predicates.digit.conv1.0.bias f4 [4]
0	0x3e0e4aed	0.1389577
1	0x3ce37ef1	0.027770491
2	0x3da30737	0.079603605
3	0xbdae90c8	-0.085237086

neural_predicates.digit.conv2.0.weight f4 [32, 16, 5, 5]
0	0xbd0dea5d	-0.034647334
1	0xbc852f7d	-0.016257996
2	0xbc96d9fd	-0.018414492
3	0x3c8451b3	0.016152238
4	0xbb5ec31a	-0.0033990801
5	0x3d0cb71a	0.034354307
6	0x3c76bfc0	0.015060365
7	0x3ccdaa1d	0.02510553
8	0x3d26ba30	0.040704906
9	0x3d312ac3	0.04325367
10	0x3d0da6ad	0.034582783
11	0xbcd5b290	-0.026086122
12	0x3bff950d	0.0077997507
13	0x3d3f3425	0.04668059
14	0xbcff957a	-0.031199206
15	0xbba1d4da	-0.004938704
16	0x3d1dc03b	0.038513403
17	0x3b94c41a	0.0045399787
18	0x3d1b3a48	0.03789738
19	0x3c9272ca	0.017877001
20	0x3d4614a7	0.04835954
21	0x3d21ed8f	0.039533194
22	0x3b876d33	0.0041328906
23	0xbcae4a37	-0.021275623
24	0x3c70a8e0	0.0146887
25	0xbc89f0ea	-0.01683851
26	0xbcec8df3	-0.02887628
27	0xbcada7f0	-0.021198243
28	0xbd4bc533	-0.04974861
29	0xbca0c2f7	-0.019624216
30	0x3c17e42d	0.00927071
31	0xbcb632ba	-0.022240985
32	0xbd05b638	-0.03264448
33	0x3d063cff	0.032773014
34	0x3c669c60	0.014075369
35	0x3d4c4bd5	0.049877007
36	0x3c111153	0.008854228
37	0x3aac5d00	0.0013150275
38	0xbd229742	-0.039695032
39	0xbd0859fa	-0.033288933
40	0x3c2dad33	0.010600376
41	0xbc80c693	-0.015719688
42	0xbc923cf0	-0.017851323
43	0x3d47e2df	0.048800346
44	0xbc83f4ba	-0.016107906
45	0x3c3f79d3	0.01168676
46	0xbb619c67	-0.0034425498
47	0xbc513c67	-0.012770749
48	0x3c2efdad	0.010680598
49	0xbcba887d	-0.02277016
50	0xbd25834b	-0.040408414
51	0x3d30c55b	0.043156963
52	0xbccd22aa	-0.025040943
53	0xbc4d056d	-0.012513501
54	0x3a8e2acd	0.0010846496
55	0x3d353da0	0.044248223
56	0x3b4e1900	0.0031448007
57	0xbc9c4a27	-0.019078327
58	0x3a37c2cd	0.00070099236
59	0xbd1f444b	-0.03888349
60	0x3d433c9a	0.047665216
61	0xbd0a7757	-0.033805218
62	0x3c69353a	0.014233882
63	0xbc26d74d	-0.010183168
64	0xbd3b0def	-0.045667585
65	0x3ca9dcc0	0.020735145
66	0x3d42888a	0.047493495
67	0x3cafd577	0.021464093
68	0x3cd0ebba	0.025503028
69	0x3c599f40	0.013282597
70	0xbcf3f910	-0.029781848
71	0x3c2dd07a	0.010608787
72	0xbcdf5e3a	-0.02726661
73	0x3d328ea5	0.043593068
74	0x3d1da7e3	0.038490187
75	0xba4900cd	-0.0007667661
76	0x3b6e80e7	0.003639275
77	0xba19579a	-0.00058495405
78	0xbd26c7c2	-0.040717848
79	0xbbc3160d	-0.0059535564
80	0xbcb253ba	-0.02176844
81	0xbce96fea	-0.028495748
82	0xbd38219b	-0.044953924
83	0x3cf09fc0	0.02937305
84	0x3cbf9ef3	0.023391223
85	0x3c85a3da	0.016313482
86	0x3d329685	0.043600578
87	0xbc85540a	-0.016275425
88	0x3c69918d	0.014255893
89	0xbccc856d	-0.024965966
90	0xbcbb982a	-0.022899706
91	0xbd3f23b3	-0.046664905
92	0x3d475518	0.048665136
93	0x3cacacc7	0.02107848
94	0xbb5dea4d	-0.0033861578
95	0xbd3cfd05	-0.046139736
96	0xbd3706e3	-0.044684302
97	0x3d206aed	0.039164472
98	0x3d3a6ff7	0.045516934
99	0x3c320553	0.010865527
100	0xbd4a367f	-0.049368378
101	0xbd36a847	-0.044594076
102	0x3ce89957	0.02839343
103	0x3d29c2ea	0.04144565
104	0x3c93140a	0.017953891
105	0x3c4c8ac0	0.012484252
106	0x3c215007	0.00984574
107	0xbc4e9fe0	-0.012611359
108	0x3d1b44d7	0.037907448
109	0x3c6b54f3	0.014363515
110	0xbc5b4d27	-0.013385094
111	0x3d34ca7a	0.04413841
112	0xbcea6c93	-0.028616225
113	0x3d42373a	0.04741595
114	0xbd3b2d92	-0.045697756
115	0x3d4b6a73	0.049662065
116	0xbc5ec240	-0.0135961175
117	0x3cbcac97	0.023031516
118	0x3d3a6815	0.045509417
119	0xbd38ab97	-0.045085516
120	0x3d08d09f	0.03340208
121	0x3d0ff00f	0.035141047
122	0x3ca927b7	0.02064882
123	0x3d3854ef	0.045002874
124	0xba90d933	-0.0011051059
125	0xbc55232d	-0.013008875
126	0xbd2a82e3	-0.04162873
127	0x3d3ea74f	0.046546277
128	0xbd18e14b	-0.03732423
129	0xbd457ae3	-0.048212897
130	0xbcd10ac7	-0.025517834
131	0x3cbe9a27	0.023266865
132	0x3d05ba05	0.032648105
133	0x3c933bc3	0.017972833
134	0xbd13077a	-0.035895802
135	0xbd1ff750	-0.039054215
136	0x3ccfe390	0.025377065
137	0x3cd85ec7	0.02641238
138	0xbcc9366a	-0.02456208
139	0xbae07500	-0.0017124712
140	0x3cf39ec7	0.029738797
141	0x3d1f1242	0.03883577
142	0x3d431ea2	0.047636636
143	0x3c6e8a47	0.014559335
144	0x3cceefba	0.025260795
145	0xbcdd11f7	-0.026986105
146	0xbcb7d30d	-0.022439504
147	0xbcbe8cd0	-0.023260504
148	0xbd0f25e8	-0.03494826
149	0x3d2427d8	0.04007706
150	0x39013000	0.0001232028
151	0x3d048020	0.032348752
152	0x3c9cb080	0.01912713
153	0x3cf1bff0	0.029510468
154	0xbc39fd07	-0.01135183
155	0x3d10f088	0.03538564
156	0xbc33b440	-0.010968268
157	0x3c48e887	0.01226247
158	0x3c6a74e7	0.014310098
159	0x3d2c0e9f	0.04200613
160	0xbba4f540	-0.005034119
161	0xbcd94823	-0.026523655
162	0xbd345d5b	-0.044034343
163	0xbd23c2b8	-0.03998062
164	0x3ce10ad0	0.027470976
165	0xbd380b4b	-0.044932645
166	0xbafa829a	-0.0019112409
167	0x3bd4bf80	0.006492555
168	0x3c9ccff7	0.019142134
169	0xbd2e8fab	-0.04261748
170	0xbd3c56e0	-0.045981288
171	0xbc4b1567	-0.012395239
172	0x3c867a20	0.016415656
173	0xba488a67	-0.0007650018
174	0xbbf54d0d	-0.007485992
175	0xbd07197f	-0.0329833
176	0xbd20baf5	-0.039240796
177	0x3cfe7d37	0.031065566
178	0x3c4e694d	0.012598348
179	0x3aa90b00	0.0012896955
180	0xba6e0d9a	-0.0009081006
181	0x3bd3bd1a	0.0064617516
182	0xbd04059b	-0.03223191
183	0x3c313a07	0.010817057
184	0xbcb3aafa	-0.021932114
185	0x3d1d9285	0.03846981
186	0x3d4aa248	0.04947117
187	0xbc6f2f4d	-0.01459868
188	0xbce72013	-0.028213536
189	0x3d101cc0	0.035183668
190	0x3c3b3b53	0.011427718
191	0x3d3a778f	0.045524176
192	0xbc99df20	-0.018783152
193	0x3ccf1bdd	0.025281841
194	0x3d10522f	0.035234626
195	0x3d48369b	0.0488802
196	0xbd136957	-0.03598913
197	0xbc6ccc13	-0.014452952
198	0xbd30482a	-0.04303757
199	0xbd18511d	-0.03718673
200	0xbd48a99f	-0.04898989
201	0x3d07c793	0.033149313
202	0x3d2ba968	0.041909605
203	0x3d4b8967	0.049691584
204	0x3ce4303d	0.027855033
205	0x3c9dc8bd	0.019260759
206	0x3d396c9a	0.045269586
207	0x3d2693e5	0.040668387
208	0xbc7ee51a	-0.015557552
209	0xbcdc771a	-0.02691226
210	0x3ce6f2c3	0.02819193
211	0xbd4472b5	-0.047960956
212	0xbcb4b347	-0.022058142
213	0x3d1dbf1d	0.038512338
214	0x3c35255a	0.011056269
215	0xbd0e0c40	-0.03467965
216	0xbd1c4883	-0.03815509
217	0xbc65003a	-0.013977105
218	0xbd311d9b	-0.043241125
219	0xbc33f073	-0.0109826205
220	0x3ca51413	0.020151174
221	0xbd46a090	-0.048492968
222	0xbd285a9d	-0.04110204
223	0x3cac2220	0.021012366
224	0x3d4b18d3	0.04958422
225	0xbbb6e527	-0.0055815163
226	0xbc957720	-0.01824528
227	0x3d111e27	0.035429146
228	0x3c1675c0	0.009183347
229	0x3cb4510d	0.022011304
230	0x3cb75133	0.022377586
231	0x3c1dfd9a	0.009642983
232	0xbc081400	-0.00830555
233	0xbd03cbe2	-0.03217686
234	0x3d28b8e2	0.041191943
235	0x3cb9c727	0.022677971
236	0xbb9c611a	-0.0047723176
237	0x3d40f82d	0.04711168
238	0x3c4952cd	0.012287808
239	0x3d19d060	0.037552238
240	0x3c899640	0.016795278
241	0x3bbe89cd	0.005814767
242	0x3d3a5485	0.04549076
243	0x3cf918bd	0.030407304
244	0x3cadf127	0.021233154
245	0x3cf6dfaa	0.030135948
246	0x3c9611b3	0.018318987
247	0xbd12b442	-0.03581644
248	0x3d138522	0.036015637
249	0xbd30d4bf	-0.04317164
250	0x3bb5c327	0.0055469456
251	0x3d050382	0.03247405
252	0x3d23377b	0.039847832
253	0xbd18f963	-0.03734721
254	0xbb84ae27	-0.004049081
255	0x3d364773	0.044501733

neural_predicates.digit.conv2.0.bias f4 [32]
0	0x3af24600	0.0018483996
1	0xbcb1e380	-0.021714926
2	0x3d25affa	0.040451027
3	0xbd134ebb	-0.035963755
4	0xbc03d8c7	-0.008047289
5	0xbb45db1a	-0.003019041
6	0xbce4e510	-0.027941257
7	0xbcfab6fa	-0.030604828
8	0xbcd7cfcd	-0.026344204
9	0xbb899b9a	-0.0041994574
10	0xbb27f233	-0.002562654
11	0x3c140ec0	0.00903672
12	0xbca71f77	-0.020400746
13	0xbccc4f70	-0.024940223
14	0x3d3d9643	0.04628588
15	0x3cfa4d9d	0.030554587
16	0x3d46492d	0.04840963
17	0xbc848140	-0.016174912
18	0xbd07a55a	-0.033116676
19	0x3d119f22	0.03555215
20	0xbbd0635a	-0.0063595
21	0x3c3603a0	0.011109263
22	0x3cfe7ead	0.031066263
23	0x3be5e1f3	0.0070154606
24	0x3c695d3a	0.014243418
25	0xba9e8267	-0.0012093306
26	0xbd20cd3d	-0.03925823
27	0xbc2ca9ed	-0.01053856
28	0x3c181f73	0.009284842
29	0x3cd99b03	0.026563173
30	0x3ce0857d	0.027407402
31	0x3ca15b7a	0.01969694

neural_predicates.digit.conv3.0.weight f4 [64, 32, 5, 5]
0	0xbd04fa54	-0.032465294
1	0xbc1f1ccd	-0.0097114565
2	0xbcbad900	-0.022808552
3	0x3caf867b	0.02142643
4	0x3c30d727	0.010793484
5	0xbd0611cf	-0.032731827
6	0xbd03b02a	-0.032150425
7	0x3cc49a73	0.023999428
8	0x3cb0cc73	0.021581864
9	0x3cfdc9e0	0.03098005
10	0xbbf75a83	-0.0075486316
11	0x3c218803	0.009859088
12	0xbcf5ec32	-0.030019853
13	0xbc635ba4	-0.013876829
14	0x3cf05dd7	0.029341621
15	0xbaecadb8	-0.0018057143
16	0x3c7b0000	0.015319824
17	0xbaf09470	-0.0018354785
18	0xbc3257fa	-0.010885233
19	0xbd062f5c	-0.03276001
20	0xbc4b6652	-0.012414532
21	0x3c89972c	0.016795717
22	0xbc8d0980	-0.017216444
23	0xbc906ab3	-0.017629003
24	0x3bd1ac7a	0.0063987346
25	0xbb9957ac	-0.0046796408
26	0x3c88ae5e	0.016684707
27	0xbc05ddef	-0.008170589
28	0x3a9b1f8b	0.0011834962
29	0x3c4e72cf	0.012600615
30	0x3c2ac071	0.010421858
31	0xbbb9ce3a	-0.005670336
32	0x3bf092d0	0.00734172
33	0xbc8f688b	-0.017505905
34	0xbd03d483	-0.03218509
35	0xbba24cb6	-0.0049529923
36	0xbac17459	-0.0014759406
37	0x3bfa7309	0.007643108
38	0xbc6d4862	-0.014482589
39	0x3cd0db18	0.025495097
40	0x3d0eaf22	0.03483499
41	0xbc92afc6	-0.017906081
42	0xbd0c2110	-0.03421122
43	0x3cf730e4	0.03017468
44	0x3cd442a6	0.025910687
45	0x3c028f8b	0.007968794
46	0x3afebfe5	0.0019435851
47	0xbcf299a0	-0.02961427
48	0xbaff63f2	-0.0019484742
49	0xbd043501	-0.03227711
50	0x3c82058d	0.015871787
51	0x3cb1be43	0.02169717
52	0x3c89f601	0.016840937
53	0xbbaeda20	-0.005336061
54	0x3c5b4d3e	0.013385115
55	0x3cc7e437	0.024400814
56	0xbcd043cb	-0.025422951
57	0x3c8b10ae	0.016975727
58	0xba0f14b3	-0.00054581015
59	0x3b3d0fd6	0.002884855
60	0xbccf2192	-0.025284562
61	0x3bb5e101	0.005550504
62	0xbcb81552	-0.022471104
63	0xbc169862	-0.009191604
64	0xbc5be479	-0.013421171
65	0xbba48227	-0.005020398
66	0x3c4ba1dc	0.012428727
67	0xbcb6e05c	-0.02232378
68	0xba927b92	-0.0011175743
69	0x3c164a56	0.0091729965
70	0xbcc1da4b	-0.02366366
71	0xbbc8c3b5	-0.0061268457
72	0xbc6374c7	-0.013882822
73	0xbc368b54	-0.011141617
74	0x3cb257ff	0.021770475
75	0x3cd0ce99	0.025489138
76	0xbc8ed14d	-0.017433787
77	0xbc77fa63	-0.01513538
78	0xbc371967	-0.01117549
79	0x3d09b443	0.033619177
80	0x3d04dc28	0.03243652
81	0x3ca72af6	0.020406228
82	0xbcb4f388	-0.022088781
83	0xbcfd48dd	-0.030918533
84	0xbc9a3d52	-0.018828068
85	0xbce19412	-0.027536426
86	0xb9496492	-0.00019206319
87	0x3ba1b84a	0.004935299
88	0x3b37e95d	0.002806268
89	0x3cd9ea75	0.026601056
90	0xbcc4a707	-0.024005426
91	0xbcec23e8	-0.028825715
92	0xbcf7117e	-0.030159708
93	0x3cf3f95e	0.029781993
94	0x3cb81a2c	0.022473417
95	0xbc5b33d2	-0.013379054
96	0x3d0f60aa	0.035004295
97	0x3cdd4bea	0.027013738
98	0x3c265d26	0.010154044
99	0xbbf36625	-0.007427948
100	0x3c56e747	0.013116664
101	0xb9ef7cfd	-0.00045678756
102	0xbcab9ee3	-0.020949787
103	0x34a9b4a5	3.161014e-07
104	0x3caf7346	0.021417271
105	0x3c9b7181	0.018975021
106	0xbca61332	-0.020272825
107	0x3cec3089	0.028831737
108	0x3b9a2dc8	0.0047051646
109	0x3cad141c	0.021127753
110	0xbc919d81	-0.017775299
111	0x3d0a214d	0.033723164
112	0x3c899687	0.01679541
113	0xbb3f9fbf	-0.0029239503
114	0xbcbeb4cd	-0.023279572
115	0xbc26947b	-0.010167236
116	0xbd06f6d8	-0.032950252
117	0xbc9e2e32	-0.019309137
118	0x3cf07d5e	0.029356655
119	0xbca95cf4	-0.020674206
120	0xbccac489	-0.024751918
121	0xbcc0994b	-0.023510596
122	0x3c136a2b	0.00899748
123	0x3ccc21cd	0.024918461
124	0xbce434f4	-0.027857281
125	0xbc5af649	-0.013364383
126	0xbcd0bc3f	-0.025480388
127	0x3cefb4fe	0.029261108
128	0x3cd7d597	0.026346965
129	0xbc67406f	-0.014114483
130	0xbc61b9f4	-0.013777245
131	0x3c55d379	0.013050907
132	0xbcebeeb7	-0.028800352
133	0xbd02a986	-0.03189995
134	0x3ca6e1db	0.020371368
135	0x3c9ebeab	0.019378027
136	0x3bb4f1b8	0.005521979
137	0xbd080b52	-0.03321392
138	0xbd08e32d	-0.033419777
139	0x3b9da123	0.0048104688
140	0xbc92798c	-0.017880224
141	0xb9ead7eb	-0.0004479283
142	0xbb36a22f	-0.0027867665
143	0x3ccd75f7	0.025080664
144	0x3b8a380d	0.0042181076
145	0x3c1a22fb	0.009407754
146	0x3d10cc6a	0.035351194
147	0xbc2569fe	-0.010096071
148	0xba840f7c	-0.0010075415
149	0x3b9c993e	0.00477901
150	0xbb343bc8	-0.0027501453
151	0x3cd91b0e	0.026502158
152	0x3cdb3713	0.02675966
153	0xbca350b3	-0.019935941
154	0x3c70f8d9	0.014707767
155	0x3cc46ac3	0.02397669
156	0xbcf29459	-0.029611753
157	0x3c99a295	0.018754283
158	0x3ccb3758	0.024806663
159	0xbc382554	-0.0112393685
160	0xbc0fcbc9	-0.0087766135
161	0xbbd13120	-0.00638403
162	0xbc96a560	-0.018389404
163	0xbc9d0afb	-0.019170275
164	0x3bdaece6	0.0066810725
165	0xbc002b74	-0.00782286
166	0x3c891b7c	0.016736738
167	0xbc739938	-0.014868073
168	0xbc8ded3a	-0.017325033
169	0xbc566c1a	-0.013087297
170	0x3c8d0a0a	0.017216701
171	0x3d057ea4	0.032591477
172	0xbca95f79	-0.020675408
173	0x3b300ffa	0.0026864992
174	0x3d0312e9	0.032000456
175	0xbbaf6935	-0.005353118
176	0xbccc2194	-0.024918355
177	0xbcc6fdd7	-0.024290962
178	0x3c8a0d8d	0.016852165
179	0xbce2d573	-0.027689671
180	0x3ccf55ca	0.025309462
181	0x3d0eebc3	0.03489281
182	0xbc859b80	-0.0163095
183	0x3c15219e	0.009102253
184	0x3cbb2013	0.022842443
185	0xbca1a8f9	-0.019733893
186	0xbd046e0e	-0.03233152
187	0x3ca33798	0.01992397
188	0x3cdf3c10	0.02725032
189	0x3b5783de	0.0032884995
190	0x3b755406	0.0037434115
191	0x3c111bae	0.008856697
192	0x3bf235ab	0.0073916516
193	0x3b8d70e4	0.004316436
194	0x3c292d9f	0.010325818
195	0xbc453968	-0.0120376125
196	0xbc44c509	-0.0120098675
197	0x3c03ffe0	0.008056611
198	0x3b529457	0.0032131874
199	0xbc31926e	-0.010838134
200	0xba808ac5	-0.0009806982
201	0xbc93647a	-0.017992247
202	0x3bfd57bb	0.0077314056
203	0x3ad348dd	0.0016119737
204	0xbc62ff27	-0.013854778
205	0x3bc41595	0.005984018
206	0x3ce95a8d	0.02848556
207	0x3cfbcfab	0.030738672
208	0x3cbe462d	0.023226822
209	0x3ca94fb4	0.020667888
210	0x3ce972e6	0.02849717
211	0x3afec4b4	0.0019437284
212	0xbcedc1e4	-0.029023118
213	0x3c1001cb	0.00878949
214	0xbcb6546a	-0.022257049
215	0xbc6ce396	-0.014458558
216	0xbb5d4075	-0.0033760343
217	0x3cc6bfc8	0.02426137
218	0x3adb2dea	0.0016722057
219	0xbcb69240	-0.022286534
220	0xbba731c7	-0.0051023695
221	0x3c673e50	0.014113978
222	0x3d0597e0	0.032615542
223	0xbc98e2d5	-0.01866285
224	0xbcfcefb0	-0.03087601
225	0x3cdf72a7	0.02727635
226	0xbccdc7a7	-0.025119616
227	0x3cd37465	0.025812337
228	0xbd0271b6	-0.031846724
229	0xbc122ac0	-0.008921325
230	0xbd0d3bed	-0.034480978
231	0xbcd4dd68	-0.025984481
232	0x3ce9ada0	0.028525174
233	0x3d0b166b	0.033956926
234	0xbcddc074	-0.027069308
235	0xbcb6f458	-0.022333309
236	0x3d107f46	0.035277627
237	0x3c3aa343	0.011391464
238	0xbc51aa21	-0.01279691
239	0xbc011871	-0.007879362
240	0x3d0bb134	0.03410454
241	0x3c962ef4	0.018332936
242	0xbbf12ace	-0.007359839
243	0xbc929eac	-0.017897926
244	0xbaadb836	-0.0013253752
245	0xbd0e855a	-0.034795143
246	0xbb4b5441	-0.003102556
247	0x3be0962f	0.006853841
248	0x3c4544ea	0.012040356
249	0x3cfeb860	0.031093776
250	0x3bd42545	0.0064741694
251	0x3cb0535e	0.021524128
252	0xba571668	-0.0008204938
253	0xbc648759	-0.013948285
254	0xbc651661	-0.013982386
255	0x3cb1c8f3	0.021702265

neural_predicates.digit.conv3.0.bias f4 [64]
0	0x3cb29104	0.021797664
1	0x3cb5a531	0.022173496
2	0xbcf1d752	-0.029521618
3	0xbceedb0e	-0.029157188
4	0xbbfb0642	-0.007660658
5	0xba98d438	-0.0011659926
6	0xbcf849a5	-0.030308554
7	0x3c016ede	0.007899968
8	0x3cc47e0d	0.023985887
9	0xbb135deb	-0.00224864
10	0xbb026ac1	-0.0019900056
11	0x3c79ce55	0.015246947
12	0xbc363745	-0.011121576
13	0xbb51f6f0	-0.0032038055
14	0x3c9d365d	0.019190961
15	0x3c063781	0.008191944
16	0xbb7c0ee4	-0.0038461024
17	0x3ce4485f	0.02786654
18	0x3ced24c7	0.0289482
19	0xb7af2f8b	-2.0883765e-05
20	0x3cfdfcfe	0.031004425
21	0xb9e7bb6f	-0.00044199402
22	0xbceda881	-0.029011013
23	0x3d05d3c6	0.032672666
24	0xbcbca949	-0.02302994
25	0xbcd14873	-0.025547242
26	0x3a590f48	0.000828017
27	0x3cc9e648	0.02464594
28	0xbcdcf93e	-0.026974317
29	0x3c5347e9	0.012895563
30	0xbc8b2b1e	-0.016988333
31	0x3d069cb0	0.032864273
32	0xbccb040d	-0.024782205
33	0xbcf18309	-0.029481428
34	0x3d0c6d3d	0.034283865
35	0x3c0f7200	0.008755207
36	0x3b8dc372	0.0043262774
37	0xbceafd3f	-0.02868521
38	0x3bd82cd5	0.0065971413
39	0xbc95f8c8	-0.018307105
40	0xbd0de5cc	-0.03464298
41	0xbd05dbbd	-0.032680262
42	0xbcb94c96	-0.022619527
43	0xbcd1e70e	-0.02562287
44	0x3bbf709e	0.0058422824
45	0xbc647a52	-0.013945179
46	0xbc63451a	-0.013871456
47	0xbcf2b291	-0.029626163
48	0xbb72bb34	-0.0037037851
49	0x3b93e8ef	0.004513852
50	0xbc6f3cdf	-0.014601915
51	0x3bfec694	0.007775137
52	0x3d065ea0	0.032805085
53	0xbcba7db2	-0.022765014
54	0xbcca0125	-0.024658749
55	0x3cf05469	0.029337125
56	0x3a7e9b20	0.00097124465
57	0x3c58f6cc	0.013242435
58	0xba30eb0a	-0.0006748891
59	0xba3e67b3	-0.0007263377
60	0x3c1a502f	0.009418531
61	0x3c04c42b	0.008103411
62	0x3bd9bcd7	0.006644826
63	0xbcfc1169	-0.03077002

neural_predicates.digit.out.weight f4 [5, 576]
0	0x3d07e824	0.03318037
1	0x3cf88a83	0.030339485
2	0x3d145abe	0.03621935
3	0x3d9b279d	0.07575915
4	0x3d811cc4	0.06304315
5	0x3e032b90	0.12809587
6	0x3dd43c03	0.10363009
7	0x3d895161	0.06704975
8	0x3d3bfa33	0.045892905
9	0x3d0cfeae	0.03442257
10	0xbc34669b	-0.011010791
11	0x3c49abd3	0.0123090325
12	0x3d017a7a	0.031610943
13	0xbd11ebdf	-0.035625335
14	0xbd230294	-0.03979738
15	0xbd90db12	-0.07073034
16	0xbe407cdf	-0.18797635
17	0xbd7ac3b3	-0.06122179
18	0xbc873df1	-0.016509028
19	0xbc0581c6	-0.008148616
20	0xbdb240ac	-0.087037414
21	0xbdeddcf8	-0.11614412
22	0xbdd9f897	-0.10643118
23	0xbd6f8693	-0.05847795
24	0xbd29f3a9	-0.041492138
25	0xbe11582e	-0.14193794
26	0xbe287b10	-0.16453195
27	0xbe33c501	-0.1755562
28	0xbd9c4a09	-0.076313086
29	0xbda9799d	-0.08275149
30	0x3ce3d013	0.027809178
31	0x3cff0946	0.031132352
32	0x3c728328	0.014801778
33	0xbd9a931c	-0.0754759
34	0xbded67cc	-0.11592063
35	0xbd4a72f0	-0.04942602
36	0xbd325c18	-0.04354486
37	0xbd9de0c2	-0.07708885
38	0xbe05e2df	-0.13074826
39	0xbd35475b	-0.044257503
40	0xbc8aad57	-0.016928358
41	0xbcf27355	-0.02959601
42	0x3ca1f745	0.019771228
43	0xbc015852	-0.007894592
44	0x3d485981	0.048913483
45	0xbd8794e6	-0.06620197
46	0xbe19e771	-0.15029694
47	0xbde802e7	-0.113286786
48	0xbc993ba7	-0.018705202
49	0xbd950514	-0.07276359
50	0xbdb243f7	-0.087043695
51	0xbd997b5e	-0.074942335
52	0xbcdf0882	-0.027225737
53	0xbc9ebaa1	-0.019376101
54	0xbc7a1505	-0.0152638005
55	0x3c78c19f	0.015182882
56	0xbd06f63f	-0.032949682
57	0xbded40a0	-0.11584592
58	0xbe060a17	-0.13089786
59	0xbbb9f851	-0.0056753536
60	0xbd7cb45c	-0.06169544
61	0xbdbff8a9	-0.093736
62	0xbe599ae6	-0.21250495
63	0xbdeb6d3c	-0.11495444
64	0xbd941e35	-0.07232324
65	0xbd3dba36	-0.046320163
66	0x3d744c60	0.05964315
67	0x3d0b9d20	0.034085393
68	0xbe0483e4	-0.12940937
69	0xbe19af1f	-0.1500821
70	0x3c4e88f7	0.012605897
71	0x3c11e214	0.008903999
72	0x3cb6b231	0.022301765
73	0xbdb3e740	-0.08784342
74	0xbe6b5dde	-0.22985026
75	0xbe100ba9	-0.14066948
76	0xbd16725c	-0.036730155
77	0xbcf2fea0	-0.02966243
78	0xbd6fb660	-0.058523536
79	0xbe057743	-0.13033776
80	0xbd1e7575	-0.038686235
81	0x3d3cb1ac	0.04606788
82	0x3db07971	0.08616913
83	0x3d5e0204	0.05420114
84	0x3da8605e	0.082215056
85	0xbd351803	-0.044212352
86	0xbde8c3f5	-0.11365501
87	0xbe16089f	-0.14651726
88	0xbdb5e17d	-0.08880899
89	0xbdfe439a	-0.12415238
90	0xbd923f0c	-0.071409315
91	0x3a01da5f	0.00049534993
92	0x3d8645d8	0.065562904
93	0x3dc0762c	0.093975395
94	0x3bac203c	0.005252866
95	0x3d103347	0.035205152
96	0x3cfa8dcf	0.030585198
97	0xbd85ca3a	-0.06532712
98	0xbdb0c45b	-0.08631202
99	0xbe23e02f	-0.16003488
100	0xbe04670e	-0.12929937
101	0xbd718586	-0.05896523
102	0xbd1b95b3	-0.03798456
103	0x3c8cdfcb	0.017196557
104	0x3dcf35bf	0.10117673
105	0x3bd1be33	0.0064008473
106	0x3d0acd48	0.033887178
107	0x3d09a055	0.03360017
108	0xbca68ee9	-0.020331817
109	0xbd3e83cc	-0.04651241
110	0x3b35a03b	0.0027713913
111	0xbd160ea4	-0.036635056
112	0xbcae7231	-0.021294685
113	0xbce2fe1c	-0.02770906
114	0x3db488b3	0.08815136
115	0x3d7511f4	0.059831575
116	0xbcdb3b37	-0.026761634
117	0x3c16fffc	0.009216305
118	0x3ce1f51f	0.027582703
119	0xbcd58408	-0.026063934
120	0x3caf6691	0.021411212
121	0x3d0e6bda	0.034770824
122	0x3d075b74	0.0330462
123	0x3d48f93d	0.049065817
124	0xbc4e2629	-0.01258234
125	0x3c99d91d	0.018780285
126	0x3d51bcf8	0.051205605
127	0x3cbfcf81	0.023414375
128	0x3d8e16e0	0.06937957
129	0xbb3477d0	-0.0027537234
130	0xbdbc453d	-0.09192894
131	0xbd949dd4	-0.07256666
132	0x3d0ae2fb	0.03390787
133	0x3d57b25d	0.052660335
134	0x3c1ede86	0.009696608
135	0x3ba67b8a	0.005080645
136	0x3d5450f9	0.051835034
137	0x3d81ea5c	0.06343529
138	0x3dba73ef	0.09104144
139	0x3df19275	0.117955126
140	0x3d8d1168	0.068880856
141	0x3cdcb42f	0.026941387
142	0xbd2ad5de	-0.041707866
143	0xbe3bb2f3	-0.18329982
144	0x3c815c4a	0.015791077
145	0x3c8692b6	0.01642738
146	0xbcb73409	-0.02236368
147	0x3d3ea190	0.046540797
148	0x3bfa9861	0.0076475595
149	0x3dc903b2	0.09815158
150	0x3cfa4b31	0.030553432
151	0x3d905bc6	0.070487544
152	0xba81e0b6	-0.0009908888
153	0x3b7a706d	0.0038213984
154	0x3d9077bf	0.0705409
155	0x3ce19f86	0.027541887
156	0x3c178015	0.009246846
157	0xbd3b26a5	-0.04569115
158	0xbd4307e8	-0.04761496
159	0x3c73f371	0.014889584
160	0x3d2cab41	0.042155508
161	0x3c069274	0.008213628
162	0xbc89ba3f	-0.016812442
163	0xbc24cc75	-0.010058512
164	0xbd25d5c2	-0.04048706
165	0xbd1d05ae	-0.038335495
166	0xbc9616ec	-0.018321477
167	0x3d4e2240	0.050325632
168	0xbdd75175	-0.105135836
169	0xbdb2ad74	-0.0872449
170	0xbe04ea81	-0.12980081
171	0xbd901223	-0.07034709
172	0xbd8daa41	-0.06917239
173	0xbda37eb9	-0.07983155
174	0xbdc6fc70	-0.097161174
175	0xbd96e346	-0.07367568
176	0x3b860f61	0.004091189
177	0x3c717902	0.014738323
178	0xbbb2f118	-0.0054608695
179	0x3cc68580	0.02423358
180	0xbdf0f5ea	-0.117656544
181	0xbc9d6962	-0.01921529
182	0x3ccfa2bb	0.02534615
183	0xbcddae9a	-0.027060796
184	0xbc6a3b48	-0.01429636
185	0x3c464bb8	0.012103014
186	0x3cd1a645	0.025591979
187	0x3cccf027	0.025016857
188	0x3d82e37e	0.06391047
189	0x3c9bfe18	0.01904206
190	0x3cc69f3d	0.024245853
191	0x3cc6f4a2	0.024286572
192	0xbe4c9bed	-0.19981356
193	0xbd222d76	-0.039594136
194	0xbcce92db	-0.02521651
195	0xbdcd56a1	-0.10026289
196	0x3caa327a	0.020776022
197	0x3ae704a7	0.0017625288
198	0x3d141cd7	0.036160316
199	0x3dd5ef7b	0.10446068
200	0x3c393202	0.011303427
201	0xbd94546b	-0.07242664
202	0xbd9875ba	-0.074443296
203	0x3d09eb2b	0.03367154
204	0xbdc1d5f0	-0.094646335
205	0xbd1e60f5	-0.038666684
206	0xbd49ce7f	-0.049269196
207	0xbd544a63	-0.051828753
208	0xbb250a9d	-0.0025183328
209	0x3d536fc3	0.051620256
210	0x3d846787	0.06465059
211	0x3cd2cef0	0.025733441
212	0xbd86c7c4	-0.06581071
213	0xbdeb550f	-0.11490833
214	0xbe06a6e2	-0.13149598
215	0xbd3a5d14	-0.045498922
216	0xbd2dab58	-0.042399734
217	0xbcb93272	-0.022607062
218	0xbdcf0369	-0.10108072
219	0xbd7778bb	-0.060417872
220	0xbccca4a4	-0.02498085
221	0xbd3aae05	-0.045576114
222	0xbdc42646	-0.095776126
223	0xbd48e8a6	-0.049049996
224	0x3cd639b0	0.026150554
225	0x3d837bfd	0.06420133
226	0xbda8478e	-0.08216773
227	0xbe014234	-0.1262291
228	0x3c86b1a3	0.016442126
229	0xb9548631	-0.00020267886
230	0x3d11aa42	0.03556276
231	0x3d81d2fb	0.063390695
232	0xbe26d576	-0.16292366
233	0xbe186587	-0.1488248
234	0xbe00879b	-0.1255173
235	0x3d68b0b5	0.056809146
236	0x3ddb651c	0.107126445
237	0x3dc2e48b	0.09516247
238	0x3d5a5326	0.053301953
239	0xbddc351a	-0.10752316
240	0xbc9d95a4	-0.019236393
241	0xbd1ce9f4	-0.038309053
242	0x3d1e5f2d	0.038664985
243	0x3da15f83	0.078795455
244	0xbe2d5697	-0.16927563
245	0xbd7c98a8	-0.06166902
246	0xbc1469f5	-0.009058465
247	0x3da69b54	0.08135095
248	0x3d94d918	0.0726797
249	0x3d713631	0.05888957
250	0x3d8495d5	0.06473891
251	0xbd898d06	-0.06716351
252	0x3ccbb86e	0.024868216
253	0x3c3bbbf0	0.011458382
254	0x3deb6ded	0.11495576
255	0x3cf9b964	0.030483909

neural_predicates.digit.out.bias f4 [5]
0	0xbce4e88f	-0.027942924
1	0x3d279944	0.04091765
2	0x3d011fe1	0.031524543
3	0xbd08a65f	-0.03336179
4	0xbc39e469	-0.011345961

exp_avg f4 [4, 1, 9, 9]
0	0x3b0ae2f7	0.002119241
1	0x3b05e386	0.0020429804
2	0x3b020e4a	0.0019844943
3	0x3aa90a64	0.0012896773
4	0x3add6510	0.0016891081
5	0x3a4a3922	0.0007714202
6	0x3adb3c54	0.0016726353
7	0x3b47993d	0.0030456327
8	0x3b2cf3e8	0.0026390497
9	0x3a8af2b1	0.0010600892
10	0xba05f4e1	-0.0005110037
11	0xbafffe32	-0.0019530712
12	0xbb709af3	-0.003671345
13	0xbae21a23	-0.0017250221
14	0xbac16574	-0.0014754967
15	0xba32eff6	-0.0006825918
16	0x392b7c89	0.00016354224
17	0xba0a0ef3	-0.000526651
18	0x3a32d673	0.00068221166
19	0xbafc5bf5	-0.001925348
20	0xbb84d457	-0.004053633
21	0xbbada01b	-0.005298627
22	0xbb5cc410	-0.0033686198
23	0xbb11e8f4	-0.0022264095
24	0xbad71040	-0.0016408041
25	0xba18c6c2	-0.0005827957
26	0xbab62e74	-0.0013899342
27	0xba841e2f	-0.0010079796
28	0xbb691dd4	-0.0035570757
29	0xbb8e666e	-0.0043457067
30	0xbb39abf2	-0.0028331247
31	0xba818283	-0.0009880814
32	0xba7ea7ee	-0.00097143545
33	0xbaad7d2c	-0.0013236157
34	0xb9cbb636	-0.00038854935
35	0xbac81761	-0.0015265757
36	0xbaa1a49a	-0.001233238
37	0xbafc303b	-0.0019240448
38	0xb9a2fff3	-0.00031089745
39	0x3b0f61ef	0.0021878441
40	0x3b11db90	0.0022256114
41	0x3acee015	0.0015783334
42	0x3a6b3e1e	0.0008973795
43	0x3b0b8a2d	0.0021292076
44	0x3a1f072d	0.0006066438
45	0x3a6e0f34	0.0009081245
46	0x3abcebd3	0.0014413543
47	0x3b47999f	0.0030456556
48	0x3b83a57e	0.004017531
49	0x3b746441	0.0037291201
50	0x3b37c44c	0.0028040586
51	0x3b213691	0.0024599175
52	0x3b6033a1	0.003421046
53	0x3ac9340a	0.0015350592
54	0x3b37ab95	0.0028025855
55	0x3b95d88e	0.0045729345
56	0x3ba66b15	0.005078683
57	0x3b98fff5	0.0046691843
58	0x3b7312cf	0.0037090068
59	0x3ad34794	0.0016119354
60	0x3ab89468	0.0014082314
61	0x3b0d4ffd	0.002156257
62	0x3a556d1f	0.00081415655
63	0x3b9110b6	0.004427041
64	0x3bc943d4	0.006142119
65	0x3bca2fa4	0.00617023
66	0x3bac0c49	0.005250488
67	0x3b87a4fb	0.0041395403
68	0x3af4acd6	0.0018667232
69	0x3a2f1174	0.0006678321
70	0x3ad15a61	0.001597237
71	0x3a81024c	0.0009842603
72	0x3b849288	0.004045788
73	0x3bb848e0	0.0056239218
74	0x3bb99585	0.005663576
75	0x3b9164ff	0.0044370885
76	0x3b7a6b40	0.0038210899
77	0x3b186cea	0.0023258277
78	0x3aa56987	0.001261995
79	0x3b28de9a	0.0025767446
80	0x3a9ffdab	0.0012206336
81	0x3bac5f80	0.005260408
82	0x3bad54c3	0.0052896454
83	0x3baed8c6	0.0053359
84	0x3baac411	0.005211361
85	0x3b695e75	0.003560928
86	0x3b0bd2ed	0.0021335438
87	0x3b212263	0.0024587146
88	0x3bcd0fb6	0.0062579764
89	0x3bf9acc0	0.0076194704
90	0x3c0010cf	0.0078165075
91	0x3bf4d652	0.007471838
92	0x3bb999da	0.0056640925
93	0x3b7459e3	0.0037285022
94	0x3b3201c2	0.0027161692
95	0x3af04c9e	0.001833338
96	0x3b3ed9cb	0.0029121514
97	0x3bbf7b91	0.0058435877
98	0x3bf04ea2	0.0073335925
99	0x3c17cc20	0.009264976
100	0x3bfebd04	0.0077739973
101	0x3bb8fa7a	0.0056450935
102	0x3b6f87f6	0.0036549545
103	0x3b897d9a	0.004195881
104	0x3bb67bcf	0.0055689584
105	0x3bce5bf0	0.006297581
106	0x3bd9ef2c	0.006650826
107	0x3be509a8	0.0069896765
108	0x3bc89167	0.006120849
109	0x3b8871a7	0.004163939
110	0x3b91301a	0.004430783
111	0x3b73f310	0.0037223734
112	0x3bd11db2	0.006381714
113	0x3c1937b6	0.009351661
114	0x3c28a0e1	0.010292263
115	0x3c17a43b	0.009255464
116	0x3bf14d75	0.00736397
117	0xba329ce0	-0.00068135373
118	0xba0a1e76	-0.0005268821
119	0x3b5b1e57	0.0033434832
120	0x3bbe1f2b	0.0058020554
121	0x3c131f66	0.008979654
122	0x3c49dc24	0.012320552
123	0x3c5981e1	0.013275594
124	0x3c48208b	0.01221479
125	0x3bfd32a2	0.007726983
126	0xbb798004	-0.0038070688
127	0xbb436e51	-0.0029820392
128	0x3a372bfc	0.000698745
129	0x3b9977ed	0.0046834857
130	0x3c23b39f	0.0099915555
131	0x3c6f0de0	0.01459071
132	0x3c74e82a	0.01494793
133	0x3c5787b1	0.01315491
134	0x3bfa9fc7	0.0076484415
135	0xb9e7c3a7	-0.00044205526
136	0xb977fe4d	-0.0002365049
137	0x39b5861f	0.00034622938
138	0x3b63ccba	0.0034759478
139	0x3c1f167d	0.0097099515
140	0x3c6b75be	0.014371334
141	0x3c6d66c2	0.014489831
142	0x3c543abd	0.012953457
143	0x3c0cd5eb	0.008595924
144	0x3b9cd446	0.004786047
145	0x3b5a97b2	0.0033354578
146	0x3b2f398e	0.0026737186
147	0x3b9f8495	0.0048681
148	0x3c2150c4	0.009845916
149	0x3c411a29	0.011786022
150	0x3c3d8c42	0.011569085
151	0x3c3a022a	0.011353055
152	0x3c221248	0.009892054
153	0x3bc1ed71	0.005918198
154	0x3bb0c9b8	0.0053951405
155	0x3bac2cf5	0.0052543827
156	0x3bd101e2	0.0063783983
157	0x3c0c0280	0.008545518
158	0x3c0e688c	0.008691918
159	0x3c172b6d	0.009226662
160	0x3c34acaa	0.011027494
161	0x3c2d14ce	0.010564042
162	0xbb415bf1	-0.0029504264
163	0xbb3b1689	-0.0028547368
164	0xbb0e5645	-0.00217189
165	0xbae4b6d1	-0.0017449503
166	0xbb11bf37	-0.0022239217
167	0xbb357c5f	-0.002769254
168	0xbb27bdc5	-0.002559529
169	0xbb1736c6	-0.002307342
170	0xbaf12137	-0.001839674
171	0xbb15d99e	-0.0022865306
172	0xbb1b8fad	-0.002373676
173	0xbac2708c	-0.0014834567
174	0xbacb5744	-0.0015513678
175	0xbb0284e4	-0.0019915635
176	0xbb2b4494	-0.0026133405
177	0xbb6e8ce8	-0.0036399905
178	0xbb39f740	-0.0028376132
179	0xbafe7376	-0.0019413072
180	0xbb405ab3	-0.0029350936
181	0xbaedb470	-0.001813544
182	0xba8a9e27	-0.0010575698
183	0xbac4764d	-0.001498887
184	0xbaff9bd9	-0.0019501402
185	0xbb252e13	-0.0025204464
186	0xbb5312e8	-0.0032207314
187	0xbb496eef	-0.0030736288
188	0xbafabd4b	-0.00191299
189	0xbb2e897c	-0.002663224
190	0xbadce7c0	-0.0016853735
191	0xbabc32a9	-0.001435836
192	0xbaceb2bb	-0.0015769819
193	0xbb16b81e	-0.0022997926
194	0xbb38414c	-0.0028115092
195	0xbb55f717	-0.0032648498
196	0xbb21a9ff	-0.0024667976
197	0xbacbbda7	-0.0015544192
198	0xbb432cf4	-0.0029781433
199	0xbaf6da86	-0.0018833436
200	0xbaa19f3a	-0.0012330778
201	0xbb2b060b	-0.0026096131
202	0xbb7a31e0	-0.00381767
203	0xbb612474	-0.0034354003
204	0xbb76839d	-0.0037615069
205	0xbb24232a	-0.0025045373
206	0xbb10ee13	-0.002211456
207	0xbb3aeacd	-0.00285213
208	0xbb0ca5b6	-0.0021461076
209	0xbb1144bc	-0.0022166213
210	0xbb664d1e	-0.003514118
211	0xbb82520f	-0.0039770673
212	0xbb879ec7	-0.004138801
213	0xbb8db6cd	-0.00432477
214	0xbb5280a5	-0.0032120135
215	0xbb2b6d8e	-0.002615783
216	0xbb49ff09	-0.0030822179
217	0xbac2a4d3	-0.0014850147
218	0xbb220036	-0.0024719364
219	0xbb696190	-0.003561113
220	0xbb82d039	-0.003992107
221	0xbb8f9c1b	-0.004382623
222	0xbb903a7b	-0.0044015027
223	0xbb358e10	-0.0027703084
224	0xbb126e42	-0.002234355
225	0xbb1a565d	-0.0023550012
226	0xba9f5e29	-0.0012158799
227	0xbaf85b2b	-0.0018948069
228	0xbb5be842	-0.0033555184
229	0xbb86c26f	-0.0041125338
230	0xbb83ed6d	-0.004026106
231	0xbb85119f	-0.0040609385
232	0xbb4cda1c	-0.0031257933
233	0xbb364416	-0.0027811578
234	0xbb2ad7f4	-0.002606866
235	0xbabd01d0	-0.0014420096
236	0xbb037c79	-0.0020063205
237	0xbb75540d	-0.0037434131
238	0xbb90eb29	-0.0044225645
239	0xbba6c255	-0.005089084
240	0xbba221ba	-0.004947868
241	0xbb86f08f	-0.0041180323
242	0xbb63b674	-0.0034746202
243	0xbba09adb	-0.0049012727
244	0xbbba6df9	-0.0056893793
245	0xbbc40a9b	-0.0059827096
246	0xbbdad1a6	-0.006677824
247	0xbbeb8aee	-0.0071881926
248	0xbbb7c44c	-0.005608117
249	0xbb605f46	-0.0034236475
250	0xbb5f1ea0	-0.0034045354
251	0xbb20d713	-0.0024542257
252	0xbb94b5b0	-0.0045382604
253	0xbbce38a3	-0.0062933727
254	0xbbbae875	-0.0057039806
255	0xbbb92f82	-0.0056514153

exp_avg_sq f4 [4, 1, 9, 9]
0	0x3a6c5e7a	0.00090167637
1	0x3a6640bd	0.00087834505
2	0x3a63f227	0.00086954463
3	0x3a51afa8	0.0007998892
4	0x3a252cd3	0.000630093
5	0x3a0acd22	0.00052948494
6	0x39e02fe9	0.00042760305
7	0x399c1a89	0.0002977441
8	0x3993314f	0.00028074763
9	0x3a62b4b5	0.0008648143
10	0x3a56630a	0.000817821
11	0x3a488db5	0.00076505105
12	0x3a292a93	0.00064531824
13	0x3a00aab4	0.0004908249
14	0x39df7048	0.0004261753
15	0x39c8f2c6	0.00038327853
16	0x3991567c	0.0002772099
17	0x398f5c50	0.00027343864
18	0x3a48e517	0.00076635316
19	0x3a395c1f	0.0007070917
20	0x3a22bc3c	0.00062078587
21	0x3a0bf3d9	0.00053387653
22	0x39f4e022	0.000467063
23	0x39dd1faf	0.0004217601
24	0x39c51480	0.00037590042
25	0x398cd497	0.00026861273
26	0x39931ec9	0.00028060962
27	0x3a4accbf	0.0007736198
28	0x3a3dddbc	0.0007242819
29	0x3a222556	0.0006185373
30	0x3a0a02b4	0.0005264685
31	0x39e44943	0.00043542133
32	0x39bf2d9e	0.00036464346
33	0x39bcca8d	0.00036009066
34	0x39ad5e37	0.00033067327
35	0x39b5ad16	0.0003465197
36	0x3a5961c8	0.00082924636
37	0x3a475331	0.0007603644
38	0x3a232d3d	0.00062246976
39	0x3a0da638	0.00054034917
40	0x3a064da8	0.0005123266
41	0x3a023723	0.00049673225
42	0x3a070336	0.000515032
43	0x39fdcc52	0.0004840815
44	0x39dedafe	0.00042506302
45	0x3a7e898a	0.0009709826
46	0x3a6a1e3c	0.0008930897
47	0x3a48d93c	0.0007661765
48	0x3a38daa4	0.0007051623
49	0x3a313f78	0.0006761472
50	0x3a3764a5	0.0006995893
51	0x3a380022	0.0007019063
52	0x3a1cd097	0.000598201
53	0x3a00060a	0.00048837124
54	0x3a964064	0.0011463282
55	0x3a8bdf94	0.001067149
56	0x3a79a3dd	0.0009523014
57	0x3a69f42e	0.000892463
58	0x3a5113f7	0.0007975692
59	0x3a45493a	0.0007525865
60	0x3a407617	0.00073418155
61	0x3a13fbcd	0.0005645126
62	0x39e04fd9	0.000427841
63	0x3aa19a96	0.0012329395
64	0x3a9555c5	0.0011393359
65	0x3a8913fb	0.0010458225
66	0x3a81ce97	0.0009903488
67	0x3a608df6	0.00085660757
68	0x3a49bbc0	0.00076955184
69	0x3a3b79e5	0.00071516476
70	0x3a0490c6	0.00050569733
71	0x39d41d49	0.0004045761
72	0x3aa3548e	0.0012461112
73	0x3a94e39f	0.001135934
74	0x3a85ff82	0.0010223242
75	0x3a78ba19	0.000948818
76	0x3a5a140c	0.0008319027
77	0x3a3f6214	0.00073006866
78	0x3a29f739	0.00064836774
79	0x39ec733d	0.00045099287
80	0x39cd2800	0.0003913045
81	0x3a4d4d9f	0.0007831696
82	0x3a8aca5e	0.0010588875
83	0x3a8ea3b1	0.0010882524
84	0x3a8b2e1b	0.0010618599
85	0x3a816561	0.0009872132
86	0x3a6c1585	0.0009005892
87	0x3a6ff84b	0.0009154125
88	0x3a5e8f2f	0.0008489964
89	0x3a56f10c	0.0008199371
90	0x3a800c26	0.0009769246
91	0x3aa1d872	0.0012347831
92	0x3a96813d	0.0011482608
93	0x3a8cfd89	0.0010756712
94	0x3a7f0a0c	0.0009728975
95	0x3a6133ef	0.00085908076
96	0x3a5d2b21	0.00084369077
97	0x3a4793dc	0.00076132803
98	0x3a3fb5d7	0.0007313168
99	0x3a888eda	0.001041855
100	0x3a9b4b4a	0.0011847999
101	0x3a8ef562	0.001090687
102	0x3a813c7e	0.0009859947
103	0x3a716a38	0.0009209248
104	0x3a64aa67	0.00087229017
105	0x3a5e69bc	0.00084843836
106	0x3a4a2cee	0.00077123835
107	0x3a47083d	0.0007592475
108	0x3a5854d7	0.0008252388
109	0x3a701a58	0.0009159199
110	0x3a7963cb	0.00095134665
111	0x3a7d39b7	0.0009659784
112	0x3a74aebb	0.0009333898
113	0x3a7a06bf	0.00095377484
114	0x3a7b489a	0.00095857086
115	0x3a598e28	0.0008299076
116	0x3a524231	0.00080207275
117	0x3a30593a	0.0006727163
118	0x3a4ec169	0.0007887097
119	0x3a6c38e8	0.0009011165
120	0x3a836b2a	0.0010026444
121	0x3a86f2f2	0.0010295792
122	0x3a93dcb7	0.0011280988
123	0x3a9635f0	0.0011460166
124	0x3a7397ff	0.00092923635
125	0x3a67299a	0.000881815
126	0x3a4325b7	0.00074442796
127	0x3a6112d5	0.0008585875
128	0x3a7864a2	0.00094754447
129	0x3a8cae90	0.0010733176
130	0x3a9538b3	0.0011384696
131	0x3aa4952d	0.0012556665
132	0x3aa5b928	0.0012643682
133	0x3a89f68f	0.0010525751
134	0x3a81e322	0.000990961
135	0x3a7749cc	0.0009433299
136	0x3a8b50db	0.0010628955
137	0x3a912456	0.0011073451
138	0x3a995991	0.0011699667
139	0x3a9c6b83	0.0011933896
140	0x3aaa3039	0.0012984342
141	0x3aaccdb7	0.0013183866
142	0x3a98722c	0.0011630706
143	0x3a8f83c4	0.0010949303
144	0x3a9097c7	0.0011031561
145	0x3a9c5c72	0.0011929406
146	0x3a9b2649	0.0011836971
147	0x3a9784fb	0.0011560017
148	0x3a95f157	0.0011439723
149	0x3aa61cbd	0.001267336
150	0x3aaa8ceb	0.0013011968
151	0x3a97f183	0.0011592362
152	0x3a8af254	0.0010600784
153	0x3a7c8468	0.0009632767
154	0x3a84b88a	0.0010125798
155	0x3a7dee6f	0.00096867135
156	0x3a7642d6	0.00093941146
157	0x3a77551a	0.00094349834
158	0x3a89a058	0.0010500057
159	0x3a8e3ce5	0.0010851888
160	0x3a72e5b9	0.0009265799
161	0x3a59f8fd	0.0008314995
162	0x38a274fa	7.7465505e-05
163	0x388ac68c	6.617335e-05
164	0x3898669b	7.2670366e-05
165	0x38e996eb	0.000111384164
166	0x39382ed1	0.00017565048
167	0x395902af	0.00020695732
168	0x39420898	0.00018504483
169	0x3930ad1d	0.00016849158
170	0x3942a034	0.00018560962
171	0x38b5a15b	8.660807e-05
172	0x38ac93ca	8.229127e-05
173	0x38cd3ad7	9.7861215e-05
174	0x391644da	0.00014330764
175	0x3960be01	0.00021433087
176	0x398443b2	0.0002522744
177	0x396accbe	0.00022392251
178	0x394fe448	0.000198261
179	0x396296c3	0.00021609203
180	0x38ba2bd4	8.877335e-05
181	0x38b4ec64	8.6271e-05
182	0x38d80e8c	0.00010302392
183	0x39232cd8	0.00015561597
184	0x39711ce9	0.00022994321
185	0x3995a186	0.0002853984
186	0x398d1af0	0.00026913686
187	0x3984edcf	0.00025354183
188	0x3990c74c	0.00027614308
189	0x38e4340c	0.00010881582
190	0x38d24b9c	0.00010027664
191	0x38fc5c26	0.000120334604
192	0x39466486	0.000189202
193	0x3990ea8a	0.00027640566
194	0x39adc034	0.00033140334
195	0x39a8f49d	0.00032225708
196	0x39a4c9a2	0.00031430746
197	0x39aa930f	0.00032534494
198	0x390acbda	0.00013236646
199	0x39024e2e	0.0001242689
200	0x392078b1	0.0001530375
201	0x396fa45f	0.00022854049
202	0x399b432a	0.00029613945
203	0x39ab57b9	0.0003268102
204	0x399eac05	0.00030264273
205	0x3988ad3b	0.00026069008
206	0x3980bb29	0.00024553508
207	0x3925f0b6	0.00015825298
208	0x3928018e	0.00016022308
209	0x393f07ec	0.0001821813
210	0x3979358e	0.00023766441
211	0x3992495b	0.00027901944
212	0x39946125	0.00028301138
213	0x3980dc07	0.00024577996
214	0x395205de	0.00020029346
215	0x39366568	0.0001739465
216	0x3947f5f0	0.00019069738
217	0x395ae61d	0.00020875824
218	0x39637033	0.00021690204
219	0x396e0f4b	0.00022703146
220	0x3981fed3	0.00024794656
221	0x39815a7f	0.00024672222
222	0x395e4b55	0.00021199633
223	0x3931e9ef	0.00016967182
224	0x3919107b	0.00014597356
225	0x391ec2dc	0.00015140645
226	0x392ee472	0.00016679036
227	0x3939a517	0.00017704476
228	0x392cbc8c	0.00016473437
229	0x393c0d76	0.00017934092
230	0x393e8389	0.00018168813
231	0x392cb4d4	0.00016470562
232	0x391499d5	0.00014171687
233	0x390700cf	0.00012874904
234	0x392b2615	0.00016322017
235	0x39439508	0.00018652168
236	0x394f8cac	0.00019793463
237	0x3933d92f	0.00017151677
238	0x392e1200	0.00016600639
239	0x392adf15	0.00016295568
240	0x391b1667	0.00014790297
241	0x3908b8b4	0.00013038778
242	0x38f5c0f4	0.00011718451
243	0x39857715	0.0002545646
244	0x39961943	0.0002862905
245	0x39a89030	0.00032150885
246	0x39e6f792	0.00044053473
247	0x3a1d41e7	0.0005998895
248	0x3a335eeb	0.0006842452
249	0x3a2f1597	0.00066789374
250	0x3a0b75f9	0.00053200085
251	0x39f1260c	0.0004599545
252	0x395b5217	0.00020916048
253	0x398eaafa	0.00027211738
254	0x399dddd3	0.00030110645
255	0x39ff9a03	0.00048752138

exp_avg f4 [4]
0	0xbba3d33e	-0.0049995473
1	0xbc3ff3aa	-0.011715809
2	0x3b844230	0.0040362105
3	0x3bce5c51	0.006297626

exp_avg_sq f4 [4]
0	0x3aa3943a	0.0012480088
1	0x3ae19964	0.0017211852
2	0x391483c7	0.00014163471
3	0x3a7710fe	0.0009424834
