nesy/xsasgr7n/checkpoints/epoch=15-step=3168.ckpt (torch, 290531 bytes, 12 tensors)

neural_predicates.digit.net.0.weight f4 [30, 784]
00000000: 2425 883c 4b66 3b3b 4c02 df3c aa47 bebc
00000010: 14dd c6ba 31c4 513c b67a fb3c bbcf 183c
00000020: 54ad eebc e68a b9bc d803 613c 5a99 72bc
00000030: 9842 03bc 91e7 fb3b a20a 42bb 6446 2438
00000040: ec51 80bc 7e10 d83c b995 a9bb 2027 73bc
00000050: 1a09 903c 92d2 c23c 5828 8a3c 3403 83bc
00000060: 1641 fa3c 6e0d d6bc 74c2 cc3c 9622 8cbc
00000070: cee5 98bc 8d16 1c3d b490 a2bc 048c 8d3c
00000080: bc57 093d ae0e 58bc d0c8 47ba f00b 8c3c
00000090: eada 203d 48d2 d6bc 875a 30bc ce90 c33c
000000a0: aa8d 123d f14f b9bc 0da6 db3c 20e0 cfbc
000000b0: 3e86 803c 0f83 88bc ca1e 103d 7c62 afbc
000000c0: 7262 95bc c84d 96bc 70b8 9bbc c89c 993c
000000d0: 30f4 213d 0cf3 003d e432 623c 7a97 33bb
000000e0: c0b7 7c3c 9d99 dabb b131 283c 48f1 193d
000000f0: 6e5e 91bc 5cf1 053d f2a3 c13c 0d42 663c
00000100: 0e85 d9bc f6dc 77bc c5d9 7d3c 10f6 c2bc
00000110: 3c58 a93c eabf e23c 3d37 883c 7b17 ccbb
00000120: 7062 92bc 106b 813d 5261 e1bb ed22 bb3c
00000130: 0ac6 a33a c0a3 113c de68 66bb 0f54 d83a
00000140: a596 24bc 1729 463b 24ea fe3c 33ea 093d
00000150: ba8e 7b3c f9e7 173c 08da eb38 0295 d9b9
00000160: 2eb1 a83c 40c1 3ebc c5d5 d6bb 5e26 bcbc
00000170: 04b8 8bbc 3d88 9abb e6d5 763b 6814 aabb
00000180: bbde f83c 4e2c abba 513f 433c ca55 b0b9
00000190: c2dd 473d bac7 8f3c 57aa f03c 2dc2 b83c
000001a0: ef4e aabc 737d e2bc 5f64 44bc a6a4 de3c
000001b0: bc42 693c cbc8 1c3c 71e4 b1bb 82b8 ae3c
000001c0: fa56 abbc c0ea e4bb a7eb d13b 3001 b93c
000001d0: f740 4ebc aaa0 a2bc 036f e43c ad7b e3bc
000001e0: 9875 d23c f6b6 013d 9be9 263d 4439 273d
000001f0: a846 333d a52b a43a 71e1 adbc 89ee 2cbc
00000200: b2aa 073d 0018 d43a 2931 013c a0df 87bc
00000210: 4f0b 593d da2c d23c a9f7 27bc 2a8d 7cbc
00000220: 431e f1bc fd57 113d 1e7b b2bc 284a 16bb
00000230: f495 d63c ba2f a2bc eaea fc3b f10d 3cbc
00000240: b7a4 023d 3914 0f3d d81a b6bc 35fe 22bc
00000250: fe46 aebb d340 1e3d 80f6 c33b 5d84 d2bc
00000260: 2465 203d fb50 893c 8fab 7cbd d16a 3fbd
00000270: bd81 033d 5ae7 b5bc 58ec 59bd 5584 5cbb
00000280: bd12 423d f778 863d 36aa a23d 1bca 343d
00000290: 022c 80bc 29dd 073d 0616 6d3c b7f7 033c
000002a0: be68 623c 8086 93bc 888a c8bc 9dae babb
000002b0: b628 1cbc 3c75 1f3d 09e5 583b d1ea 84bb
000002c0: 19c1 0e3d edcb 06bc 9ac8 cebc 3d4c 09bd
000002d0: e686 7b3c cd01 02bd af80 cdbc 6119 17bd
000002e0: dc58 37bd 0b0f 3cbc 6ecb 103c 1793 903c
000002f0: ef11 883c 6089 b33b 515f b3bc 0dea 43bc
00000300: 3011 2a3a f653 b0bc ceba 98bc 1b73 e33c
00000310: f628 4cbc f6a6 3c3a 6ec5 bdbc 160d e83c
00000320: bd14 123d f1af 013c af85 ef3b aa9e 3c3d
00000330: 0e75 c83c 740c 2abd c9a3 6fbd 3fa8 b5bd
00000340: 5cd9 483a 1c71 d0bb 331e c8bc 42c5 a3bc
00000350: c84d 1a3c 575c b4bd 8d00 85bc d729 b4bd
00000360: f0e3 94bb 2239 313b f63f a4bc 1ed8 65bd
00000370: 6052 2dbd 3bdd 4c3c 8c32 1b3d df73 5bbb
00000380: b265 b4bc b21a 1f3c cee3 4fbc 7d0c 0b3d
00000390: c550 653b f541 64bc 0ebc 013b 403c 6e3c
000003a0: 0aad 413c 7372 a7bc d922 72bd 1021 06bd
000003b0: 5eda 093d 4e74 50bb e30c 383d 321d f83c
000003c0: b079 a7bd 650d dfbd 3d70 183d 1809 e1b9
000003d0: 478a 13bd c763 7ebd 69f3 89bd 48fd 16bd
000003e0: 5d23 fbbc f2e7 8738 44c2 8f3c 500e cebc
000003f0: 58f3 8d3c 0b49 143d a559 a0bc 741e 66bc
0.016619273 0.0028594907 0.027222775 -0.023227531 -0.0015172088 0.012803123 0.030698162 0.009326871
-0.029135384 -0.02264924 0.013733827 -0.01480707 -0.008011483 0.007687517 -0.0029608388 3.9166203e-05
-0.015664063 0.026375052 -0.005175319 -0.014840871 0.017582465 0.023782048 0.01686494 -0.015992738
0.030548614 -0.02612945 0.024995066 -0.017106336 -0.018664267 0.038107444 -0.01984439 0.017278679
0.033530936 -0.013187094 -0.0007621171 0.017095536 0.039271273 -0.026223317 -0.010763771 0.02387276
0.035779633 -0.022621127 0.026812578 -0.025375426 0.015689012 -0.016664056 0.035185613 -0.021409266
-0.018235419 -0.018347636 -0.019008845 0.018751517 0.039539516 0.031481788 0.013806079 -0.002740352
0.015424669 -0.006671144 0.010265754 0.03758362 -0.017745223 0.03270088 0.023637746 0.014053834
-0.026552703 -0.015128365 0.015493815 -0.023798972 0.020671956 0.027679402 0.016627902 -0.006228385
-0.017869204 0.06319249 -0.0068780566 0.022843802 0.0012494933 0.008889139 -0.003515772 0.0016504544
-0.010045682 0.0030236894 0.031117506 0.033670615 0.015353853 0.009271615 0.00011246285 -0.00041500485
0.020592298 -0.011642754 -0.006556245 -0.022967514 -0.017055519 -0.004715948 0.0037664114 -0.005190421
0.030379644 -0.0013059468 0.011916951 -0.00033633254 0.04879547 0.017551292 0.0293781 0.022553528
-0.020789592 -0.02764771 -0.011986821 0.02717812 0.014237102 0.009569357 -0.0054288437 0.021328215
-0.020915497 -0.006985992 0.006406266 0.022583574 -0.012588731 -0.019852001 0.027884966 -0.027768934
0.025690839 0.031668626 0.040750127 0.040826097 0.043768555 0.0012525214 -0.021225663 -0.010554918
0.033121772 0.0016181469 0.007885256 -0.016586125 0.0529893 0.025656153 -0.010251918 -0.0154145155
-0.029433375 0.035484303 -0.021787222 -0.0022932384 0.02619455 -0.019798148 0.0077184336 -0.011477933
0.031895366 0.034931395 -0.022229597 -0.009948303 -0.0053185215 0.03863604 0.005980313 -0.025697881
0.039158955 0.016762247 -0.06168705 -0.046732727 0.03210615 -0.022205044 -0.05320391 -0.0033648212
0.04738115 0.06566041 0.079426214 0.044138055 -0.015645985 0.0331699 0.014470583 0.008054665
0.013818918 -0.01800847 -0.02448012 -0.005697085 -0.009531191 0.038930163 0.00330955 -0.0040563126
0.03485212 -0.008227331 -0.025242139 -0.033519972 0.0153519865 -0.03174 -0.025085775 -0.036889438
-0.044762477 -0.011478196 0.008837564 0.017648263 0.016610114 0.005479023 -0.021896036 -0.0119576575
0.00064875465 -0.02152441 -0.018643763 0.027764848 -0.012460938 0.000719651 -0.02316543 0.028326552
0.03566431 0.007915483 0.0073096375 0.04604975 0.024469879 -0.041515782 -0.058505807 -0.08869981
0.00076617836 -0.00636114 -0.024428463 -0.01999152 0.009417959 -0.08806675 -0.016235614 -0.08797043
-0.004543774 0.002704211 -0.02005003 -0.05611431 -0.042314887 0.012503917 0.037890002 -0.0033485813
-0.022021148 0.0097109545 -0.01268859 0.033947457 0.003499077 -0.013931741 0.0019795927 0.014540732
0.011821041 -0.020440316 -0.059115265 -0.032746375 0.033655517 -0.0031807604 0.044934165 0.030287359
-0.08177507 -0.10891227 0.037216414 -0.0004292212 -0.036020543 -0.062106874 -0.0673588 -0.03686264
-0.030656511 6.480505e-05 0.017548688 -0.02515331 0.01732795 0.03620247 -0.019573996 -0.0140453465

neural_predicates.digit.net.0.bias f4 [30]
00000000: 5b21 c93b 8c60 04bc be8f fd3c 5dea 0f3c
00000010: da21 e63c e8b0 763b 3ace ceb9 189c 11bc
00000020: 4bb0 a63c 1678 823c d86e 91bc 8628 06bd
00000030: d1ba c33c 0e1f 64bc f79a 4fbc 0e69 c13c
00000040: 1d08 63bc 2fbc a43b 9834 09bc 534e c63b
00000050: 19bf 8abc 28f1 fdbc 3c08 b33c 67e1 db3c
00000060: 8de7 083d 7305 02bd 6f6a 04bd 7594 d03c
00000070: 2f30 ccbb 3188 88bc
0.0061380095 -0.008079659 0.03095233 0.008783904 0.028092314 0.0037642065 -0.00039445033 -0.008887313
0.020347735 0.015926402 -0.01775305 -0.03275349 0.023892792 -0.01392342 -0.012671224 0.023609664
-0.013856915 0.005027316 -0.008374356 0.0060518174 -0.016936826 -0.030998781 0.021854512 0.026840879
0.03342395 -0.031743478 -0.032328065 0.025461415 -0.00623133 -0.016666504

neural_predicates.digit.net.2.weight f4 [2, 30]
00000000: a225 1dbe aab5 99bd 8eb2 ff3d 8404 23be
00000010: e7fe 56bc 0747 2dbe cae9 263e a81d 48be
00000020: 5a47 7b3e 9967 10be 6596 30be 8093 20bd
00000030: 9fd3 013e 48cd eebd ab4c 633e d566 b4bd
00000040: d9cc a5bd 07fe 273e 2b8f f0bd 49e9 16bd
00000050: ad8c 53be fe8c 62bd bf3c 2c3e d4fe 6b3e
00000060: e67d ef3d e025 e8bd 2367 eabc 2d5b 4bbe
00000070: 8bc4 44bd 4296 a3bc 3ab8 343d 8492 763e
00000080: 208b c1bd 4914 393e 0b2a 4cbe 501d 63bd
00000090: 8732 1e3e f85a 91bb eaca 96bd a6c2 c53d
000000a0: 3958 e93d ea45 5a3e 8b0a a7bd be20 9e3d
000000b0: 1c00 a9bc 2059 343d 8572 5e3d ad62 1cbd
000000c0: 46c7 3e3b 1859 82be 3eed 333e 1fdf 223d
000000d0: 8c9a 2a3e caf4 7a3d 3772 e8bc 3a07 d23c
000000e0: 6d20 0ebd 06b9 9cbc 1f92 b63d 9f59 bcbd
-0.15346387 -0.07505353 0.124852285 -0.15919691 -0.013122297 -0.16921626 0.16300121 -0.19542563
0.24538937 -0.1410202 -0.17244871 -0.039203167 0.12678383 -0.11660248 0.22197215 -0.08808676
-0.08095712 0.16405497 -0.11746057 -0.03684357 -0.20659132 -0.055310242 0.16820048 0.23046428
0.11693935 -0.11335349 -0.028613633 -0.19859 -0.048039 -0.01996911 0.044121005 0.24079329
-0.09450364 0.18074144 -0.19937913 -0.055447876 0.15448962 -0.004435893 -0.073629215 0.09656267
0.1139378 0.21315733 -0.08156308 0.07721089 -0.020629935 0.04403031 0.054308433 -0.038180042
0.0029110475 -0.25458598 0.1757097 0.039763566 0.16660517 0.061268605 -0.028374774 0.025638212
-0.034698892 -0.019131195 0.08914589 -0.09196781

neural_predicates.digit.net.2.bias f4 [2]
00000000: f540 0c3e c658 0f3e
0.13696654 0.13998708

exp_avg f4 [30, 784]
00000000: 4c67 b7b9 4c67 b7b9 4c67 b7b9 4c67 b7b9
00000010: 4c67 b7b9 4c67 b7b9 4c67 b7b9 4c67 b7b9
00000020: 4c67 b7b9 4c67 b7b9 4c67 b7b9 4c67 b7b9
00000030: 4c67 b7b9 4c67 b7b9 4c67 b7b9 4c67 b7b9
00000040: 4c67 b7b9 4c67 b7b9 4c67 b7b9 4c67 b7b9
00000050: 4c67 b7b9 4c67 b7b9 4c67 b7b9 4c67 b7b9
00000060: 4c67 b7b9 4c67 b7b9 4c67 b7b9 4c67 b7b9
00000070: 4c67 b7b9 4c67 b7b9 4c67 b7b9 4c67 b7b9
00000080: 4c67 b7b9 4c67 b7b9 4c67 b7b9 4c67 b7b9
00000090: 4c67 b7b9 4c67 b7b9 4c67 b7b9 4c67 b7b9
000000a0: 4c67 b7b9 4c67 b7b9 4c67 b7b9 4c67 b7b9
000000b0: 4c67 b7b9 4c67 b7b9 4c67 b7b9 4c67 b7b9
000000c0: 4c67 b7b9 4c67 b7b9 4c67 b7b9 4c67 b7b9
000000d0: 4c67 b7b9 4c67 b7b9 4c67 b7b9 4c67 b7b9
000000e0: 4c67 b7b9 4c67 b7b9 4c67 b7b9 4c67 b7b9
000000f0: 4c67 b7b9 4c67 b7b9 4c67 b7b9 4c67 b7b9
00000100: 4c67 b7b9 4c67 b7b9 4c67 b7b9 4d67 b7b9
00000110: 716b b7b9 6ea9 b7b9 d675 b7b9 5b67 b7b9
00000120: ad95 beb9 cf3a c8b9 9d6a bbb9 4c67 b7b9
00000130: 4c67 b7b9 4c67 b7b9 4c67 b7b9 4c67 b7b9
00000140: 4c67 b7b9 4c67 b7b9 4c67 b7b9 4c67 b7b9
00000150: 4c67 b7b9 4c67 b7b9 4c67 b7b9 4c67 b7b9
00000160: 4c67 b7b9 4c67 b7b9 4c67 b7b9 4c67 b7b9
00000170: b7ab b8b9 ab87 b8b9 4c67 b7b9 4a67 b7b9
00000180: 9190 b7b9 f2b4 b7b9 effc b7b9 866f bfb9
00000190: 603c cbb9 9570 cdb9 c14a c1b9 5d67 b7b9
000001a0: 5e67 b7b9 5567 b7b9 4c67 b7b9 4c67 b7b9
000001b0: 4c67 b7b9 4c67 b7b9 4c67 b7b9 4c67 b7b9
000001c0: 4c67 b7b9 4c67 b7b9 4c67 b7b9 4c67 b7b9
000001d0: 4c67 b7b9 6f67 b7b9 5667 b7b9 4d67 b7b9
000001e0: 963e c2b9 7577 c6b9 35e0 bdb9 1fe0 bdb9
000001f0: 80f8 bdb9 14f6 c4b9 ad99 c8b9 51d0 ceb9
00000200: a3c3 d0b9 ebbd b2b9 bbd9 c3b7 d8c7 f937
00000210: 0d94 b6b9 6d16 b9b9 f3ca b8b9 52d6 b7b9
00000220: 4e67 b7b9 4c67 b7b9 4c67 b7b9 4c67 b7b9
00000230: 4c67 b7b9 4c67 b7b9 4c67 b7b9 4c67 b7b9
00000240: 4d67 b7b9 d267 b7b9 e267 b7b9 8f96 b7b9
00000250: 6fe3 c7b9 36a8 cab9 5749 c9b9 bf16 c9b9
00000260: 199c c9b9 ecfd cbb9 6647 cfb9 58da c9b9
00000270: 8ba0 a6b9 6194 8f39 4987 c339 0b88 8538
00000280: 410b b6b9 975a b9b9 c973 b9b9 3b67 b8b9
00000290: 126b b7b9 4d67 b7b9 4c67 b7b9 4c67 b7b9
000002a0: 4c67 b7b9 4c67 b7b9 4c67 b7b9 4c67 b7b9
000002b0: 4d67 b7b9 a767 b7b9 af56 b8b9 8168 b9b9
000002c0: 164e bdb9 e9ff c5b9 b373 c8b9 f336 c7b9
000002d0: 74de cab9 e4f2 c9b9 f144 c4b9 63f2 b6b9
000002e0: 4039 0fb7 0fb7 b939 71bb bf39 2e4b 6838
000002f0: 71fd bab9 978a bab9 8274 b8b9 7d62 b7b9
00000300: bf6b b7b9 4c67 b7b9 4c67 b7b9 4c67 b7b9
00000310: 4c67 b7b9 4c67 b7b9 4c67 b7b9 4c67 b7b9
00000320: 4e67 b7b9 d5b7 b7b9 4bb0 b9b9 a720 bab9
00000330: f3e7 b9b9 e966 b8b9 cb87 bab9 3905 bbb9
00000340: 8867 c0b9 5de1 beb9 02f3 b7b9 432a 45b9
00000350: 7c24 b939 e694 b339 f61e ba39 db14 4938
00000360: 1790 bbb9 29d0 b8b9 bfe9 b5b9 51b7 b6b9
00000370: 9e6a b7b9 4967 b7b9 4c67 b7b9 4c67 b7b9
00000380: 4c67 b7b9 4c67 b7b9 4c67 b7b9 4c67 b7b9
00000390: 4e67 b7b9 5b67 b7b9 b4c0 b8b9 4840 bab9
000003a0: d6cc bdb9 318a bcb9 4e4e beb9 9e33 c1b9
000003b0: 7eb7 c4b9 e9b9 bbb9 1fc6 a4b9 3aba 3c39
000003c0: e2ad c839 4cd1 b439 2243 be39 258f 93b9
000003d0: 9aa0 bcb9 cf8d b8b9 66e4 b5b9 4666 b6b9
000003e0: 9e6a b7b9 3c67 b7b9 4c67 b7b9 4c67 b7b9
000003f0: 4c67 b7b9 4c67 b7b9 4c67 b7b9 4c67 b7b9
-0.00034981442 -0.00034981442 -0.00034981442 -0.00034981442 -0.00034981442 -0.00034981442 -0.00034981442 -0.00034981442
-0.00034981442 -0.00034981442 -0.00034981442 -0.00034981442 -0.00034981442 -0.00034981442 -0.00034981442 -0.00034981442
-0.00034981442 -0.00034981442 -0.00034981442 -0.00034981442 -0.00034981442 -0.00034981442 -0.00034981442 -0.00034981442
-0.00034981442 -0.00034981442 -0.00034981442 -0.00034981442 -0.00034981442 -0.00034981442 -0.00034981442 -0.00034981442
-0.00034981442 -0.00034981442 -0.00034981442 -0.00034981442 -0.00034981442 -0.00034981442 -0.00034981442 -0.00034981442
-0.00034981442 -0.00034981442 -0.00034981442 -0.00034981442 -0.00034981442 -0.00034981442 -0.00034981442 -0.00034981442
-0.00034981442 -0.00034981442 -0.00034981442 -0.00034981442 -0.00034981442 -0.00034981442 -0.00034981442 -0.00034981442
-0.00034981442 -0.00034981442 -0.00034981442 -0.00034981442 -0.00034981442 -0.00034981442 -0.00034981442 -0.00034981442
-0.00034981442 -0.00034981442 -0.00034981442 -0.00034981445 -0.0003498453 -0.00035030715 -0.00034992275 -0.00034981486
-0.0003635114 -0.00038190788 -0.00035746853 -0.00034981442 -0.00034981442 -0.00034981442 -0.00034981442 -0.00034981442
-0.00034981442 -0.00034981442 -0.00034981442 -0.00034981442 -0.00034981442 -0.00034981442 -0.00034981442 -0.00034981442
-0.00034981442 -0.00034981442 -0.00034981442 -0.00034981442 -0.00035223152 -0.00035196295 -0.00034981442 -0.00034981436
-0.0003501219 -0.00035039295 -0.0003509293 -0.0003651345 -0.0003876416 -0.00039184527 -0.00036867525 -0.00034981492
-0.00034981495 -0.00034981468 -0.00034981442 -0.00034981442 -0.00034981442 -0.00034981442 -0.00034981442 -0.00034981442
-0.00034981442 -0.00034981442 -0.00034981442 -0.00034981442 -0.00034981442 -0.00034981544 -0.0003498147 -0.00034981445
-0.00037049194 -0.00037854505 -0.00036215936 -0.00036215872 -0.00036234036 -0.00037567376 -0.0003826147 -0.0003944659
-0.00039818612 -0.00034092306 -2.33472e-05 2.9776173e-05 -0.00034824052 -0.00035302658 -0.00035246424 -0.0003506416
-0.00034981448 -0.00034981442 -0.00034981442 -0.00034981442 -0.00034981442 -0.00034981442 -0.00034981442 -0.00034981442
-0.00034981445 -0.00034981832 -0.0003498188 -0.00035016655 -0.0003812569 -0.0003865377 -0.0003839235 -0.00038354655
-0.0003845401 -0.00038908364 -0.00039535313 -0.00038500386 -0.000317816 0.00027385636 0.00037294094 6.367274e-05
-0.0003472213 -0.00035353444 -0.00035372216 -0.00035172128 -0.00034984254 -0.00034981445 -0.00034981442 -0.00034981442
-0.00034981442 -0.00034981442 -0.00034981442 -0.00034981442 -0.00034981445 -0.00034981707 -0.000351598 -0.0003536381
-0.00036107068 -0.00037765436 -0.00038233175 -0.00037997178 -0.00038694183 -0.00038518675 -0.000374354 -0.00034894337
-8.536794e-06 0.0003542234 0.00036570014 5.5383127e-05 -0.00035665513 -0.00035579942 -0.0003518202 -0.0003497786
-0.00034984757 -0.00034981442 -0.00034981442 -0.00034981442 -0.00034981442 -0.00034981442 -0.00034981442 -0.00034981442
-0.00034981448 -0.00035041446 -0.00035417298 -0.00035501012 -0.00035458765 -0.0003517189 -0.00035577858 -0.0003567131
-0.0003669823 -0.00036407533 -0.00035085535 -0.00018803128 0.00035313133 0.00034252479 0.00035499752 4.7941558e-05
-0.00035774775 -0.00035250306 -0.00034697165 -0.00034850326 -0.00034983916 -0.00034981433 -0.00034981442 -0.00034981442
-0.00034981442 -0.00034981442 -0.00034981442 -0.00034981442 -0.00034981448 -0.00034981486 -0.0003523879 -0.00035524578
-0.00036201504 -0.00035961115 -0.00036297966 -0.00036850286 -0.00037520746 -0.00035805933 -0.0003142813 0.00017998452
0.00038276525 0.00034488214 0.00036289642 -0.00028144676 -0.00035977812 -0.0003520087 -0.0003469318 -0.00034789945
-0.00034983916 -0.00034981396 -0.00034981442 -0.00034981442 -0.00034981442 -0.00034981442 -0.00034981442 -0.00034981442

exp_avg_sq f4 [30, 784]
00000000: ed3f cf35 ed3f cf35 ed3f cf35 ed3f cf35
00000010: ed3f cf35 ed3f cf35 ed3f cf35 ed3f cf35
00000020: ed3f cf35 ed3f cf35 ed3f cf35 ed3f cf35
00000030: ed3f cf35 ed3f cf35 ed3f cf35 ed3f cf35
00000040: ed3f cf35 ed3f cf35 ed3f cf35 ed3f cf35
00000050: ed3f cf35 ed3f cf35 ed3f cf35 ed3f cf35
00000060: ed3f cf35 ed3f cf35 ed3f cf35 ed3f cf35
00000070: ed3f cf35 ed3f cf35 ed3f cf35 ed3f cf35
00000080: ed3f cf35 ed3f cf35 ed3f cf35 ed3f cf35
00000090: ed3f cf35 ed3f cf35 ed3f cf35 f241 cf35
000000a0: 1149 cf35 0341 cf35 4b40 cf35 1cc3 ce35
000000b0: 2831 ce35 49a2 ce35 ed3f cf35 ed3f cf35
000000c0: ed3f cf35 ed3f cf35 ed3f cf35 ed3f cf35
000000d0: ed3f cf35 ed3f cf35 ed3f cf35 ed3f cf35
000000e0: ed3f cf35 ed3f cf35 ed3f cf35 ed3f cf35
000000f0: ed3f cf35 ed3f cf35 ed3f cf35 ed3f cf35
00000100: ed3f cf35 ed3f cf35 0540 cf35 b03d cf35
00000110: 31db ce35 4202 cf35 4336 ce35 9004 cf35
00000120: 8b2c c935 fd82 cb35 907a cb35 ec2b cf35
00000130: e938 cf35 ed3f cf35 ed3f cf35 ed3f cf35
00000140: ed3f cf35 ed3f cf35 ed3f cf35 ed3f cf35
00000150: ed3f cf35 ed3f cf35 ef3f cf35 f43f cf35
00000160: ed3f cf35 ed3f cf35 ed3f cf35 ed3f cf35
00000170: 61e1 cd35 6fbc cd35 719c ce35 2e0c cb35
00000180: 546c c735 e46c c835 6dbc c535 365c c635
00000190: 5f82 c735 6c97 ca35 20a8 c835 0a09 cf35
000001a0: 9640 cf35 933b cf35 f13d cf35 813f cf35
000001b0: 0f40 cf35 f63f cf35 ed3f cf35 ed3f cf35
000001c0: ed3f cf35 ed3f cf35 f63f cf35 ed3f cf35
000001d0: 0b40 cf35 9f40 cf35 ce4a cf35 14a4 cf35
000001e0: bae3 c735 d8fd c735 419e c735 4ab3 c035
000001f0: 82f5 b635 712a 9f35 b102 9d35 d550 8e35
00000200: 85f0 7a35 74e9 8a35 c581 8135 a5af 9435
00000210: db87 b235 2094 c235 c2f5 ca35 120d ce35
00000220: f21c cf35 ed3f cf35 ed3f cf35 ed3f cf35
00000230: ed3f cf35 ed3f cf35 dc3f cf35 1540 cf35
00000240: b940 cf35 4b45 cf35 652a cf35 0e3d ce35
00000250: 5e5a c835 485d c335 ffca bf35 9894 b535
00000260: d80e 9c35 1a0e 8335 1423 6b35 6f94 4d35
00000270: 11f5 7c35 dc1e 5c35 cd0a 6035 82e7 7035
00000280: 64bf 9b35 06c3 b635 2668 c735 3cc0 c535
00000290: fc71 ce35 143f cf35 a23f cf35 ed3f cf35
000002a0: ed3f cf35 ed3f cf35 ed3f cf35 4d40 cf35
000002b0: 3a42 cf35 4748 cf35 67b4 cc35 88d3 cb35
000002c0: 71b5 c435 1cc2 b935 f505 bb35 e3c1 b035
000002d0: 5089 8d35 4d50 6635 af43 5535 fa64 8435
000002e0: 7350 6f35 ed30 8135 0277 8635 3925 7e35
000002f0: ff61 8a35 d8a2 a435 320b b335 adf0 c335
00000300: dcf4 cb35 4237 cf35 6f3f cf35 5f42 cf35
00000310: ed3f cf35 ed3f cf35 ed3f cf35 ed3f cf35
00000320: a96d d035 3521 d035 e1c5 cc35 81f2 c935
00000330: 3a2e c135 ec60 bc35 5aa3 b635 e309 ab35
00000340: c2c7 8d35 204b 7035 b874 7335 a30f 7835
00000350: b326 7735 f68d 6d35 31d6 8035 3713 8935
00000360: b989 8c35 a117 9435 0fb2 a335 efb6 bc35
00000370: 57f2 c635 9c1c cc35 4140 cf35 4845 cf35
00000380: d13f cf35 ed3f cf35 ed3f cf35 ef3f cf35
00000390: bb60 d035 a971 d135 d266 cb35 0340 c735
000003a0: 0cef bb35 6c87 b635 51f5 b135 adbd a335
000003b0: 5b05 8635 e95f 6a35 7bbd 5d35 6c46 5435
000003c0: e741 7035 e609 6a35 e35d 6735 8dcd 8a35
000003d0: 0882 9835 fb6c 9935 7cb0 a035 5fac b935
000003e0: 1d6e c735 450b cf35 ed3f cf35 ed3f cf35
000003f0: ed3f cf35 e93f cf35 0b40 cf35 c23f cf35
1.5441307e-06 1.5441307e-06 1.5441307e-06 1.5441307e-06 1.5441307e-06 1.5441307e-06 1.5441307e-06 1.5441307e-06
1.5441307e-06 1.5441307e-06 1.5441307e-06 1.5441307e-06 1.5441307e-06 1.5441307e-06 1.5441307e-06 1.5441307e-06
1.5441307e-06 1.5441307e-06 1.5441307e-06 1.5441307e-06 1.5441307e-06 1.5441307e-06 1.5441307e-06 1.5441307e-06
1.5441307e-06 1.5441307e-06 1.5441307e-06 1.5441307e-06 1.5441307e-06 1.5441307e-06 1.5441307e-06 1.5441307e-06
1.5441307e-06 1.5441307e-06 1.5441307e-06 1.5441307e-06 1.5441307e-06 1.5441307e-06 1.5441307e-06 1.5441894e-06
1.5443967e-06 1.5441623e-06 1.5441414e-06 1.540498e-06 1.5362502e-06 1.5395427e-06 1.5441307e-06 1.5441307e-06
1.5441307e-06 1.5441307e-06 1.5441307e-06 1.5441307e-06 1.5441307e-06 1.5441307e-06 1.5441307e-06 1.5441307e-06
1.5441307e-06 1.5441307e-06 1.5441307e-06 1.5441307e-06 1.5441307e-06 1.5441307e-06 1.5441307e-06 1.5441307e-06
1.5441307e-06 1.5441307e-06 1.5441334e-06 1.5440655e-06 1.5411989e-06 1.5423359e-06 1.5363988e-06 1.542403e-06
1.4988631e-06 1.5162801e-06 1.5160349e-06 1.5435485e-06 1.5439265e-06 1.5441307e-06 1.5441307e-06 1.5441307e-06
1.5441307e-06 1.5441307e-06 1.5441307e-06 1.5441307e-06 1.5441307e-06 1.5441307e-06 1.5441309e-06 1.5441315e-06
1.5441307e-06 1.5441307e-06 1.5441307e-06 1.5441307e-06 1.5339284e-06 1.5328532e-06 1.5393726e-06 1.5128223e-06
1.4858183e-06 1.4932853e-06 1.4732483e-06 1.4778986e-06 1.4864598e-06 1.5094242e-06 1.4950092e-06 1.5425333e-06
1.5441499e-06 1.544004e-06 1.5440729e-06 1.5441184e-06 1.5441345e-06 1.5441317e-06 1.5441307e-06 1.5441307e-06
1.5441307e-06 1.5441307e-06 1.5441317e-06 1.5441307e-06 1.5441341e-06 1.5441509e-06 1.5444473e-06 1.5470455e-06
1.4892933e-06 1.4900534e-06 1.4872713e-06 1.4357295e-06 1.3631509e-06 1.1858775e-06 1.1698195e-06 1.060335e-06
9.348226e-07 1.0349745e-06 9.649017e-07 1.1077979e-06 1.3301573e-06 1.4497236e-06 1.5121698e-06 1.5352e-06
1.5431126e-06 1.5441307e-06 1.5441307e-06 1.5441307e-06 1.5441307e-06 1.5441307e-06 1.5441287e-06 1.5441352e-06
1.5441539e-06 1.5442869e-06 1.543504e-06 1.5365965e-06 1.4927462e-06 1.4555781e-06 1.4289689e-06 1.3528797e-06
1.1627226e-06 9.764365e-07 8.759537e-07 7.658445e-07 9.4233934e-07 8.2001293e-07 8.346222e-07 8.9743855e-07
1.1604102e-06 1.3616816e-06 1.4856967e-06 1.4733591e-06 1.538137e-06 1.544106e-06 1.5441221e-06 1.5441307e-06
1.5441307e-06 1.5441307e-06 1.5441307e-06 1.5441416e-06 1.5441976e-06 1.5443737e-06 1.5251688e-06 1.5186242e-06
1.4655944e-06 1.3840067e-06 1.393432e-06 1.316945e-06 1.0545282e-06 8.579853e-07 7.9447176e-07 9.864154e-07
8.9151507e-07 9.625488e-07 1.0018414e-06 9.467654e-07 1.0310322e-06 1.2266346e-06 1.3339798e-06 1.4598678e-06
1.5195942e-06 1.5438784e-06 1.5441163e-06 1.5442018e-06 1.5441307e-06 1.5441307e-06 1.5441307e-06 1.5441307e-06
1.5529123e-06 1.5506872e-06 1.5256775e-06 1.5046245e-06 1.4393074e-06 1.40353e-06 1.3607598e-06 1.274337e-06
1.0563456e-06 8.951629e-07 9.06944e-07 9.2409954e-07 9.2070985e-07 8.849596e-07 9.599081e-07 1.0212888e-06
1.0470895e-06 1.1033736e-06 1.2196268e-06 1.4060332e-06 1.482268e-06 1.5207511e-06 1.5441402e-06 1.5442865e-06
1.5441275e-06 1.5441307e-06 1.5441307e-06 1.5441309e-06 1.552536e-06 1.5604793e-06 1.5154603e-06 1.4845285e-06
1.4002158e-06 1.359947e-06 1.3258924e-06 1.2199649e-06 9.985337e-07 8.731136e-07 8.2604646e-07 7.907863e-07
8.950287e-07 8.7186197e-07 8.619083e-07 1.0341624e-06 1.1362727e-06 1.1431106e-06 1.1972293e-06 1.3833741e-06
1.4858703e-06 1.5425982e-06 1.5441307e-06 1.5441307e-06 1.5441307e-06 1.5441302e-06 1.5441341e-06 1.5441258e-06

exp_avg f4 [30]
00000000: 4c67 b739 8977 113a 642d cbb9 06d3 1d3a
00000010: 1d32 acb9 fdb9 5339 0400 0000 fe8a b139
00000020: 8a8f 13ba 0400 0000 ecb1 043a 69f5 e939
00000030: d786 c0b9 50d9 b339 8f74 e0b9 dae2 7539
00000040: 8234 7c39 f9ef bab9 0400 0000 7040 c9b9
00000050: 207a 313a 0400 0000 0400 0000 1b43 9cb9
00000060: c13c 86b9 0400 0000 536e d2b3 88b3 a639
00000070: 0400 0000 0c5d 1480
0.00034981442 0.0005549123 -0.00038752996 0.00060205196 -0.00032843734 0.00020191814 6e-45 0.00033863628
-0.0005628994 6e-45 0.0005061913 0.00044624068 -0.00036721557 0.0003430345 -0.00042811452 0.0002344953
0.00024052153 -0.00035655478 6e-45 -0.00038385717 0.0006770212 6e-45 6e-45 -0.00029804636
-0.00025603737 6e-45 -9.798955e-08 0.00031795749 6e-45 -1.870089e-39

exp_avg_sq f4 [30]
00000000: ed3f cf35 1b5c 8735 24ce dd35 0d92 aa36
00000010: f0cc 7c35 bed4 f634 d753 8a2b 9345 b035
00000020: 8248 2336 d4f1 f220 d148 6136 a8a3 a035
00000030: cb85 af35 d3bd 3c35 13ad 0636 4a78 4e35
00000040: 19f8 0935 24e1 8535 653a cd31 0270 8335
00000050: 455e cb36 d41e c131 a08c c32d 5c93 5035
00000060: d597 1f35 cde6 4130 5d87 2f32 a415 8a35
00000070: 4066 b631 fb69 4230
1.5441307e-06 1.008509e-06 1.6525778e-06 5.0833974e-06 9.417554e-07 4.597586e-07 9.82876e-13 1.3133271e-06
2.4331098e-06 4.1156423e-19 3.3569997e-06 1.1968559e-06 1.3077455e-06 7.031169e-07 2.0068298e-06 7.6916024e-07
5.1397507e-07 9.974797e-07 5.972924e-09 9.792859e-07 6.060846e-06 5.620544e-09 2.2231383e-11 7.7700474e-07
5.945306e-07 7.054098e-10 1.0217119e-08 1.02881e-06 5.3085216e-09 7.0727396e-10

exp_avg f4 [2, 30]
00000000: 108e 59bb 56e5 15bb 329d 04bb b852 23bb
00000010: 5d67 3bbb 02e3 faba 0400 0080 5c42 3bbb
00000020: 11ab d7bb 0400 0080 de44 31bb 622a 4ebb
00000030: 9c3f 6ebb 4bb2 41bb 5516 47bb 6471 35bb
00000040: 9f05 4bbb 170b 7bbb 0400 0080 a6be a2bb
00000050: 9b27 73bb 0400 0080 0400 0080 722a 73bb
00000060: c863 23bb 0400 0080 d6b8 34b7 fcac 11bb
00000070: 0400 0080 0400 0000 6b8e 593b c8e5 153b
00000080: 7d9d 043b 0e53 233b aa67 3b3b a5e3 fa3a
00000090: 0400 0000 b242 3b3b 44ab d73b 0400 0000
000000a0: 3845 313b 072b 4e3b e83f 6e3b e6b2 413b
000000b0: 9d16 473b b171 353b 0706 4b3b 700b 7b3b
000000c0: 0400 0000 ddbe a23b f827 733b 0400 0000
000000d0: 0400 0000 be2a 733b 0e64 233b 0400 0000
000000e0: cdc8 3437 5fad 113b 0400 0000 3806 1600
-0.0033196248 -0.002287229 -0.0020235297 -0.002492113 -0.0028595545 -0.001914114 -6e-45 -0.0028573489
-0.006581672 -6e-45 -0.0027049105 -0.0031458368 -0.0036353832 -0.0029555734 -0.00303783 -0.0027685994
-0.0030978692 -0.003830617 -6e-45 -0.0049665747 -0.0037102464 -6e-45 -6e-45 -0.0037104157
-0.00249313 -6e-45 -1.07718715e-05 -0.002222835 -6e-45 6e-45 0.003319646 0.0022872556
0.0020235472 0.002492133 0.0028595724 0.001914133 6e-45 0.002857369 0.0065816958 6e-45
0.0027049314 0.0031458752 0.003635401 0.0029556095 0.0030378469 0.0027686174 0.0030978934 0.0038306378
6e-45 0.0049666003 0.003710268 6e-45 6e-45 0.0037104334 0.0024931463 6e-45
1.0775589e-05 0.0022228581 6e-45 2.022612e-39

exp_avg_sq f4 [2, 30]
00000000: 4271 0f39 00c7 1039 b749 4a39 ce8a ee38
00000010: 3bda 3d39 3714 9a38 24f2 6432 1f2e c838
00000020: a3ab 0c3a 09c7 e61c 6870 1739 9054 2439
00000030: edf2 5439 6f77 3a39 4625 4139 a009 cc38
00000040: 2893 cf38 171b 8a39 cd29 af32 573b c939
00000050: 7ca7 4939 9f3e d332 5cf0 d431 5207 7739
00000060: 9e9f 2b39 8b5b 0d2e 74ef 4238 6e33 f138
00000070: ed6d b731 44e1 e131 4271 0f39 02c7 1039
00000080: b549 4a39 d08a ee38 3ada 3d39 3914 9a38
00000090: 24f2 6432 222e c838 a3ab 0c3a acd8 e41c
000000a0: 6870 1739 9154 2439 e5f2 5439 7377 3a39
000000b0: 4225 4139 a409 cc38 2c93 cf38 141b 8a39
000000c0: cd29 af32 523b c939 7ea7 4939 9f3e d332
000000d0: 60f0 d431 5007 7739 9e9f 2b39 8e5b 0d2e
000000e0: 6aef 4238 7733 f138 ef6d b731 44e1 e131
0.00013679735 0.00013807043 0.00019291682 0.00011374579 0.00018105742 7.3470575e-05 1.3326403e-08 9.545334e-05
0.0005366152 1.5271573e-21 0.00014442357 0.00015671761 0.00020308392 0.00017782835 0.000184198 9.729271e-05
9.897939e-05 0.00026341595 2.039169e-08 0.0003838192 0.00019231247 2.459211e-08 6.1973378e-09 0.00023558483
0.00016367293 3.2140995e-11 4.6476212e-05 0.00011501355 5.338498e-09 6.5739716e-09 0.00013679735 0.00013807046
0.00019291679 0.0001137458 0.0001810574 7.347059e-05 1.3326403e-08 9.545336e-05 0.0005366152 1.5143783e-21
0.00014442357 0.00015671762 0.00020308381 0.0001778284 0.00018419794 9.729274e-05 9.897942e-05 0.00026341586
2.039169e-08 0.00038381905 0.0001923125 2.459211e-08 6.1973395e-09 0.0002355848 0.00016367293 3.2141005e-11
4.6476176e-05 0.000115013616 5.338499e-09 6.5739716e-09

exp_avg f4 [2]
00000000: ee1d e8ba 241e e83a
-0.0017709115 0.0017709178

exp_avg_sq f4 [2]
00000000: 180f 4838 190f 4838
4.7697773e-05 4.7697777e-05
