nesy/gjwgkkzz/checkpoints/epoch=0-step=17.ckpt (torch, 290467 bytes, 12 tensors)

neural_predicates.digit.net.0.weight f4 [30, 784]
00000000: 70e2 a9bc 7d52 1c3c a0cc 643c e6fb cd3b
00000010: 1eb9 70ba 2400 dcbc eb2d f9bc 3714 14bc
00000020: 04a0 c4bc bf65 923c e008 b63c 986a efbb
00000030: f301 ccbc 8f58 71bc 7f1b 17bc 1091 ec3b
00000040: e6af 803c 8764 013d c7cb 08bd 1f57 16bd
00000050: 9fb4 fb3c 5725 023c 9119 253c 9290 f6bb
00000060: dec2 d0ba 41e2 70bc edde 78bc b000 d83c
00000070: b0fb db3c 1252 ba3b 8090 48bb 4638 d03c
00000080: 1c22 c3b9 5c37 e23c 010c 16bd 19a0 033d
00000090: 4a79 c1bc bd78 a5bb 601d b23c 10c2 8e3c
000000a0: 873a d03c b52c dbbb ce64 ba3b 33a7 d13b
000000b0: 4ddf 22bc 91bc 7ebc 7c9a 353b 3d5f 2e3c
000000c0: 60de e33c 124c 01bd d4ef c93a f233 873c
000000d0: c8b7 0cbd 610d e9bc 721f 11bd 3676 b93c
000000e0: 48ba d0bc 33dc e43c 7efa 3c3c 4444 783b
000000f0: 0498 2bbb 3d37 24bb dc3e fabc 0886 53bc
00000100: c049 c73c 8efa eebc e0c6 03bc a974 93bb
00000110: be33 6c3c d4ae 85bc d389 573c 90a3 083d
00000120: bca5 073d 2156 f8bc 6775 adbc c255 853b
00000130: 9023 b03c a920 be3b 85b2 fb3b db88 fe3c
00000140: def4 a53c 61ff 313c 5d57 443c 3812 0c3d
00000150: 62d4 a63c ad21 4b3c 6e5e e13c dea8 13bc
00000160: e1d6 5a3b c5e8 d13c e7d5 a13b 0cde 4f3c
00000170: 7f4b a2bc fecb 96ba 84ab 733b 5768 2b3c
00000180: d44b 853c 46b9 a0bc 2872 0cbd be52 673c
00000190: 2b10 9e3c 165f 81bc e602 d83c d80d a6bc
000001a0: 08a7 97bc e6f7 de3a 2e46 893b 9453 24bc
000001b0: 32b4 52bb 1e67 183b 4068 bbbb e16e 1abc
000001c0: dfca 40bc 642c 9bbc 11e0 10bd 882b fe3c
000001d0: 6c23 acbc 5cfc 833c 884a 77bc 38bc 363c
000001e0: 5360 d33c ebf8 c8bc 20ff b43c 8aaa e9ba
000001f0: 2f53 253c 0416 bcbc ba26 fabc e807 9cbc
00000200: 2716 b83b c82a 023c c76c 0abd 4443 0e3d
00000210: d731 b73c bc98 10bd 545a a9bb ff0c 6dbc
00000220: ec4a e4bc 6df3 7abc ee3e 04bc 5272 91bc
00000230: 1b81 e33c a42f 963c 3da9 ad3c d342 81bc
00000240: 6a4c b7bc 276a 4cbc 42f8 dc3b f89b bbbc
00000250: b22f db3c 2e00 e8bb c343 fabb bdd3 14bd
00000260: 41a6 8c3c 8243 beba 6aae 1cbd 70de 923c
00000270: accc 1bbd a04b bcbc 4f93 d9bc 0aad b4bc
00000280: 1919 093c 8c08 9a3b ba4f 053d a918 babb
00000290: 06a9 0a3d 0eda b93b 8fc9 c2bc 7efc 823c
000002a0: 7850 373b 1772 c6bb 1776 123c 2218 0a3d
000002b0: d2a5 c6bc fae5 10bd 7e6e 083c 3e7c c3bc
000002c0: 97f9 b23b d872 aa3c 13c2 b2bb 0e6c 7fbc
000002d0: 6931 4b3c 4bb0 2ebd 39ba 0fbd df56 3cbb
000002e0: 1163 2cbd 5bc3 df3b 677b ae3c 8759 913b
000002f0: ec21 2fbd 8548 043c 32db d03b 43dd c93c
00000300: c579 b9ba e93a 393c 4e84 e5bc 5e11 e9bc
00000310: c192 9bbb 0949 15bd f226 ae3c f4b8 71bc
00000320: 931f a5bc 6ae0 fb3b b8b8 023d d790 0abb
00000330: a543 0abd 8e93 a33c e749 12bd 5a26 483b
00000340: 9fc0 3d3c 9978 6a3b e056 04bb 8c3a 943c
00000350: 1c63 24bd 808b 08bd ba81 a23b 2764 09bd
00000360: 20ff 363c 7842 4dbc 7561 9ebc adc3 0a3c
00000370: 2bb9 19b9 7bfa c8bc 2ebe f1bc bb83 e7bc
00000380: dd2a 7a39 940f df3c 8a91 b53c e06e 56bc
00000390: 8772 093d ad1e b73a 6c46 b6bc 4926 b93b
000003a0: fbd8 7bbc 3ae7 11bd 7723 cfbc d88b 43bd
000003b0: ded9 e5bc aa5c 01bd 61e7 393c a7a6 843c
000003c0: 50aa e03c 6c5d f63b 5a88 7b3c 450f 45bd
000003d0: b116 adbc f525 16bd 164d c43b 9470 663a
000003e0: 9238 2eba b2a0 92bc a3dc adbb ec8d 85bc
000003f0: 0c59 d2bc 9c07 2e3b 1ce5 a33c 8b0c bc3c
-0.020737857 0.009541151 0.013964802 0.006286132 -0.0009182858 -0.026855536 -0.030417403 -0.009038023
-0.024002083 0.017870782 0.022221029 -0.007306408 -0.024903273 -0.014730587 -0.009222864 0.0072194412
0.015708875 0.03159001 -0.033397462 -0.03670418 0.030725775 0.007943473 0.010076896 -0.0075245583
-0.0015927216 -0.014702381 -0.015189868 0.026367515 0.026853412 0.005686053 -0.0030603707 0.025417458
-0.00037218712 0.027614288 -0.03663254 0.032135103 -0.023617405 -0.0050497935 0.021742523 0.01742652
0.025418533 -0.006688679 0.0056882864 0.0063981055 -0.009940934 -0.015547887 0.0027710488 0.010642824
0.027815998 -0.031566687 0.0015406557 0.016504262 -0.034354955 -0.028448762 -0.03543038 0.022639375
-0.02547945 0.02793703 0.011534331 0.0037882486 -0.0026183138 -0.0025057339 -0.030547552 -0.0129103735
0.024327159 -0.029172208 -0.008043021 -0.004499991 0.014416633 -0.016318716 0.013155418 0.03335911
0.03311704 -0.030314507 -0.021174146 0.004069061 0.021501333 0.0058022332 0.0076811933 0.031071117
0.020258363 0.01086411 0.01198372 0.034197062 0.020364944 0.012398166 0.027510848 -0.009012429
0.0033392238 0.025623688 0.004938829 0.012687217 -0.01981139 -0.0011504886 0.0037181089 0.010461888
0.01627151 -0.019619595 -0.034288555 0.014118848 0.019294819 -0.01579241 0.02636857 -0.020270273
-0.018512264 0.0017011135 0.0041892743 -0.010029692 -0.0032150862 0.0023254822 -0.0057192147 -0.00942585
-0.011767118 -0.018942066 -0.035369936 0.031026617 -0.021012984 0.016111545 -0.015093453 0.011153273
0.025802767 -0.024532756 0.02209431 -0.0017827314 0.010090633 -0.022959717 -0.030536044 -0.019046739
0.005617875 0.00794477 -0.033795144 0.03473212 0.022362633 -0.03530191 -0.0051682387 -0.014468431
-0.027867757 -0.015316826 -0.008071644 -0.017754707 0.027771523 0.018333264 0.021198863 -0.015778935
-0.022375304 -0.012476481 0.006743462 -0.02290152 0.026756141 -0.0070800995 -0.0076374724 -0.03633474
0.01716912 -0.0014515969 -0.03825227 0.017928332 -0.038036987 -0.02298528 -0.0265595 -0.022055168
0.0083678 0.004700726 0.032546736 -0.0056792093 0.0338526 0.005671746 -0.023777751 0.015989538
0.0027971547 -0.006056081 0.008939288 0.03371442 -0.024248991 -0.035375573 0.008327125 -0.023862954
0.0054618823 0.020806715 -0.0054552644 -0.015589727 0.012401917 -0.042648595 -0.035089705 -0.0028738303
-0.042086665 0.006828708 0.021299077 0.0044357213 -0.04275696 0.008073931 0.0063737864 0.024641639
-0.001415067 0.011305549 -0.02801719 -0.028450664 -0.004747719 -0.036446605 0.021258805 -0.014753569
-0.020156657 0.0076866644 0.031914443 -0.002114346 -0.033755917 0.01996782 -0.03571501 0.0030540437
0.011581569 0.0035777448 -0.0020193383 0.018094324 -0.04013358 -0.033336163 0.0049593123 -0.03354278
0.011169225 -0.012528054 -0.01933358 0.008469504 -0.00014660197 -0.0245335 -0.02950963 -0.028261056
0.00023857826 0.027229108 0.022164125 -0.013087958 0.033556487 0.0013970934 -0.022250377 0.005650316
-0.015371556 -0.035620905 -0.025285466 -0.047740787 -0.028057989 -0.031582512 0.011346669 0.016192747
0.027424961 0.007518461 0.015352333 -0.048110265 -0.021128984 -0.036657292 0.0059906347 0.0008790579
-0.0006646003 -0.017898891 -0.005305843 -0.016303025 -0.025677226 0.0026554829 0.020006709 0.0229552

neural_predicates.digit.net.0.bias f4 [30]
00000000: 4497 81bb fc38 d1bb 8408 d1bb 69d9 fe3c
00000010: 4015 2d3d f29f 16b9 c91f 213b 7fc5 12bd
00000020: da79 c9bc 83c2 94ba 47bb 1e3c 2fe9 89bc
00000030: f3f0 20bd 541c 85bc 1ca1 e13c 9a7c ed39
00000040: 4149 c2bc 311d aa3b 02ea 773b 91e1 84bc
00000050: 5823 033c 6028 cbbc 24dc 4bbc b0f5 cf3c
00000060: 8c9f 093c 285a 933c b2f7 d9bb a4ba 753c
00000070: 44a2 fe3c ed28 18bc
-0.0039548 -0.006384967 -0.006379189 0.031109529 0.042256594 -0.00014364699 0.0024585596 -0.03583288
-0.024594236 -0.0011349473 0.009688205 -0.016834823 -0.039292287 -0.01624886 0.027542643 0.00045296998
-0.02371657 0.005191468 0.0037828689 -0.01622084 0.008004032 -0.024799526 -0.012442622 0.025385708
0.008399855 0.017987326 -0.006651842 0.014998112 0.031083234 -0.009287101

neural_predicates.digit.net.2.weight f4 [2, 30]
00000000: 045b c7bb d9bf 12be eada 1cbe 1899 8bbb
00000010: 4fdc 193e d759 b5bd b815 acbd 43e9 41bd
00000020: 03f2 243e 2275 12be 6168 57bd bdbb aa3d
00000030: 9b99 d9bd 1446 f8bd fabc 9eba a452 a1bd
00000040: c28c 0e3c 2d8f dfbc 1a27 65bd 77af 8abd
00000050: 3fdb a63c 9d42 f43c 544c 7d3d eb56 023e
00000060: d258 773c 3b40 29bd c9c2 493e f282 583d
00000070: f920 8a3d 0be2 f5bd 9771 d03c cce8 183e
00000080: d425 993d 3316 043d 1384 2a3d 8793 16be
00000090: de6d 3bbd bc4b c83b 1115 4f3c c095 bfbd
000000a0: a713 463e 85f7 30be 1aa1 f23c 1a28 8ebd
000000b0: 7d5e 06be a681 13be 214a 753d 51c5 11be
000000c0: fe23 6c3d 2c3d 243d f066 e13d e288 cdbc
000000d0: 9f35 35be b2b9 743c fee3 a63c b742 053e
000000e0: 20ab 97bd 25b4 39be 9a1a 0fbe 9002 1fbd
-0.006083848 -0.14330997 -0.15317884 -0.0042601936 0.15025447 -0.08855026 -0.0840258 -0.047341596
0.16107945 -0.14302495 -0.052589778 0.083365895 -0.10625001 -0.12122741 -0.0012110763 -0.078770906
0.008700551 -0.027289951 -0.055945493 -0.067717485 0.020368217 0.02981692 0.06184037 0.12728469
0.01509686 -0.04132102 0.19703211 0.052859254 0.0674457 -0.12006005 0.025444789 0.14932555
0.07477918 0.032247733 0.041629862 -0.14704715 -0.045759074 0.006112544 0.0126393 -0.093547344
0.19343434 -0.17281921 0.029617835 -0.069412425 -0.13121982 -0.14404926 0.059885148 -0.14235426
0.057651512 0.0400974 0.11005962 -0.025089685 -0.17696236 0.014936851 0.020372387 0.13013731
-0.074056864 -0.18135126 -0.13974991 -0.038820803

neural_predicates.digit.net.2.bias f4 [2]
00000000: 6a6f f0bc cc6b ff3d
-0.029350001 0.124717325

exp_avg f4 [30, 784]
00000000: 1d85 8b38 1d85 8b38 1d85 8b38 1d85 8b38
00000010: 1d85 8b38 1d85 8b38 1d85 8b38 1d85 8b38
00000020: 1d85 8b38 1d85 8b38 1d85 8b38 1d85 8b38
00000030: 1d85 8b38 1d85 8b38 1d85 8b38 1d85 8b38
00000040: 1d85 8b38 1d85 8b38 1d85 8b38 1d85 8b38
00000050: 1d85 8b38 1d85 8b38 1d85 8b38 1d85 8b38
00000060: 1d85 8b38 1d85 8b38 1d85 8b38 1d85 8b38
00000070: 1d85 8b38 1d85 8b38 1d85 8b38 1d85 8b38
00000080: 1d85 8b38 1d85 8b38 1d85 8b38 1d85 8b38
00000090: 1d85 8b38 1d85 8b38 1d85 8b38 6ac7 9038
000000a0: 29ea 9538 fdca 8f38 fae3 8938 eeb5 8838
000000b0: 1429 8b38 ba88 8b38 1d85 8b38 1d85 8b38
000000c0: 1d85 8b38 1d85 8b38 1d85 8b38 1d85 8b38
000000d0: 1d85 8b38 1d85 8b38 1d85 8b38 1d85 8b38
000000e0: 1d85 8b38 1d85 8b38 1d85 8b38 24aa 8b38
000000f0: e291 8b38 1d85 8b38 7357 8d38 d8f8 8c38
00000100: 0bbf 8b38 1d85 8b38 1d85 8b38 3243 8f38
00000110: 0797 9538 4d95 9638 71b4 7738 1f85 5a38
00000120: 548c 7d38 e836 7b38 0d32 8838 f5f5 8a38
00000130: 2863 8b38 1d85 8b38 1d85 8b38 1d85 8b38
00000140: 1d85 8b38 1d85 8b38 1d85 8b38 1d85 8b38
00000150: 1d85 8b38 1d85 8b38 6572 8b38 eaeb 8b38
00000160: dda8 8b38 af92 8b38 058d 8b38 30a4 8c38
00000170: 35af 8c38 7c89 8438 d185 8838 2820 a138
00000180: 6f9d a538 55b1 9f38 78dc 9738 6a91 6238
00000190: ae82 a938 080f 9738 1e35 9838 8fde af38
000001a0: 7c09 ad38 ccb5 a238 9abe 9738 f449 9038
000001b0: 3448 8f38 d198 8c38 1d85 8b38 1d85 8b38
000001c0: 1d85 8b38 1d85 8b38 ee44 8b38 8ed9 8b38
000001d0: a012 8b38 25b6 8738 d9d2 8938 e783 8c38
000001e0: 0115 8638 8716 9338 e867 b838 a911 d838
000001f0: 16cd b938 cb73 ae38 b2f7 5338 37db 8f38
00000200: 19d1 0239 602a 0839 ff5e 9138 c74c 4ab7
00000210: 1adc 83b7 61e4 2f37 4741 1538 6b12 7838
00000220: 1f4f 8538 8d9f 8b38 1d85 8b38 1d85 8b38
00000230: 1d85 8b38 1d85 8b38 d13f 8b38 849f 8b38
00000240: 9db2 8a38 ff04 8438 fa84 8d38 c3d1 9b38
00000250: 84a1 b338 e31b f938 a44b 3d39 44fe 7639
00000260: 4f95 8139 4fee 6639 b6f4 4c39 9f74 8539
00000270: 17c9 b939 4bdc c139 04e2 6939 839a 5638
00000280: 4261 f2b7 a2cb 8337 ccbc 0c38 5eb4 4e38
00000290: 850a 7938 332a 8b38 7c50 8b38 1d85 8b38
000002a0: 1d85 8b38 1d85 8b38 0576 8b38 be2a 8938
000002b0: 84ad 8d38 363d 9238 e0ed 9938 930d c138
000002c0: acdb 1339 daaa 7339 d39b b839 42b0 e639
000002d0: 9d5b e539 b817 bb39 e8f5 9939 bde4 bf39
000002e0: d9d3 083a f083 133a 9c6a d439 633a 8639
000002f0: cccc 4239 2edd 4f39 d55a 4339 110b ec38
00000300: 1092 8d38 b846 8c38 5b1c 8e38 f9ec 8b38
00000310: 1d85 8b38 1d85 8b38 b617 8b38 665f 8e38
00000320: db07 8d38 09b3 a338 e205 be38 e858 1439
00000330: 8fa6 8339 b304 cd39 817b 0b3a 49d1 263a
00000340: 40fc 1c3a e07f de39 8dbd 9439 ef79 9739
00000350: a2ab ea39 29c6 133a 07a5 163a aa6d 033a
00000360: cc05 ee39 72bf e039 65c7 b939 c8bd 7039
00000370: 8790 dc38 e5a5 9938 7a74 8b38 3760 8c38
00000380: c910 8c38 1d85 8b38 d9b9 8b38 75d6 8c38
00000390: f351 8d38 137e b538 0602 0139 f3e7 6c39
000003a0: d340 bf39 a433 063a b1cb 313a f1c9 423a
000003b0: 59a5 303a ba76 e939 115b 3f39 bb68 4438
000003c0: 3ffc 2f39 022f bd39 4cff 163a 7d9d 3c3a
000003d0: 1f95 413a 424c 2f3a 3e88 053a 086c aa39
000003e0: 2ec1 0f39 4418 8e38 1d85 8b38 1d85 8b38
000003f0: 1d85 8b38 8d4d 8b38 1d85 8b38 85a5 8b38
6.652831e-05 6.652831e-05 6.652831e-05 6.652831e-05 6.652831e-05 6.652831e-05 6.652831e-05 6.652831e-05
6.652831e-05 6.652831e-05 6.652831e-05 6.652831e-05 6.652831e-05 6.652831e-05 6.652831e-05 6.652831e-05
6.652831e-05 6.652831e-05 6.652831e-05 6.652831e-05 6.652831e-05 6.652831e-05 6.652831e-05 6.652831e-05
6.652831e-05 6.652831e-05 6.652831e-05 6.652831e-05 6.652831e-05 6.652831e-05 6.652831e-05 6.652831e-05
6.652831e-05 6.652831e-05 6.652831e-05 6.652831e-05 6.652831e-05 6.652831e-05 6.652831e-05 6.903599e-05
7.1484894e-05 6.856581e-05 6.575133e-05 6.5188724e-05 6.635688e-05 6.653504e-05 6.652831e-05 6.652831e-05
6.652831e-05 6.652831e-05 6.652831e-05 6.652831e-05 6.652831e-05 6.652831e-05 6.652831e-05 6.652831e-05
6.652831e-05 6.652831e-05 6.652831e-05 6.659728e-05 6.655209e-05 6.652831e-05 6.7396926e-05 6.722071e-05
6.663621e-05 6.652831e-05 6.652831e-05 6.8312875e-05 7.133005e-05 7.180367e-05 5.905744e-05 5.209923e-05
6.045059e-05 5.98942e-05 6.494308e-05 6.626166e-05 6.646506e-05 6.652831e-05 6.652831e-05 6.652831e-05
6.652831e-05 6.652831e-05 6.652831e-05 6.652831e-05 6.652831e-05 6.652831e-05 6.649344e-05 6.671979e-05
6.65949e-05 6.6553584e-05 6.6543034e-05 6.7063025e-05 6.708355e-05 6.319859e-05 6.5099106e-05 7.683068e-05
7.8971374e-05 7.6147415e-05 7.2413066e-05 5.4018026e-05 8.082889e-05 7.203041e-05 7.257819e-05 8.386105e-05
8.2510494e-05 7.758624e-05 7.2357434e-05 6.88023e-05 6.83222e-05 6.7041845e-05 6.652831e-05 6.652831e-05
6.652831e-05 6.652831e-05 6.640876e-05 6.668559e-05 6.631506e-05 6.471229e-05 6.5719425e-05 6.700289e-05
6.39353e-05 7.013702e-05 8.793158e-05 0.00010302972 8.859688e-05 8.318535e-05 5.0537004e-05 6.859603e-05
0.00012475661 0.00012985757 6.931833e-05 -1.2058014e-05 -1.571891e-05 1.0483986e-05 3.5585163e-05 5.914496e-05
6.356672e-05 6.657755e-05 6.652831e-05 6.652831e-05 6.652831e-05 6.652831e-05 6.639923e-05 6.6577486e-05
6.613622e-05 6.295181e-05 6.748173e-05 7.430047e-05 8.56547e-05 0.000118784395 0.00018052623 0.0002355511
0.0002471604 0.00022023286 0.00019546118 0.00025454626 0.00035435773 0.0003697596 0.00022304809 5.1165476e-05
-2.8893937e-05 1.571124e-05 3.3554432e-05 4.9282207e-05 5.9376023e-05 6.635897e-05 6.643028e-05 6.652831e-05
6.652831e-05 6.652831e-05 6.650019e-05 6.5406304e-05 6.755724e-05 6.973224e-05 7.339916e-05 9.2054855e-05
0.00014100847 0.00023237933 0.00035211313 0.0004400034 0.0004374654 0.0003568509 0.00029365649 0.00036600782
0.0005219556 0.0005627265 0.0004051522 0.00025601973 0.00018577575 0.00019823454 0.00018630487 0.00011255418
6.75061e-05 6.6888926e-05 6.776369e-05 6.672176e-05 6.652831e-05 6.652831e-05 6.632453e-05 6.788857e-05
6.724867e-05 7.8057936e-05 9.061002e-05 0.000141475 0.00025110363 0.00039104148 0.0005320833 0.00063635834
0.0005988516 0.00042438414 0.00028369986 0.00028891812 0.00044759834 0.0005637133 0.0005746637 0.00050135946
0.00045399216 0.00042867247 0.0003543451 0.00022958883 0.00010517338 7.326509e-05 6.649732e-05 6.6936416e-05
6.678847e-05 6.652831e-05 6.662653e-05 6.715666e-05 6.738668e-05 8.654236e-05 0.00012303152 0.00022593122
0.00036478657 0.00051193894 0.00067823665 0.00074306043 0.0006738506 0.0004452968 0.00018249104 4.682758e-05
0.0001678327 0.00036083913 0.0005760088 0.00071950984 0.00073845865 0.00066870835 0.0005093849 0.00032505416
0.00013709508 6.7756075e-05 6.652831e-05 6.652831e-05 6.652831e-05 6.6424815e-05 6.652831e-05 6.658867e-05

exp_avg_sq f4 [30, 784]
00000000: b008 3d32 b008 3d32 b008 3d32 b008 3d32
00000010: b008 3d32 b008 3d32 b008 3d32 b008 3d32
00000020: b008 3d32 b008 3d32 b008 3d32 b008 3d32
00000030: b008 3d32 b008 3d32 b008 3d32 b008 3d32
00000040: b008 3d32 b008 3d32 b008 3d32 b008 3d32
00000050: b008 3d32 b008 3d32 b008 3d32 b008 3d32
00000060: b008 3d32 b008 3d32 b008 3d32 b008 3d32
00000070: b008 3d32 b008 3d32 b008 3d32 b008 3d32
00000080: b008 3d32 b008 3d32 b008 3d32 b008 3d32
00000090: b008 3d32 b008 3d32 b008 3d32 56e4 3d32
000000a0: d9c4 3e32 5cba 3d32 b002 3d32 69f5 3c32
000000b0: 5f0a 3d32 c50a 3d32 b008 3d32 b008 3d32
000000c0: b008 3d32 b008 3d32 b008 3d32 b008 3d32
000000d0: b008 3d32 b008 3d32 b008 3d32 b008 3d32
000000e0: b008 3d32 b008 3d32 b008 3d32 4b09 3d32
000000f0: e608 3d32 b008 3d32 1d27 3d32 060e 3d32
00000100: a807 3d32 b008 3d32 b008 3d32 02a0 3d32
00000110: 3d4a 3e32 e20e 3e32 af56 3a32 8417 3932
00000120: 1fd8 3a32 5f00 3b32 684c 3c32 e4b6 3c32
00000130: 2ef5 3c32 b008 3d32 b008 3d32 b008 3d32
00000140: b008 3d32 b008 3d32 b008 3d32 b008 3d32
00000150: b008 3d32 b008 3d32 6208 3d32 610a 3d32
00000160: 4609 3d32 8210 3d32 3d0d 3d32 5f0a 3d32
00000170: 975d 3c32 ee55 3c32 8141 3c32 f272 3932
00000180: e9f4 3232 6197 3232 4643 3632 3e01 3032
00000190: 1423 2d32 e796 2e32 02c6 2f32 5d5d 2f32
000001a0: 7d9e 3432 c051 3a32 3ad2 3c32 c429 3c32
000001b0: c510 3c32 76c0 3c32 b008 3d32 b008 3d32
000001c0: b008 3d32 b008 3d32 a607 3d32 06f3 3c32
000001d0: 9924 3d32 c235 3d32 a9bd 3b32 bf18 3b32
000001e0: f2a5 3732 786b 3232 77a1 2e32 11eb 1d32
000001f0: 4901 0332 2482 d631 0a80 ae31 2f9b 9531
00000200: 06b0 aa31 3077 c231 18b4 cb31 c1d2 cc31
00000210: 649f 0232 849a 1932 415a 2932 427a 3432
00000220: 8dfd 3932 b701 3d32 b008 3d32 b008 3d32
00000230: b008 3d32 b008 3d32 b5e9 3c32 0db3 3c32
00000240: 730e 3d32 9fa1 3e32 ee9a 3b32 ab1b 3832
00000250: 5510 2d32 7c02 2032 0150 1b32 2b0b 0732
00000260: 7227 e431 97d1 9a31 efac 4c31 a654 7b31
00000270: fc66 b131 6426 c031 cf3d 6531 9c27 3c31
00000280: 5dfd 9831 afaa d731 9004 1332 b947 2f32
00000290: da8d 3932 5f00 3d32 5000 3d32 b008 3d32
000002a0: b008 3d32 b008 3d32 f500 3d32 daf2 3c32
000002b0: 7080 3d32 3669 3c32 28ed 3832 953a 3132
000002c0: fb80 2132 9e01 2032 018a 2c32 72eb 4c32
000002d0: 948e 5232 4b9e 1b32 a891 e931 2eb6 f131
000002e0: c16e 3b32 c120 5b32 a63b 1432 f10e b731
000002f0: f968 9c31 0ce8 c231 a6fa 0332 83d5 2632
00000300: 80d8 3832 8ef4 3c32 5cff 3c32 b37f 3c32
00000310: b008 3d32 b008 3d32 2802 3d32 4715 3d32
00000320: 6171 3c32 c712 3a32 5ccf 3132 7dbb 2332
00000330: cfc0 2132 3379 3e32 01e6 8132 94a7 b432
00000340: 33db ae32 f706 5a32 bd48 d931 80ab a031
00000350: a46c fd31 3af7 5132 285f 8832 a17e 8132
00000360: 8f2b 4f32 669d 2e32 c246 1b32 8ae0 1f32
00000370: 8fb0 3932 c407 3e32 15f2 3c32 4ae8 3b32
00000380: c516 3d32 b008 3d32 fde8 3c32 fc19 3d32
00000390: f9d7 3c32 91ce 3932 d29c 2d32 0761 2132
000003a0: 9600 3732 90c2 8232 947b c832 4910 fc32
000003b0: 464c e532 604d 4f32 fcb5 1d31 fa54 a830
000003c0: 0498 a330 1017 9631 8d24 7f32 ea01 dd32
000003d0: 294b df32 85ba a132 fc27 5232 d276 2232
000003e0: dcc9 2b32 fc2f 3c32 b008 3d32 b008 3d32
000003f0: b008 3d32 3803 3d32 b008 3d32 8814 3d32
1.1003223e-08 1.1003223e-08 1.1003223e-08 1.1003223e-08 1.1003223e-08 1.1003223e-08 1.1003223e-08 1.1003223e-08
1.1003223e-08 1.1003223e-08 1.1003223e-08 1.1003223e-08 1.1003223e-08 1.1003223e-08 1.1003223e-08 1.1003223e-08
1.1003223e-08 1.1003223e-08 1.1003223e-08 1.1003223e-08 1.1003223e-08 1.1003223e-08 1.1003223e-08 1.1003223e-08
1.1003223e-08 1.1003223e-08 1.1003223e-08 1.1003223e-08 1.1003223e-08 1.1003223e-08 1.1003223e-08 1.1003223e-08
1.1003223e-08 1.1003223e-08 1.1003223e-08 1.1003223e-08 1.1003223e-08 1.1003223e-08 1.1003223e-08 1.10531655e-08
1.11042135e-08 1.1043621e-08 1.1001859e-08 1.099884e-08 1.1003606e-08 1.1003697e-08 1.1003223e-08 1.1003223e-08
1.1003223e-08 1.1003223e-08 1.1003223e-08 1.1003223e-08 1.1003223e-08 1.1003223e-08 1.1003223e-08 1.1003223e-08
1.1003223e-08 1.1003223e-08 1.1003223e-08 1.1003361e-08 1.1003271e-08 1.1003223e-08 1.1010141e-08 1.10044365e-08
1.1002989e-08 1.1003223e-08 1.1003223e-08 1.10376295e-08 1.1076335e-08 1.10628395e-08 1.08463345e-08 1.0773764e-08
1.0875765e-08 1.0884917e-08 1.0960413e-08 1.0984625e-08 1.0998788e-08 1.1003223e-08 1.1003223e-08 1.1003223e-08
1.1003223e-08 1.1003223e-08 1.1003223e-08 1.1003223e-08 1.1003223e-08 1.1003223e-08 1.1003154e-08 1.1003608e-08
1.10033564e-08 1.1005001e-08 1.1004258e-08 1.1003606e-08 1.096432e-08 1.0962578e-08 1.0957934e-08 1.0794553e-08
1.041665e-08 1.0395383e-08 1.06090905e-08 1.0244831e-08 1.0077901e-08 1.0162444e-08 1.0231362e-08 1.0207569e-08
1.0513415e-08 1.0845213e-08 1.099084e-08 1.0952537e-08 1.0946853e-08 1.0986801e-08 1.1003223e-08 1.1003223e-08
1.1003223e-08 1.1003223e-08 1.1002987e-08 1.0998297e-08 1.1009569e-08 1.1013471e-08 1.0927956e-08 1.0890459e-08
1.06897335e-08 1.0385399e-08 1.0164846e-08 9.192051e-09 7.625496e-09 6.243015e-09 5.078623e-09 4.354113e-09
4.9676627e-09 5.659693e-09 5.928552e-09 5.9611414e-09 7.603237e-09 8.940905e-09 9.857616e-09 1.0505177e-08
1.0826068e-08 1.1001638e-08 1.1003223e-08 1.1003223e-08 1.1003223e-08 1.1003223e-08 1.0996179e-08 1.0983752e-08
1.1004533e-08 1.1096204e-08 1.09200595e-08 1.0716501e-08 1.0073639e-08 9.313791e-09 9.040378e-09 7.8605735e-09
6.6401578e-09 4.5058175e-09 2.9784208e-09 3.6573424e-09 5.163086e-09 5.5923e-09 3.335902e-09 2.7380116e-09
4.4525863e-09 6.276728e-09 8.5575635e-09 1.02026485e-08 1.0800671e-08 1.1001332e-08 1.1001319e-08 1.1003223e-08
1.1003223e-08 1.1003223e-08 1.10014655e-08 1.0998258e-08 1.1030451e-08 1.09669624e-08 1.0764133e-08 1.0316076e-08
9.40076e-09 9.3135935e-09 1.0043096e-08 1.1927897e-08 1.2256027e-08 9.058179e-09 6.7977517e-09 7.0347346e-09
1.0910015e-08 1.2754925e-08 8.628296e-09 5.3276996e-09 4.5521316e-09 5.672524e-09 7.682194e-09 9.711019e-09
1.0759436e-08 1.09986455e-08 1.1001102e-08 1.0972076e-08 1.1003223e-08 1.1003223e-08 1.1001738e-08 1.1006086e-08
1.096882e-08 1.0830894e-08 1.0349904e-08 9.530479e-09 9.415273e-09 1.1087013e-08 1.512217e-08 2.1030964e-08
2.0355946e-08 1.2690854e-08 6.3238006e-09 4.67611e-09 7.37562e-09 1.2221614e-08 1.5875756e-08 1.507516e-08
1.205889e-08 1.0163921e-08 9.038276e-09 9.306072e-09 1.0808562e-08 1.1061221e-08 1.0998083e-08 1.0937649e-08
1.1006425e-08 1.1003223e-08 1.0996016e-08 1.1007156e-08 1.0992147e-08 1.0815385e-08 1.0105582e-08 9.393495e-09
1.0652135e-08 1.5222469e-08 2.3339261e-08 2.9344067e-08 2.6693794e-08 1.2066579e-08 2.2949953e-09 1.2247761e-09
1.1903016e-09 4.3681965e-09 1.4851264e-08 2.5728657e-08 2.5994796e-08 1.8827686e-08 1.22327e-08 9.456658e-09
9.9994075e-09 1.0953951e-08 1.1003223e-08 1.1003223e-08 1.1003223e-08 1.100198e-08 1.1003223e-08 1.1005916e-08

exp_avg f4 [30]
00000000: 1d85 8bb8 3743 1939 5a22 60b9 c842 e6b8
00000010: 9d82 33ba 2c0c bab9 a22c dbb8 782b 4638
00000020: d239 82ba 0b03 18b8 99ca c2b9 6fff ac39
00000030: 6998 1b3a 2ff0 01b9 9565 8fba 4014 5d39
00000040: 5eba 96b9 5f2f 2bba c3fd 0436 87a2 0eb9
00000050: e019 db36 09e4 63b9 fdf2 0abb e35e 9eba
00000060: f5d5 d836 cef6 2fba d70e f0ba a309 d9ba
00000070: 7e2a c6ba a0ea 71b9
-6.652831e-05 0.00014616257 -0.00021375102 -0.000109796936 -0.0006847771 -0.00035485753 -0.00010451047 4.7247362e-05
-0.0009935445 -3.6242458e-05 -0.0003715351 0.0003299671 0.00059354916 -0.00012391874 -0.0010940308 0.00021083746
-0.00028749084 -0.0006530191 1.9817242e-06 -0.00013602721 6.529721e-06 -0.00021733357 -0.0021201961 -0.0012082722
6.4622095e-06 -0.0006712497 -0.001831497 -0.0016558658 -0.0015118865 -0.00023070956

exp_avg_sq f4 [30]
00000000: b008 3d32 62af d136 afb3 5836 1bb4 8d32
00000010: db9c 2935 caeb 0334 6da2 ea32 3ad5 db31
00000020: 6762 cb35 9cc0 a333 96af a936 4e88 a734
00000030: 0c73 4135 f84e 3b33 872e 8835 3a4a 0d34
00000040: 2a96 8933 b72e 5335 168d 202d c67c 1835
00000050: b05c 062f 15a6 b933 e32e 8b36 ed5c 9535
00000060: 5fe8 8c2e 219a 9d35 fecd b236 28e9 8036
00000070: b27d 6436 5d26 8834
1.1003223e-08 6.2491026e-06 3.2291098e-06 1.6496463e-08 6.318566e-07 1.2286105e-07 2.7315048e-08 6.39798e-09
1.5153317e-06 7.6253144e-08 5.0570334e-06 3.120535e-07 7.206552e-07 4.3611152e-08 1.0146331e-06 1.3158652e-07
6.406874e-08 7.8671604e-07 9.126274e-12 5.680598e-07 1.2220158e-10 8.644944e-08 4.147981e-06 1.112841e-06
6.40774e-11 1.1742269e-06 5.328794e-06 3.84184e-06 3.4047812e-06 2.5359887e-07

exp_avg f4 [2, 30]
00000000: 641c c53d 5534 d33d 171d b43d db7a 903d
00000010: 39a2 babd ea1a b8bd aa41 e13d 8f13 e0b8
00000020: fa3d b3bd 537b e63d c65c ec3d 94e5 1439
00000030: 50a5 cfba 8ebe 8c3d 84c5 d8bd 076a 973a
00000040: 0540 793d f3c3 fcbd 22f1 c8b5 22e5 c53d
00000050: b303 86b3 3b5e 93bd 08a1 a2bd 6b55 a6bd
00000060: 9df8 ee3a a242 833d 4611 c1bd c676 9cbd
00000070: db5c e0bd 25ef b93d 631c c5bd 5634 d3bd
00000080: 181d b4bd dc7a 90bd 39a2 ba3d ea1a b83d
00000090: a841 e1bd 8e13 e038 fb3d b33d 517b e6bd
000000a0: c55c ecbd 92e5 14b9 50a5 cf3a 8fbe 8cbd
000000b0: 82c5 d83d 056a 97ba 0840 79bd f3c3 fc3d
000000c0: 28f1 c835 24e5 c5bd c701 8633 3b5e 933d
000000d0: 08a1 a23d 6955 a63d 9af8 eeba a242 83bd
000000e0: 4811 c13d c776 9c3d de5c e03d 25ef b9bd
0.09624556 0.10312716 0.08794611 0.07054683 -0.09112973 -0.089895085 0.109988526 -0.000106847954
-0.087520555 0.11253991 0.11541133 0.00014199904 -0.0015842114 0.06872283 -0.10584548 0.0011551984
0.06085207 -0.12342062 -1.497134e-06 0.09662844 -6.240534e-08 -0.071957074 -0.079408705 -0.08121761
0.0018232052 0.064091936 -0.09427123 -0.07639842 -0.10955211 0.09078816 -0.09624555 -0.10312717
-0.08794612 -0.070546836 0.09112973 0.089895085 -0.10998851 0.00010684795 0.08752056 -0.112539895
-0.11541132 -0.00014199901 0.0015842114 -0.06872284 0.105845466 -0.0011551982 -0.06085208 0.12342062
1.4971347e-06 -0.09662846 6.2401845e-08 0.071957074 0.079408705 0.081217594 -0.0018232048 -0.064091936
0.09427124 0.076398425 0.10955213 -0.09078816

exp_avg_sq f4 [2, 30]
00000000: 2000 bf39 e8ca f739 b226 a539 6099 1e39
00000010: 5086 c139 1f4f bf39 bd99 013a 9488 0c33
00000020: 3e2b cb39 8af5 133a f774 213a 9f35 7833
00000030: d037 d936 cfbe 2d39 dfd9 0c3a fea6 8036
00000040: dc81 f638 5b63 593a b943 b72c f70c db39
00000050: 5f12 4928 b23d 5f39 d50b 9d39 57a2 b839
00000060: e29d 2037 26c6 1239 7be8 ea39 0f30 8539
00000070: 926b 253a 452b aa39 1f00 bf39 e9ca f739
00000080: b526 a539 6199 1e39 5186 c139 204f bf39
00000090: bc99 013a 9388 0c33 3a2b cb39 88f5 133a
000000a0: f674 213a 9835 7833 d137 d936 d0be 2d39
000000b0: ddd9 0c3a fca6 8036 dd81 f638 5963 593a
000000c0: c343 b72c f70c db39 970c 4928 b33d 5f39
000000d0: d70b 9d39 54a2 b839 df9d 2037 24c6 1239
000000e0: 7be8 ea39 1030 8539 926b 253a 462b aa39
0.00036430452 0.00047262688 0.00031500083 0.00015125191 0.000369119 0.0003648931 0.0004943868 3.2720507e-08
0.00038751395 0.0005644193 0.0006159092 5.7790768e-08 6.4736014e-06 0.00016569647 0.00053730415 3.8341377e-06
0.00011754382 0.0008292698 5.2086916e-12 0.00041780595 1.1161725e-14 0.0002128992 0.0002995419 0.00035216167
9.573503e-06 0.00013997461 0.0004480517 0.00025403543 0.000631028 0.00032457165 0.0003643045 0.0004726269
0.0003150009 0.00015125192 0.00036911902 0.00036489312 0.00049438677 3.2720504e-08 0.00038751384 0.0005644192
0.0006159091 5.7790743e-08 6.473602e-06 0.00016569649 0.00053730403 3.834137e-06 0.00011754383 0.0008292697
5.208696e-12 0.00041780595 1.1160471e-14 0.00021289922 0.00029954195 0.0003521616 9.5735e-06 0.00013997458
0.0004480517 0.00025403546 0.000631028 0.00032457168

exp_avg f4 [2]
00000000: 3b60 a0bb 3d60 a03b
-0.004894284 0.004894285

exp_avg_sq f4 [2]
00000000: 2b3f 9838 2c3f 9838
7.259691e-05 7.2596915e-05
