nesy/wno8v7q1/checkpoints/epoch=9-step=970.ckpt (torch, 297047 bytes, 16 tensors)

neural_predicates.digit.conv1.0.weight f4 [4, 1, 9, 9]
000000 6c b6 15 bd 46 b9 f8 bd bd 67 1b 3d dd 6e 8d bd
       -0.036550924 -0.12144713 0.03794073 -0.06905911
000010 71 e9 0e be c4 e6 40 3d e1 0d fe bd da 0f dd bd
       -0.13956238 0.047095075 -0.12404991 -0.10794039
000020 6e fa f6 bc 44 ca 9b 3d 0e b4 26 3d 7c 4f 4b bd
       -0.030148711 0.076069385 0.040699057 -0.04963635
000030 d2 31 5c bc f9 7d 8d bb 77 4b ad bb 49 fb e0 bd
       -0.013439612 -0.0043179956 -0.005288537 -0.10985429
000040 eb 6f c0 bd 08 a3 2b be f9 f9 94 3d f5 43 07 bc
       -0.09396347 -0.1676141 0.07274241 -0.008255948
000050 29 71 c9 bd a1 53 8b bd d4 a8 63 be 04 4a 14 be
       -0.09836037 -0.0680306 -0.22232372 -0.1448136
000060 89 cc 67 be 36 40 5b bd f8 3c 41 bd 1f 5f 68 3d
       -0.22636618 -0.053528033 -0.047177285 0.05673134
000070 e8 d2 55 3d ac 81 9a 3d 0a 0e b7 bd c5 ec 41 bd
       0.05220309 0.07544264 -0.089382246 -0.04734494
000080 aa a7 1e be 36 af c8 bd 3d eb da bd 82 d3 53 be
       -0.15493646 -0.09799044 -0.106893994 -0.20686153
000090 6b 64 94 3c 99 90 26 3e 59 29 f4 3d 83 75 3a 3e
       0.01811429 0.16266097 0.11921949 0.1820889
0000a0 a9 8b 93 bc 6b c7 36 bd 88 bd 25 bc 6e 80 4e bd
       -0.018010931 -0.044623774 -0.010115989 -0.05041545
0000b0 21 7c 1a bd cd 2b e3 bc 59 9f e4 3d 8c ae 7c 3e
       -0.037716035 -0.027730847 0.11163206 0.2467596
0000c0 18 36 89 3e 6e 35 9a 3e 1c 4b 91 3e 7b 41 66 3e
       0.26799083 0.3011889 0.28377616 0.22485916
0000d0 52 9e c6 3d 11 19 09 bd a9 65 d4 bd 71 65 1a bd
       0.09698166 -0.03347117 -0.10370953 -0.0376944
0000e0 e6 d6 2f 3e 78 f8 77 3e 9b d3 30 3e 95 01 a7 3e
       0.17171821 0.24215877 0.17268221 0.32618394
0000f0 ae 8a a6 3e 7c 55 28 3e 9b 20 ad 3c 8a de db bc
       0.3252768 0.1643886 0.021133712 -0.026839513
000100 56 27 d8 bd f3 a3 48 be 14 6e a2 3c ac ef 13 3e
       -0.10554378 -0.19593792 0.01982788 0.14446896
000110 8f 6c a8 ba 1f 04 4e 3e f5 f7 47 3e 24 b5 80 3e
       -0.0012849736 0.2011876 0.19528182 0.251382
000120 a5 77 5a bd c7 c7 53 bd 5c eb 3d be 6d 01 23 be
       -0.05333676 -0.051704194 -0.18546814 -0.15918513
000130 46 c5 38 be 4e 02 4f be 2b 32 1b be 2b ae 8d bd
       -0.18044004 -0.20215723 -0.15155856 -0.069179855
000140 3f 6c e1 bc ca 93 d2 bd 45 b7 34 be af 2b 91 bd
       -0.027517436 -0.10282095 -0.17648037 -0.0708841
000150 dc 72 f8 bd ef d0 6a bd 11 5f cc 3d b9 37 20 3e
       -0.12131283 -0.05732816 0.0997907 0.15646257
000160 6e 0f 2b 3e eb b8 bf bc 7c 7f ab bd 16 76 30 be
       0.16705105 -0.023403605 -0.08373925 -0.17232546
000170 1a 6c a8 bd 7b eb f3 bd b0 84 aa bd 4e 77 12 3e
       -0.08223744 -0.11910149 -0.083260894 0.14303324
000180 96 c9 a6 3d 9b 05 35 3d b6 2b 0a 3e 71 fc ab 3c
       0.08143918 0.0441948 0.13493237 0.020994397
000190 59 57 ef bc 4d a1 0a be 72 d5 e9 bd bc 11 67 bd
       -0.029216455 -0.13538094 -0.114176646 -0.056413397
0001a0 67 92 eb 3d 67 bf 68 3e 59 61 b9 3c cd c2 2c 3e
       0.115025334 0.22729264 0.022629427 0.16871186
0001b0 ab d4 00 be 08 99 c2 bd 0d 50 bb bd cc b3 32 be
       -0.12581126 -0.09501845 -0.09146128 -0.174514
0001c0 d9 8d fa 3d 74 8b 93 3d b8 98 3a 3e 86 ee 3e 3e
       0.122340865 0.07204333 0.1822232 0.18645677
0001d0 5c da e0 3d 64 36 9a bd 36 7a d8 bd f9 03 23 be
       0.10979149 -0.075299054 -0.10570185 -0.15919484
0001e0 a8 1b 0f 3d be c7 81 3d a8 9d 18 3e 69 b4 43 3e
       0.034938484 0.06336926 0.14903891 0.1911179
0001f0 c9 1d 1b 3e 0d e2 58 3d 66 b7 07 be 0e 5c d4 3c
       0.15148081 0.052949954 -0.13253555 0.025922801
000200 69 d7 57 bd 9c 35 74 3d 66 0b 2d 3e 7c 45 31 3e
       -0.052695666 0.05962144 0.1689888 0.17311662
000210 9e 68 37 3e ff 25 95 3d c4 cc 43 3e ae 30 e0 bd
       0.17911002 0.07282638 0.1912108 -0.10946785
000220 68 a8 24 be d8 97 f0 bd e0 61 71 bd 74 dc 11 3d
       -0.16079867 -0.11747712 -0.05893123 0.03561063
000230 cd 9f 53 3e ca ee 05 3e 71 96 d5 3c 83 af 44 3e
       0.20666428 0.13079372 0.026072713 0.19207577
000240 24 49 48 be d2 1c f2 bd da 42 3f be b7 1c 63 bd
       -0.19559151 -0.11821903 -0.18677846 -0.055447306
000250 f0 49 bf 3d 21 41 9f bc b4 8b ee 3c 2f b2 69 bd
       0.09340274 -0.019440236 0.02911935 -0.057054695
000260 50 22 be bd 8c e4 de bd eb 6a a4 bd 6a 42 27 be
       -0.09283888 -0.108834356 -0.080282055 -0.16333929
000270 05 8d 41 3c 25 7d 13 ba e7 1c 41 bc d1 2e b1 3d
       0.011813407 -0.0005626253 -0.011786676 0.08651508
000280 61 d3 c7 bd 1e 2c 99 bd f7 8b ca bd 28 95 34 bd
       -0.09757114 -0.07479118 -0.098899774 -0.04408756
000290 50 0a 4c bd e5 4d 30 3e 79 06 3a 3e 94 46 89 3d
       -0.049814522 0.17217214 0.18166532 0.06702915
0002a0 17 fc 42 3e 95 e4 f9 3d 21 f4 c0 bd 68 7a ae bd
       0.19041477 0.12201802 -0.09421564 -0.08519441
0002b0 e4 bb b0 bc 32 d2 48 3e 4e ce 48 3e dc da 8e 3d
       -0.021573968 0.19611433 0.19609949 0.06975338
0002c0 9f b5 92 3d 59 7a 7a bd 67 cf cb bd 8e 1e 44 bd
       0.07163548 -0.061151836 -0.09951668 -0.0478807
0002d0 71 30 b7 3d bc f5 51 3d 77 a6 2c 3e dc 8a 86 3d
       0.08944786 0.05125974 0.16860376 0.06569454
0002e0 c8 3b 09 3e 34 35 eb 3d f9 2f 44 be 40 df 1b be
       0.13401711 0.11484757 -0.19158925 -0.15221882
0002f0 f1 fe ce bc ac 4a 87 bd bd c6 db 3d b7 48 55 3e
       -0.02526805 -0.066060394 0.10731266 0.2082852
000300 8a 6d 7c 3d db 12 fd 3d 89 ff 68 bd 47 4f 6f be
       0.061627902 0.12357112 -0.056884322 -0.23370086
000310 d8 fb 8a bd 7d 84 07 3c dc 8f 15 bd fa 03 1a bd
       -0.06786317 0.008271334 -0.036514148 -0.03760145
000320 34 a1 b1 3d 7d 03 57 3e 51 70 ad 3d f9 5c ba bc
       0.08673325 0.20997424 0.08468688 -0.022749411
000330 b9 c7 5c bd 6d 38 b2 bd 00 fa eb bd 3e 6e 8f bd
       -0.053901408 -0.087021686 -0.11522293 -0.07003449
000340 2e a0 06 be dd 53 05 bd a9 47 3c 3e 9f f7 ab 3d
       -0.13147041 -0.03255068 0.18386711 0.08396839
000350 30 ae 8b 3d 14 c8 cb bd 70 63 32 be 07 18 03 3d
       0.06820333 -0.09950271 -0.17420745 0.032005336
000360 c1 5a 1f be 5b ac 7f bd 3f c8 db bc ba 2b 1c 3e
       -0.15561964 -0.06242023 -0.026828883 0.15251055
000370 74 f7 3b 3e 1c 87 f2 3b 47 b4 40 bc 9d 94 2c be
       0.18356115 0.00740136 -0.0117617315 -0.16853566
000380 7c 76 8d 3c 30 1b 46 be e3 95 c8 bd 92 b4 cd bd
       0.017268412 -0.19346309 -0.097942136 -0.10044207
000390 41 c8 1d bd a7 db c9 3d 5a 04 00 3d 53 10 19 bc
       -0.038521055 0.098563485 0.03125415 -0.009342271
0003a0 39 64 1b be 7a 52 06 be ae a6 04 be 45 fe 22 be
       -0.1517495 -0.131174 -0.12954208 -0.15917309
0003b0 72 99 50 be d0 32 ae bd 16 c9 cb 3c 82 83 d9 3d
       -0.20371035 -0.085057855 0.024876159 0.10620786
0003c0 a7 41 93 bc 20 0c 82 bd cc c9 58 bc 3e 7a dd bd
       -0.017975641 -0.06349969 -0.013231706 -0.108143315
0003d0 25 7b 04 be 38 53 8a 39 75 8d c8 3d 5a fb 72 3e
       -0.12937601 0.00026383414 0.09792606 0.23728696
0003e0 40 b0 40 3e 50 d5 59 3a db 75 e9 bd c6 99 f7 bd
       0.18817234 0.0008309679 -0.11399432 -0.12089877
0003f0 f4 57 ea bc 8d c1 46 be a1 ea a5 bd d9 3c 20 3e
       -0.028606392 -0.19409771 -0.081013925 0.15648212

neural_predicates.digit.conv1.0.bias f4 [4]
000000 9b 80 8c 3d d4 af 4b bc f4 6d 8c 3b 08 a3 96 3c
       0.06860467 -0.012432057 0.0042855684 0.018388286

neural_predicates.digit.conv2.0.weight f4 [32, 16, 5, 5]
000000 db b1 22 3d f0 9e 9e 3c af 3e 1e 3d ed a9 6c 3c
       0.039720397 0.019362897 0.038634 0.01444481
000010 73 7e ee bb 23 a6 8c bc d7 55 23 bd a0 8e 15 bc
       -0.0072782575 -0.017169064 -0.039876785 -0.009128243
000020 bd a3 ee bc a0 37 01 3d 23 66 c1 bc 0d 36 c1 3b
       -0.02913081 0.03154719 -0.023608273 0.005896336
000030 cd dc de 3a c3 ea 1f bd 80 ac 3d 3d 15 63 1f bd
       0.001700306 -0.039042246 0.046307087 -0.03891285
000040 b2 86 19 3d 8d d0 14 bd b0 57 f0 3c 4d f0 2d bb
       0.03748197 -0.036331702 0.029338688 -0.0026540936
000050 f3 9c 03 3c 67 d7 d1 bc c0 db b7 bc da a0 fe 3b
       0.008033025 -0.025615407 -0.022443652 0.00777064
000060 a7 d5 24 3d b0 45 32 3d bb 30 02 bd eb 52 00 3d
       0.040242817 0.04352349 -0.031784754 0.031329077
000070 d2 37 48 bd 3a 6b ce 3c 50 6b e8 3c 1b 69 34 3d
       -0.04888136 0.025197614 0.028371483 0.04404555
000080 3f 45 3f bd 9a 7d 9a bc f0 8b a5 3c f3 81 00 bc
       -0.046696898 -0.01885872 0.020208329 -0.007843482
000090 e3 b8 3f bd c3 57 01 3d d7 12 25 bd e0 22 b7 3c
       -0.04680718 0.031577837 -0.04030117 0.022355497
0000a0 1a 2d c6 bb c8 46 24 3d 67 36 65 3c fd a1 84 bc
       -0.006047857 0.040106565 0.013990021 -0.016190523
0000b0 da e8 1d bd cd a5 ee 3a e0 13 fe 3c aa c6 82 3c
       -0.038552143 0.0018207371 0.031015337 0.015963871
0000c0 1f e5 48 bd d0 1e f3 bc 80 94 ad bb fb 15 4a 3d
       -0.049046632 -0.029677778 -0.0052972436 0.04933737
0000d0 33 5f 86 b9 e0 a6 6a bc c0 48 17 bd 4b 88 0c bd
       -0.000256294 -0.014322013 -0.036934614 -0.034309667
0000e0 00 04 f9 39 20 83 6f bc 4f 96 31 3d 57 c6 bd 3c
       0.0004749596 -0.014618665 0.043356236 0.023165865
0000f0 75 61 1a bd f7 08 14 bd c0 17 87 bb c3 60 14 bd
       -0.0376906 -0.036141362 -0.0041227043 -0.03622509
000100 97 42 3c bd ad 7e ce 3c 08 c2 1e bd 3a f0 75 bc
       -0.045961943 0.025206888 -0.03875926 -0.015010888
000110 95 f5 2d 3d 07 38 c5 bc f7 3e ca bc 37 f8 e3 bc
       0.042470533 -0.024074567 -0.024688227 -0.027828319
000120 13 c2 24 3c 37 f0 05 3d 00 7b 46 3c c0 12 1d 3d
       0.0100560365 0.03269979 0.012114286 0.03834796
000130 dd e6 3a bd df 1b 41 3d ab e9 0a bd cd cf b6 3c
       -0.045630325 0.04714572 -0.03391425 0.022315884
000140 da af 1f bd eb 49 36 bd 6f 2e 42 bd 33 d3 73 3c
       -0.038986064 -0.044504087 -0.047407564 0.014881897
000150 5d 25 e3 bc f3 59 ac bb e8 76 15 3d 80 3c a5 bb
       -0.027727777 -0.005259746 0.03649035 -0.0050426126
000160 22 f8 26 3d dd cb 48 3d 10 75 a8 bc d8 0c 26 3d
       0.04076398 0.049022544 -0.020563632 0.040539593
000170 0d 2a d5 3c f3 d3 c8 3c d3 78 bc 3c 70 69 de bc
       0.026021028 0.024515128 0.023006832 -0.027149886
000180 45 fe 2d 3d 53 54 67 bc 7a 3d fa 3c 17 3a fb bc
       0.04247882 -0.014119226 0.030546892 -0.030667348
000190 07 28 bb 3c d7 41 ff 3c 47 83 a5 3c 5a 20 11 bc
       0.022846235 0.031159325 0.0202042 -0.008857811
0001a0 47 c8 d9 bc 17 6a ab bc 1a 19 0f 3b 4b df 22 3d
       -0.026584757 -0.020924611 0.002183503 0.03976373
0001b0 7a e2 3e 3c 8a 70 cc 3c 5a d0 77 bc f2 de 22 3d
       0.011650676 0.024956007 -0.0151253585 0.0397634
0001c0 cd 42 4d 3c e3 b5 91 bc 1b 38 03 3d 17 2b b4 bc
       0.012528134 -0.017786926 0.03203593 -0.021993203
0001d0 5a b2 51 3c cd ef 3e bc 4f 8c 0f bd 67 a7 44 3d
       0.01279887 -0.011653853 -0.035045918 0.04801121
0001e0 13 27 f7 3c 63 39 0d 3d 33 53 0c bd 13 ea 56 3c
       0.03017 0.034478556 -0.034259032 0.013117331
0001f0 13 61 a3 bc 63 d2 8d bc 80 c3 a6 3b 97 dc 3d bd
       -0.01994375 -0.017312234 0.0050892234 -0.04635295
000200 fb 46 2f 3d 23 7f 1b 3d d0 a3 8b bc e0 83 0c bc
       0.0427923 0.037963044 -0.017045885 -0.008576363
000210 7a 32 2c 3d 53 ff 4c 3c 2d dc 29 bc cd db b3 bb
       0.042040326 0.012512046 -0.010367435 -0.005488849
000220 67 b0 23 bc f3 7b 34 3c d7 b0 33 bd 7a 7f a1 3c
       -0.009990788 0.01101588 -0.04386982 0.019714106
000230 a5 93 06 bd a0 1a fa 3c a7 e5 e4 bc 00 4c 23 ba
       -0.03285565 0.030530274 -0.027941538 -0.00062292814
000240 27 70 88 3b 4d 5f 9d 3b 2d 82 e8 3c 3a 96 7c 3c
       0.00416376 0.0048026205 0.028382385 0.015416676
000250 ba ed 28 3c 3a 86 a3 3c 1a 7f d9 bb 57 eb 12 3d
       0.010310585 0.019961465 -0.006637466 0.03586897
000260 27 5d 3e 3c 27 3e a0 bb 73 eb 7b 3c 47 d4 fa 3c
       0.011618889 -0.0048902216 0.01537596 0.0306188
000270 37 f9 c2 3c 6a 83 d9 bc 27 ec a9 bc ba 8e 0c bc
       0.023800476 -0.02655192 -0.020742489 -0.008578951
000280 33 91 44 3a 02 51 43 3d f3 e7 f1 3c fd cf e7 bc
       0.0007498443 0.047684677 0.029529547 -0.028297419
000290 80 10 58 3c 77 a4 cb bc 1d 0c 9a bc 4d ee 21 bb
       0.013187528 -0.024858696 -0.018804604 -0.0024708689
0002a0 70 6d 93 bc 70 39 a9 bc 1d 3d 2d bd 0d a1 fb bc
       -0.01799652 -0.020657271 -0.04229461 -0.030716443
0002b0 a3 88 bd bc 9d 56 aa bc ba 69 2f 3c 73 90 94 bc
       -0.023136443 -0.020793254 0.0107063595 -0.018135285
0002c0 d3 cc d2 3c 77 ac 45 bd 53 6a 42 3c 8d a4 b3 3b
       0.025732433 -0.04826018 0.01186617 0.0054822625
0002d0 0f d9 15 bd f5 28 3b bd 4d 46 e2 3b d3 bd 9f 3c
       -0.036583956 -0.045693357 0.006905353 0.019499695
0002e0 13 79 b5 bc 53 b9 66 bc 20 26 1a 3d ca 86 dc bc
       -0.02215246 -0.014082271 0.037634015 -0.026919741
0002f0 c0 c0 01 bd 77 a5 ed bc 73 10 8e 3c d0 87 80 bc
       -0.03167796 -0.029009564 0.017341828 -0.01568976
000300 c7 c0 1b 3d a7 fc 90 3b 67 96 c9 ba 9d d7 48 bd
       0.038025644 0.0044246498 -0.0015379906 -0.04903375
000310 dd 78 e4 bc 73 56 30 3d b5 7a 49 3d b0 33 da 3c
       -0.027889663 0.043051194 0.04918929 0.026635975
000320 a0 f2 17 3d 2d a4 90 3c 7a 9c 8d 3c 67 24 4a 3c
       0.03709662 0.01765641 0.017286528 0.012337781
000330 6a 6f 22 3d 3f ee 2a bd 4d 21 23 3c 67 34 2b bd
       0.039657034 -0.041731115 0.00995667 -0.04179802
000340 da 0b 19 bc 67 42 e0 3a 47 d5 02 bd 0a 0f f2 bc
       -0.009341205 0.0017109633 -0.03194168 -0.029548187
000350 67 03 ad bc 5f 79 21 3d 4d e3 1f 3d f3 f6 2a 3d
       -0.021119786 0.03942239 0.03903513 0.041739415
000360 e7 41 17 3c 67 2d bf ba ea 51 29 bd 7b 6b 07 3d
       0.009232021 -0.0014585675 -0.041337885 0.033061486
000370 e8 42 4a bd 22 07 15 3d 5a b5 8f 3b 72 bd 22 3d
       -0.049380213 0.036383756 0.0043856325 0.03973145
000380 83 77 99 3c a0 50 93 bc 1f c7 12 3d 9a a9 02 bd
       0.018733745 -0.017982781 0.035834428 -0.031900026
000390 bd fe 42 3d 97 73 8a 3c 7f a5 4a 3d 60 7e b0 3c
       0.04760622 0.01690082 0.049474236 0.021544635
0003a0 3a ee 08 bc 00 40 e1 39 63 8d df bc b3 66 2a bb
       -0.008357579 0.00042963028 -0.027289098 -0.0026001155
0003b0 ed 2b 3a bc 9a ed 41 bb 10 b6 48 bd 47 a1 66 3c
       -0.011363012 -0.0029591084 -0.049001753 0.014076537
0003c0 5a ee 6d bc 60 2c 07 bd 47 79 65 3c 33 34 74 3b
       -0.0145221595 -0.033001304 0.014005966 0.0037262558
0003d0 d5 4a 33 3d 4b 46 2a bd 70 73 0a 3d 53 02 15 bc
       0.043772537 -0.041570943 0.033801496 -0.009094792
0003e0 53 fd 30 bc d3 bf 33 3d b3 cb 58 bb 0d 5a fb 3b
       -0.010802585 0.04388411 -0.0033080399 0.007670647
0003f0 0d 48 0d 3d 5a 65 a9 3b 33 77 47 3b f3 e7 3e bd
       0.03449254 0.0051695528 0.0030436039 -0.046607923

neural_predicates.digit.conv2.0.bias f4 [32]
000000 3a ca c0 bc fa 54 57 3c 4d b8 f9 bc 20 3a 06 3d
       -0.02353393 0.013142819 -0.03048339 0.032770276
000010 6a 0e 43 3d ba 46 81 bc 13 ce 23 bc 07 7d f5 3c
       0.04762117 -0.015780795 -0.009997862 0.029966844
000020 ba d7 f1 3c 3a a4 f5 bc 00 42 27 bb 0d e7 43 3c
       0.029521812 -0.029985536 -0.0025521517 0.011956942
000030 1a 22 6b bb e8 a0 19 3d 0f 7d 22 3d 8a 50 b8 3c
       -0.003587848 0.037506968 0.039670046 0.022499342
000040 ba 45 0e bc 87 33 06 3d f3 d8 d7 3c 18 10 2b 3d
       -0.008683616 0.032763984 0.026348567 0.041763395
000050 67 cd 08 bc 07 e6 e8 3c ba 7d 04 3d 82 3a 3d bd
       -0.008349753 0.028429998 0.032346465 -0.046198376
000060 53 ad 9c 3c f0 0c d2 3c ef 64 01 bd 4d 0d aa 3b
       0.019125616 0.025640935 -0.0315904 0.005189574
000070 1d 9b 0a bd b2 a2 2a bd 2d bd fd bc ad 7b 7d 3c
       -0.033839334 -0.041659065 -0.030973995 0.015471381

neural_predicates.digit.conv3.0.weight f4 [64, 32, 5, 5]
000000 54 ec 72 3c 00 5e f1 bc 60 0a 98 bc ce 1e d9 bc
       0.014826853 -0.029463768 -0.018559635 -0.026503947
000010 55 40 7e 3b 50 bc 97 3b f3 f2 54 3c 77 13 6e 3c
       0.003879567 0.004630603 0.012997377 0.014531008
000020 10 2e 27 3b 88 c3 85 3c 3c ac e2 bc b1 d0 db b9
       0.0025509633 0.016328588 -0.027670018 -0.00041926422
000030 4e eb d3 bc 0e 1c 06 bd b1 e2 b8 bc 03 e5 00 3d
       -0.025869038 -0.0327416 -0.022569032 0.031468403
000040 61 2d 80 3c cb 7e 2f 3c 17 1e d4 bb 16 46 06 3d
       0.015646638 0.010711382 -0.0064733136 0.032781683
000050 58 61 76 bc a6 3e 58 3c a4 be 33 bc ae bb 88 bc
       -0.015037857 0.01319853 -0.010970745 -0.016691055
000060 80 be 9b 3a 62 ed 0e 3d b8 12 d1 bc 2f 6c 9a bb
       0.0011882335 0.034894355 -0.025521621 -0.0047126035
000070 47 25 13 3a 81 81 e5 bb 11 ae a9 3b 49 f2 53 ba
       0.000561316 -0.0070039635 0.005178221 -0.00080851145
000080 6b b7 bd bb 87 ac 4a 3c 26 cf 00 3c 13 a8 a9 bc
       -0.0057896874 0.012370235 0.007861888 -0.020710027
000090 d8 a8 9c 3c 2c f5 39 bc ef cf c1 3c 36 db 0d 3d
       0.01912348 -0.011349957 0.02365872 0.034632884
0000a0 41 8b d9 bc 01 26 27 bb cf bb ae 3c 7d be 81 bc
       -0.02655566 -0.002550483 0.021329788 -0.015837902
0000b0 48 68 0c bd 8c 32 a3 3c 45 11 bc 3c 48 25 ed 3c
       -0.034279138 0.019921564 0.022957454 0.028948441
0000c0 77 8b 0b bd dd 6e e6 bc 33 5a 6f 3b c9 b5 92 bc
       -0.03406855 -0.028129036 0.0036522269 -0.017908948
0000d0 11 23 ea 3c d8 e9 33 3c 82 8b 53 bc 3a d3 06 3c
       0.028581174 0.010981046 -0.012911679 0.008229071
0000e0 d1 04 ef 3b 4e b2 03 3c 4f 52 b5 3c 48 64 94 3c
       0.0072942753 0.008038117 0.022133974 0.018114224
0000f0 2d be 2c 3c 41 0c f4 3c 4a 0c 16 3c 24 97 9c 3c
       0.010543388 0.029791 0.009158203 0.019115038
000100 8a 39 da bc e2 56 d2 3c bc 23 78 bc 6c 8b 02 3b
       -0.026638765 0.025676195 -0.0151452385 0.0019919528
000110 49 47 ba 3a d1 4c 4e 3c 72 1d fe bc e2 73 33 3c
       0.0014211918 0.012591557 -0.0310199 0.010952922
000120 32 c8 9b bc b1 21 d9 bc c4 65 06 bb 54 ca 3a 3c
       -0.019016359 -0.026505323 -0.0020507434 0.011400778
000130 26 07 8e bb 1e 56 ad bc 6b bd cb 3c ce 18 5f bc
       -0.0043343483 -0.021159228 0.024870595 -0.013616754
000140 9c a3 be 3c f0 69 c8 bb 97 ed 16 3c 2f 44 8d 3c
       0.023271374 -0.0061161444 0.009211919 0.017244427
000150 cb 68 fa bc b2 88 f5 3c 99 e9 47 3c d4 79 f6 ba
       -0.030567547 0.029972408 0.01220169 -0.0018804618
000160 3e 0b 01 3d f5 c7 26 bc 1e 32 40 bc 4f 4f 05 bd
       0.031504862 -0.010179509 -0.011730699 -0.032546338
000170 a2 37 ae bc bd b1 a4 3b 68 7f 1f 3c 01 25 14 bc
       -0.021266762 0.005026071 0.009734966 -0.009042026
000180 cf 53 f0 bc fb 79 b2 bc 2d 39 f1 3c df f1 06 bd
       -0.029336838 -0.02178668 0.029446209 -0.03294551
000190 2f ec e4 3c cb 60 59 bc 5f 3d 3f bc 10 da 45 bb
       0.027944652 -0.013267706 -0.011672347 -0.003018979
0001a0 c9 3c 20 bc 87 c8 cc 3c c0 fd f5 3c e3 3d 04 3c
       -0.009780117 0.024997963 0.030028224 0.008071396
0001b0 3c 2a 0c bd f7 6d 0f bd 19 fc 25 bb ed 6e e7 3b
       -0.034219965 -0.03501698 -0.0025327264 0.007062784
0001c0 18 c5 01 bd fb df 9b 3b c7 69 c1 3c 57 6d e8 bc
       -0.031682104 0.004756925 0.023610009 -0.02837245
0001d0 22 bb f1 3c d9 00 fb 3c 57 bf 06 bc dc 8f 25 3c
       0.029508177 0.030640053 -0.00822433 0.0101050995
0001e0 25 d4 06 bc 2b db 77 bb 7e b1 7a bc fe 4f 4d 3c
       -0.00822929 -0.0037819843 -0.0153011065 0.012531279
0001f0 92 26 da 3c 87 87 96 3c eb ee 26 bb 17 6d d6 bc
       0.02662972 0.018375171 -0.0025471996 -0.026175065
000200 bd da 01 3d 00 d8 87 3c 63 b3 f6 b8 5c c5 d0 bb
       0.031702746 0.016582489 -0.000117636075 -0.0063711833
000210 0f f8 c7 3c bb 82 a8 3c 55 b0 b0 3c 61 cb 3b bc
       0.024410276 0.02057015 0.021568457 -0.0114620635
000220 f9 37 dd 3b da 46 ee bc 86 93 33 3c 5a a5 e8 bc
       0.006751057 -0.029086519 0.010960465 -0.028399158
000230 91 01 88 3c ba a7 b5 bb 8f da 78 3c 20 af d6 3c
       0.01660231 -0.005543676 0.015188827 0.026206553
000240 d9 b2 b7 bc f8 ee ec bc 80 5c 0a 3c 76 61 9f 3c
       -0.022424148 -0.028922543 0.008444905 0.019455653
000250 2a ee 8a 3b 5b c7 9c bc 36 01 c2 3c d0 b6 e4 bb
       0.004239817 -0.019138029 0.023682218 -0.0069798008
000260 66 c6 8a 3c 85 45 d7 bc 03 f9 35 3c ce ba 5f 3c
       0.016940307 -0.026278267 0.011106732 0.013655378
000270 cb 08 07 3d 8f 71 3b 3c cf d5 dd 3c 8e a4 3f 3b
       0.03296737 0.011440649 0.027079491 0.002924237
000280 6c 34 ba 3c 9c fb c0 bb 86 95 b2 bc 9e 43 da bb
       0.022730075 -0.005889369 -0.021799814 -0.0066608926
000290 64 9f 59 3b 5e 39 1f 3c fb 76 ad bc 64 b8 a0 bb
       0.0033206576 0.009718267 -0.021174898 -0.0049047936
0002a0 d7 c0 32 bb 42 73 25 bc e7 3d bd 3b 76 61 40 bc
       -0.0027275586 -0.01009828 0.0057752016 -0.0117419865
0002b0 d1 3d d2 bc 39 0c 38 3a 19 cb e4 bc b8 3d f1 bc
       -0.025664242 0.0007020864 -0.027928876 -0.029448375
0002c0 28 75 c7 bc 23 76 9b bc ce b1 00 3d 3f ef f4 bc
       -0.024347857 -0.01897723 0.031419568 -0.029899238
0002d0 5d 53 d4 3c a0 bd bb 3a dd e5 23 3c 25 c2 8e bb
       0.025918657 0.001432348 0.010003534 -0.00435664
0002e0 da 93 c7 bc ff cf a3 bc 72 54 8f bb 4e 96 ac bc
       -0.024362493 -0.019996641 -0.0043740803 -0.021067765
0002f0 57 e6 08 3d a5 c2 a8 3c e7 69 74 3b 6e 59 02 bc
       0.033422794 0.020600626 0.0037294568 -0.007955892
000300 d0 be 08 bd 6c 31 13 3c 26 d0 9f bc 46 23 99 bb
       -0.033385098 0.008983951 -0.019508433 -0.0046733944
000310 77 36 08 bd b5 68 95 bc 24 0a 55 bc 3f 9b a0 bc
       -0.033255067 -0.018238405 -0.013002906 -0.019605277
000320 74 02 bf bb 63 d1 1e 3c 92 ef b5 ba 74 af 0a bd
       -0.00582915 0.009693476 -0.0013880602 -0.03385873
000330 28 9e 00 bd c0 4f f2 bc 09 8b ee bc ba 25 b5 3b
       -0.03140083 -0.029579043 -0.029119032 0.005528179
000340 bd 0a b0 3c a4 46 c2 3a c6 a5 96 3c 4e 4a 52 3c
       0.021489495 0.0014822078 0.018389594 0.012835098
000350 43 15 55 3b a5 3c 82 bc 04 4c f5 3c a7 d2 5f 3c
       0.0032513894 -0.015898058 0.029943474 0.013661063
000360 f0 46 9d bc 7f b5 0f 3d dd d0 c2 3c 8e 65 c5 bc
       -0.019198865 0.035085198 0.023781234 -0.024096277
000370 6d 86 07 3d 1b bc 46 bc dd b8 6d 3c 80 e3 86 3c
       0.033087183 -0.012129809 0.014509407 0.016465902
000380 1c df 63 3b 86 a9 9c 3c 2f fc 3f bc f4 99 06 bd
       0.0034770435 0.019123804 -0.01171784 -0.032861665
000390 b3 0e 0e bc 2c f1 d1 3b 37 81 59 bc d4 7d 39 bc
       -0.008670497 0.0064069238 -0.013275436 -0.011321504
0003a0 4e 88 8a 3b 66 cf 52 bc d0 af c5 bb b9 75 04 3d
       0.0042276746 -0.01286683 -0.0060329214 0.03233883
0003b0 e8 90 d6 ba 53 d5 a5 bc af b6 d6 bc 4d 68 df 3c
       -0.001637009 -0.020243322 -0.026210157 0.027271414
0003c0 5d 79 dc bc 23 6c 09 3c 0f 09 e5 bc 14 f9 ee bb
       -0.02691334 0.008387598 -0.027958421 -0.007292876
0003d0 ae b9 c0 3c c3 5e c2 bc 82 cc fd 3b 7b 52 d4 bc
       0.023526039 -0.023726827 0.0077453265 -0.025918236
0003e0 c3 49 17 3c d2 12 0d bd 59 48 cc bc 3e a5 2b 3c
       0.009233895 -0.034441777 -0.024936842 0.0104764085
0003f0 44 f5 28 bc 18 05 f6 bc 09 cf e0 3c 15 bd 89 bc
       -0.010312382 -0.030031726 0.027442472 -0.016813794

neural_predicates.digit.conv3.0.bias f4 [64]
000000 84 4e a1 3c e5 ac da bc e8 b4 c1 3c a5 95 2a 3b
       0.01969076 -0.02669377 0.023645833 0.0026029136
000010 3d 78 27 bb ba b0 d6 3b 23 b6 95 bc a9 8d 05 bd
       -0.0025553845 0.006551829 -0.018275326 -0.0326058
000020 02 bc 84 bc 14 e2 98 ba 11 a1 9b bc de 6d 5a 3b
       -0.01620293 -0.0011664056 -0.0189977 0.0033329646
000030 56 0e 1a bc 4f 8b 78 3b 8f 84 05 3d 25 49 c0 bc
       -0.009402832 0.0037924831 0.03259712 -0.023472378
000040 b1 99 63 3c 9b fd 2a 3c ed 8a e7 3b 12 ac 5e 3c
       0.013891623 0.010436441 0.007066122 0.013590829
000050 1b de 80 bc e6 7a 4b bc fd 54 e0 bb 2e f5 78 bc
       -0.015730908 -0.012419438 -0.006846069 -0.015195174
000060 4d db c1 3c 20 0b b3 bc 27 d7 03 3d 21 9f 04 3d
       0.023664141 -0.02185589 0.032187607 0.03237832
000070 96 7b e0 3c 70 41 13 bc 9e e7 06 3d 49 a3 01 3d
       0.02740268 -0.0089877695 0.03293573 0.03164986
000080 b6 68 07 3b a2 7b be bc c6 38 4e 3c ef bd 73 bc
       0.0020661778 -0.023252312 0.012586778 -0.014876827
000090 9d 0a 71 bc 83 b4 f1 bc 35 f1 32 3c d1 f2 4a 3a
       -0.014712003 -0.02950502 0.010921766 0.0007741871
0000a0 16 fd de 3b f8 18 9a bc ff b5 aa 3b 84 31 e4 bc
       0.0068050725 -0.018810734 0.005209684 -0.027855642
0000b0 42 bb 7d bb 29 06 cd bc e3 15 b5 bc 85 1f f9 bc
       -0.003871635 -0.025027351 -0.022105163 -0.030410537
0000c0 83 a6 fd 3c 1c e0 97 bc 3b 8f 3c 3c 66 35 74 3c
       0.030963188 -0.01853948 0.011508758 0.014905309
0000d0 a0 0a 40 bc 99 8d 04 3c 44 f2 15 bc 9e 54 55 3b
       -0.011721283 0.0080904 -0.009151999 0.0032551656
0000e0 fd 2f cb 3c 29 c8 89 3c c7 69 ca ba 71 f6 87 3c
       0.024803156 0.016819077 -0.0015442901 0.016597005
0000f0 1e 67 c0 3b 4b b1 fe 3b 74 ec 48 3c 20 e5 e8 3b
       0.0058716675 0.0077726 0.012263406 0.007107392

neural_predicates.digit.out.weight f4 [4, 576]
000000 a4 77 d8 3c b6 b7 09 bd 52 b1 4e bd 71 98 aa bd
       0.026424237 -0.033622466 -0.050462075 -0.08329857
000010 6e ee f8 bd b7 ad 1f bd c5 d2 82 bd a7 23 6b bc
       -0.12154852 -0.038984027 -0.06387857 -0.014351762
000020 d9 6c 5e bd 9e 1d af bd aa 0c b2 bd 44 06 e9 3c
       -0.054303024 -0.08550571 -0.08693822 0.02844537
000030 cb d9 ac bc 1f 7d b7 bd 44 35 85 bd 65 41 06 be
       -0.021099946 -0.08959412 -0.065043 -0.13110884
000040 21 f8 89 bd 4c 3f c8 bc ba 5a 4c bd 4c e8 be bc
       -0.0673678 -0.024444245 -0.04989121 -0.023304127
000050 e2 87 6d bd f3 ef 76 3d d4 88 9e bd c3 19 57 bd
       -0.057990916 0.060287427 -0.07740942 -0.052514803
000060 97 bd d8 bd da 8b 25 be 4c 6e fc bd c1 bd 10 be
       -0.105830364 -0.1616663 -0.12325725 -0.14134885
000070 e5 f7 4b bd 85 46 78 bd 65 72 7e 3d f5 4b bb 3c
       -0.049796958 -0.060614128 0.062120814 0.022863368
000080 4a 1f 2e 3d 98 07 9d 3b 4e 49 da 3b f5 13 85 3d
       0.04251031 0.004792165 0.0066615706 0.06497947
000090 fc 2a bc bd 55 ef 32 be 4b 7a 35 be 44 03 ed bd
       -0.09187886 -0.1747411 -0.17722432 -0.115728885
0000a0 f4 5d 64 bd e8 c7 1f bb 28 cf d2 3c cc 92 8b 3d
       -0.055753663 -0.0024380628 0.025733545 0.06815109
0000b0 7b 31 01 3e d5 a6 87 3d f9 e2 57 3c a3 58 6b 3d
       0.12616532 0.066236176 0.013176673 0.057457577
0000c0 02 3a d7 bc 30 5c b4 bd 02 0f a9 bd 58 37 be bd
       -0.026272777 -0.08806646 -0.08254816 -0.092879
0000d0 41 32 d8 bd ac d8 c4 bd 14 4e d1 bd dc cb 4c bc
       -0.1055646 -0.096116394 -0.1021997 -0.012499776
0000e0 f2 5d 66 3d eb c9 17 3d 1c 14 99 3c a4 4d d3 3d
       0.056241937 0.0370578 0.018686347 0.10317543
0000f0 5e d4 49 bd 29 3d e8 bd 83 61 93 bd f3 1a e4 bd
       -0.049274795 -0.113397904 -0.07196333 -0.11137953
000100 e3 2a 1e be fd 9f 87 be bc 96 49 be 47 8f 07 be
       -0.15446047 -0.2648925 -0.19686407 -0.1323825
000110 f1 fc b9 bd da 41 b5 3b e2 be 1b 3d 22 d8 32 3c
       -0.09081448 0.0055315318 0.038023837 0.010915788
000120 15 95 d0 bd e9 28 3c be 3a dd a7 bd 8c 74 60 bd
       -0.10184685 -0.18374981 -0.081964925 -0.054798648
000130 d9 a2 d8 3c ef f6 0b be ce 27 31 be 56 df 9f bd
       0.02644484 -0.13668416 -0.1730034 -0.0780627
000140 34 ea 99 bd a7 ee 1a be cf e1 b2 bd d8 c9 96 bd
       -0.07515374 -0.15130101 -0.08734476 -0.073627174
000150 af 0a 23 be de 56 3b be c1 f7 10 be 5f c7 05 bd
       -0.15922044 -0.18294856 -0.1415701 -0.03266084
000160 3b 2f 88 3d 69 db 8e 3c 0b e6 33 bd dd 8f 6b bd
       0.066496335 0.017438607 -0.043920558 -0.057510246
000170 74 2b 9a bd a2 be 28 be 82 3b 17 be 79 85 ea bd
       -0.07527819 -0.1647897 -0.14768794 -0.11451239
000180 a7 91 a4 bd f8 65 49 be 81 e5 a8 bd eb 64 85 bd
       -0.080355935 -0.19667804 -0.082468994 -0.06513389
000190 78 5b 1f 3d 6f c6 cf 3c 10 8d 6d bd bb 2b 0f be
       0.03890559 0.025363175 -0.057995856 -0.13981526
0001a0 d7 75 f0 bd a0 81 d6 bd 36 41 1d be 16 34 a2 bd
       -0.11741226 -0.10473943 -0.15356907 -0.07920091
0001b0 9e 5a 1f be 5d 42 49 be 8d 97 93 bd 36 66 7c 3c
       -0.15561911 -0.19654222 -0.072066404 0.015405228
0001c0 b1 95 9a bc 1c 77 4a 3d c1 c5 f5 bc ad ba 0a be
       -0.018870207 0.049429998 -0.030001523 -0.13547774
0001d0 8a de d9 bd 0c a9 d3 bd 31 9b 90 bd ad 40 c0 bd
       -0.10638149 -0.103349775 -0.070608504 -0.09387336
0001e0 52 7e 64 bd 8d 57 36 be 1d ea f0 bd 50 67 9e bd
       -0.05578453 -0.17806835 -0.117634036 -0.07734549
0001f0 b6 47 7a bd 8e e7 85 bd a9 a3 98 bb 17 c2 1a be
       -0.061103545 -0.06538306 -0.0046581817 -0.15113102
000200 12 88 0a be a2 b5 14 be 47 f7 ca bd 6a 56 32 bd
       -0.13528469 -0.14522412 -0.09910446 -0.043539442
000210 47 8a de 3c e0 77 09 bd 22 d1 89 bd 3c bd 4b be
       0.027165545 -0.033561587 -0.06729342 -0.19896406
000220 7d 58 8b bd 73 38 01 bd cf 35 90 3d c3 aa 93 3d
       -0.06803987 -0.031547975 0.07041513 0.072103046
000230 27 31 af bb 7d 64 7b bc 99 ad 92 bd 6d bc 77 bd
       -0.0053464356 -0.0153437825 -0.071620174 -0.06048243
000240 f8 91 26 bd d7 c8 16 bb d0 85 0e bd 3c 91 cf bb
       -0.04066655 -0.0023007893 -0.034795582 -0.006334452
000250 58 65 2d bd 11 52 3c bc 4d c6 1d bc ab ca 38 bc
       -0.042332977 -0.0114941755 -0.009629798 -0.011278789
000260 18 08 65 bd 07 5e ad 3b 55 ef 07 3c 21 86 cf 3c
       -0.055915922 0.00529075 0.008296807 0.025332512
000270 94 97 56 39 8d 26 d4 bb 62 7f 88 3b c9 59 2f 3c
       0.00020465098 -0.006474322 0.004165576 0.010702559
000280 5e d7 6c bd a3 18 f6 bc 3a 35 2a bd b2 4b c6 bc
       -0.057822578 -0.030041045 -0.041554667 -0.024206016
000290 40 2e b9 bc 22 41 c1 bc 90 00 6c 3c b6 09 b7 bc
       -0.022605062 -0.023590628 0.014404431 -0.022343498
0002a0 bd b0 1d 3d 20 9c 4d bd 07 42 07 bd ec de 24 3c
       0.03849863 -0.05019772 -0.033021953 0.010062914
0002b0 93 72 c0 bc 28 d8 37 3c bf c7 68 3c f1 ad e9 3c
       -0.023492133 0.011220969 0.014207779 0.028525325
0002c0 a9 86 a4 bc 62 27 60 bd b7 e5 16 bd 9c bc 2a bd
       -0.020083742 -0.05472506 -0.036840167 -0.04168378
0002d0 ac f8 62 3c 9a 25 96 3c 3e 30 81 3b ba 4a 04 3d
       0.013853233 0.018328477 0.0039425185 0.032297827
0002e0 e4 03 2e 3d 7b 0b 8f bc f4 cb 2c bc 01 7b 01 3d
       0.04248418 -0.017461529 -0.010546673 0.031611446
0002f0 8c 49 cc bc 9a 5b 9a 3c 34 58 17 3d ff cb 3a bd
       -0.024937414 0.018842507 0.03694935 -0.045604702
000300 3f 68 a4 bc ab e6 38 3c be 13 7a ba d1 2e b4 bc
       -0.02006924 0.011285464 -0.0009539685 -0.02199498
000310 a5 ac 27 bd 22 bf eb bc 7f da 1c bd e7 f8 bd 3c
       -0.04093613 -0.028777663 -0.03829431 0.023189975
000320 24 57 54 bc 0e 02 31 bc b7 0b 14 3d d1 75 a6 bb
       -0.012960229 -0.0108037125 0.036143985 -0.005079963
000330 47 0b 81 3d d8 6e 60 bc 8a 2e 2e 3c 5b c6 8f 3d
       0.06300979 -0.013698302 0.010631213 0.07020255
000340 66 86 07 3d fe d4 1c bd 9a a0 bc bd d3 14 6c 3d
       0.033087157 -0.038289063 -0.0921032 0.057637047
000350 41 d4 0b 3d f6 e0 e6 3c 3e 47 97 bc f3 b9 8e 3b
       0.034137968 0.028183442 -0.018466588 0.004355663
000360 e9 9e a5 3d 3b 97 43 3d 80 5d 19 3d 94 05 8a 3d
       0.0808695 0.047751646 0.037442684 0.06739345
000370 c3 d3 a3 3a 72 b5 16 bd fb 38 a9 bd 61 2f e7 3c
       0.0012499023 -0.036794133 -0.08262821 0.028220834
000380 08 90 8b 3d 83 fb 35 3d 9d d1 fe 3c 19 0b 9a bb
       0.06814581 0.044429313 0.03110581 -0.00470103
000390 37 45 93 3d fa 82 9d 3d bc e6 c9 3c 95 53 0e 3e
       0.07190936 0.076909974 0.024646156 0.13899072
0003a0 77 54 c3 3c 26 84 03 be bf 6c dc bd 88 28 cd 3c
       0.023843987 -0.1284338 -0.10762929 0.02504374
0003b0 91 84 bd 3c 18 01 cc 3d 17 55 14 3c a0 07 21 3b
       0.023134502 0.09961146 0.00905349 0.0024571195
0003c0 5c e2 35 3d 38 70 65 3d c6 0c b0 3d a0 19 ef 3c
       0.044405326 0.056015223 0.08596186 0.029187024
0003d0 6f b1 2d 3b 5c 94 9a bd b9 55 33 bd ca a7 f5 bc
       0.0026503464 -0.075478286 -0.043782923 -0.029987235
0003e0 4e f4 2c 3d 72 5f a7 3d 4a d1 14 bd f3 a7 c1 3c
       0.042225175 0.081725016 -0.036332406 0.023639655
0003f0 ba c5 39 3d 1b 22 e0 3c 4a 16 32 3c de 96 ac bb
       0.045354582 0.027360013 0.010869572 -0.005267008

neural_predicates.digit.out.bias f4 [4]
000000 69 0a 45 bd d5 d9 87 bb 63 47 f9 3c 38 e0 c3 3c
       -0.04810563 -0.0041458406 0.030429548 0.023910627

exp_avg f4 [4, 1, 9, 9]
000000 49 41 03 3c 29 12 de 3b cc 00 ed 3b 92 d1 9f 3b
       0.008011171 0.006777067 0.007232761 0.0048772776
000010 ce 85 54 3b d9 4e 6c 3b 14 6a bf 3a 9c 78 e8 3a
       0.0032428387 0.003605774 0.0014603757 0.001773614
000020 e9 7e ff 3a 96 c9 e6 3b af 2b de 3b cc 14 e4 3b
       0.0019492778 0.007043074 0.00678011 0.006960487
000030 d9 72 d2 3b fa 09 d3 3b b0 ce ff 3b be 96 ac 3b
       0.0064223823 0.0064403983 0.0078066215 0.0052669933
000040 c8 55 ca 3b fd ba a8 3b 89 0a df 3b 9b df de 3b
       0.0061747767 0.005149244 0.006806676 0.006801558
000050 18 fc eb 3b 94 5a 05 3c 68 1d fa 3b fc 22 1b 3c
       0.007201683 0.008139271 0.0076329 0.00946879
000060 69 0a 09 3c 33 5a d7 3b 49 1a 93 3b 32 5d e3 3b
       0.008364298 0.006572032 0.0044892174 0.0069386
000070 f3 a4 ea 3b 54 4c 02 3c 33 70 fd 3b d8 d9 01 3c
       0.0071607768 0.007952768 0.0077343225 0.007925473
000080 28 8c e3 3b da 2a b3 3b 48 5d 83 3b de 8f b4 3a
       0.006944198 0.005467755 0.0040089227 0.0013775786
000090 15 da 00 3c ee 64 f8 3b 75 91 da 3b 3d 3b d0 3b
       0.007864495 0.007580391 0.006670172 0.006354718
0000a0 a2 25 2f 3b ca 23 0a 3a f7 f7 95 3a 12 00 54 ba
       0.0026725312 0.0005269615 0.0011441697 -0.00080871687
0000b0 39 92 00 bb a8 43 1a 3c a5 a2 e1 3b 72 98 71 3b
       -0.0019618405 0.009415545 0.006885844 0.0036864546
0000c0 63 7f 01 ba e8 bd 92 bb 41 cd ad bb 2e e4 b9 bb
       -0.00049399416 -0.004478205 -0.005304009 -0.005672953
0000d0 1c fe 79 bb f7 d8 a6 ba 1f 50 f9 3b bd e8 c0 3b
       -0.0038145846 -0.0012729455 0.007608428 0.0058871196
0000e0 fa d3 1f 3a 51 10 89 bb 30 33 d6 bb 4e ad 19 bc
       0.00060969556 -0.0041828533 -0.0065368637 -0.009379698
0000f0 21 33 17 bc ad 2d aa bb 1b a7 d0 ba 2a e1 c7 3b
       -0.009228499 -0.0051934333 -0.0015918942 0.0060998397
000100 24 20 88 3b fb b3 44 3a 5c 4e 45 bb 3e 74 6b bb
       0.004154222 0.0007503626 -0.003010652 -0.003592744
000110 90 a2 82 bb 9a 9f 4d bb c4 71 20 bb 05 43 8c 3a
       -0.003986664 -0.0031375648 -0.0024481872 0.0010701126
000120 9a 21 5f 3b 43 41 34 3b a5 11 b6 3a 37 e5 aa 3a
       0.0034047128 0.002750472 0.0013890757 0.0013038282
000130 ee 7e 3b 3b c5 78 1c 3b d8 6a 6a 3b 38 d0 36 3b
       0.0028609592 0.0023875695 0.003576925 0.0027895104
000140 32 4b 9f 3b cd 8c a9 ba 20 4c a3 ba 5c 7e b3 ba
       0.004861259 -0.0012935639 -0.00124586 -0.0013694274
000150 9b fa be b8 83 3a 5e 3a 7b 0d ee 3a d7 02 88 3a
       -9.106585e-05 0.0008477347 0.0018161976 0.0010376823
000160 62 3d b7 3a 3e 3f 66 3a ac b6 ab ba 0a 5f 9b ba
       0.0013980085 0.00087832275 -0.0013100705 -0.0011853885
000170 5d ad 81 ba 18 4e 16 3a 27 13 41 3b df 98 6c 3b
       -0.0009893585 0.0005733683 0.0029460879 0.003610186
000180 71 f4 12 3b b0 31 28 3a da 31 84 b9 c8 da c0 ba
       0.002242353 0.00064160954 -0.00025214144 -0.0014713639
000190 47 d0 34 ba 77 24 ef b9 5c b8 08 3b 09 bc 87 3b
       -0.0006897491 -0.000456128 0.002086184 0.0041422886
0001a0 1d c2 96 3b 7f bd d4 3a ad 50 8c 39 8e 15 13 bb
       0.004600777 0.0016230791 0.0002676299 -0.0022443268
0001b0 1b c4 71 ba f5 cd ae b9 4a 81 20 3a df 21 f9 3a
       -0.00092226424 -0.00033341316 0.0006122781 0.0019007287
0001c0 cc 2c 61 3b e6 4c 72 3b 9f 3f 0c 3a 39 08 f2 ba
       0.0034358976 0.0036972105 0.00053500565 -0.0018465585
0001d0 44 ac 67 bb b3 6a 9d ba 52 6f ca 38 29 e3 82 3a
       -0.003535048 -0.0012009948 9.6528456e-05 0.0009985912
0001e0 9d cb d2 3a 7b d1 21 3b a0 f2 bb 3a 76 ae 5d ba
       0.001608241 0.002469151 0.0014339276 -0.00084564777
0001f0 79 93 46 bb 5b 39 85 bb cf 9c 99 39 1e b2 96 3a
       -0.0030300303 -0.004065675 0.00029299266 0.0011497175
000200 f4 d0 a4 3a 16 20 43 3a a3 69 4e ba 23 f8 a7 ba
       0.001257448 0.0007443441 -0.00078740175 -0.0012815039
000210 93 91 9c ba 8b 70 fb ba 13 c8 36 bb da 94 02 3b
       -0.001194524 -0.0019183321 -0.002789025 0.0019925148
000220 9c 97 1c 3b c5 a4 a4 3a 81 a5 c9 b9 1f c1 20 bb
       0.0023894077 0.0012561312 -0.00038461018 -0.0024529172
000230 95 5b 2b bb 02 2b f9 ba 98 f5 d7 ba 27 13 3d bb
       -0.0026147116 -0.001901001 -0.0016476391 -0.0028850527
000240 9c 8e 34 3b de 24 05 3b c8 11 a2 3a 49 dc 1e ba
       0.0027550822 0.0020316164 0.0012364918 -0.0006060047
000250 39 83 d5 ba c2 ac f2 ba 0f 34 7d ba a3 2f 55 ba
       -0.0016289718 -0.0018514621 -0.00096589414 -0.00081324036
000260 c1 52 b5 ba 25 e7 03 3b 65 7b c1 3a 27 e4 61 3a
       -0.0013833867 0.0020126787 0.0014761506 0.0008617066
000270 a6 6a a1 ba 73 96 c8 ba 4a b2 2c ba f7 18 0f 3a
       -0.0012315109 -0.0015303626 -0.00065878464 0.0005458737
000280 0c fc 80 3a 1c e7 0e 39 be 75 16 bc bd f0 f5 bb
       0.0009840741 0.0001362827 -0.009183345 -0.007505505
000290 2c 62 bf bb e8 f1 a6 bb 3e f3 9d bb 8e fe a3 bb
       -0.0058405604 -0.0050947554 -0.0048202565 -0.0050047105
0002a0 07 b2 c4 bb 78 0f b9 bb ff eb b0 bb 64 61 05 bc
       -0.006002668 -0.005647596 -0.0053992267 -0.0081408955
0002b0 29 1a d1 bb 51 da ad bb 22 af a8 bb 12 f7 9a bb
       -0.0063812924 -0.0053055664 -0.0051478306 -0.00472916
0002c0 ed 9c af bb 4b c7 ae bb 8d 0f a8 bb 27 21 c0 bb
       -0.005359283 -0.005333816 -0.005128807 -0.005863327
0002d0 f8 e5 e8 bb 51 24 c0 bb bf ae 44 bb 7d f3 0a bb
       -0.0071074925 -0.0058637043 -0.0030011383 -0.002120226
0002e0 fc 72 1a bb 4b 07 23 bb a0 aa 59 bb 1a cb 77 bb
       -0.0023567071 -0.0024876173 -0.0033213273 -0.0037810267
0002f0 0a 34 ac bb 1d 7e 02 bc d4 56 ac bb 4a 49 05 bb
       -0.005255227 -0.007964638 -0.005259374 -0.0020337873
000300 0b da c6 ba 22 45 d5 ba de 84 9c ba e9 0a 08 bb
       -0.0015171183 -0.0016271214 -0.0011941453 -0.0020758456
000310 06 28 a4 bb 81 e5 c3 bb 12 fc fb bb 8e db b7 bb
       -0.005009654 -0.0059782867 -0.007689961 -0.0056108898
000320 73 69 60 bb 2f c0 6c ba 52 cf 87 39 0f ad e3 39
       -0.003424254 -0.0009031323 0.00025903672 0.00043425753
000330 d8 6c 11 bb c3 43 a3 bb 0b ee cf bb 8f 1a dc bb
       -0.002219012 -0.004982443 -0.0063455156 -0.006717033
000340 9d d6 b6 bb 75 d0 46 bb f0 68 28 b8 4d 7d 01 3a
       -0.005579783 -0.0030336652 -4.0152052e-05 0.0004939631
000350 3a 72 38 ba 33 be 22 bb 52 15 96 bb 56 70 bb bb
       -0.0007036064 -0.0024832606 -0.0045801783 -0.0057201786
000360 20 d5 00 bc 33 f3 a3 bb 5b 32 67 bb c4 cf f2 ba
       -0.007863313 -0.005003357 -0.0035277817 -0.0018525054
000370 80 f2 98 ba 1a de 0f bb d9 bd 53 bb 63 46 a1 bb
       -0.001166895 -0.0021952451 -0.0032309203 -0.004921721
000380 38 36 a3 bb 57 30 b8 bb b0 d7 78 bb 27 69 5a bb
       -0.0049808286 -0.005620997 -0.0037970357 -0.0033326836
000390 82 68 2c bb 46 4b 44 bb 55 4e 92 bb c2 0c b2 bb
       -0.0026307409 -0.0029952093 -0.0044649043 -0.0054336498
0003a0 74 2a c9 bb 5a 3c c9 bb c1 f2 c3 bb 39 6c a0 bb
       -0.006139094 -0.0061412277 -0.0059798663 -0.0048957136
0003b0 a4 6b ad bb 71 64 7e bb f4 fc 92 bb 8c 46 d3 bb
       -0.005292373 -0.0038817192 -0.004485721 -0.006447619
0003c0 ff 66 c7 bb 24 67 d9 bb e9 68 b9 bb 12 6e 9d bb
       -0.006085276 -0.00663461 -0.005658258 -0.004804381
0003d0 9f 64 b1 bb 42 93 92 bb 5b 75 91 ba 8c a0 30 3b
       -0.0054136063 -0.004473121 -0.0011097597 0.0026951162
0003e0 bb bc d1 3b d2 01 ef 3b f3 4b bd 3b 58 5f 4f 3b
       0.0064006723 0.007293918 0.005776876 0.0031642523
0003f0 1d e8 b1 bb f9 e0 a4 bb f4 c7 c2 ba 44 69 62 3a
       -0.0054292814 -0.0050317016 -0.0014860616 0.00086369016

exp_avg_sq f4 [4, 1, 9, 9]
000000 18 41 0d 3a 1e 71 18 3a e0 8d 1a 3a e8 70 23 3a
       0.0005388423 0.00058151956 0.0005895775 0.0006234781
000010 2c 7f 22 3a f4 47 1a 3a 7f 69 24 3a 37 4c 28 3a
       0.00061987597 0.00058853556 0.00062718237 0.00064200483
000020 fb 0e 1f 3a b9 c8 25 3a 38 78 35 3a f2 8f 45 3a
       0.0006067601 0.00063241605 0.0006922516 0.0007536403
000030 cb e4 4f 3a f9 53 4d 3a fd 80 4e 3a 0a be 5a 3a
       0.0007930516 0.00078326423 0.0007877497 0.0008344358
000040 49 28 54 3a e1 0e 45 3a 68 c5 23 3a 28 ee 38 3a
       0.0008093161 0.0007517171 0.00062473724 0.0007054531
000050 a8 18 45 3a 08 c9 46 3a d1 cd 4f 3a a8 af 56 3a
       0.00075186277 0.00075830566 0.00079270924 0.0008189627
000060 f5 78 55 3a 07 55 41 3a 6f c6 32 3a 56 2c 22 3a
       0.0008143329 0.0007375036 0.000681973 0.0006186416
000070 5a 23 30 3a f5 be 25 3a a4 ce 22 3a 85 78 28 3a
       0.0006719135 0.00063227053 0.00062106014 0.000642665
000080 d8 a5 2f 3a cb 5e 1e 3a a8 15 11 3a 1a e1 11 3a
       0.0006700433 0.0006041347 0.0005534538 0.0005564854
000090 68 46 1c 3a b7 49 17 3a 76 a5 00 3a 6a 07 df 39
       0.0005961419 0.0005771177 0.0004907468 0.00042539398
0000a0 ae 43 e0 39 50 18 d6 39 1b 9b b0 39 fc 54 ba 39
       0.00042775035 0.00040835375 0.00033684899 0.00035540003
0000b0 e5 c0 d2 39 33 49 14 3a e2 3c 00 3a 66 2b ca 39
       0.0004019804 0.00056566595 0.0004891885 0.00038560777
0000c0 d0 7b b7 39 0e b5 b4 39 63 b3 95 39 00 34 6d 39
       0.00034996727 0.00034467172 0.00028553148 0.00022621453
0000d0 45 d7 82 39 57 dc a9 39 47 09 09 3a 0f 7c e6 39
       0.0002495592 0.00032398358 0.00052275177 0.0004396145
0000e0 0f cb a9 39 1e bb a1 39 6f 09 a2 39 f5 4e 9a 39
       0.00032385482 0.00030847726 0.00030906076 0.00029431997
0000f0 44 db 8d 39 16 e0 8b 39 30 6c 9e 39 15 f4 07 3a
       0.0002705698 0.00026679103 0.00030216714 0.00051862124
000100 a5 c6 f3 39 e9 16 ca 39 e7 e7 a2 39 33 08 8e 39
       0.00046496573 0.00038545512 0.0003107183 0.0002709046
000110 ef ec 8c 39 4a ef 79 39 14 e9 86 39 66 ad 96 39
       0.0002687941 0.00023835633 0.00025732128 0.0002873942
000120 44 6a 16 3a b4 23 0c 3a 3f 6f fc 39 72 43 d2 39
       0.0005737881 0.00053458964 0.0004814807 0.00040104572
000130 61 30 be 39 79 c1 ae 39 f3 12 88 39 93 af 78 39
       0.0003627567 0.00033332015 0.0002595406 0.0002371653
000140 2b c7 92 39 76 8d 98 38 c7 66 9c 38 00 48 98 38
       0.00027995682 7.274274e-05 7.4578034e-05 7.261336e-05
000150 70 03 8c 38 d1 8c 77 38 f7 87 a1 38 63 e2 ce 38
       6.6763605e-05 5.9020535e-05 7.702404e-05 9.865013e-05
000160 37 7f 8b 38 9c d6 39 38 05 08 92 38 9f b6 94 38
       6.651732e-05 4.4307308e-05 6.963316e-05 7.091206e-05
000170 be 9a 8f 38 34 5a 88 38 80 98 83 38 06 01 bc 38
       6.847594e-05 6.501787e-05 6.274972e-05 8.964729e-05
000180 39 9e e6 38 3b 81 86 38 47 11 3b 38 0c fb 87 38
       0.00010996726 6.413689e-05 4.4600365e-05 6.484063e-05
000190 b9 2d 8b 38 b1 91 88 38 10 2e 85 38 e9 5d 87 38
       6.636553e-05 6.5121225e-05 6.350514e-05 6.454794e-05
0001a0 0e b5 d1 38 3e 92 fc 38 ca 70 8c 38 e5 7d 3a 38
       9.999621e-05 0.00012043536 6.696729e-05 4.4463104e-05
0001b0 24 ab 87 38 bb f7 89 38 23 c9 87 38 5d b8 83 38
       6.469179e-05 6.5788125e-05 6.474766e-05 6.280907e-05
0001c0 82 7f 92 38 3e c2 de 38 14 a2 01 39 5f b6 9c 38
       6.985573e-05 0.00010621965 0.00012362777 7.472629e-05
0001d0 65 b8 55 38 87 65 8b 38 c1 e8 8d 38 0e 4b 8d 38
       5.0954888e-05 6.6469474e-05 6.766758e-05 6.737384e-05
0001e0 7b 24 8c 38 5d e0 9e 38 cd b9 e2 38 4e e5 f7 38
       6.682515e-05 7.575818e-05 0.00010811128 0.00011820589
0001f0 7f 14 a4 38 60 29 8a 38 37 33 83 38 9c 43 8c 38
       7.823947e-05 6.5880595e-05 6.256106e-05 6.6883134e-05
000200 1b db 8f 38 44 dc 87 38 86 d7 9e 38 76 84 dc 38
       6.859583e-05 6.478329e-05 7.5741715e-05 0.0001051509
000210 f6 b1 e1 38 0f aa a6 38 60 69 99 38 77 46 81 38
       0.00010761984 7.947173e-05 7.315236e-05 6.1643244e-05
000220 62 11 8b 38 b9 88 8b 38 8f c2 89 38 89 54 9a 38
       6.631274e-05 6.653503e-05 6.5689084e-05 7.359038e-05
000230 03 b9 ba 38 1f 92 b3 38 8a c1 80 38 97 78 7f 38
       8.903632e-05 8.562602e-05 6.139565e-05 6.0909046e-05
000240 57 79 87 38 84 5d 91 38 8a ef 97 38 e7 c8 90 38
       6.459903e-05 6.9315574e-05 7.244859e-05 6.903876e-05
000250 a3 d0 98 38 7d 24 93 38 41 38 82 38 6a 7c 61 38
       7.2867864e-05 7.016303e-05 6.209361e-05 5.376005e-05
000260 96 2e 8c 38 6d 7a 8e 38 ac b6 98 38 d1 bc a7 38
       6.6843975e-05 6.793891e-05 7.28195e-05 7.99835e-05
000270 bc 33 aa 38 bf 78 9a 38 83 c3 8b 38 f8 28 75 38
       8.115868e-05 7.365783e-05 6.6644534e-05 5.8450707e-05
000280 fb 4e 73 38 af 46 ac 38 89 d5 5e 39 24 2b 3f 39
       5.800927e-05 8.214765e-05 0.00021251118 0.0001823125
000290 d0 8e 40 39 cf df 92 39 24 ef aa 39 35 3b 77 39
       0.00018363749 0.0002801404 0.000326031 0.00023577812
0002a0 c5 93 1b 39 5e 1d ec 38 64 8e fa 38 f5 52 24 39
       0.00014837 0.00011258827 0.00011947451 0.00015671163
0002b0 1a 9f 04 39 39 46 2e 39 33 94 9f 39 f9 3d a5 39
       0.00012647771 0.00016620093 0.0003043726 0.00031517426
0002c0 8c 3f 4b 39 c1 4a ec 38 06 2a ea 38 b2 a9 f3 38
       0.00019383262 0.00011267281 0.00011165817 0.00011618751
0002d0 b6 fb fa 38 1e 66 e3 38 3d 4d 49 39 67 50 a0 39
       0.00011967814 0.00010843224 0.00019197627 0.00030577483
0002e0 ef 51 8e 39 da bd 11 39 e0 25 dc 38 d1 e0 fc 38
       0.00027145396 0.00013899003 0.00010497472 0.00012058172
0002f0 02 60 f8 38 03 d6 0a 39 6e 07 0a 39 92 2f 51 39
       0.000118434444 0.00013240431 0.00013163473 0.00019949515
000300 6e da 87 39 73 48 59 39 48 0a fa 38 a0 94 f5 38
       0.0002591195 0.00020721722 0.00011922844 0.00011710194
000310 5d 0b 06 39 56 90 01 39 cc 6c 2e 39 88 10 17 39
       0.00012783469 0.00012356168 0.00016634463 0.0001440664
000320 91 7d 28 39 8a cc 47 39 f3 e5 1c 39 44 b8 e8 38
       0.00016068506 0.00019054316 0.00014962982 0.00011096944
000330 50 5c f2 38 fe 3e 05 39 3a ac 04 39 e0 71 54 39
       0.00011556654 0.00012707335 0.0001265266 0.00020260317
000340 e1 5f 34 39 e6 80 1d 39 5d 2c 1e 39 8e 81 06 39
       0.00017201855 0.00015020705 0.00015084581 0.00012827499
000350 89 31 e5 38 be ef f6 38 b1 e2 0a 39 00 dd 02 39
       0.000109287976 0.000117748496 0.00013245155 0.00012480095
000360 cc 8a 85 39 ff 0b 62 39 ec 07 3a 39 81 e2 1c 39
       0.0002547115 0.00021557508 0.00017741293 0.00014961699
000370 4c 26 0e 39 7d c0 04 39 b8 d5 0d 39 59 f9 1f 39
       0.00013556442 0.00012660208 0.00013526424 0.00015256311
000380 de 11 13 39 43 dc 98 39 d2 85 84 39 2b 81 5e 39
       0.00014025668 0.00029155807 0.00025276706 0.00021219689
000390 e9 d6 34 39 ea 85 23 39 ff 56 1d 39 e8 7f 29 39
       0.00017246198 0.00015594778 0.00015005095 0.00016164745
0003a0 34 50 3b 39 8e ce 2f 39 82 0d b1 39 15 5f 9b 39
       0.00017863588 0.00016766248 0.00033770135 0.00029634745
0003b0 d5 f4 86 39 cd b1 61 39 24 50 4f 39 d8 32 50 39
       0.00025740886 0.00021523908 0.00019770913 0.00019855367
0003c0 b2 6d 5b 39 6f ab 66 39 cf 94 5a 39 ac 09 88 39
       0.00020926332 0.00021998373 0.00020845536 0.00025947148
0003d0 8f 4f 47 39 6e c0 ed 38 0a 58 be 38 5f 0a 10 39
       0.00019007757 0.000113368835 9.0763046e-05 0.00013736774
0003e0 ff a8 04 39 76 6a 06 39 f5 aa 2d 39 ac 75 3e 39
       0.00012651457 0.00012818896 0.00016562252 0.00018163648
0003f0 96 6d 6f 39 a5 46 1a 39 9c ae 90 38 74 35 0b 39
       0.0002283364 0.00014712902 6.8989786e-05 0.00013275986

exp_avg f4 [4]
000000 c1 02 e8 bb c1 e0 fb b7 cb 2b e6 3b 0f 78 9f 3b
       -0.0070804064 -3.002619e-05 0.0070242635 0.004866607

exp_avg_sq f4 [4]
000000 1f d2 98 3a 55 45 b1 38 16 0d 8d 39 62 01 64 39
       0.0011659301 8.452932e-05 0.00026903366 0.0002174429
