nesy/dnwwbwe8/checkpoints/epoch=9-step=250.ckpt (torch, 290851 bytes, 12 tensors)

neural_predicates.digit.net.0.weight f4 [30, 784]
00000000: a91c 813c a62a 4e3b 605e 293c d4b0 883a
00000010: 2d93 9dbc 7817 47bc 8073 77bc 83ac b7bc
00000020: a35d a9bc 5e31 45bd fedf 15bb 3c49 80ba
00000030: bcb0 3cbd 15b8 8f3a bd52 cd3a f9e4 4bbc
00000040: 76c8 54bd ffce ecbc 5204 a9bb 5457 52bd
00000050: 2e9b 133c 4e8b 0bbd 3cde 7c3c 7a37 99bc
00000060: 9e2e 49bc 5d45 9ebc a1ee f1bc ceec 85bb
00000070: a0e0 30bc fece b7bc 4c57 a53b 899c e7bc
00000080: 790e efbc 164a b9bc 0287 4d3a 7b89 cebc
00000090: 4f57 cdbb 352c 9bbc 97ad 263c ea41 74bb
000000a0: 192d fbbc 1a00 acbc fd54 f8bb 59d0 43bd
000000b0: bf02 0cbd aaa4 293b eece 2dbd e15f 43bd
000000c0: 8e81 9ebc 7400 ca3b c990 36bd 6386 a4bc
000000d0: 2a59 03bd b639 15bd ca49 9ebc 7e2c cdb9
000000e0: 3dda 35bd 38e1 8dbc 7017 bfbc a661 6c3a
000000f0: 4a42 8d3c 469b bbbc 7ac7 33bb 7d3d 853b
00000100: 3822 18bc 6de9 30bd eadd e0bc 5e5e cc3c
00000110: 5b48 663c af4b 0abd c7ee 813c 83b5 c53b
00000120: f4d4 31bc ea34 42bd 059a 24bc 9b1b 5cbd
00000130: 67f7 5c3c ecbf 9bbc cf6c 01bd f2ae 1fbd
00000140: dc07 edbc 51ac 50bd 25eb b1bc 1972 10bd
00000150: db53 40bd 4e46 0bbc 63b1 68bc 6199 f0bc
00000160: 4570 463c 3e4d 6c3b 0b12 8e3c f6d4 db3a
00000170: 9bd0 d8bb 492b 943c fb64 163d 3a33 7ebb
00000180: f2e2 2d3c 928e 803c c973 073d a72a d6bc
00000190: d7e7 bbba 063a 38bc a0c8 9e3c b4b9 3dbd
000001a0: a5fb 3fbd 7d32 69bd 268c 1dbd 4fd0 01bd
000001b0: b5c3 933c 5258 52bc 4d15 93bb 20c5 c3bc
000001c0: cf47 c7bc e5b9 20bd 9b60 a4bc b878 863b
000001d0: 62a7 a9ba 4858 2c3c a84e 28bd 424c 403c
000001e0: 7f6a 2a3d f962 e13c eb6c f43c 6abe 763d
000001f0: 92cd 943d 3364 bbbc 1e59 bfbc dd19 6dbd
00000200: 5c70 c93c 3a51 f6bc 38da 463c dfa8 6dbd
00000210: 0550 96bd 41b8 bebc a48e 3abd a061 efbc
00000220: 57a5 e43b 3c1e ffbb 0ee1 4abc 24a3 3f3c
00000230: 6089 463c f534 24bd 8b28 1dbd 9d5c 6abc
00000240: 7031 17bd 16bb f5bc e099 25bd 6199 c9bc
00000250: a096 263c 8f67 473d 9e8a a83d ea0e 833d
00000260: 722e 2a3d 40bd 723c a647 0dbd 1995 4e3c
00000270: 9a53 963c d68a ab3c 9f4a 313d cace 4bbc
00000280: 1a7d e8bc 112f 37bd 870a 99bd 585b 0dbd
00000290: d773 f0bc 0ad6 8e3c b614 883c 7a31 743c
000002a0: 4819 e4bc 4018 983c b960 88bc 85de 30bc
000002b0: 0888 dabb 65a0 f3bc 7459 1abc 43bd 023d
000002c0: d4c4 e63c 0431 1b3d 396a a0bb 729d c7bb
000002d0: c4c9 82bc d775 e53b 992d 413d e613 543d
000002e0: 98d3 a13c d729 3e3d 2d9f 473d 0896 a53c
000002f0: 07f5 8ebd 734d 5cbd 0143 bdbd bf0d f1bc
00000300: eb80 4dbd d574 e8bc 60c3 88b8 232d 0cbd
00000310: afa8 9fbc 88c2 35bd 434d 343c d947 f13a
00000320: 76c2 0cbc 8b4c 2d3d 5237 4d3c 962a 18bb
00000330: d9ba 0d3d 2512 b63a 7312 b9ba f0be bcbc
00000340: 8f29 88bc c4c1 873d b2c6 d439 4193 93bb
00000350: e1a2 043d d0bc 02bc 6bcc e9ba 1ae4 fab9
00000360: e37d 41bd 6556 43bd 50c2 41bd ca86 3bbd
00000370: 0508 f4bc cf45 2f3c 6e2e 25bd 8106 02bd
00000380: 795f 853c 96e1 9bbc 80c1 1bbd 5b67 33bb
00000390: 7daf a6bc 9e6e af3b 034e 58bb 060a a9bb
000003a0: be0c b13c 4563 fe3a 871e 693d 313f 1b3d
000003b0: f4f1 7cbc 8ad5 ee3c 6faf c63b 4db2 f2bb
000003c0: e351 c03c 1bc7 12bb 424e 6ebb 21f3 22bd
000003d0: 57e4 b43a 172d 48bd ff97 dabc 4de8 4bbc
000003e0: 149c 98bb 26ce aebc 5ec9 533c 7809 febc
000003f0: 48f2 363c 2d01 743c 1d89 e2bc 3ad0 af3a
0.015760737 0.0031458526 0.010337442 0.0010428675 -0.019235218 -0.0121515915 -0.015103221 -0.022421127
-0.020674532 -0.048142783 -0.0022869105 -0.000978745 -0.046066985 0.0010964895 0.0015664917 -0.012444728
-0.051948987 -0.028907297 -0.0051579857 -0.051352814 0.009009166 -0.0340684 0.015433844 -0.018703211
-0.012279181 -0.019320184 -0.029532732 -0.004087067 -0.010795742 -0.022437569 0.005045807 -0.028272884
-0.029181706 -0.022618335 0.0007840247 -0.02521204 -0.0062665115 -0.018941978 0.010173223 -0.0037270733
-0.030661153 -0.020996142 -0.007578491 -0.047806118 -0.034182306 0.00258855 -0.04243367 -0.04769886
-0.019348886 0.006164605 -0.04457167 -0.020083612 -0.032067455 -0.03643199 -0.019322295 -0.00039133796
-0.04439758 -0.017319307 -0.023326606 0.00090172363 0.017243523 -0.022901189 -0.002743213 0.004066168
-0.009285502 -0.043191362 -0.027449567 0.024947342 0.014055337 -0.033763584 0.015860928 0.006033601
-0.010853995 -0.047413744 -0.010046487 -0.053737264 0.01348672 -0.019012414 -0.03159791 -0.0389852
-0.028934412 -0.050945584 -0.021718571 -0.035265062 -0.04695497 -0.008500649 -0.014202449 -0.029370012
0.012111728 0.0036056782 0.017342588 0.0016771841 -0.0066166646 0.018087046 0.036717396 -0.0038787858
0.01061319 0.015692983 0.033069406 -0.026143385 -0.0014336061 -0.011244303 0.019382775 -0.04631968
-0.046870846 -0.056932915 -0.038463734 -0.0316928 0.018037656 -0.01283844 -0.0044886232 -0.023897707
-0.024326233 -0.039239783 -0.020065596 0.0041037463 -0.0012943561 0.010519095 -0.041090637 0.011736931
0.04160547 0.027513014 0.029837092 0.060240187 0.07265772 -0.022874927 -0.023357924 -0.057885993
0.02458971 -0.030068029 0.012136988 -0.058022376 -0.07339481 -0.023281218 -0.04554619 -0.029221356
0.006977718 -0.0077855866 -0.012382759 0.011696611 0.012117714 -0.040089566 -0.038368743 -0.014304307
-0.03691238 -0.029996436 -0.04042995 -0.02460927 0.010167748 0.048682746 0.08229564 0.06399329
0.0415482 0.0148156285 -0.034492157 0.01260879 0.018350411 0.020940226 0.043284055 -0.012439439
-0.028379966 -0.04472262 -0.07472711 -0.03451094 -0.029352112 0.017436046 0.016611438 0.014904374
-0.027844086 0.01856625 -0.016647683 -0.01079524 -0.006669048 -0.029739568 -0.009420741 0.031918775
0.028170027 0.03788854 -0.004895475 -0.006091767 -0.01596535 0.007002573 0.047162626 0.05177679
0.019754216 0.04642662 0.048735786 0.020213142 -0.06980329 -0.0537848 -0.092412956 -0.0294255
-0.050171774 -0.028376022 -6.521377e-05 -0.034222733 -0.019489614 -0.044374973 0.011004749 0.0018408253
-0.008591285 0.042309325 0.012525396 -0.0023218743 0.03460202 0.0013890906 -0.0014119878 -0.023040265
-0.01662138 0.06628755 0.0004058383 -0.004503638 0.032381896 -0.007979587 -0.001783741 -0.00047853665
-0.047239196 -0.047689814 -0.04730445 -0.04578284 -0.02978898 0.010697796 -0.040327482 -0.031744484
0.016280876 -0.019028466 -0.038026333 -0.0027374837 -0.020347351 0.005353763 -0.0033005483 -0.0051586656
0.021612521 0.0019408247 0.05691388 0.03790206 -0.0154385455 0.029154558 0.006063394 -0.007406509
0.023476547 -0.0022396508 -0.0036362563 -0.039782647 0.0013800961 -0.048871126 -0.026683806 -0.012445522
-0.004657278 -0.021338534 0.012926428 -0.031010374 0.011166163 0.014892858 -0.027653271 0.0013413497

neural_predicates.digit.net.0.bias f4 [30]
00000000: c45f 46bc ecaf d8bc 854c 52bb a0f7 88bb
00000010: 6045 533c 5977 a33c 69b7 e8bc bc85 9cbc
00000020: 737a fa3b 79da 9bbc c9f0 aa3c 8760 053d
00000030: ce33 963c 727d c9bb e3b0 05bd 566f 10bc
00000040: 47ad 9f3b 10a0 063d 20dc a4bc 9938 69bc
00000050: ffd0 d0bc 7860 94bc 754c 643c d1b7 c9bc
00000060: c728 7e3c 4f16 b3bc 8e94 7cbb c044 d4bc
00000070: 9d80 443c aa3e 2a3c
-0.012107793 -0.026451074 -0.0032089066 -0.00417991 0.012894958 0.01995437 -0.02840777 -0.019106738
0.0076439916 -0.019025074 0.020866768 0.03256276 0.01833525 -0.0061489874 -0.032639395 -0.008815607
0.004872951 0.03286749 -0.020124495 -0.014234685 -0.025490282 -0.018112406 0.013934244 -0.024623783
0.015512652 -0.021861224 -0.0038540694 -0.025911689 0.011993554 0.010390917

neural_predicates.digit.net.2.weight f4 [3, 30]
00000000: a0f4 96bc b6d4 dd3d 493c 873c 1801 ebbd
00000010: 49c9 4f3d 64d3 9abd cfd6 10be 2199 7fbc
00000020: b86f e63d 54db 40ba 2c61 34be 1991 21be
00000030: a1fa c83d 04ef f9bd 5ca4 c4bd 7360 40be
00000040: a0d6 c9bd 9fd3 7c3e 291e 1a3e 1bd1 583d
00000050: c727 30be 6116 2b3e 90bd a0bd 96c6 05be
00000060: 605c a33d c121 e13d 1e6c b2bc c1f5 1a3e
00000070: cd77 75bc 5359 ac3c c756 90be efc8 5abd
00000080: c4e1 2bbc bc57 2a3d 9baa b6bd 4ef5 613e
00000090: 6334 7f3e e318 78bd e58f 13be 9614 34bc
000000a0: dfbb 103e dbee 6cbe 3b9e 71be cbb4 4dbe
000000b0: a267 7ebd c434 413e d9c7 c93d 7076 983c
000000c0: cfb3 063e 10ce ea3c a282 993c 906e 7f3d
000000d0: 67db e4bd f10b 11be cce6 81bd ac3d 3f3e
000000e0: dfdc 4a3d d6d4 88bd 79e1 4ebd fd74 efbd
000000f0: 5dc5 823d 0894 ecbd 7ced 003e 5268 403e
00000100: e331 7dbd 3484 45be 1468 88bd 48a5 c4bd
00000110: 4df5 c73d 12df 633e 80dd cd3c aac8 183e
00000120: a2fc 01be 8c78 5d3e c03f 8e3d 0335 913d
00000130: 3c90 28bd 2e8c ef3c 2c5f 19be 2133 9bbe
00000140: e518 b53d 2748 7cbd 5e1b a23d 787d 243e
00000150: 081d e7bd 3d29 53bd 9962 6c3c 0ca7 863d
00000160: e7d4 10be 8c61 033e
-0.018427193 0.10831587 0.016508238 -0.11474818 0.05072907 -0.07559851 -0.14144443 -0.015600474
0.112517774 -0.0007356901 -0.17615193 -0.15778007 0.09813429 -0.12203792 -0.096016616 -0.18786792
-0.098553896 0.24690102 0.15050568 0.052933794 -0.17202674 0.16707756 -0.07848656 -0.13064036
0.079766035 0.10992766 -0.02178007 0.1513281 -0.014982176 0.021038687 -0.28191206 -0.05341428
-0.010490838 0.041587576 -0.08919259 0.22066233 0.24922328 -0.06057061 -0.1441036 -0.010991236
0.14134167 -0.23137991 -0.23595516 -0.20088498 -0.06211055 0.18867785 0.09852571 0.018611163
0.13154529 0.028662711 0.018739048 0.0623613 -0.1117466 -0.14164712 -0.06342849 0.1867587
0.049527045 -0.0668122 -0.050507996 -0.116922356 0.063853 -0.11551672 0.12590593 0.18789795
-0.061815154 -0.19288713 -0.06660476 -0.096018374 0.09763584 0.22253063 0.025130033 0.14920297
-0.12694028 0.21628016 0.06945753 0.07090189 -0.041153178 0.029241648 -0.14977711 -0.30312446
0.08842639 -0.061592247 0.07915376 0.16063488 -0.11284834 -0.051553 0.014427804 0.065748304
-0.14143716 0.1283018

neural_predicates.digit.net.2.bias f4 [3]
00000000: e517 f63b e0ed 02be a7a5 87bc
0.0075101727 -0.12786055 -0.016558481

exp_avg f4 [30, 784]
00000000: 0f4c acba 0f4c acba 0f4c acba 0f4c acba
00000010: 0f4c acba 0f4c acba 0f4c acba 0f4c acba
00000020: 0f4c acba 0f4c acba 0f4c acba 0f4c acba
00000030: 114c acba 364c acba 364c acba 104c acba
00000040: 0f4c acba 0f4c acba 0f4c acba 0f4c acba
00000050: 0f4c acba 0f4c acba 0f4c acba 0f4c acba
00000060: 0f4c acba 0f4c acba 0f4c acba 0f4c acba
00000070: 0f4c acba 0f4c acba 0f4c acba 0f4c acba
00000080: 0f4c acba 0f4c acba 0f4c acba 204d acba
00000090: 0380 acba c877 acba 5f66 acba bb55 acba
000000a0: 6455 acba 8456 acba c564 a6ba 0284 a0ba
000000b0: e4c7 afba 3002 aeba a678 acba 0f4c acba
000000c0: 0f4c acba 0f4c acba 0f4c acba 0f4c acba
000000d0: 0f4c acba 0f4c acba 0f4c acba 0f4c acba
000000e0: 0f4c acba 0f4c acba 0f4c acba d34b acba
000000f0: fa4b acba 124c acba b44d acba 0468 acba
00000100: 7f60 b3ba 6222 bcba 8479 b8ba 16ac bcba
00000110: b51c b3ba b796 96ba 1f6c a2ba 7e83 8fba
00000120: ad97 93ba 1145 9fba 91c5 abba ca6c a6ba
00000130: a5dd aaba 0d4e acba 384c acba 7352 acba
00000140: a451 acba e44d acba 0f4c acba 0f4c acba
00000150: 0f4c acba 0f4c acba 584a acba fb4a acba
00000160: aa4b acba 6352 acba 63e2 acba 04ec aeba
00000170: 877a b8ba 9ba2 c6ba 092b c2ba 1d30 c7ba
00000180: 6000 b5ba 91cc d3ba 20be d4ba b832 aaba
00000190: 67a5 dbb9 75a8 30ba 887e 63ba bb09 88ba
000001a0: 2677 6bba 2d3a 8cba 07ab abba f531 acba
000001b0: 334c acba d44c acba 0f4c acba 0f4c acba
000001c0: 0f4c acba 0f4c acba 3446 acba 8d4a acba
000001d0: 96f1 aaba 45d7 a2ba d4aa a7ba 3481 a6ba
000001e0: 3a7c 8dba 4ee2 b6ba 8e81 ceba 4396 c2ba
000001f0: a91d c2ba 8eca 98ba c2f6 87ba a68b 89b7
00000200: 2d13 d9b9 7303 07b9 1e4f 70ba d9f1 caba
00000210: 0f30 a2ba 6016 71ba 030c 91ba daa9 9cba
00000220: a4e8 aaba 2f61 acba 0f4c acba 0f4c acba
00000230: 0f4c acba 0f4c acba 9b44 acba 0f28 acba
00000240: 0418 aaba 145b 99ba 1e68 99ba 129f a5ba
00000250: 0a17 beba e1e2 ccba 83e1 fcba f2e6 01bb
00000260: 0b1c ccba 9267 28ba 285b 0db9 94b8 f1b9
00000270: 4539 92ba dc59 c7b8 a4b0 0bba 967d c9ba
00000280: 9af5 a9ba c8e2 7dba 2849 19ba 6278 3aba
00000290: be84 8aba 8b2d acba 8d4b acba 0f4c acba
000002a0: 0f4c acba 0f4c acba 7ddd acba a71b adba
000002b0: 8501 acba 2860 acba f4c3 a5ba d717 b4ba
000002c0: 36c1 aeba 90e4 b2ba 448c a3ba 37fb f1b9
000002d0: ec1c 2939 0794 a239 8d62 7eb9 c15c 2bba
000002e0: a8c1 42ba f070 afb8 e280 47ba 4c23 99ba
000002f0: 0c0d 97ba 4acf 96ba 8480 16ba ec46 28ba
00000300: 7042 82ba 5f7e afba 7b4c acba cc4b acba
00000310: 0f4c acba 0f4c acba 43e4 afba 6cfc afba
00000320: 5a5b b6ba 75a3 c9ba 09c1 c5ba e65a 3cba
00000330: b072 2eba e8e6 3ab8 794a c939 c86e f039
00000340: 28be 373a 81f9 e438 274e 3e39 8524 c1b9
00000350: 70dd e438 5805 0b36 ac79 87ba 49ee 8eba
00000360: 9ed6 8bba 324a 9cba 779f 31ba 2ebf 47ba
00000370: 7da7 98ba b796 b0ba 6f31 acba 824b acba
00000380: aa35 acba f959 acba 80d4 aeba a8df b0ba
00000390: 77f9 c0ba b4d0 dbba 2af2 bcba 5733 0eba
000003a0: 6a97 ecb9 79bf 12b9 a7a3 b739 722a a939
000003b0: 9076 73b8 2506 40ba 1cbe 6eba 69aa 03b8
000003c0: 8171 0d39 a21e 37ba ec2a 90ba f9f3 94ba
000003d0: 2702 9aba b979 78ba ee65 3aba 60ae 8aba
000003e0: b7ed 9aba 392e acba 0f4c acba 0f4c acba
000003f0: 0f4c acba 263b acba b271 adba 7fd8 aeba
-0.0013145226 -0.0013145226 -0.0013145226 -0.0013145226 -0.0013145226 -0.0013145226 -0.0013145226 -0.0013145226
-0.0013145226 -0.0013145226 -0.0013145226 -0.0013145226 -0.0013145228 -0.0013145271 -0.0013145271 -0.0013145227
-0.0013145226 -0.0013145226 -0.0013145226 -0.0013145226 -0.0013145226 -0.0013145226 -0.0013145226 -0.0013145226
-0.0013145226 -0.0013145226 -0.0013145226 -0.0013145226 -0.0013145226 -0.0013145226 -0.0013145226 -0.0013145226
-0.0013145226 -0.0013145226 -0.0013145226 -0.0013145544 -0.0013160709 -0.0013158256 -0.0013153068 -0.0013148108
-0.0013148007 -0.0013148342 -0.0012694827 -0.0012246373 -0.0013411012 -0.0013275798 -0.0013158515 -0.0013145226
-0.0013145226 -0.0013145226 -0.0013145226 -0.0013145226 -0.0013145226 -0.0013145226 -0.0013145226 -0.0013145226
-0.0013145226 -0.0013145226 -0.0013145226 -0.0013145156 -0.0013145201 -0.0013145229 -0.0013145716 -0.0013153558
-0.0013685374 -0.0014353509 -0.00140743 -0.0014394547 -0.0013665172 -0.0011489008 -0.0012391842 -0.0010949222
-0.0011260413 -0.0012151321 -0.0013105144 -0.0012697217 -0.0013036026 -0.001314582 -0.0013145274 -0.001314713
-0.0013146889 -0.0013145772 -0.0013145226 -0.0013145226 -0.0013145226 -0.0013145226 -0.0013144715 -0.0013144905
-0.0013145108 -0.0013147112 -0.0013190027 -0.0013345485 -0.0014074602 -0.0015154661 -0.0014813851 -0.0015196834
-0.0013809316 -0.0016158988 -0.0016230978 -0.0012985086 -0.0004189417 -0.0006738969 -0.00086782174 -0.0010378876
-0.0008982293 -0.001069849 -0.0013097235 -0.0013137447 -0.0013145268 -0.0013145455 -0.0013145226 -0.0013145226
-0.0013145226 -0.0013145226 -0.0013143481 -0.0013144776 -0.0013041969 -0.0012423774 -0.0012792 -0.00127033
-0.0010794469 -0.0013952942 -0.0015755163 -0.0014845807 -0.0014809865 -0.0011657046 -0.0010373222 -1.6396702e-05
-0.00041403752 -0.00012875888 -0.0009167063 -0.0015483453 -0.0012373942 -0.00091967545 -0.0011066202 -0.0011952475
-0.0013039303 -0.0013151522 -0.0013145226 -0.0013145226 -0.0013145226 -0.0013145226 -0.0013143005 -0.0013134497
-0.0012977128 -0.0011700117 -0.0011704003 -0.0012635908 -0.0014502716 -0.001563158 -0.0019293282 -0.0019821492
-0.0015572322 -0.00064241246 -0.00013480766 -0.00046104623 -0.0011155984 -9.505797e-05 -0.00053287507 -0.001537251
-0.0012966872 -0.0009684977 -0.0005847388 -0.00071132754 -0.0010568125 -0.0013136131 -0.0013145074 -0.0013145226
-0.0013145226 -0.0013145226 -0.0013188567 -0.0013207094 -0.0013123011 -0.0013151215 -0.00126469 -0.0013740015
-0.0013332728 -0.0013648439 -0.0012477715 -0.00046154272 0.0001612787 0.00031009337 -0.0002426004 -0.0006536954
-0.000742937 -8.3656865e-05 -0.00076104526 -0.0011683493 -0.0011524274 -0.0011505869 -0.0005741196 -0.00064192596
-0.0009938013 -0.0013389102 -0.0013145352 -0.0013145148 -0.0013145226 -0.0013145226 -0.0013419468 -0.0013426668
-0.0013912723 -0.0015383797 -0.0015087436 -0.0007185176 -0.0006654663 -4.4560904e-05 0.00038393194 0.00045858906
0.00070092315 0.00010918361 0.00018148926 -0.00036839038 0.00010913133 2.0715725e-06 -0.0010335944 -0.0010904755
-0.0010668819 -0.0011923967 -0.0006775776 -0.00076197356 -0.0011646595 -0.0013472651 -0.0013137291 -0.0013145062
-0.0013138552 -0.0013149373 -0.0013338476 -0.0013494389 -0.0014722784 -0.0016770572 -0.0014415432 -0.00054245204
-0.0004512624 -0.00013994974 0.0003502641 0.00032265816 -5.8046135e-05 -0.00073251344 -0.0009107308 -3.139154e-05
0.00013489091 -0.00069854606 -0.001099912 -0.0011364213 -0.0011749909 -0.00094785873 -0.00071105256 -0.0010580532
-0.0011820112 -0.0013136334 -0.0013145226 -0.0013145226 -0.0013145226 -0.0013140186 -0.0013232736 -0.0013339667

exp_avg_sq f4 [30, 784]
00000000: 1e19 5b36 1e19 5b36 1e19 5b36 1e19 5b36
00000010: 1e19 5b36 1e19 5b36 1e19 5b36 1e19 5b36
00000020: 1e19 5b36 1e19 5b36 1e19 5b36 1e19 5b36
00000030: 1c19 5b36 fe18 5b36 fe18 5b36 1c19 5b36
00000040: 1e19 5b36 1e19 5b36 1e19 5b36 1e19 5b36
00000050: 1e19 5b36 1e19 5b36 1e19 5b36 1e19 5b36
00000060: 1e19 5b36 1e19 5b36 1e19 5b36 1e19 5b36
00000070: 1e19 5b36 1e19 5b36 1e19 5b36 1e19 5b36
00000080: 1e19 5b36 1e19 5b36 1e19 5b36 a919 5b36
00000090: be38 5b36 422f 5b36 4b1e 5b36 6514 5b36
000000a0: be18 5b36 1df3 5a36 ad71 5c36 4a7b 5d36
000000b0: 40f9 5936 874c 5a36 cb0a 5b36 1e19 5b36
000000c0: 1e19 5b36 1e19 5b36 1e19 5b36 1e19 5b36
000000d0: 1e19 5b36 1e19 5b36 1e19 5b36 1e19 5b36
000000e0: 1e19 5b36 1e19 5b36 1e19 5b36 c918 5b36
000000f0: 0419 5b36 ba18 5b36 0e11 5b36 a80e 5b36
00000100: 4f56 5a36 bd09 5936 6519 5836 30c7 5736
00000110: e145 5a36 1d49 5d36 8778 5e36 5e1a 5d36
00000120: 581d 5736 5288 5636 d40e 5936 7fc2 5a36
00000130: cede 5a36 b716 5b36 1c19 5b36 0215 5b36
00000140: 710e 5b36 0c13 5b36 1e19 5b36 1e19 5b36
00000150: 1e19 5b36 1e19 5b36 d519 5b36 3818 5b36
00000160: 6a18 5b36 6df0 5a36 d4ac 5a36 53aa 5936
00000170: 17af 5636 8235 5136 9d74 4b36 2994 4936
00000180: 0d1a 4136 b509 3b36 6bbd 4136 6276 4136
00000190: 2851 3536 05d6 3a36 ed13 4436 19f3 4f36
000001a0: ca96 5036 efd0 5336 9a80 5a36 b626 5b36
000001b0: c70a 5b36 cb11 5b36 1e19 5b36 1e19 5b36
000001c0: 1e19 5b36 1e19 5b36 a91b 5b36 3718 5b36
000001d0: ce39 5a36 0bb0 5436 7c80 5436 f413 5136
000001e0: 6c48 4b36 e565 3f36 bd06 3536 9aa9 2836
000001f0: 60a2 1436 901e fd35 a136 ed35 77b4 e435
00000200: 681e f635 28ad fc35 793c 1036 5864 3036
00000210: d262 4336 024b 4a36 34be 5436 093a 5736
00000220: 8ad8 5936 6511 5b36 1e19 5b36 1e19 5b36
00000230: 1e19 5b36 1e19 5b36 4f1d 5b36 b2e2 5a36
00000240: 0f27 5936 7e11 5336 77de 5136 70f6 4d36
00000250: 48db 4636 05a9 4136 27f9 3736 aef1 2136
00000260: 6488 0e36 54b9 de35 bd16 b935 175a af35
00000270: 3535 c035 e1b3 bf35 1eb7 d435 8b87 1236
00000280: d5f5 3036 7bda 3f36 a522 4c36 ebc2 5336
00000290: f4a8 5a36 da34 5b36 2119 5b36 1e19 5b36
000002a0: 1e19 5b36 1e19 5b36 88f2 5a36 3b18 5a36
000002b0: 5132 5836 aa3d 5436 f644 5536 fa64 5236
000002c0: 7b69 4636 a5a4 3136 6e81 1c36 ea7f 0936
000002d0: cf97 f735 2caa c735 7aff a035 3880 ab35
000002e0: 17e3 af35 b0d4 b135 8f23 cc35 4ae6 f835
000002f0: ed36 1336 6b26 2d36 625c 4436 5da2 4f36
00000300: e053 5536 a0c2 5836 ca12 5b36 5318 5b36
00000310: 1e19 5b36 1e19 5b36 83ab 5a36 b714 5b36
00000320: 236f 5836 df8f 5536 8dbf 5036 08c3 3f36
00000330: 318a 3136 a4f9 1f36 4251 1636 964e 0536
00000340: 7675 fd35 290e d735 2741 a835 06a5 a035
00000350: 996d 9d35 63e9 b535 52e8 c635 726f e235
00000360: 0215 0136 31b2 1936 a8ea 3436 871d 4736
00000370: a2bf 5136 1a05 5836 011b 5b36 7b17 5b36
00000380: 5bee 5a36 1f2b 5b36 07a4 5a36 3874 5b36
00000390: 9e78 5836 f852 5036 28bf 4a36 8ffb 3936
000003a0: 0ebd 2836 358e 1f36 429c 1c36 b2dd 0b36
000003b0: f0a8 fc35 d3b2 bb35 f19c a735 02a0 8735
000003c0: 9e98 8835 30e3 a735 0728 d335 6011 e535
000003d0: 73fc 0236 4e25 1c36 2a3d 3136 6807 4436
000003e0: a962 5336 1d5f 5b36 1e19 5b36 1e19 5b36
000003f0: 1e19 5b36 3d0d 5b36 ebc5 5a36 5f3a 5b36
3.2648163e-06 3.2648163e-06 3.2648163e-06 3.2648163e-06 3.2648163e-06 3.2648163e-06 3.2648163e-06 3.2648163e-06
3.2648163e-06 3.2648163e-06 3.2648163e-06 3.2648163e-06 3.2648159e-06 3.264809e-06 3.264809e-06 3.2648159e-06
3.2648163e-06 3.2648163e-06 3.2648163e-06 3.2648163e-06 3.2648163e-06 3.2648163e-06 3.2648163e-06 3.2648163e-06
3.2648163e-06 3.2648163e-06 3.2648163e-06 3.2648163e-06 3.2648163e-06 3.2648163e-06 3.2648163e-06 3.2648163e-06
3.2648163e-06 3.2648163e-06 3.2648163e-06 3.264848e-06 3.2666571e-06 3.266105e-06 3.2651176e-06 3.2645414e-06
3.2647945e-06 3.2626042e-06 3.2848723e-06 3.300333e-06 3.2480602e-06 3.2529076e-06 3.2639825e-06 3.2648163e-06
3.2648163e-06 3.2648163e-06 3.2648163e-06 3.2648163e-06 3.2648163e-06 3.2648163e-06 3.2648163e-06 3.2648163e-06
3.2648163e-06 3.2648163e-06 3.2648163e-06 3.264797e-06 3.2648104e-06 3.2647936e-06 3.264347e-06 3.2642074e-06
3.253477e-06 3.2341188e-06 3.220129e-06 3.215344e-06 3.2525206e-06 3.2974124e-06 3.3150734e-06 3.2946914e-06
3.2054577e-06 3.1967834e-06 3.234415e-06 3.2597743e-06 3.261422e-06 3.2646765e-06 3.2648159e-06 3.2645771e-06
3.264195e-06 3.264463e-06 3.2648163e-06 3.2648163e-06 3.2648163e-06 3.2648163e-06 3.264858e-06 3.264764e-06
3.2647754e-06 3.2624478e-06 3.258513e-06 3.2434662e-06 3.19904e-06 3.1174573e-06 3.0317235e-06 3.0037575e-06
2.8774405e-06 2.7870822e-06 2.8869497e-06 2.882815e-06 2.701834e-06 2.7840736e-06 2.9217874e-06 3.0986905e-06
3.1082186e-06 3.1563065e-06 3.2559387e-06 3.2656076e-06 3.2639816e-06 3.26439e-06 3.2648163e-06 3.2648163e-06
3.2648163e-06 3.2648163e-06 3.2649643e-06 3.2647638e-06 3.2518178e-06 3.1692932e-06 3.166525e-06 3.1155041e-06
3.0291512e-06 2.8520528e-06 2.6975024e-06 2.5132672e-06 2.2148233e-06 1.8858864e-06 1.7673775e-06 1.7039846e-06
1.8337278e-06 1.8825858e-06 2.1492872e-06 2.6284451e-06 2.9114785e-06 3.0144006e-06 3.1701175e-06 3.2071277e-06
3.2461562e-06 3.2643668e-06 3.2648163e-06 3.2648163e-06 3.2648163e-06 3.2648163e-06 3.2650603e-06 3.2616485e-06
3.2358255e-06 3.1451632e-06 3.1272918e-06 3.0690826e-06 2.9631938e-06 2.8857623e-06 2.741415e-06 2.4131546e-06
2.1239039e-06 1.6594227e-06 1.3790192e-06 1.3064736e-06 1.43206e-06 1.4282961e-06 1.5848525e-06 2.1834592e-06
2.6369137e-06 2.858839e-06 3.0418535e-06 3.1554907e-06 3.2582875e-06 3.2664307e-06 3.264817e-06 3.2648163e-06
3.2648163e-06 3.2648163e-06 3.2625703e-06 3.2498635e-06 3.2215796e-06 3.1626355e-06 3.1779614e-06 3.1351215e-06
2.9565697e-06 2.647089e-06 2.332115e-06 2.0489047e-06 1.8447116e-06 1.4876182e-06 1.1995282e-06 1.2777809e-06
1.3104608e-06 1.3249428e-06 1.5209533e-06 1.8544463e-06 2.1936678e-06 2.580137e-06 2.926005e-06 3.0939912e-06
3.1788295e-06 3.2299795e-06 3.264448e-06 3.2647702e-06 3.2648163e-06 3.2648163e-06 3.2584364e-06 3.26456e-06
3.2251198e-06 3.1823217e-06 3.1105913e-06 2.857474e-06 2.6455493e-06 2.3838156e-06 2.239904e-06 1.9864287e-06
1.8884155e-06 1.6022869e-06 1.2535937e-06 1.1968957e-06 1.1729309e-06 1.3553475e-06 1.4819764e-06 1.6870747e-06
1.9234726e-06 2.2902498e-06 2.6958678e-06 2.9670498e-06 3.1254972e-06 3.2189478e-06 3.2649261e-06 3.264721e-06
3.2623273e-06 3.2658643e-06 3.2580008e-06 3.2701191e-06 3.2256717e-06 3.104271e-06 3.0211613e-06 2.7713575e-06
2.5143995e-06 2.3775622e-06 2.3336765e-06 2.0841658e-06 1.882463e-06 1.398463e-06 1.2488146e-06 1.0104852e-06
1.0177207e-06 1.250859e-06 1.5732375e-06 1.7066886e-06 1.9518454e-06 2.3267526e-06 2.6410657e-06 2.9210587e-06
3.1498878e-06 3.2688906e-06 3.2648163e-06 3.2648163e-06 3.2648163e-06 3.2641249e-06 3.2599735e-06 3.266752e-06

exp_avg f4 [30]
00000000: 0f4c ac3a 413b 15b7 0a16 0527 5359 9f39
00000010: c7ba 7c25 053e bbba ab0c a4ba ed32 8a28
00000020: 107d 7b28 8fe0 443a cf09 3aba 522d ab3a
00000030: c3a5 293a 3ec6 ba3a b1ba 8326 ae29 4aba
00000040: 24fe 1625 0151 7e39 8890 5b29 46c9 9bb9
00000050: 969e 9728 4f38 88b9 7de0 273a eac0 bc28
00000060: 30ad a4b7 47fa 55ba c9ae 0627 5955 9d28
00000070: 779d 2025 bd33 723a
0.0013145226 -8.894888e-06 1.8469405e-15 0.00030393395 2.1920798e-16 -0.0014285451 -0.0012515982 1.5343163e-14
1.39604176e-14 0.00075102685 -0.00070967985 0.0013059771 0.0006471539 0.0014249755 9.140554e-16 -0.0007711899
1.3096532e-16 0.00024253504 4.875313e-14 -0.00029713864 1.6833143e-14 -0.00025981895 0.0006403996 2.0955856e-14
-1.963097e-05 -0.00081625994 1.8690987e-15 1.7467515e-14 1.3931139e-16 0.0009239277

exp_avg_sq f4 [30]
00000000: 1e19 5b36 a675 9136 203b 9b32 8f70 c136
00000010: eb51 7c2f d2eb 1637 1db0 f536 fe6b 1b35
00000020: f991 f934 e229 d536 b857 8336 edfb a137
00000030: fd0b 0037 90b2 e537 4f19 8931 c119 9436
00000040: cd20 b42e 135c 9e36 ceb4 0837 9120 1936
00000050: 3f59 ad35 26c8 9436 4cf1 5136 6c31 1636
00000060: 32b8 5a36 2bb0 c935 581c d832 3a5d 6735
00000070: 48d1 cb2e 1652 7a36
3.2648163e-06 4.335033e-06 1.8071262e-08 5.7649518e-06 2.294837e-10 8.995603e-06 7.3220713e-06 5.789915e-07
4.6486073e-07 6.3527705e-06 3.914316e-06 1.9310008e-05 7.632186e-06 2.7382077e-05 3.990102e-09 4.413742e-06
8.191279e-11 4.719486e-06 8.148329e-06 2.2817733e-06 1.2915478e-06 4.434044e-06 3.128388e-06 2.238051e-06
3.2591747e-06 1.5026939e-06 2.5158599e-08 8.618987e-07 9.268547e-11 3.7300683e-06

exp_avg f4 [3, 30]
00000000: 69f3 05bc 7106 b1bb 75df 4aa7 89cd 373c
00000010: 2cdc 8124 156e 0cbb 7ab7 7e3b 4575 ad29
00000020: 9c69 ce27 88d2 bc3b 75a1 383c 741b 883b
00000030: b342 7eba cf54 943b 4aaf ada5 e652 413c
00000040: f96b 02a5 95d7 61bb 959e 152a ed32 f6bb
00000050: 388e 9da8 4d62 7fbb f26b 9f3b 66af d9a8
00000060: a9dc 62bb 4fea 0dbc 09a7 9ca8 3bb7 4029
00000070: aefb aa24 e366 043b 612e c53b 42e6 8e3a
00000080: 1bd2 efa4 8f24 00bd 30df b7a3 1d44 b4bc
00000090: 175c 2dbd 1a8b 86a8 1cfb e3a8 386a 62bc
000000a0: 35fb 53bd 4be2 1abc 1d05 14bc 9601 0cbc
000000b0: fcd0 c4a4 13ee 58bd d69b 5424 808e 4dba
000000c0: 4295 97a8 6476 2dbc 1812 3fa7 8982 5bbb
000000d0: 6fb4 1fbc 215d 8da7 bb4a 503a 037a c1bc
000000e0: f333 18a8 869e 33a8 f0be 24a5 9487 80bb
000000f0: fa6f 0d3b 724c 8d3b f35d 5227 3562 a43c
00000100: bdc8 27a4 d3d1 c53c 9670 1d3d 93d2 8ba9
00000110: c060 b028 c500 043c c4d2 253d bba8 ad3b
00000120: a1e8 233c 2bae 833b 8de3 de25 4799 283d
00000130: 098a 9a24 5d9d 8a3b e4ab 02aa de47 943c
00000140: 6b70 b528 1272 ed3b 95fc 9f3b a706 fd28
00000150: 5dc9 2e3b 9037 043d fac0 e828 87cf 13a9
00000160: 2382 9e24 304f f93a
-0.008175709 -0.005402379 -2.8154268e-15 0.011218437 5.631782e-17 -0.0021427919 0.0038866685 7.7030864e-14
5.7290988e-15 0.005762402 0.011268963 0.0041536633 -0.000969927 0.0045267115 -3.0129497e-16 0.01179955
-1.1312285e-16 -0.0034460772 1.3288878e-13 -0.007513395 -1.7492179e-14 -0.0038968504 0.004865163 -2.4167907e-14
-0.0034616387 -0.008661821 -1.7391919e-14 4.279149e-14 7.415211e-17 0.0020202927 0.0060174917 0.0010902362
-1.0400566e-16 -0.031284865 -1.9935423e-17 -0.022005135 -0.04232415 -1.4937314e-14 -2.5310964e-14 -0.01381927
-0.05175324 -0.0094533665 -0.009034422 -0.0085453 -8.5355484e-17 -0.05296142 4.610217e-17 -0.00078413635
-1.6829098e-14 -0.010587309 -2.6516383e-15 -0.0033494553 -0.009747609 -3.9236332e-15 0.0007945706 -0.02361775
-8.44896e-15 -9.97087e-15 -1.4289425e-16 -0.003922412 0.0021581636 0.0043120915 2.9194284e-15 0.02006636
-3.6382384e-17 0.024147904 0.03843745 -6.209369e-14 1.9581884e-14 0.008056824 0.040484205 0.0052996553
0.0100041935 0.004018565 3.8665056e-16 0.0411618 6.7020694e-17 0.004230185 -1.1605956e-13 0.018100675
2.014379e-14 0.0072462643 0.004882405 2.8091528e-14 0.0026670315 0.03227955 2.5840864e-14 -3.2820558e-14
6.874204e-17 0.0019020792

exp_avg_sq f4 [3, 30]
00000000: 6286 163a 0640 243b 7b95 2833 0580 433a
00000010: 543c 852d a371 9139 e80e 8b3a dc8a 8f37
00000020: abce 7936 9349 e339 65ee c13a 420c f239
00000030: d02c e63b 2759 cf39 9356 ee2f 6edc b43a
00000040: 0b64 862e 388e 633b b0b1 3738 df88 233a
00000050: 1417 c435 b665 003b ee3f 0d3a a2fd 4436
00000060: 484a 233b d772 a539 b5dd cf35 b762 d836
00000070: 23fb e62d ff25 5f3a 5023 b839 af70 823a
00000080: 61e2 842e 2724 8d3a ca8e 052c 9039 0a3b
00000090: c8bc 4a3b 8cb8 0935 089b 2c36 668a 273a
000000a0: d300 633b 5e9a 593a 43a2 823b 19b2 083a
000000b0: 5806 192e f2d7 5e3b 2e91 322d fbb8 b73a
000000c0: 5574 f034 0597 ff38 85c9 0833 0875 613a
000000d0: c4c7 133a 99f1 8f33 d4b9 5b3a ba37 703a
000000e0: 2d3f ad34 2a1c 9b34 b36f d62e f772 913a
000000f0: 3f44 6e3a f905 da3a 690e 3633 6c58 133b
00000100: 3d6b de2c 8048 bf3a f774 163b 1318 4537
00000110: 4462 2637 dca0 b93a 20d2 703b e8e7 d83a
00000120: 6e25 b83b 73f9 a03a c640 4430 de5d 7c3b
00000130: 6db0 bc2d a95a 1e3b 69a2 1b38 f58f b039
00000140: 2520 0136 5245 dd3a 4f72 c33a 8777 8236
00000150: c8ec da3a 3b9d af3a df63 5c36 bac9 8636
00000160: 9481 c62d dd1c 0c3b
0.00057420705 0.0025062575 3.92515e-08 0.0007457736 1.514714e-11 0.0002774122 0.0010609301 1.711159e-05
3.7224188e-06 0.0004335163 0.0014795779 0.0004616697 0.007024385 0.0003954854 4.3353462e-10 0.0013798603
6.111386e-11 0.003472222 4.3796084e-05 0.0006238352 1.4609855e-06 0.0019591874 0.00053882494 2.935391e-06
0.0024916101 0.00031556815 1.5487227e-06 6.4487936e-06 2.62595e-11 0.0008512437 0.00035121525 0.0009951795
6.042878e-11 0.001076822 1.89797e-12 0.0021091439 0.0030935276 5.130503e-07 2.5720237e-06 0.00063911674
0.0034637942 0.00083008956 0.0039866283 0.0005214527 3.4793807e-11 0.0034003225 1.0150365e-11 0.001401692
4.4788126e-07 0.00012187477 3.184825e-08 0.0008600508 0.00056373724 6.702903e-08 0.00083818776 0.00091635773
3.2269728e-07 2.8891492e-07 9.751435e-11 0.0011096884 0.0009089149 0.001663386 4.2388283e-08 0.0022483123
6.3215253e-12 0.001459375 0.00229579 1.174772e-05 9.91725e-06 0.001416232 0.0036746338 0.0016548606
0.0056196963 0.0012281373 7.1396433e-10 0.0038508098 2.1451474e-11 0.0024162924 3.7106136e-05 0.00033676592
1.9241209e-06 0.0016881621 0.0014911386 3.8882167e-06 0.0016702646 0.0013398299 3.2840687e-06 4.0169953e-06
2.2567538e-11 0.0021379509

exp_avg f4 [3]
00000000: ad1d 6b3a 50bd 84bb 1cb3 4e3b
0.00089689606 -0.004050888 0.0031539863

exp_avg_sq f4 [3]
00000000: 9333 7d39 ea62 0739 48f7 a239
0.00024147173 0.00012911452 0.00031083287
