nesy/l4tvwqwd/checkpoints/epoch=9-step=250.ckpt (torch, 290467 bytes, 12 tensors)

neural_predicates.digit.net.0.weight f4 [30, 784]
000000 23 79 ec bb a2 ca c3 bc 5f e5 aa 3b 47 14 f2 ba
       -0.007216589 -0.023900334 0.0052153314 -0.0018469178
000010 5d ad 49 bb c8 99 03 bd e2 b1 25 ba c8 7f c9 bc
       -0.0030773499 -0.03212908 -0.0006320757 -0.024597064
000020 60 97 59 3c 05 77 f2 3c 9a 9b 07 bd 96 b9 8a 3b
       0.0132807195 0.029597769 -0.033107378 0.0042335493
000030 c2 0d 07 bd d6 de 79 3c a4 1d 2d bc 9f 17 a6 3c
       -0.032972105 0.015250882 -0.010566149 0.020274935
000040 b1 17 b9 3c ef 44 b7 3b 32 7a af 3c d0 90 c5 bb
       0.022594305 0.0055929343 0.021420572 -0.006029226
000050 f4 90 4d 3c 5e 5a 00 bc 48 c5 e0 bc 57 2d db 3c
       0.012546767 -0.007834045 -0.027437821 0.026755018
000060 68 ff 12 bd c5 77 b1 bc fe 4e a9 bc af 15 0d 3c
       -0.035888106 -0.021663556 -0.02066755 0.008611127
000070 31 c6 65 bb a5 2c e1 3c 2f 97 49 bb b2 55 15 bc
       -0.0035060758 0.027487108 -0.0030760278 -0.00911467
000080 98 a8 00 3d bc ed c7 bc e2 f3 88 3c bc 10 9b bc
       0.031410784 -0.024405353 0.016717855 -0.018928878
000090 e8 09 0e bd 17 ff 33 bc 34 22 13 bc 22 62 81 bc
       -0.034677416 -0.010986111 -0.008980323 -0.015793864
0000a0 32 43 ae 3c bc d3 20 bc 0b bc 76 bc 49 dd 97 3c
       0.021272276 -0.009816106 -0.015059481 0.018538134
0000b0 48 ed ce bc f0 3d b6 3c e4 35 53 bc 09 48 91 3c
       -0.025259629 0.022246331 -0.0128912665 0.017734544
0000c0 38 b0 3c 3c 44 56 bf bc 9a c2 0e bc 92 6c 50 bc
       0.011516623 -0.023356564 -0.008713389 -0.012721198
0000d0 80 e7 03 3d 7e 91 44 bc 38 a1 f1 3c c2 72 07 3d
       0.032203197 -0.011997579 0.02949582 0.033068426
0000e0 a0 35 6b b7 85 34 a9 bc 0b 0e b3 bc a2 85 0c bd
       -1.4019577e-05 -0.020654926 -0.021857282 -0.03430713
0000f0 9e 82 c8 bc 03 c0 05 bd ab dc b3 3a 4a 5a 9b bb
       -0.024476346 -0.03265382 0.001372238 -0.004740988
000100 bb de fe 3b 06 b5 2d bc 57 d2 16 bd d0 52 65 bc
       0.0077780164 -0.010602241 -0.03682169 -0.013996795
000110 12 b9 d8 3c 29 8d 46 bc 92 a1 8a 3c a3 b4 62 3c
       0.026455436 -0.012118616 0.016922746 0.013837012
000120 15 76 04 bc be f4 57 3d 5b 0b e1 bc 9c 2e ca bc
       -0.008084794 0.05272364 -0.027471235 -0.024680428
000130 74 af 1d 3c 70 8f c3 bb 11 c1 2d bc 7a 4c 98 3c
       0.009624351 -0.005968027 -0.010605113 0.018591154
000140 a2 3f 23 3c d0 d1 48 bc c4 21 81 bc 68 2b 5f bc
       0.009963902 -0.012257054 -0.015763171 -0.013621189
000150 dd 8d a1 3b ae 05 48 bb d4 8f 2c 3c 19 c0 04 bd
       0.0049302415 -0.0030520963 0.010532338 -0.03240976
000160 a2 da c3 3c ad 40 3e bb 75 ea ea bc a9 a1 34 3c
       0.023907963 -0.002903025 -0.028676251 0.011024871
000170 2d df b9 3c fa cd 1f 3c 32 12 03 3d 34 87 e3 3c
       0.022689426 0.0097536985 0.031999774 0.02777443
000180 4d 4b d9 bc 7c 20 8b 3c e6 df ab bc 1c db da bc
       -0.026525164 0.016983263 -0.020980787 -0.026715808
000190 2d 96 fb 3b b9 7f 7f 3d a1 bb 39 bc 14 d1 12 3d
       0.0076778145 0.062377665 -0.011336238 0.035843924
0001a0 a9 a8 88 bc 4b 08 9a bc 2c 52 d7 3c 81 52 e7 bb
       -0.016681986 -0.018802783 0.0262843 -0.007059396
0001b0 a4 02 b1 3c 26 0b 8c bb 35 33 87 3b d2 27 da bc
       0.021607704 -0.00427379 0.0041259774 -0.026630316
0001c0 93 26 01 bb 4e 4f 34 3c c5 bf d9 bc d3 97 eb 3c
       -0.001970683 0.011005236 -0.0265807 0.028758919
0001d0 c1 00 f9 bb 17 4e 01 bd 7c f4 e6 bc ae 70 8b 3c
       -0.007598967 -0.031568613 -0.028192751 0.017021503
0001e0 84 03 06 3c e5 91 5d bb ea 49 cb bc 1c 76 1e 3d
       0.008179549 -0.0033808884 -0.024815518 0.038686857
0001f0 56 98 0e 3d d8 9b 31 3d 10 92 01 bd 2c 4c 3e 3c
       0.034813248 0.043361515 -0.031633437 0.0116148405
000200 ef a5 15 bc 71 31 79 3d ea b8 55 bc 19 a2 15 bd
       -0.0091338 0.060838167 -0.013044575 -0.03653154
000210 3c 13 3d 3c c4 19 c8 3c d6 13 ce bc 28 70 47 bb
       0.01154023 0.024426349 -0.025155943 -0.003043184
000220 12 63 9c 3c 3a b3 f2 bc 0d ea fa bc f1 39 b0 bc
       0.01909021 -0.029626478 -0.030629182 -0.021512004
000230 06 f8 00 3d 26 b9 b6 39 a7 e9 d9 3b f5 96 fc 3b
       0.031486534 0.0003485169 0.006650168 0.007708425
000240 9a a3 a5 bb 40 c3 a1 bc 5c aa 63 3c ef 9d 49 bc
       -0.005054903 -0.019746423 0.013895597 -0.012305721
000250 2e b2 89 3c f6 af 01 3d ea 54 29 3d c0 68 1a bd
       0.016808596 0.03166195 0.041340746 -0.037697554
000260 82 85 91 3c 4b c9 3f 3d c2 71 bc bd ed 8b 6b bd
       0.017763857 0.046822827 -0.09201385 -0.05750649
000270 c7 6b df bc c1 f4 aa 3c d6 89 29 bd c6 c2 1e bd
       -0.027273072 0.02086866 -0.041391216 -0.03875997
000280 41 30 67 3d d3 1b a4 3c a7 fb 56 3d 0e 69 9b 3a
       0.056442503 0.020032799 0.052486088 0.001185687
000290 29 b4 07 bd 0f de 8d bc 30 d8 09 bc d0 d9 03 bb
       -0.0331308 -0.0173178 -0.0084133595 -0.002011884
0002a0 91 13 c4 3b 8b 19 eb bb 03 53 3d 3c 62 f1 c0 3c
       0.005983778 -0.007174676 0.011555436 0.0235526
0002b0 ed 9a c3 bc b8 f0 e5 bb 4c ee 0a bc 3f c7 b4 3a
       -0.023877585 -0.0070172213 -0.008479666 0.001379229
0002c0 04 a4 81 bc d7 91 dc 3c f5 7f a7 bc 21 ae 8d bc
       -0.015825279 0.02692501 -0.020446757 -0.017294945
0002d0 5b ea a1 bc 17 20 0e bd c7 84 0b bc a2 21 2f bd
       -0.01976507 -0.034698572 -0.008515543 -0.042756684
0002e0 16 15 59 bd e3 1b 56 3a 2a d7 ca 3c 0f 10 52 3c
       -0.052998625 0.00081676076 0.024760801 0.0128212115
0002f0 43 27 4b 3c ef 03 82 3d 49 7c 9f bb e4 d9 2b bd
       0.012399497 0.063484065 -0.004867111 -0.041955844
000300 f8 e7 02 3c 21 6f 2e bc 58 8e 4f bc 9a 94 d4 3c
       0.007989876 -0.010646612 -0.012668215 0.025949765
000310 a0 02 53 bc 1e 51 91 3c 67 cd bc ba 52 8f 9c 3c
       -0.012879044 0.017738875 -0.0014404476 0.01911131
000320 1d eb 62 3b 07 e1 f5 bc ab 07 a0 bb 63 50 ff 3c
       0.0034625002 -0.030014528 -0.0048837266 0.031166261
000330 66 cf 8e bc bf a2 b9 bb a0 fb 1c bd 28 7c ab bd
       -0.01743288 -0.005665153 -0.038325906 -0.0837329
000340 67 0b 52 bc 67 fd ba 3b 18 05 42 bd cc 71 13 bd
       -0.012820101 0.0057064774 -0.04736814 -0.035997197
000350 58 aa 3f bd 07 94 92 bd e4 85 b8 bc 34 6f 2d bd
       -0.04679331 -0.0715714 -0.022524782 -0.04234238
000360 71 1d 15 3d d3 98 96 3c 89 78 e2 bc 71 a5 57 bd
       0.03640503 0.01838342 -0.027645366 -0.05264801
000370 b7 c7 e0 3b 24 7a cb bc ac 57 c2 3c 91 99 bd bc
       0.0068597454 -0.024838515 0.023723446 -0.023144515
000380 04 24 13 bd b7 4a f9 ba 53 13 c4 bc 58 ff 8b 3c
       -0.03592302 -0.0019019459 -0.023934996 0.01708953
000390 b2 48 9a 3c 16 be 7d 3c ed 1d f7 bb 5a 91 43 bb
       0.018833492 0.015487215 -0.007541409 -0.0029841275
0003a0 08 63 a4 bc c5 c0 67 bb 12 c0 01 bd 57 f9 19 bb
       -0.020066753 -0.0035362702 -0.031677313 -0.0023494565
0003b0 95 54 b9 3c 89 3a de 3b 2f 2d 96 3c ed 71 24 3b
       0.02262334 0.0067818803 0.018332092 0.002509232
0003c0 80 ef e8 bd e3 86 7b bd f1 67 59 bc 53 34 fe bb
       -0.11373806 -0.061407935 -0.0132694105 -0.0077577024
0003d0 bb 67 f4 3a 4c 56 06 bd 32 7d 5f bc 84 40 56 bc
       0.0018646637 -0.032797143 -0.013640689 -0.013076905
0003e0 38 cc 20 bd be 5c d7 3b 62 da 34 3c f8 4e 7b 3c
       -0.03925726 0.006572335 0.011038395 0.015338652
0003f0 1b cf d6 bc 8e 54 81 3c b6 45 d1 3c 62 43 c7 3c
       -0.026221802 0.01578739 0.025545936 0.024324123

neural_predicates.digit.net.0.bias f4 [30]
000000 dd 5e a5 3c 1f 66 5a bc 91 d3 a7 3b 0a ea 16 3d
       0.020186836 -0.013330012 0.005121656 0.03684429
000010 9d f6 34 3c 72 0b 8e 3c 4f d1 8f 3c 57 c0 cc bc
       0.011045125 0.017339442 0.01755586 -0.024994059
000020 b3 29 3b bb dd f4 a7 bc 80 1e 53 bb 8a c7 12 bb
       -0.002855879 -0.020502502 -0.0032214224 -0.0022396767
000030 13 1d db 3c 48 ef 19 bd b9 0d 85 3c 78 34 86 bc
       0.026747262 -0.037581712 0.016241895 -0.01638244
000040 76 d7 04 3d 3e e1 15 bd bc b1 ae bc 3e ca 7c 3c
       0.032432042 -0.03659176 -0.021324985 0.015429078
000050 c6 ee c3 3c 6a f3 11 bd 3c e5 b3 3c a9 59 cc b9
       0.023917567 -0.03563253 0.021959893 -0.00038976714
000060 cd c3 dd 3c 9c be 09 3b c1 20 19 bc 64 8e ef 3b
       0.027070904 0.0021018153 -0.009346188 0.0073106755
000070 d4 f9 b1 bc 0c 03 bf 3b
       -0.021725573 0.0058292206

neural_predicates.digit.net.2.weight f4 [2, 30]
000000 a8 d4 e8 bd 50 52 5f 3e 97 35 11 bd ae 7b 7a bc
       -0.11368686 0.21808743 -0.035451498 -0.015288277
000010 bb 9c e5 3d 5f 3a f3 3d 71 90 41 be 58 45 ce bd
       0.112115346 0.11876368 -0.18902756 -0.1007182
000020 21 64 0d 3e d3 7e 12 be a6 05 d7 3c 52 82 9b 3d
       0.13807727 -0.14306192 0.02624781 0.07593216
000030 17 a1 00 be 93 0c 6e bd 07 68 24 bd 43 74 29 bd
       -0.12561451 -0.05811746 -0.04013827 -0.04137064
000040 b6 d0 e8 bd 5b 62 13 be 24 64 be bc 23 54 5a 3e
       -0.113679335 -0.14392988 -0.02324111 0.21321158
000050 e0 02 53 be fe cc ac 3d a9 84 6d 3e d8 c9 fd 3d
       -0.20606565 0.08437537 0.23195137 0.12392014
000060 04 c0 98 3d e8 94 f7 bb fe 86 6c 3e a3 3d 11 be
       0.07458499 -0.007555593 0.2309837 -0.14183669
000070 c8 b0 be bd 7d 01 6f be 47 11 e7 3d 0b b0 74 bd
       -0.09311062 -0.23340411 0.11282592 -0.0597382
000080 40 b7 19 3e aa 50 86 be dc d1 2a be 92 71 e0 bd
       0.1501131 -0.26233417 -0.16681617 -0.10959162
000090 e3 87 90 3e be 36 07 bc e9 d1 5c be 6f 17 2a be
       0.28228673 -0.008252798 -0.2156445 -0.16610502
0000a0 0b 49 50 be 49 7e 39 be d8 2b 3a 3d 10 3f 83 bd
       -0.20340364 -0.1811458 0.04545197 -0.064085126
0000b0 70 ec 81 be 25 86 b1 3d dd 2d 4e 3e 97 5f 13 be
       -0.253757 0.08668164 0.20134683 -0.14391933
0000c0 80 dd 8e 3d 57 3d 12 be e7 43 b4 3d d1 dd ba 3d
       0.069758415 -0.14281212 0.08802014 0.09124339
0000d0 bd 5e 01 be 79 59 4d be 5b 0f 95 be b6 aa 7a be
       -0.12633796 -0.20053662 -0.29113278 -0.24479184
0000e0 98 9d 58 be bd 35 50 3d cc af 89 3d dc 07 73 3e
       -0.21153867 0.0508325 0.06722984 0.23733467

neural_predicates.digit.net.2.bias f4 [2]
000000 47 8d 09 3e 3a 5d b0 3d
       0.134328 0.086115316

exp_avg f4 [30, 784]
000000 fe 3d c8 b6 fe 3d c8 b6 fe 3d c8 b6 fe 3d c8 b6
       -5.9676813e-06 -5.9676813e-06 -5.9676813e-06 -5.9676813e-06
000010 fe 3d c8 b6 fe 3d c8 b6 fe 3d c8 b6 fe 3d c8 b6
       -5.9676813e-06 -5.9676813e-06 -5.9676813e-06 -5.9676813e-06
000020 fe 3d c8 b6 fe 3d c8 b6 fe 3d c8 b6 fe 3d c8 b6
       -5.9676813e-06 -5.9676813e-06 -5.9676813e-06 -5.9676813e-06
000030 fe 3d c8 b6 fe 3d c8 b6 fe 3d c8 b6 fe 3d c8 b6
       -5.9676813e-06 -5.9676813e-06 -5.9676813e-06 -5.9676813e-06
000040 fe 3d c8 b6 fe 3d c8 b6 fe 3d c8 b6 fe 3d c8 b6
       -5.9676813e-06 -5.9676813e-06 -5.9676813e-06 -5.9676813e-06
000050 fe 3d c8 b6 fe 3d c8 b6 fe 3d c8 b6 fe 3d c8 b6
       -5.9676813e-06 -5.9676813e-06 -5.9676813e-06 -5.9676813e-06
000060 fe 3d c8 b6 fe 3d c8 b6 fe 3d c8 b6 fe 3d c8 b6
       -5.9676813e-06 -5.9676813e-06 -5.9676813e-06 -5.9676813e-06
000070 fe 3d c8 b6 fe 3d c8 b6 fe 3d c8 b6 fe 3d c8 b6
       -5.9676813e-06 -5.9676813e-06 -5.9676813e-06 -5.9676813e-06
000080 fe 3d c8 b6 fe 3d c8 b6 fe 3d c8 b6 fe 3d c8 b6
       -5.9676813e-06 -5.9676813e-06 -5.9676813e-06 -5.9676813e-06
000090 fe 3d c8 b6 fe 3d c8 b6 fe 3d c8 b6 fe 3d c8 b6
       -5.9676813e-06 -5.9676813e-06 -5.9676813e-06 -5.9676813e-06
0000a0 fc 3d c8 b6 fe 3d c8 b6 50 3f c8 b6 9a 24 c8 b6
       -5.9676804e-06 -5.9676813e-06 -5.967835e-06 -5.9647255e-06
0000b0 43 f3 c7 b6 51 1a c8 b6 fe 3d c8 b6 fe 3d c8 b6
       -5.9589815e-06 -5.963528e-06 -5.9676813e-06 -5.9676813e-06
0000c0 fe 3d c8 b6 fe 3d c8 b6 fe 3d c8 b6 fe 3d c8 b6
       -5.9676813e-06 -5.9676813e-06 -5.9676813e-06 -5.9676813e-06
0000d0 fe 3d c8 b6 fe 3d c8 b6 fe 3d c8 b6 fe 3d c8 b6
       -5.9676813e-06 -5.9676813e-06 -5.9676813e-06 -5.9676813e-06
0000e0 fe 3d c8 b6 fe 3d c8 b6 fe 3d c8 b6 fe 3d c8 b6
       -5.9676813e-06 -5.9676813e-06 -5.9676813e-06 -5.9676813e-06
0000f0 fe 3d c8 b6 fe 3d c8 b6 fe 3d c8 b6 fe 3d c8 b6
       -5.9676813e-06 -5.9676813e-06 -5.9676813e-06 -5.9676813e-06
000100 fe 3d c8 b6 fe 3d c8 b6 fe 3d c8 b6 fe 3d c8 b6
       -5.9676813e-06 -5.9676813e-06 -5.9676813e-06 -5.9676813e-06
000110 6d cc c8 b6 97 c1 d0 b6 db 17 ca b6 cb 4f c8 b6
       -5.9842628e-06 -6.22142e-06 -6.0228463e-06 -5.9697536e-06
000120 a4 3e dd b6 71 88 f9 b6 7f 15 d4 b6 98 6d c8 b6
       -6.5936056e-06 -7.436662e-06 -6.320595e-06 -5.973223e-06
000130 4a 49 c8 b6 fe 3d c8 b6 fe 3d c8 b6 fe 3d c8 b6
       -5.9689964e-06 -5.9676813e-06 -5.9676813e-06 -5.9676813e-06
000140 fe 3d c8 b6 fe 3d c8 b6 fe 3d c8 b6 fe 3d c8 b6
       -5.9676813e-06 -5.9676813e-06 -5.9676813e-06 -5.9676813e-06
000150 fe 3d c8 b6 fe 3d c8 b6 fe 3d c8 b6 fe 3d c8 b6
       -5.9676813e-06 -5.9676813e-06 -5.9676813e-06 -5.9676813e-06
000160 fe 3d c8 b6 fe 3d c8 b6 fe 3d c8 b6 d7 3d c8 b6
       -5.9676813e-06 -5.9676813e-06 -5.9676813e-06 -5.9676636e-06
000170 b9 f3 cb b6 b1 71 cb b6 66 e9 c7 b6 4f b7 c7 b6
       -6.0782445e-06 -6.063107e-06 -5.9578333e-06 -5.952002e-06
000180 e7 6f cc b6 0e 03 d0 b6 da 14 ce b6 c2 e2 d9 b6
       -6.092701e-06 -6.1992387e-06 -6.141706e-06 -6.493502e-06
000190 33 cb 05 b7 30 8f 11 b7 77 62 ef b6 cb 75 c8 b6
       -7.974729e-06 -8.676012e-06 -7.134218e-06 -5.9741774e-06
0001a0 f4 48 c8 b6 2a 3c c8 b6 ad 3c c8 b6 02 3e c8 b6
       -5.9689573e-06 -5.9674685e-06 -5.967528e-06 -5.967683e-06
0001b0 fe 3d c8 b6 fe 3d c8 b6 fe 3d c8 b6 fe 3d c8 b6
       -5.9676813e-06 -5.9676813e-06 -5.9676813e-06 -5.9676813e-06
0001c0 fe 3d c8 b6 fe 3d c8 b6 fe 3d c8 b6 fe 3d c8 b6
       -5.9676813e-06 -5.9676813e-06 -5.9676813e-06 -5.9676813e-06
0001d0 fe 3d c8 b6 1d 41 c8 b6 33 2a c8 b6 a7 ef c7 b6
       -5.9676813e-06 -5.9680447e-06 -5.965377e-06 -5.9585614e-06
0001e0 34 7b e7 b6 35 3a f3 b6 0f 19 da b6 3f 4c d8 b6
       -6.898679e-06 -7.2487405e-06 -6.4998235e-06 -6.446178e-06
0001f0 83 f2 d8 b6 ac a5 16 b7 6c 97 1d b7 52 d2 39 b7
       -6.4655337e-06 -8.97927e-06 -9.393185e-06 -1.1075828e-05
000200 fa 06 81 36 54 fd 49 b4 3a 84 b9 b2 d3 68 e3 b6
       3.8453118e-06 -1.8811744e-07 -2.1596964e-08 -6.7773303e-06
000210 3a f8 ec b6 6b a9 d4 b6 a1 8e cc b6 f4 9e c9 b6
       -7.0622455e-06 -6.337815e-06 -6.096278e-06 -6.0087714e-06
000220 65 34 c8 b6 fe 3d c8 b6 fe 3d c8 b6 fe 3d c8 b6
       -5.966564e-06 -5.9676813e-06 -5.9676813e-06 -5.9676813e-06
000230 fe 3d c8 b6 fe 3d c8 b6 12 3e c8 b6 12 3e c8 b6
       -5.9676813e-06 -5.9676813e-06 -5.9676904e-06 -5.9676904e-06
000240 12 3e c8 b6 08 40 c8 b6 b9 17 c6 b6 b9 8d 9b b6
       -5.9676904e-06 -5.9679187e-06 -5.9036215e-06 -4.6358587e-06
000250 ad eb bc b6 a4 ad d6 b6 d5 81 e3 b6 5e 70 d7 b6
       -5.630273e-06 -6.3979114e-06 -6.7802416e-06 -6.4205806e-06
000260 34 f4 1a b7 34 29 55 b7 b4 0f 2a 37 52 69 29 37
       -9.235973e-06 -1.2705383e-05 1.0136446e-05 1.0097707e-05
000270 fe 58 b0 33 4a 32 88 b6 9f ab b1 34 40 9c b7 b6
       8.211826e-08 -4.0589703e-06 3.309369e-07 -5.472015e-06
000280 a9 36 2f b7 52 3c 6e b7 fb c2 7c b7 48 3d 47 b7
       -1.0443539e-05 -1.419995e-05 -1.5065768e-05 -1.18755925e-05
000290 e3 85 c8 b6 fe 3d c8 b6 fe 3d c8 b6 fe 3d c8 b6
       -5.976051e-06 -5.9676813e-06 -5.9676813e-06 -5.9676813e-06
0002a0 fe 3d c8 b6 fe 3d c8 b6 fe 3d c8 b6 1d 3e c8 b6
       -5.9676813e-06 -5.9676813e-06 -5.9676813e-06 -5.9676954e-06
0002b0 3b 3e c8 b6 29 2a c8 b6 42 05 be b6 e4 c2 8f b6
       -5.967709e-06 -5.9653726e-06 -5.6630533e-06 -4.2844204e-06
0002c0 cd e7 b1 b6 ff ed c5 b6 81 5c d2 b6 d3 98 9e b6
       -5.301996e-06 -5.898764e-06 -6.2692566e-06 -4.726558e-06
0002d0 83 d5 04 b7 40 c5 35 b6 44 08 80 35 e2 a1 38 36
       -7.917525e-06 -2.7085916e-06 9.539149e-07 2.7512365e-06
0002e0 b4 12 ca 36 7e 04 9f b6 40 1b 97 b6 31 f6 8f 35
       6.0222465e-06 -4.739092e-06 -4.503323e-06 1.0725981e-06
0002f0 1a 38 4e b6 1d ac 70 b7 5b 8c 26 b7 2c be a0 b6
       -3.0729047e-06 -1.4345188e-05 -9.92705e-06 -4.7905105e-06
000300 93 7b b8 b6 55 cd c7 b6 f9 3d c8 b6 fe 3d c8 b6
       -5.4980133e-06 -5.954566e-06 -5.967679e-06 -5.9676813e-06
000310 fe 3d c8 b6 fe 3d c8 b6 fe 3d c8 b6 12 3e c8 b6
       -5.9676813e-06 -5.9676813e-06 -5.9676813e-06 -5.9676904e-06
000320 91 1e cc b6 74 a3 ca b6 1b bc a8 b6 e0 4f 9d b6
       -6.083232e-06 -6.0390976e-06 -5.0286885e-06 -4.6882633e-06
000330 ad 6c be b6 cb c6 ac b6 54 aa 83 b6 de de 42 b6
       -5.675093e-06 -5.149142e-06 -3.923933e-06 -2.9037978e-06
000340 fd ee 2d b7 bb ba 84 b6 f5 d8 95 b6 75 40 dc b5
       -1.0367247e-05 -3.955645e-06 -4.465803e-06 -1.6410037e-06
000350 c3 60 07 36 f0 61 8f 36 81 7a 95 b4 0f be fe 35
       2.017289e-06 4.2731335e-06 -2.7842546e-07 1.8979789e-06
000360 5f 40 2c 36 09 e4 99 b6 09 d3 07 b7 d4 34 67 b6
       2.5667466e-06 -4.586302e-06 -8.0957625e-06 -3.4452432e-06
000370 f7 f3 80 b6 db 79 ac b6 fe 3d c8 b6 fe 3d c8 b6
       -3.8430985e-06 -5.1401853e-06 -5.9676813e-06 -5.9676813e-06
000380 86 38 c8 b6 fe 3d c8 b6 fe 3d c8 b6 fe 3d c8 b6
       -5.9670447e-06 -5.9676813e-06 -5.9676813e-06 -5.9676813e-06
000390 db 5e ca b6 f3 83 c4 b6 63 97 94 b6 92 91 9f b6
       -6.0311118e-06 -5.856616e-06 -4.4283674e-06 -4.755516e-06
0003a0 2a e7 d9 b6 35 03 bc b6 c7 51 7e b6 77 e0 bb b6
       -6.494015e-06 -5.60321e-06 -3.789655e-06 -5.5991654e-06
0003b0 98 a6 35 b7 b1 5b bf b6 fa b4 ec b6 1a 64 09 b4
       -1.0827229e-05 -5.702918e-06 -7.0544165e-06 -1.2795536e-07
0003c0 f9 cc 7d 37 a6 2d 82 37 9d ad 18 36 b7 1c 4c 36
       1.5127699e-05 1.5518464e-05 2.2750821e-06 3.0415083e-06
0003d0 c2 5e 69 36 be ac 7a b6 41 0c f1 b6 ea 70 b0 b6
       3.4774862e-06 -3.7353452e-06 -7.1837862e-06 -5.2583537e-06
0003e0 2b e1 97 b6 f1 2a a8 b6 fe 3d c8 b6 fe 3d c8 b6
       -4.5263637e-06 -5.011789e-06 -5.9676813e-06 -5.9676813e-06
0003f0 fe 3d c8 b6 fe 3d c8 b6 55 3d c8 b6 d9 3d c8 b6
       -5.9676813e-06 -5.9676813e-06 -5.9676045e-06 -5.9676645e-06

exp_avg_sq f4 [30, 784]
000000 2b fe e0 31 2b fe e0 31 2b fe e0 31 2b fe e0 31
       6.5481536e-09 6.5481536e-09 6.5481536e-09 6.5481536e-09
000010 2b fe e0 31 2b fe e0 31 2b fe e0 31 2b fe e0 31
       6.5481536e-09 6.5481536e-09 6.5481536e-09 6.5481536e-09
000020 2b fe e0 31 2b fe e0 31 2b fe e0 31 2b fe e0 31
       6.5481536e-09 6.5481536e-09 6.5481536e-09 6.5481536e-09
000030 2b fe e0 31 2b fe e0 31 2b fe e0 31 2b fe e0 31
       6.5481536e-09 6.5481536e-09 6.5481536e-09 6.5481536e-09
000040 2b fe e0 31 2b fe e0 31 2b fe e0 31 2b fe e0 31
       6.5481536e-09 6.5481536e-09 6.5481536e-09 6.5481536e-09
000050 2b fe e0 31 2b fe e0 31 2b fe e0 31 2b fe e0 31
       6.5481536e-09 6.5481536e-09 6.5481536e-09 6.5481536e-09
000060 2b fe e0 31 2b fe e0 31 2b fe e0 31 2b fe e0 31
       6.5481536e-09 6.5481536e-09 6.5481536e-09 6.5481536e-09
000070 2b fe e0 31 2b fe e0 31 2b fe e0 31 2b fe e0 31
       6.5481536e-09 6.5481536e-09 6.5481536e-09 6.5481536e-09
000080 2b fe e0 31 2b fe e0 31 2b fe e0 31 2b fe e0 31
       6.5481536e-09 6.5481536e-09 6.5481536e-09 6.5481536e-09
000090 2b fe e0 31 2b fe e0 31 2b fe e0 31 2b fe e0 31
       6.5481536e-09 6.5481536e-09 6.5481536e-09 6.5481536e-09
0000a0 2b fe e0 31 2b fe e0 31 18 fe e0 31 6d fa e0 31
       6.5481536e-09 6.5481536e-09 6.548145e-09 6.547728e-09
0000b0 87 f4 e0 31 73 f9 e0 31 2b fe e0 31 2b fe e0 31
       6.5470576e-09 6.547617e-09 6.5481536e-09 6.5481536e-09
0000c0 2b fe e0 31 2b fe e0 31 2b fe e0 31 2b fe e0 31
       6.5481536e-09 6.5481536e-09 6.5481536e-09 6.5481536e-09
0000d0 2b fe e0 31 2b fe e0 31 2b fe e0 31 2b fe e0 31
       6.5481536e-09 6.5481536e-09 6.5481536e-09 6.5481536e-09
0000e0 2b fe e0 31 2b fe e0 31 2b fe e0 31 2b fe e0 31
       6.5481536e-09 6.5481536e-09 6.5481536e-09 6.5481536e-09
0000f0 2b fe e0 31 2b fe e0 31 2b fe e0 31 2b fe e0 31
       6.5481536e-09 6.5481536e-09 6.5481536e-09 6.5481536e-09
000100 2b fe e0 31 2b fe e0 31 2b fe e0 31 2b fe e0 31
       6.5481536e-09 6.5481536e-09 6.5481536e-09 6.5481536e-09
000110 55 f4 e0 31 95 75 e0 31 97 af e0 31 be fc e0 31
       6.5470354e-09 6.5326256e-09 6.5392203e-09 6.5479915e-09
000120 a3 47 d1 31 ce bd c5 31 b0 76 d7 31 4f fb e0 31
       6.0908447e-09 5.755033e-09 6.2708168e-09 6.5478285e-09
000130 28 fd e0 31 2b fe e0 31 2b fe e0 31 2b fe e0 31
       6.5480386e-09 6.5481536e-09 6.5481536e-09 6.5481536e-09
000140 2b fe e0 31 2b fe e0 31 2b fe e0 31 2b fe e0 31
       6.5481536e-09 6.5481536e-09 6.5481536e-09 6.5481536e-09
000150 2b fe e0 31 2b fe e0 31 2b fe e0 31 2b fe e0 31
       6.5481536e-09 6.5481536e-09 6.5481536e-09 6.5481536e-09
000160 2b fe e0 31 2b fe e0 31 2b fe e0 31 21 fe e0 31
       6.5481536e-09 6.5481536e-09 6.5481536e-09 6.548149e-09
000170 cf c7 dd 31 d4 20 de 31 a1 fd e0 31 90 e3 df 31
       6.454662e-09 6.4647825e-09 6.5480923e-09 6.516025e-09
000180 5b 80 dd 31 d2 ac da 31 dd 71 c0 31 50 ec a5 31
       6.446539e-09 6.3642824e-09 5.60088e-09 4.8289976e-09
000190 6f 50 b2 31 33 6c bd 31 38 31 c7 31 34 f8 e0 31
       5.189626e-09 5.512925e-09 5.797258e-09 6.5474755e-09
0001a0 62 fa e0 31 d9 f4 e0 31 1a f7 e0 31 fb fd e0 31
       6.5477233e-09 6.547094e-09 6.54735e-09 6.5481323e-09
0001b0 e5 fd e0 31 16 fe e0 31 2b fe e0 31 2b fe e0 31
       6.5481225e-09 6.5481442e-09 6.5481536e-09 6.5481536e-09
0001c0 2b fe e0 31 2b fe e0 31 2a fe e0 31 2b fe e0 31
       6.5481536e-09 6.5481536e-09 6.548153e-09 6.5481536e-09
0001d0 2b fe e0 31 c9 fd e0 31 18 fb e0 31 c7 f2 e0 31
       6.5481536e-09 6.54811e-09 6.547804e-09 6.5468586e-09
0001e0 e3 8f cb 31 54 eb c6 31 34 30 d2 31 30 8f cf 31
       5.9244356e-09 5.789312e-09 6.1172845e-09 6.0407714e-09
0001f0 b1 48 ca 31 d4 7c ad 31 c5 80 8a 31 2a 0c 6a 31
       5.887238e-09 5.049154e-09 4.030968e-09 3.4058396e-09
000200 09 96 65 31 c3 b0 66 31 75 72 5f 31 92 fd 9f 31
       3.340917e-09 3.3569882e-09 3.2515832e-09 4.6563366e-09
000210 4c f4 b7 31 07 ac d0 31 2a e4 df 31 77 a1 e0 31
       5.3537743e-09 6.073154e-09 6.5160934e-09 6.5376144e-09
000220 7e fd e0 31 29 fe e0 31 2b fe e0 31 2b fe e0 31
       6.5480767e-09 6.5481527e-09 6.5481536e-09 6.5481536e-09
000230 2b fe e0 31 2b fe e0 31 2b fe e0 31 2b fe e0 31
       6.5481536e-09 6.5481536e-09 6.5481536e-09 6.5481536e-09
000240 2b fe e0 31 3c fb e0 31 1e e0 e0 31 c6 75 df 31
       6.5481536e-09 6.54782e-09 6.544737e-09 6.5035435e-09
000250 0e 2d c4 31 fb 78 c2 31 a3 1d c1 31 60 04 ba 31
       5.709473e-09 5.659897e-09 5.6204086e-09 5.41381e-09
000260 77 27 8f 31 38 6b 26 31 52 34 29 31 be 67 39 31
       4.1663344e-09 2.4217126e-09 2.4622477e-09 2.6980014e-09
000270 f3 5c 46 31 ab 53 3a 31 88 94 27 31 09 87 60 31
       2.8865628e-09 2.7114122e-09 2.4386129e-09 3.2673049e-09
000280 62 cc 96 31 d1 d5 c4 31 fc 71 d7 31 27 63 d9 31
       4.38881e-09 5.728659e-09 6.270282e-09 6.3268035e-09
000290 f5 fb e0 31 2b fe e0 31 2b fe e0 31 2b fe e0 31
       6.547902e-09 6.5481536e-09 6.5481536e-09 6.5481536e-09
0002a0 2b fe e0 31 2b fe e0 31 2b fe e0 31 06 fe e0 31
       6.5481536e-09 6.5481536e-09 6.5481536e-09 6.548137e-09
0002b0 dc fd e0 31 db fa e0 31 3c ce df 31 3b ac dd 31
       6.5481185e-09 6.547777e-09 6.5136003e-09 6.451527e-09
0002c0 50 bb d5 31 94 ca c4 31 52 a6 ba 31 a4 83 b4 31
       6.220411e-09 5.7273812e-09 5.432221e-09 5.2536553e-09
0002d0 fd c6 77 31 b7 48 13 31 ec 28 f0 30 46 68 74 31
       3.6056342e-09 2.143265e-09 1.7473929e-09 3.5565946e-09
0002e0 bc 91 29 31 8f 9e 31 31 18 2c 23 31 86 af 3e 31
       2.4675577e-09 2.584702e-09 2.3744686e-09 2.7748412e-09
0002f0 72 87 75 31 1b f9 cd 31 fc 16 d4 31 c2 70 da 31
       3.5729184e-09 5.9946053e-09 6.172625e-09 6.357454e-09
000300 44 2c e0 31 a5 fc e0 31 2b fe e0 31 2b fe e0 31
       6.5242904e-09 6.5479804e-09 6.5481536e-09 6.5481536e-09
000310 2b fe e0 31 2b fe e0 31 2b fe e0 31 21 fe e0 31
       6.5481536e-09 6.5481536e-09 6.5481536e-09 6.548149e-09
000320 d4 0f e1 31 37 c2 e0 31 67 f5 dd 31 fe 79 dc 31
       6.5501613e-09 6.5413377e-09 6.4598455e-09 6.4167116e-09
000330 c5 3f dd 31 9c c9 d3 31 ca b1 ca 31 0c 03 ca 31
       6.4391963e-09 6.1638286e-09 5.899186e-09 5.87932e-09
000340 8a 90 67 31 ad 87 1f 31 2b c6 09 31 8d 5b 60 31
       3.3697085e-09 2.3214668e-09 2.004877e-09 3.264833e-09
000350 20 24 26 31 87 3a 32 31 9c 82 fa 30 96 f6 4c 31
       2.4176714e-09 2.5935678e-09 1.8227015e-09 2.9826075e-09
000360 05 dc 83 31 d8 25 a8 31 da 00 cf 31 6f fd d1 31
       3.837615e-09 4.893746e-09 6.0245897e-09 6.1115126e-09
000370 44 fb da 31 80 8e dd 31 2a fe e0 31 2b fe e0 31
       6.3732006e-09 6.448147e-09 6.548153e-09 6.5481536e-09
000380 4c f4 e0 31 2b fe e0 31 2b fe e0 31 2b fe e0 31
       6.5470314e-09 6.5481536e-09 6.5481536e-09 6.5481536e-09
000390 5a 09 e1 31 74 d6 e0 31 37 66 dd 31 bd c7 db 31
       6.549425e-09 6.5436385e-09 6.443567e-09 6.3964465e-09
0003a0 dd 04 db 31 e5 bf d1 31 7a 82 cb 31 25 64 b6 31
       6.3742918e-09 6.1045164e-09 5.922911e-09 5.3082823e-09
0003b0 82 82 2f 31 6d 45 ff 30 e6 3b 24 31 b6 6b 37 31
       2.5540037e-09 1.8573424e-09 2.389919e-09 2.6691231e-09
0003c0 da c6 38 31 77 70 42 31 ab 8f fb 30 58 cd 41 31
       2.6888558e-09 2.8294644e-09 1.8303487e-09 2.820192e-09
0003d0 89 da 92 31 78 ac a7 31 d5 2a cc 31 48 2b d3 31
       4.274004e-09 4.879947e-09 5.942051e-09 6.1458287e-09
0003e0 bf 61 de 31 93 fe df 31 2b fe e0 31 2b fe e0 31
       6.472163e-09 6.519096e-09 6.5481536e-09 6.5481536e-09
0003f0 2b fe e0 31 2b fe e0 31 0f fe e0 31 23 fe e0 31
       6.5481536e-09 6.5481536e-09 6.548141e-09 6.54815e-09

exp_avg f4 [30]
000000 fe 3d c8 36 73 43 f3 b6 a9 75 a4 36 31 6b d8 b6
       5.9676813e-06 -7.2498165e-06 4.9012783e-06 -6.4497804e-06
000010 f7 de f6 b6 9f c6 c8 b6 37 8b 4e 37 00 00 00 00
       -7.357328e-06 -5.983587e-06 1.231097e-05 0.0
000020 37 0e 1b b7 00 00 00 00 6b 9c cb b6 4d 44 e1 b6
       -9.24203e-06 0.0 -6.068081e-06 -6.713474e-06
000030 63 df 97 36 00 00 00 00 5f 9e ba b6 00 00 00 00
       4.5261563e-06 0.0 -5.561669e-06 0.0
000040 18 b5 0a 37 00 00 00 00 00 00 00 00 3d f6 1b b7
       8.267605e-06 0.0 0.0 -9.296052e-06
000050 3c 9d 01 37 00 00 00 00 43 18 21 b7 78 2b 0f b7
       7.725608e-06 0.0 -9.601997e-06 -8.533585e-06
000060 22 0e 20 b7 86 61 d2 b6 16 0e 42 b7 00 00 00 00
       -9.540034e-06 -6.269841e-06 -1.1566581e-05 0.0
000070 81 32 8e 36 f9 ba 4e 37
       4.237809e-06 1.232209e-05

exp_avg_sq f4 [30]
000000 2b fe e0 31 03 1f 1a 32 b7 d9 88 31 a1 36 e8 31
       6.5481536e-09 8.971031e-09 3.9828723e-09 6.7582993e-09
000010 f0 2b 1b 32 07 8e c4 31 59 cb f4 32 00 00 00 00
       9.032178e-09 5.7204974e-09 2.849781e-08 0.0
000020 3d d9 84 32 00 00 00 00 83 7d d3 31 a4 ea f8 31
       1.5465611e-08 0.0 6.1551773e-09 7.2444255e-09
000030 81 8e 68 31 00 00 00 00 87 ae ab 31 00 00 00 00
       3.3841447e-09 0.0 4.9965965e-09 0.0
000040 c5 32 60 32 00 00 00 00 00 00 00 00 df a8 86 32
       1.305006e-08 0.0 0.0 1.5676447e-08
000050 7e 46 3f 32 00 00 00 00 8f 03 8a 32 2b f4 57 32
       1.1133691e-08 0.0 1.6066933e-08 1.25701645e-08
000060 a4 10 89 32 45 7d d0 31 6c 67 d2 32 00 00 00 00
       1.5956466e-08 6.0678382e-09 2.4494248e-08 0.0
000070 43 16 53 31 27 08 fc 32
       3.0717195e-09 2.9340368e-08

exp_avg f4 [2, 30]
000000 8b 7d 09 b8 ab db 0d b9 72 2d 8d 37 62 32 12 b9
       -3.2780266e-05 -0.0001352864 1.6829672e-05 -0.00013942414
000010 a4 4b 0f b9 0a 79 4f b9 2d fc a6 38 00 00 00 00
       -0.00013665721 -0.00019786149 7.962468e-05 0.0
000020 10 ef f1 b8 00 00 00 00 81 9e 8c b9 6e 11 12 b9
       -0.000115363044 0.0 -0.00026820975 -0.00013930138
000030 87 02 1a 36 00 00 00 00 72 c0 29 b9 00 00 00 00
       2.294926e-06 0.0 -0.00016188787 0.0
000040 e3 5b 49 b8 00 00 00 00 00 00 00 00 2a 2f 14 b9
       -4.800771e-05 0.0 0.0 -0.0001413195
000050 8c 31 d2 b7 00 00 00 00 a6 8c 77 b9 44 b9 e5 b8
       -2.5057023e-05 0.0 -0.00023608151 -0.00010954079
000060 4d 8f 1b b9 b8 bd 16 b9 0a dc 11 b9 00 00 00 00
       -0.00014835336 -0.0001437579 -0.00013910249 0.0
000070 11 10 98 36 01 e0 26 b8 57 6e 09 38 89 db 0d 39
       4.5318234e-06 -3.9786104e-05 3.2766107e-05 0.00013528591
000080 38 52 8d b7 43 32 12 39 7a 4b 0f 39 de 78 4f 39
       -1.6846796e-05 0.00013942369 0.0001366566 0.00019786085
000090 15 02 a7 b8 00 00 00 00 b2 ee f1 38 00 00 00 00
       -7.963568e-05 0.0 0.00011536236 0.0
0000a0 6b 9e 8c 39 42 11 12 39 60 25 1b b6 00 00 00 00
       0.0002682091 0.00013930074 -2.3118555e-06 0.0
0000b0 48 c0 29 39 00 00 00 00 2f 4a 49 38 00 00 00 00
       0.00016188726 0.0 4.7991223e-05 0.0
0000c0 00 00 00 00 01 2f 14 39 77 13 d2 37 00 00 00 00
       0.0 0.0001413189 2.5043015e-05 0.0
0000d0 6c 8c 77 39 ff b8 e5 38 2d 8f 1b 39 94 bd 16 39
       0.00023608067 0.00010954029 0.00014835289 0.00014375738
0000e0 e9 db 11 39 00 00 00 00 3e 93 98 b6 05 d1 26 38
       0.000139102 0.0 -4.5470942e-06 3.977215e-05

exp_avg_sq f4 [2, 30]
000000 9e 12 1f 36 c8 ab 07 35 e6 cb 24 36 fd 47 fc 34
       2.3703683e-06 5.0541394e-07 2.455659e-06 4.6991036e-07
000010 1a ea 17 35 ad 79 6d 35 56 3a 88 35 00 00 00 00
       5.6592546e-07 8.846644e-07 1.0149768e-06 0.0
000020 f6 0e 11 35 00 00 00 00 62 69 28 36 ac 8c e7 34
       5.403848e-07 0.0 2.5095292e-06 4.3129455e-07
000030 f6 43 18 36 00 00 00 00 7e b9 45 35 00 00 00 00
       2.2689323e-06 0.0 7.3658146e-07 0.0
000040 7e 11 69 36 00 00 00 00 00 00 00 00 a7 cf 14 35
       3.4729887e-06 0.0 0.0 5.543647e-07
000050 9d d4 0b 36 00 00 00 00 3e 2b 06 36 b2 6f f7 34
       2.0836371e-06 0.0 1.9992726e-06 4.6088604e-07
000060 a4 fe 0a 35 ef 98 03 35 81 e8 08 35 00 00 00 00
       5.1779557e-07 4.902385e-07 5.1002286e-07 0.0
000070 0e 00 3f 36 80 0f 0d 36 9c 12 1f 36 c4 ab 07 35
       2.846125e-06 2.101966e-06 2.3703678e-06 5.054137e-07
000080 ec cb 24 36 ec 47 fc 34 14 ea 17 35 a1 79 6d 35
       2.4556603e-06 4.6990988e-07 5.659251e-07 8.8466373e-07
000090 57 3a 88 35 00 00 00 00 f0 0e 11 35 00 00 00 00
       1.0149769e-06 0.0 5.4038446e-07 0.0
0000a0 5e 69 28 36 a7 8c e7 34 f5 43 18 36 00 00 00 00
       2.5095283e-06 4.312944e-07 2.2689321e-06 0.0
0000b0 7c b9 45 35 00 00 00 00 72 11 69 36 00 00 00 00
       7.3658134e-07 0.0 3.472986e-06 0.0
0000c0 00 00 00 00 9e cf 14 35 94 d4 0b 36 00 00 00 00
       0.0 5.543642e-07 2.083635e-06 0.0
0000d0 39 2b 06 36 a3 6f f7 34 a0 fe 0a 35 ed 98 03 35
       1.9992715e-06 4.6088562e-07 5.1779534e-07 4.902384e-07
0000e0 79 e8 08 35 00 00 00 00 06 00 3f 36 7b 0f 0d 36
       5.100224e-07 0.0 2.8461232e-06 2.1019648e-06

exp_avg f4 [2]
000000 11 35 da b7 af 30 da 37
       -2.6012336e-05 2.6010295e-05

exp_avg_sq f4 [2]
000000 de bb 13 34 d7 bb 13 34
       1.3758788e-07 1.3758778e-07
