nesy/cd5c2nhg/checkpoints/epoch=9-step=250.ckpt (torch, 290467 bytes, 12 tensors)

neural_predicates.digit.net.0.weight f4 [30, 784]
000000 c8 9f 0a bd 44 2a db 3c a4 ef 83 3c 74 0d e6 bc
       -0.033843786 0.026753552 0.01610548 -0.028082587
000010 9a 79 9e 3c 03 b1 b3 bc ea d1 f3 bc 7d 4b 6f bc
       0.019345094 -0.021934992 -0.02976318 -0.0146054
000020 c3 86 b1 3c 3e c9 99 3c 81 0f 88 3c 9b 70 25 bc
       0.021670705 0.018772718 0.016608955 -0.010097648
000030 1b 1b 5a 3a 48 e3 c1 bc f2 69 8a 3c 16 11 e2 3a
       0.0008320079 -0.023667946 0.016896222 0.0017247524
000040 b8 67 50 bc 29 bb 88 3c 04 88 43 3b e1 04 a7 3c
       -0.012720041 0.016690807 0.002983571 0.020388069
000050 94 0b de 3b d0 c6 d6 3c d2 1e ba bc f1 c8 56 3c
       0.0067762826 0.026217848 -0.022719774 0.013109432
000060 a5 9d dd bb 1c c8 96 3c 97 98 19 3c 8b 5f af 3c
       -0.0067631775 0.018405966 0.009374759 0.021407863
000070 39 06 9c 3c 6b ef 1b bb dc ca 23 bd 51 65 27 bd
       0.019045936 -0.0023793827 -0.039988384 -0.040868107
000080 96 ae 14 bc e1 6c d3 bc 22 b6 e2 bc b7 22 56 3c
       -0.009074828 -0.025808753 -0.027674738 0.0130698
000090 fa 2b be 3c 48 03 cb bc d3 dc bd 3c 45 ba 0b bd
       0.023214329 -0.024781838 0.023176586 -0.034113187
0000a0 ec 26 7d bc 70 44 b0 3c 5c 00 21 bc 4c 58 13 3c
       -0.015451174 0.021517009 -0.009826746 0.00899322
0000b0 b1 af e6 bb 45 c6 ba bb 8e 5d 0c bd b5 c5 e5 3b
       -0.007039987 -0.005699905 -0.03426891 0.007012094
0000c0 df a9 ec bc 44 cd 09 3c 32 61 09 ba 8e fe 05 bc
       -0.028889595 0.008410756 -0.00052406185 -0.008178366
0000d0 a3 09 05 3b c7 8a 20 bd 8f 00 fd bb 50 35 a0 bc
       0.0020299933 -0.03919485 -0.007721014 -0.019556671
0000e0 f4 3a 26 bd 6d 5e 83 bc 83 b5 0e bc 1b fb 0c 3b
       -0.040583566 -0.016036237 -0.008710268 0.0021511975
0000f0 f8 50 e1 3c 6b 3d 81 bb 61 fd 22 3b 93 0f 3d bc
       0.02750443 -0.003944089 0.0024870264 -0.011539358
000100 42 86 20 3b 62 42 86 bc 96 ea a3 bc f8 c1 1f 3c
       0.0024494086 -0.016389076 -0.02000932 0.009750836
000110 dc a4 10 bd 83 0d 1a bd a3 34 30 bd 20 b4 42 bc
       -0.035313472 -0.037610542 -0.04301895 -0.011883765
000120 0e 00 05 3c 0d c7 de bb 25 95 66 bc ea bd d8 bb
       0.008117689 -0.006798631 -0.014073645 -0.0066144364
000130 91 51 89 bc 35 2b b1 bc 00 aa b8 bc 5b 83 39 3c
       -0.016762527 -0.021627048 -0.022542 0.0113228215
000140 b4 39 03 bd a2 51 cd 3b 61 7c d1 3c b4 cc e9 3b
       -0.032037452 0.006265835 0.025572004 0.007134998
000150 50 8a 06 3b b1 5d 9a 3c f0 c0 9a bc 7b b4 d8 bb
       0.0020529218 0.018843504 -0.018890828 -0.006613312
000160 62 71 62 bc 11 31 1f bd 2c 18 47 3b 03 c6 dc 3c
       -0.013820978 -0.038865153 0.0030379398 0.026949888
000170 4d 27 9b 3c af c2 43 bc 52 19 bc bc 15 29 0a bc
       0.018939639 -0.011948272 -0.022961292 -0.008432646
000180 35 7c 63 bc 55 20 21 bd 52 34 08 bd 6b ba 1f bb
       -0.013884594 -0.039337475 -0.03325302 -0.0024372588
000190 0f 3e 3d 3c 87 06 67 bd de 65 5b bc 2e dc c4 bc
       0.01155044 -0.05640271 -0.013390986 -0.024030771
0001a0 d2 1d bc bb ac 8c c8 bb 22 52 2a bd b7 46 d3 3b
       -0.0057408595 -0.006120285 -0.041582234 0.006447639
0001b0 ee 44 b1 3c eb a2 b0 3a 5e b0 c7 3c ec 72 c7 3c
       0.021639314 0.0013476288 0.02437609 0.024346791
0001c0 56 d1 0a bd 40 41 32 bc 86 72 be bc a7 db 0c bc
       -0.033891045 -0.010879815 -0.023247968 -0.008597291
0001d0 5a ec 06 bc 77 5a 22 bd 58 26 07 bd bf a3 e6 3a
       -0.008235062 -0.039637055 -0.03299555 0.0017596408
0001e0 40 dc 0e bc 12 6f 88 bc 7c d7 b4 3c cf a0 41 3a
       -0.008719504 -0.016654525 0.022075407 0.0007386328
0001f0 a6 b3 ff ba da 5c cd bb f0 c6 b8 3b 07 95 34 bd
       -0.0019508495 -0.0062671723 0.0056389496 -0.044087436
000200 c3 6f a3 bc db 91 ee bb 6d 91 05 3d d3 cb ea 3c
       -0.019950753 -0.007280571 0.032609392 0.028661644
000210 b8 d2 f8 bc 6f f0 13 bd 4c 04 2d bd 12 8f 38 3c
       -0.030373916 -0.036117967 -0.042240426 0.011264579
000220 7b fe b3 3c 2e 97 2d 3b a6 90 6c 3a d7 92 9b 3c
       0.021971932 0.0026487815 0.000902424 0.018990917
000230 2c f7 1e bd 38 13 74 3c 16 47 95 bc b4 c9 28 bc
       -0.03880994 0.01489716 -0.018222373 -0.010301996
000240 1f 92 7f bb 2e 16 fb bb 38 92 6f 3c 84 1e e9 ba
       -0.0038997007 -0.007662556 0.014622264 -0.0017785584
000250 20 8f cd ba 84 f1 29 bd 67 b6 2c bd ab 29 e6 bb
       -0.0015682913 -0.041490093 -0.04216614 -0.00702401
000260 67 c3 5e 3c 79 fd 05 bc 8c 41 07 3d 6f c4 f5 3c
       0.013596392 -0.008178108 0.033021495 0.030000893
000270 26 56 35 3d 2e c9 8c 3c fc e5 b5 3c 2a 2d ee 3a
       0.04427161 0.017185774 0.022204392 0.0018171419
000280 91 34 43 bd d7 9b 47 bc d7 67 58 bd e6 d7 e9 bc
       -0.047657553 -0.012183151 -0.052833404 -0.028545331
000290 cc fb 39 bc f1 a7 10 bd e4 c0 fb bc f3 d3 9a bc
       -0.011351537 -0.03531641 -0.030731626 -0.018899893
0002a0 48 1b 2f bd 6f 56 b0 3c b9 aa ba 3c 5a 94 d3 bc
       -0.042750627 0.02152559 0.022786485 -0.025827575
0002b0 1a 1f 0d 3c 31 c5 cb bc 00 15 e2 bc f9 0b 5a bb
       0.008613372 -0.024874302 -0.027597904 -0.0033271296
0002c0 68 72 99 39 e1 bd af bc ce bd ec bb e6 29 86 bc
       0.00029267673 -0.021452846 -0.007224775 -0.0163774
0002d0 c7 00 22 bc bd 74 e5 bc c8 43 cd 3c 03 e5 1d 3d
       -0.009887881 -0.028009767 0.025056735 0.03854848
0002e0 40 9d 0d 3b 67 16 b6 3b 6b de 1c b8 d8 ff d7 bb
       0.002160862 0.00555687 -3.740044e-05 -0.0065917782
0002f0 0e f2 dc bc bf 6c 5c ba 39 49 e4 bc 55 70 50 bb
       -0.02697089 -0.00084085384 -0.027866947 -0.0031805236
000300 ab 13 95 bb 7e 14 26 bb 04 4c 48 3c b1 72 6c bc
       -0.0045494637 -0.0025341804 0.012225155 -0.014431641
000310 04 3f 09 bd 01 77 99 bc 8c 0d 1e 3c 03 e2 9c bc
       -0.033507362 -0.018733503 0.0096467845 -0.01915074
000320 42 33 70 3c 05 17 d2 bc 13 b0 31 bd 08 1a 27 bc
       0.014660658 -0.025645742 -0.043380808 -0.010199077
000330 3a bc d7 bc 99 d2 e3 3c 2f 8a 86 3b c8 9a aa 3c
       -0.02633487 0.027810382 0.0041058282 0.020825759
000340 06 42 d0 3c fb 24 59 3c 87 91 dc 3c 97 de 81 bc
       0.025422107 0.013253446 0.026924862 -0.01585321
000350 10 3c 22 3d fd d3 5d 3d e4 66 f7 3b c0 8a f4 3c
       0.03960806 0.054157246 0.0075501073 0.029851317
000360 b7 f5 08 bd 74 ca d6 bc ed 7e 62 3c a4 eb 99 3c
       -0.033437457 -0.026219584 0.013824207 0.01878912
000370 80 40 08 bd 0b 86 02 bd 10 ea b4 3b 7d 00 09 ba
       -0.033264637 -0.031866115 0.0055210665 -0.0005226208
000380 7f 00 5d 3c ac 24 0d 3c 61 dd 27 bd 87 19 78 3c
       0.013488888 0.0086147 -0.040982608 0.015142805
000390 8b 99 a0 3c 26 13 7c bc 45 dd 52 bc 32 72 58 bc
       0.019604465 -0.015385425 -0.012870138 -0.01321082
0003a0 50 ad 1d bd f1 31 cd 3c 6b d4 23 3c 27 fa 00 3d
       -0.03849536 0.025048228 0.009999375 0.031488564
0003b0 fb 6d ba 3c 4d 69 fb bb 50 e5 49 bb 16 f4 1a 3d
       0.02275752 -0.007672465 -0.0030806847 0.037830435
0003c0 a8 79 47 3d 04 c6 f8 3c 18 39 e2 3c fd 62 8b bc
       0.048700005 0.030367859 0.027615115 -0.017014975
0003d0 af 4c 9c 3c 12 b0 48 bc eb 70 d3 3c b4 21 da 3c
       0.019079534 -0.01224901 0.02581068 0.026627399
0003e0 c1 53 65 bc 2a d5 59 bc cc a2 ca 3b 9e f2 d8 3b
       -0.013997019 -0.013295451 0.0061839577 0.006620719
0003f0 3b b9 07 bd 9c ef 2c bd 25 42 91 3c ec 1c 09 3c
       -0.033135634 -0.042220697 0.017731735 0.008368712

neural_predicates.digit.net.0.bias f4 [30]
000000 0c 46 1f bc 82 1b a7 ba 1b e9 73 bc cb 40 cf bc
       -0.00972129 -0.0012749287 -0.01488712 -0.02529945
000010 6e 55 83 bc f0 f6 9b bc 5a c6 b6 3c f0 a9 34 3d
       -0.016031947 -0.019038647 0.022311378 0.044107378
000020 57 23 c9 3c c1 3d f6 3c 59 54 59 bc e1 8c f8 bc
       0.024552984 0.030058743 -0.013264739 -0.030340614
000030 cf fa dd 3c ce 93 a5 3c ae 9f fc bc f4 b5 df bc
       0.027097134 0.02021208 -0.03083786 -0.027308442
000040 64 de e4 3b 6e 41 f5 bc 91 42 c3 bc a7 bd 81 3a
       0.006984519 -0.029938426 -0.023835452 0.000989844
000050 b9 00 5b b9 2a ce ef 3b 61 e8 b5 3c e0 05 cd bb
       -0.00020885737 0.007318278 0.022205533 -0.006256804
000060 e7 77 4e bc 25 06 c1 3c 28 13 23 3d 05 83 b9 bc
       -0.012601829 0.0235625 0.03981319 -0.022645483
000070 8f 88 10 bc 8f c7 dd 3c
       -0.008821621 0.027072696

neural_predicates.digit.net.2.weight f4 [2, 30]
000000 66 35 27 3d 07 4c 87 bd 5e 14 21 be 26 85 a2 3d
       0.04082241 -0.06606298 -0.15730426 0.07935552
000010 33 0b 24 3e 98 47 20 3d 4b 9a 64 3e 34 21 e6 3d
       0.16019897 0.039130777 0.22324483 0.11236802
000020 cb ed 0e be 58 da 45 be e6 1f 83 3d 1d a6 12 be
       -0.13957898 -0.19321573 0.064025685 -0.1432118
000030 00 8b 81 bd be b4 42 3e 66 f0 07 3d ff 0d 71 bd
       -0.0632534 0.1901426 0.033188246 -0.05885124
000040 63 85 2b be 64 bc ae bd 75 98 0c be 4c 8a 91 bc
       -0.16750102 -0.085320264 -0.13730033 -0.01776614
000050 79 b6 db 3d 2e 1c a9 bd fe f0 57 3e 43 39 dd bd
       0.10728163 -0.08257328 0.21088025 -0.108019374
000060 9e 1c 5b 3e 63 c2 1e 3e 9b 96 5c 3e 22 e9 f2 bd
       0.21397635 0.1550384 0.21541826 -0.11860873
000070 73 b4 3c be 03 e0 72 3d fb 12 63 be 14 1f 4f 3e
       -0.18428211 0.059295665 -0.22175209 0.20226699
000080 6a 2b 27 be d1 d8 83 3e 8f 48 69 be 59 bf 72 bd
       -0.16325155 0.25751355 -0.22781585 -0.059264515
000090 dc 00 5e 3d 84 e0 72 bd c9 f6 ca 3d 55 bf 13 3e
       0.05420004 -0.059296146 0.09910352 0.14428456
0000a0 27 35 b5 bd 5b 28 27 3e 63 bb e3 3d c3 aa 76 be
       -0.08848029 0.16323988 0.111197256 -0.24088578
0000b0 7c 29 f0 bd 82 c1 b7 3c 12 34 22 3c ac cf d3 3c
       -0.117266625 0.022431139 0.00990011 0.025855862
0000c0 03 18 ee 3d 7a 05 c7 3d 75 24 fa 3b 10 b5 e8 3d
       0.116256736 0.097178414 0.0076337405 0.1136266
0000d0 33 01 c5 bd 9d 10 47 3e 45 c7 ee 3b d4 c0 b6 3d
       -0.09619369 0.19439931 0.0072869384 0.08923498
0000e0 37 8c 01 be 8d 0f 9a 38 37 50 75 bd 1d 4e 50 be
       -0.12651144 7.346189e-05 -0.059890952 -0.20342298

neural_predicates.digit.net.2.bias f4 [2]
000000 77 9e 0c 3e 7f c6 dd bd
       0.13732325 -0.10828876

exp_avg f4 [30, 784]
000000 40 31 ec b7 40 31 ec b7 40 31 ec b7 40 31 ec b7
       -2.8156326e-05 -2.8156326e-05 -2.8156326e-05 -2.8156326e-05
000010 40 31 ec b7 40 31 ec b7 40 31 ec b7 40 31 ec b7
       -2.8156326e-05 -2.8156326e-05 -2.8156326e-05 -2.8156326e-05
000020 40 31 ec b7 40 31 ec b7 40 31 ec b7 40 31 ec b7
       -2.8156326e-05 -2.8156326e-05 -2.8156326e-05 -2.8156326e-05
000030 40 31 ec b7 40 31 ec b7 40 31 ec b7 40 31 ec b7
       -2.8156326e-05 -2.8156326e-05 -2.8156326e-05 -2.8156326e-05
000040 40 31 ec b7 40 31 ec b7 40 31 ec b7 40 31 ec b7
       -2.8156326e-05 -2.8156326e-05 -2.8156326e-05 -2.8156326e-05
000050 40 31 ec b7 40 31 ec b7 40 31 ec b7 40 31 ec b7
       -2.8156326e-05 -2.8156326e-05 -2.8156326e-05 -2.8156326e-05
000060 40 31 ec b7 40 31 ec b7 40 31 ec b7 40 31 ec b7
       -2.8156326e-05 -2.8156326e-05 -2.8156326e-05 -2.8156326e-05
000070 40 31 ec b7 40 31 ec b7 40 31 ec b7 40 31 ec b7
       -2.8156326e-05 -2.8156326e-05 -2.8156326e-05 -2.8156326e-05
000080 40 31 ec b7 40 31 ec b7 40 31 ec b7 40 31 ec b7
       -2.8156326e-05 -2.8156326e-05 -2.8156326e-05 -2.8156326e-05
000090 40 31 ec b7 40 31 ec b7 40 31 ec b7 a2 31 ec b7
       -2.8156326e-05 -2.8156326e-05 -2.8156326e-05 -2.8156504e-05
0000a0 fe 31 ec b7 8d 31 ec b7 8b 28 ec b7 c6 79 ec b7
       -2.8156672e-05 -2.8156466e-05 -2.8152272e-05 -2.8190098e-05
0000b0 f6 1e ed b7 4f a3 ec b7 40 31 ec b7 40 31 ec b7
       -2.8267019e-05 -2.8209439e-05 -2.8156326e-05 -2.8156326e-05
0000c0 40 31 ec b7 40 31 ec b7 40 31 ec b7 40 31 ec b7
       -2.8156326e-05 -2.8156326e-05 -2.8156326e-05 -2.8156326e-05
0000d0 40 31 ec b7 40 31 ec b7 40 31 ec b7 40 31 ec b7
       -2.8156326e-05 -2.8156326e-05 -2.8156326e-05 -2.8156326e-05
0000e0 40 31 ec b7 40 31 ec b7 40 31 ec b7 40 31 ec b7
       -2.8156326e-05 -2.8156326e-05 -2.8156326e-05 -2.8156326e-05
0000f0 40 31 ec b7 40 31 ec b7 ad 31 ec b7 62 31 ec b7
       -2.8156326e-05 -2.8156326e-05 -2.8156524e-05 -2.8156388e-05
000100 40 31 ec b7 40 31 ec b7 23 31 ec b7 43 31 ec b7
       -2.8156326e-05 -2.8156326e-05 -2.8156273e-05 -2.8156332e-05
000110 f6 29 eb b7 bf 5a db b7 c5 cb e7 b7 38 44 eb b7
       -2.8033723e-05 -2.6149091e-05 -2.7632233e-05 -2.804595e-05
000120 76 24 d6 b7 41 d0 b8 b7 f6 9a d7 b7 c8 18 da b7
       -2.5527766e-05 -2.2031485e-05 -2.5702157e-05 -2.5999165e-05
000130 a3 e6 e7 b7 40 31 ec b7 40 31 ec b7 40 31 ec b7
       -2.7644744e-05 -2.8156326e-05 -2.8156326e-05 -2.8156326e-05
000140 40 31 ec b7 40 31 ec b7 40 31 ec b7 40 31 ec b7
       -2.8156326e-05 -2.8156326e-05 -2.8156326e-05 -2.8156326e-05
000150 40 31 ec b7 40 31 ec b7 40 31 ec b7 40 31 ec b7
       -2.8156326e-05 -2.8156326e-05 -2.8156326e-05 -2.8156326e-05
000160 40 31 ec b7 40 31 ec b7 40 31 ec b7 ac 33 ec b7
       -2.8156326e-05 -2.8156326e-05 -2.8156326e-05 -2.8157454e-05
000170 c1 60 e8 b7 18 6a e9 b7 f4 5c ec b7 cf 98 ee b7
       -2.770161e-05 -2.7825168e-05 -2.8176677e-05 -2.8442968e-05
000180 08 8b f4 b7 8a 65 2b b8 e3 a9 18 b8 b9 84 e1 b7
       -2.9151808e-05 -4.0864143e-05 -3.6397843e-05 -2.6883894e-05
000190 ff 34 3e b6 11 ee cb 37 ec 26 5c b6 67 ae da b7
       -2.8343054e-06 2.4310344e-05 -3.280521e-06 -2.6068838e-05
0001a0 92 f5 e7 b7 fd 36 ec b7 79 4c ec b7 d3 49 ec b7
       -2.7651698e-05 -2.8158998e-05 -2.8169003e-05 -2.816777e-05
0001b0 66 54 ec b7 51 3b ec b7 40 31 ec b7 40 31 ec b7
       -2.8172693e-05 -2.8161014e-05 -2.8156326e-05 -2.8156326e-05
0001c0 40 31 ec b7 40 31 ec b7 40 31 ec b7 40 31 ec b7
       -2.8156326e-05 -2.8156326e-05 -2.8156326e-05 -2.8156326e-05
0001d0 40 31 ec b7 d6 2e ec b7 ad 5a ec b7 fa bd ec b7
       -2.8156326e-05 -2.8155202e-05 -2.8175617e-05 -2.8221857e-05
0001e0 0f 76 cc b7 db 1e c0 b7 8e 76 c7 b7 81 3f ce b7
       -2.437367e-05 -2.2902552e-05 -2.3777855e-05 -2.4586685e-05
0001f0 4a 28 e0 b7 89 48 11 b8 9f c2 27 b8 42 b6 01 37
       -2.6721642e-05 -3.4638248e-05 -3.9997158e-05 7.731434e-06
000200 03 df 84 38 8b 96 d1 38 32 3d 84 37 80 fd 4e b7
       6.33579e-05 9.9939374e-05 1.5764123e-05 -1.2337579e-05
000210 e3 c5 f4 b5 cb bb b8 b7 69 ee da b7 ef 95 e9 b7
       -1.8237009e-06 -2.2021957e-05 -2.6098644e-05 -2.7845583e-05
000220 04 32 ed b7 34 32 ec b7 40 31 ec b7 40 31 ec b7
       -2.8275892e-05 -2.815677e-05 -2.8156326e-05 -2.8156326e-05
000230 40 31 ec b7 40 31 ec b7 c5 30 ec b7 5a 32 ec b7
       -2.8156326e-05 -2.8156326e-05 -2.8156102e-05 -2.815684e-05
000240 0d 31 ec b7 a3 42 ec b7 87 34 ef b7 ee 6f 12 b8
       -2.8156233e-05 -2.8164422e-05 -2.851548e-05 -3.4913355e-05
000250 a5 e0 02 b8 28 f7 dd b7 e6 a4 e7 b7 29 7e 2e b8
       -3.120363e-05 -2.6460344e-05 -2.7614133e-05 -4.160233e-05
000260 51 48 39 b8 26 69 3f b8 4a 9c 78 b8 13 ef 1b 35
       -4.4174787e-05 -4.5635876e-05 -5.9273363e-05 5.80899e-07
000270 5d 40 d4 38 db 70 aa 38 b8 2c 57 36 46 92 76 b7
       0.00010120936 8.127253e-05 3.2063526e-06 -1.46968e-05
000280 78 9d 77 b7 e6 f9 ba b7 f7 b1 8e b7 5d d8 8a b7
       -1.4759011e-05 -2.2289296e-05 -1.701059e-05 -1.6551634e-05
000290 90 ce e3 b7 eb 30 ec b7 40 31 ec b7 40 31 ec b7
       -2.7156697e-05 -2.8156172e-05 -2.8156326e-05 -2.8156326e-05
0002a0 40 31 ec b7 40 31 ec b7 1f 31 ec b7 9f 2d ec b7
       -2.8156326e-05 -2.8156326e-05 -2.8156266e-05 -2.8154636e-05
0002b0 9a 31 ec b7 dd ab ec b7 a7 22 f0 b7 8d 82 da b7
       -2.815649e-05 -2.8213422e-05 -2.8626366e-05 -2.6048418e-05
0002c0 a7 c4 bd b7 5e 38 dd b7 b7 3e d7 b7 9e 30 4b b8
       -2.262213e-05 -2.6371501e-05 -2.5659201e-05 -4.844425e-05
0002d0 25 df 40 b8 15 48 46 b8 1a 2d eb b6 9e 6d 34 38
       -4.5984187e-05 -4.727401e-05 -7.0087963e-06 4.3017433e-05
0002e0 e8 82 9f 38 64 83 75 38 27 bd 5d 37 6d 75 2b b7
       7.606094e-05 5.853492e-05 1.3216667e-05 -1.0219735e-05
0002f0 32 33 7c b6 e1 cc cf b7 a6 ef 69 b8 7b 61 4d b8
       -3.7580726e-06 -2.4771727e-05 -5.577472e-05 -4.8966594e-05
000300 60 b4 06 b8 6e 2f ed b7 a2 31 ec b7 40 31 ec b7
       -3.2116077e-05 -2.8274688e-05 -2.8156504e-05 -2.8156326e-05
000310 40 31 ec b7 40 31 ec b7 40 31 ec b7 a6 2e ec b7
       -2.8156326e-05 -2.8156326e-05 -2.8156326e-05 -2.8155115e-05
000320 11 bb 8b b7 20 91 83 b7 01 36 e3 b7 ef dd 80 b7
       -1.66572e-05 -1.5683996e-05 -2.7085656e-05 -1.5362135e-05
000330 af 5c d4 b7 89 31 1b b8 3a 84 0b b8 07 ab 14 b8
       -2.5315529e-05 -3.7001013e-05 -3.3263328e-05 -3.544523e-05
000340 6b 38 af b7 84 15 a2 b7 ad d9 3b 38 13 67 4f 38
       -2.0887897e-05 -1.9321924e-05 4.4787e-05 4.944864e-05
000350 48 68 81 38 bf 4b af 37 07 ac 1e b8 0e e5 ca b7
       6.170623e-05 2.0896898e-05 -3.783035e-05 -2.4186938e-05
000360 3e f9 b1 b6 05 11 0a b8 33 a2 8b b8 27 d1 8c b8
       -5.3040267e-06 -3.2917615e-05 -6.6582485e-05 -6.714678e-05
000370 71 62 5b b8 3c 19 19 b8 40 31 ec b7 43 31 ec b7
       -5.230535e-05 -3.6501544e-05 -2.8156326e-05 -2.8156332e-05
000380 a4 36 ec b7 40 31 ec b7 a8 31 ec b7 47 31 ec b7
       -2.8158836e-05 -2.8156326e-05 -2.8156515e-05 -2.8156339e-05
000390 28 a5 92 b7 be 1e 5d b7 0b d4 c3 b7 f7 18 6d b7
       -1.7481463e-05 -1.3179784e-05 -2.3344552e-05 -1.4132113e-05
0003a0 99 a8 57 36 bc d5 15 b7 41 83 aa b6 1b 9b a9 35
       3.2135633e-06 -8.930856e-06 -5.0816748e-06 1.2636623e-06
0003b0 82 43 5a 37 f7 90 d2 36 fa 54 7f 38 d5 98 09 38
       1.300953e-05 6.275364e-06 6.087588e-05 3.280568e-05
0003c0 7e 39 b3 b7 60 02 21 b8 4b e2 70 b8 2a 01 ba 36
       -2.1365235e-05 -3.8387603e-05 -5.743121e-05 5.5433675e-06
0003d0 16 65 44 b6 de 1a 45 b8 5d ea 7c b8 a5 c0 47 b8
       -2.9265116e-06 -4.6993482e-05 -6.029975e-05 -4.762471e-05
0003e0 63 a4 23 b8 44 bf 0b b8 40 31 ec b7 40 31 ec b7
       -3.9015325e-05 -3.3318312e-05 -2.8156326e-05 -2.8156326e-05
0003f0 40 31 ec b7 40 31 ec b7 37 50 ec b7 31 38 ec b7
       -2.8156326e-05 -2.8156326e-05 -2.8170745e-05 -2.8159558e-05

exp_avg_sq f4 [30, 784]
000000 3f 43 a6 33 3f 43 a6 33 3f 43 a6 33 3f 43 a6 33
       7.7422094e-08 7.7422094e-08 7.7422094e-08 7.7422094e-08
000010 3f 43 a6 33 3f 43 a6 33 3f 43 a6 33 3f 43 a6 33
       7.7422094e-08 7.7422094e-08 7.7422094e-08 7.7422094e-08
000020 3f 43 a6 33 3f 43 a6 33 3f 43 a6 33 3f 43 a6 33
       7.7422094e-08 7.7422094e-08 7.7422094e-08 7.7422094e-08
000030 3f 43 a6 33 3f 43 a6 33 3f 43 a6 33 3f 43 a6 33
       7.7422094e-08 7.7422094e-08 7.7422094e-08 7.7422094e-08
000040 3f 43 a6 33 3f 43 a6 33 3f 43 a6 33 3f 43 a6 33
       7.7422094e-08 7.7422094e-08 7.7422094e-08 7.7422094e-08
000050 3f 43 a6 33 3f 43 a6 33 3f 43 a6 33 3f 43 a6 33
       7.7422094e-08 7.7422094e-08 7.7422094e-08 7.7422094e-08
000060 3f 43 a6 33 3f 43 a6 33 3f 43 a6 33 3f 43 a6 33
       7.7422094e-08 7.7422094e-08 7.7422094e-08 7.7422094e-08
000070 3f 43 a6 33 3f 43 a6 33 3f 43 a6 33 3f 43 a6 33
       7.7422094e-08 7.7422094e-08 7.7422094e-08 7.7422094e-08
000080 3f 43 a6 33 3f 43 a6 33 3f 43 a6 33 3f 43 a6 33
       7.7422094e-08 7.7422094e-08 7.7422094e-08 7.7422094e-08
000090 3f 43 a6 33 3f 43 a6 33 3f 43 a6 33 8b 41 a6 33
       7.7422094e-08 7.7422094e-08 7.7422094e-08 7.7418996e-08
0000a0 ee 3f a6 33 dd 41 a6 33 8b 37 a6 33 d7 d1 a5 33
       7.741606e-08 7.741958e-08 7.7400806e-08 7.721581e-08
0000b0 ff 64 a5 33 d6 d4 a5 33 3f 43 a6 33 3f 43 a6 33
       7.701782e-08 7.722126e-08 7.7422094e-08 7.7422094e-08
0000c0 3f 43 a6 33 3f 43 a6 33 3f 43 a6 33 3f 43 a6 33
       7.7422094e-08 7.7422094e-08 7.7422094e-08 7.7422094e-08
0000d0 3f 43 a6 33 3f 43 a6 33 3f 43 a6 33 3f 43 a6 33
       7.7422094e-08 7.7422094e-08 7.7422094e-08 7.7422094e-08
0000e0 3f 43 a6 33 3f 43 a6 33 3f 43 a6 33 3f 43 a6 33
       7.7422094e-08 7.7422094e-08 7.7422094e-08 7.7422094e-08
0000f0 3f 43 a6 33 3f 43 a6 33 17 43 a6 33 33 43 a6 33
       7.7422094e-08 7.7422094e-08 7.742181e-08 7.742201e-08
000100 3e 43 a6 33 3f 43 a6 33 31 43 a6 33 c3 41 a6 33
       7.742209e-08 7.7422094e-08 7.7421994e-08 7.7419394e-08
000110 9b dc a5 33 ad aa a1 33 96 fc a2 33 70 f9 a3 33
       7.723539e-08 7.5281925e-08 7.589658e-08 7.6356514e-08
000120 6a ff 9d 33 72 19 9d 33 32 d2 a1 33 be 49 a6 33
       7.357342e-08 7.315511e-08 7.535381e-08 7.743391e-08
000130 31 43 a6 33 3f 43 a6 33 3f 43 a6 33 3f 43 a6 33
       7.7421994e-08 7.7422094e-08 7.7422094e-08 7.7422094e-08
000140 3f 43 a6 33 3f 43 a6 33 3f 43 a6 33 3f 43 a6 33
       7.7422094e-08 7.7422094e-08 7.7422094e-08 7.7422094e-08
000150 3f 43 a6 33 3f 43 a6 33 37 43 a6 33 3d 43 a6 33
       7.7422094e-08 7.7422094e-08 7.742204e-08 7.742208e-08
000160 3f 43 a6 33 3f 43 a6 33 3f 43 a6 33 90 43 a6 33
       7.7422094e-08 7.7422094e-08 7.7422094e-08 7.742267e-08
000170 3c b5 a4 33 2a ba a4 33 7a f7 a5 33 78 be a4 33
       7.6698115e-08 7.670708e-08 7.728427e-08 7.671491e-08
000180 58 ac 9e 33 c1 51 90 33 b0 77 8d 33 12 3c 96 33
       7.3887975e-08 6.7203935e-08 6.587595e-08 6.995846e-08
000190 83 ed 92 33 d8 a4 96 33 2e b6 9b 33 67 df a5 33
       6.841858e-08 7.014904e-08 7.250888e-08 7.724048e-08
0001a0 d4 f7 a5 33 7c eb a5 33 c7 0f a6 33 6d 41 a6 33
       7.728491e-08 7.7262456e-08 7.732847e-08 7.741878e-08
0001b0 0a 42 a6 33 ea 42 a6 33 3f 43 a6 33 3f 43 a6 33
       7.74199e-08 7.742149e-08 7.7422094e-08 7.7422094e-08
0001c0 3f 43 a6 33 3f 43 a6 33 1e 43 a6 33 38 43 a6 33
       7.7422094e-08 7.7422094e-08 7.742186e-08 7.7422044e-08
0001d0 37 43 a6 33 61 40 a6 33 9b 3e a6 33 04 35 a6 33
       7.742204e-08 7.741688e-08 7.741365e-08 7.739621e-08
0001e0 36 eb 9c 33 59 b8 9a 33 d5 1c 9c 33 70 a9 97 33
       7.307101e-08 7.2047165e-08 7.2695606e-08 7.062306e-08
0001f0 be 9e 8c 33 26 9d 5d 33 5e dd 55 33 2b 3d 54 33
       6.548133e-08 5.1598498e-08 4.979426e-08 4.941573e-08
000200 94 da 3e 33 2c 7f 54 33 3b 82 3d 33 ef 7d 50 33
       4.4436618e-08 4.947576e-08 4.4123436e-08 4.854331e-08
000210 7c 57 81 33 08 ba 91 33 60 4e 9f 33 93 1b a3 33
       6.022944e-08 6.7859276e-08 7.418271e-08 7.595295e-08
000220 61 a8 a5 33 35 43 a6 33 3f 43 a6 33 3f 43 a6 33
       7.714039e-08 7.742202e-08 7.7422094e-08 7.7422094e-08
000230 3f 43 a6 33 3f 43 a6 33 d3 42 a6 33 59 42 a6 33
       7.7422094e-08 7.7422094e-08 7.7421326e-08 7.742046e-08
000240 12 41 a6 33 85 24 a6 33 44 cf a5 33 55 a8 a3 33
       7.7418136e-08 7.73662e-08 7.7211126e-08 7.6208984e-08
000250 19 6a 97 33 e4 9d 92 33 a4 b9 92 33 b7 2a 8a 33
       7.0507845e-08 6.827375e-08 6.8324226e-08 6.4338955e-08
000260 2d e7 62 33 a5 9c 39 33 9b 50 14 33 2a 59 1a 33
       5.282998e-08 4.3216136e-08 3.4532246e-08 3.5937013e-08
000270 8b 69 23 33 40 7b f3 32 a2 a1 f7 32 66 ed 04 33
       3.8047386e-08 2.834497e-08 2.8828087e-08 3.0949558e-08
000280 2e ac 32 33 af dc 67 33 ad de 8a 33 23 d5 94 33
       4.160045e-08 5.398459e-08 6.46663e-08 6.9305564e-08
000290 80 a8 a3 33 d3 3c a6 33 04 43 a6 33 3f 43 a6 33
       7.620929e-08 7.741041e-08 7.7421674e-08 7.7422094e-08
0002a0 3f 43 a6 33 3f 43 a6 33 27 43 a6 33 75 42 a6 33
       7.7422094e-08 7.7422094e-08 7.742192e-08 7.742066e-08
0002b0 28 43 a6 33 4a 0c a6 33 c1 d9 a1 33 6b da 9a 33
       7.742193e-08 7.732213e-08 7.536756e-08 7.210914e-08
0002c0 ac a8 94 33 32 e2 8e 33 72 67 8c 33 cd fc 81 33
       6.922468e-08 6.653535e-08 6.5380746e-08 6.053015e-08
0002d0 58 c5 3f 33 b3 f4 13 33 61 87 0c 33 4b fb 42 33
       4.4650136e-08 3.4448657e-08 3.2719417e-08 4.5397694e-08
0002e0 3c 1c f7 32 ce 8c 05 33 1c 32 08 33 04 57 0a 33
       2.8767424e-08 3.1094537e-08 3.171054e-08 3.220977e-08
0002f0 f6 fb 1f 33 df 19 51 33 76 f1 7e 33 8d 18 96 33
       3.724923e-08 4.8685134e-08 5.935859e-08 6.989385e-08
000300 a4 af a2 33 3d 2c a6 33 06 43 a6 33 3f 43 a6 33
       7.575662e-08 7.738024e-08 7.742169e-08 7.7422094e-08
000310 3f 43 a6 33 3f 43 a6 33 3e 43 a6 33 31 43 a6 33
       7.7422094e-08 7.7422094e-08 7.742209e-08 7.7421994e-08
000320 25 c8 a6 33 c5 48 a5 33 40 f0 9c 33 48 5b 97 33
       7.7663834e-08 7.696648e-08 7.308017e-08 7.0480894e-08
000330 d7 b6 94 33 84 cb 91 33 2f 3d 89 33 66 9a 76 33
       6.9250454e-08 6.789108e-08 6.390689e-08 5.7416763e-08
000340 c3 41 2b 33 7c 9c 14 33 a9 48 21 33 d4 1b 28 33
       3.987385e-08 3.4601257e-08 3.7551818e-08 3.9140858e-08
000350 1c aa 0c 33 c1 3e dc 32 a6 87 02 33 9d 29 00 33
       3.2751004e-08 2.5639908e-08 3.0391355e-08 2.984017e-08
000360 03 35 23 33 59 80 46 33 81 35 7e 33 88 cd 93 33
       3.799961e-08 4.62172e-08 5.9187645e-08 6.882607e-08
000370 aa 8e 9f 33 f6 20 a1 33 30 43 a6 33 3f 43 a6 33
       7.429965e-08 7.503142e-08 7.742199e-08 7.7422094e-08
000380 74 2a a6 33 3f 43 a6 33 38 43 a6 33 3f 43 a6 33
       7.7376995e-08 7.7422094e-08 7.7422044e-08 7.7422094e-08
000390 0b b8 a6 33 b0 ce a6 33 8b 7a 9b 33 be 4c 94 33
       7.7634546e-08 7.7675736e-08 7.2400404e-08 6.9057464e-08
0003a0 ac 20 8d 33 12 29 8b 33 51 a3 79 33 a0 f4 50 33
       6.571767e-08 6.4801625e-08 5.8123366e-08 4.865126e-08
0003b0 5a c6 0f 33 17 23 0f 33 9b f6 07 33 44 4d 19 33
       3.347518e-08 3.3326696e-08 3.1656423e-08 3.569336e-08
0003c0 cb 87 29 33 0f 71 02 33 04 cb f0 32 06 5e fe 32
       3.947188e-08 3.037081e-08 2.8031998e-08 2.9612249e-08
0003d0 2a f9 31 33 93 de 57 33 f9 f7 85 33 85 b9 94 33
       4.1437637e-08 5.026102e-08 6.238401e-08 6.925533e-08
0003e0 97 4c a3 33 34 48 a5 33 3f 43 a6 33 3f 43 a6 33
       7.6042106e-08 7.696545e-08 7.7422094e-08 7.7422094e-08
0003f0 3f 43 a6 33 34 43 a6 33 bc 3f a6 33 6b 42 a6 33
       7.7422094e-08 7.7422015e-08 7.7415706e-08 7.742059e-08

exp_avg f4 [30]
000000 40 31 ec 37 9a 77 ea b7 00 00 00 00 a1 17 9d b7
       2.8156326e-05 -2.7950668e-05 0.0 -1.8726862e-05
000010 10 49 2d 38 00 00 00 00 ef 3c 9a 37 17 c3 9c 37
       4.131446e-05 0.0 1.8386605e-05 1.8687495e-05
000020 da 03 d4 b7 c5 cc 13 b8 00 00 00 00 af 46 06 b8
       -2.5274163e-05 -3.5238238e-05 0.0 -3.201392e-05
000030 97 39 97 b7 32 62 41 38 00 00 00 00 00 00 00 00
       -1.802742e-05 4.6106237e-05 0.0 0.0
000040 89 6d 99 b7 6b 63 3f b7 00 00 00 00 06 ea 49 b7
       -1.8290028e-05 -1.1407635e-05 0.0 -1.2035021e-05
000050 00 00 00 00 42 09 aa b7 3a ed 09 38 2c 78 04 b8
       0.0 -2.026989e-05 3.288428e-05 -3.158317e-05
000060 87 af ba 37 00 00 00 00 ee d3 19 38 00 00 00 00
       2.2254664e-05 0.0 3.6675418e-05 0.0
000070 f0 41 59 b7 8e e6 ec 37
       -1.294956e-05 2.8240753e-05

exp_avg_sq f4 [30]
000000 3f 43 a6 33 27 56 bd 33 00 00 00 00 c5 0a ee 32
       7.7422094e-08 8.816669e-08 0.0 2.7711744e-08
000010 5f 57 41 34 00 00 00 00 70 7d de 32 d5 c0 0c 33
       1.8006311e-07 0.0 2.5901244e-08 3.277167e-08
000020 0a f6 65 33 37 20 1e 34 00 00 00 00 82 3f 03 34
       5.354199e-08 1.4726616e-07 0.0 1.222343e-07
000030 b2 b5 15 33 52 3d 7b 34 00 00 00 00 00 00 00 00
       3.4857017e-08 2.3398505e-07 0.0 0.0
000040 84 63 22 33 d7 3d 4f 32 00 00 00 00 87 3a 19 32
       3.7809073e-08 1.2063047e-08 0.0 8.91908e-09
000050 00 00 00 00 b2 ed 46 33 95 49 f3 33 94 7b f6 33
       0.0 4.631665e-08 1.1328954e-07 1.14777464e-07
000060 de 36 49 33 00 00 00 00 67 ff 18 34 00 00 00 00
       4.684886e-08 0.0 1.4249018e-07 0.0
000070 c7 19 51 32 df b7 a9 33
       1.2171262e-08 7.903122e-08

exp_avg f4 [2, 30]
000000 0d 33 3f b9 86 08 3d 3a 00 00 00 00 26 a5 9c 3a
       -0.00018234197 0.0007211048 0.0 0.0011951074
000010 29 55 62 b9 00 00 00 00 be e2 00 ba 26 37 09 b9
       -0.00021584764 0.0 -0.00049166 -0.00013085883
000020 e5 15 0c 3b 5b d1 2b 3a 00 00 00 00 3b 57 3f 3a
       0.0021375355 0.0006554329 0.0 0.000729907
000030 78 d8 38 3a 48 c0 29 b9 00 00 00 00 00 00 00 00
       0.00070512993 -0.00016188726 0.0 0.0
000040 b0 0d 62 3a 00 7c 24 3a 00 00 00 00 cd fd 6b 3a
       0.00086232554 0.0006274581 0.0 0.0009002358
000050 00 00 00 00 f1 6d 58 3a 63 e4 43 b9 54 a8 30 3a
       0.0 0.00082561286 -0.0001868173 0.000673895
000060 1c ef 17 b9 00 00 00 00 89 c0 44 b9 00 00 00 00
       -0.00014489557 0.0 -0.00018763742 0.0
000070 92 3a 91 3a 34 67 72 b9 45 38 3f 39 76 08 3d ba
       0.0011080077 -0.00023117365 0.00018236141 -0.00072110386
000080 00 00 00 00 11 a5 9c ba 74 5a 62 39 00 00 00 00
       0.0 -0.0011951049 0.00021586736 0.0
000090 9d e4 00 3a 9b 3c 09 39 da 15 0c bb 48 d1 2b ba
       0.00049168785 0.00013087915 -0.002137533 -0.00065543177
0000a0 00 00 00 00 1b 57 3f ba 67 d8 38 ba 92 c6 29 39
       0.0 -0.00072990515 -0.00070512894 0.00016191069
0000b0 00 00 00 00 00 00 00 00 98 0d 62 ba f0 7b 24 ba
       0.0 0.0 -0.00086232414 -0.00062745716
0000c0 00 00 00 00 b5 fd 6b ba 00 00 00 00 da 6d 58 ba
       0.0 -0.0009002344 0.0 -0.0008256115
0000d0 66 e9 43 39 36 a8 30 ba 98 f4 17 39 00 00 00 00
       0.00018683597 -0.00067389326 0.000144916 0.0
0000e0 71 c5 44 39 00 00 00 00 86 3a 91 ba 42 6d 72 39
       0.00018765569 0.0 -0.0011080063 0.0002311962

exp_avg_sq f4 [2, 30]
000000 c4 4c cb 36 b8 87 26 37 00 00 00 00 89 db 1f 37
       6.058808e-06 9.9259705e-06 0.0 9.528253e-06
000010 f3 18 a5 36 00 00 00 00 94 50 cb 37 bc 83 8a 37
       4.9202877e-06 0.0 2.4237008e-05 1.6512226e-05
000020 c0 10 fa 37 29 04 27 37 00 00 00 00 a2 47 52 37
       2.9810122e-05 9.954944e-06 0.0 1.2533654e-05
000030 55 92 34 37 3b b1 96 37 00 00 00 00 00 00 00 00
       1.0762907e-05 1.7963923e-05 0.0 0.0
000040 81 df 8a 37 85 84 e1 36 00 00 00 00 da 6d ae 36
       1.6554959e-05 6.72095e-06 0.0 5.1983925e-06
000050 00 00 00 00 70 dd 47 37 be fa cc 36 a5 20 f6 36
       0.0 1.1912882e-05 6.108864e-06 7.3351716e-06
000060 95 27 d1 36 00 00 00 00 31 b1 ff 36 00 00 00 00
       6.2332933e-06 0.0 7.62022e-06 0.0
000070 64 b3 53 37 19 48 07 37 c3 4c cb 36 ba 87 26 37
       1.2618348e-05 8.063414e-06 6.0588077e-06 9.925972e-06
000080 00 00 00 00 84 db 1f 37 f2 18 a5 36 00 00 00 00
       0.0 9.5282485e-06 4.920287e-06 0.0
000090 93 50 cb 37 b8 83 8a 37 bd 10 fa 37 2a 04 27 37
       2.4237006e-05 1.6512218e-05 2.9810117e-05 9.954945e-06
0000a0 00 00 00 00 a0 47 52 37 57 92 34 37 3a b1 96 37
       0.0 1.2533652e-05 1.07629085e-05 1.7963921e-05
0000b0 00 00 00 00 00 00 00 00 80 df 8a 37 83 84 e1 36
       0.0 0.0 1.6554957e-05 6.720949e-06
0000c0 00 00 00 00 d2 6d ae 36 00 00 00 00 6a dd 47 37
       0.0 5.198389e-06 0.0 1.1912876e-05
0000d0 b6 fa cc 36 a7 20 f6 36 89 27 d1 36 00 00 00 00
       6.1088604e-06 7.3351725e-06 6.233288e-06 0.0
0000e0 35 b1 ff 36 00 00 00 00 5a b3 53 37 15 48 07 37
       7.620222e-06 0.0 1.2618339e-05 8.06341e-06

exp_avg f4 [2]
000000 cf 36 dd 38 36 35 dd b8
       0.0001054831 -0.000105480125

exp_avg_sq f4 [2]
000000 32 f7 bb 35 43 f7 bb 35
       1.4004529e-06 1.4004548e-06
