nesy/e3dtlf3s/checkpoints/epoch=9-step=600.ckpt (torch, 291683 bytes, 12 tensors)

neural_predicates.digit.net.0.weight f4 [30, 784]
-0.0020591218 -0.035662714 -0.0450011 -0.021488858 -0.059784442 -0.0146726575 -0.055926368 -0.058869615
-0.0138145955 -0.005576847 -0.02990847 0.0064307125 -0.058683548 0.001280671 -0.025531597 0.002919687
-0.018599832 -0.052485783 -0.05845668 0.0073553785 -0.018458754 -0.041914802 -0.018323807 -0.0009634751
0.0020227495 -0.031063601 -0.014094227 -0.041190483 0.00746794 -0.042614575 -0.05421413 -0.023554191
-0.027099507 -0.054794643 -0.0039033715 -0.056578517 -0.0021034165 -0.054216173 -0.027456794 -0.029906377
0.003498238 -0.013115021 0.00088371715 -0.0007113974 0.013154827 0.0029032542 -0.05187701 -0.016400354
-0.030707913 -0.016483946 -0.009877826 -0.035655778 -0.00915081 -0.048859432 -0.013138252 -0.008945834
-0.059750233 -0.055872835 -0.009662659 -0.05632356 -0.062144447 0.008690432 -0.038718283 0.007314413
-0.052176178 0.0007341083 -0.032607764 -0.013715642 0.012215676 0.005749288 -0.029101087 -0.038568676
0.003458128 -0.016436666 -0.029725108 -0.057648215 -0.017503405 -0.061232507 -0.011176113 -0.009083638
-0.050420962 0.006135787 -0.05352816 0.0031098332 -0.028105283 -0.018750973 -0.060858835 0.007114996
-0.05016035 0.00980804 -0.03945111 -0.04628583 -0.010127131 -0.008164415 0.030242095 0.05151927
0.03257541 0.03880274 -0.0023803622 0.00022581985 0.030341174 0.013746656 0.0022550167 -0.021153152
-0.010279551 -0.06121238 -0.0547691 -0.0026988697 -0.05725441 -0.022464808 -0.01376871 -0.0061415606
0.006345915 -0.051823776 -0.024530191 -0.026549699 -0.03302158 -0.059313606 0.0009737846 0.007322462
-0.021070724 0.029302733 0.029571129 0.0916504 0.055252306 0.03475931 0.06587374 0.07250011
0.075891115 0.042443927 -0.02123892 -0.056749385 -0.071436435 -0.07965152 -0.039595228 -0.05571532
-0.010271589 -0.058810275 -0.038296275 -0.04311239 -0.036499154 -0.053561676 -0.029617887 0.0036578884
-0.05358307 -0.037689 0.020524124 0.04029746 0.052386813 0.026252382 0.062984265 0.089673325
0.040320225 0.042297456 0.035254803 0.04075363 0.062170204 0.021499548 0.0025299792 -0.016887616
-0.10289677 -0.08244198 -0.10438917 -0.09817465 -0.062407877 -0.008387967 -0.033339232 -0.0155079
0.001283948 -0.038321164 -0.03208536 -0.028721057 0.006299544 -0.030877331 0.03180521 0.06731954
0.041337196 0.094544515 0.05209608 0.061593674 0.038147714 0.066483766 0.08114698 0.057092514
0.06835004 0.077951565 0.033980165 -0.011508 -0.018458612 -0.0016115562 -0.061242606 -0.109720476
-0.062081832 -0.018202856 -0.029046182 0.0030030995 -0.056371696 -0.045458294 -0.00088279287 -0.0292899
-0.039751172 -0.014996337 0.022746367 0.05324075 0.03941718 0.03197588 0.048733257 0.051314358
0.062098037 0.085026376 0.075920984 0.070750415 0.033694983 0.08139443 0.047154307 0.011672188
-0.010726831 -0.028083675 -0.00086376123 -0.039836816 -0.039988067 -0.030563412 -0.030265165 -0.019230565
-0.027257044 -0.0009653079 -0.022482045 -0.029686239 0.013414942 -0.0012770797 -0.014571742 0.035804626
0.071212746 0.07243783 0.08326231 0.041079897 0.017644228 0.050639335 0.06783159 0.058405932
0.09180988 0.05114745 0.012904103 0.020619182 0.036807675 0.03462791 0.007041773 -0.06637515
-0.006302142 -0.033504482 -0.022289755 -0.026470847 -0.050613534 0.008338151 -0.057095915 0.001565924
00000000: 55f2 06bb 1113 12bd 1353 38bd 6709 b0bc
00000010: 88e0 74bd 9665 70bc 0c13 65bd 4421 71bd
00000020: 9d56 62bc fcbd b6bb 9c02 f5bc bab8 d23b
00000030: 295e 70bd 30dc a73a a427 d1bc 3858 3f3b
00000040: ad5e 98bc 55fb 56bd 4670 6fbd 6305 f13b
00000050: d036 97bc dbae 2bbd cf1b 96bc b891 7cba
00000060: 1b90 043b 1879 febc 79eb 66bc 5ab7 28bd
00000070: 9fb5 f43b 9f8c 2ebd a30f 5ebd b8f4 c0bc
00000080: c9ff ddbc 5970 60bd b5cf 7fbb e0be 67bd
00000090: 79d9 09bb c711 5ebd 12ed e0bc 38fe f4bc
000000a0: b242 653b 63e0 56bc 41a9 673a 127d 3aba
000000b0: 5887 573c 8644 3e3b fd7c 54bd 095a 86bc
000000c0: 298f fbbc 5709 87bc 9bd6 21bc cb0b 12bd
000000d0: 47ed 15bc d420 48bd d341 57bc 8c91 12bc
000000e0: a9bc 74bd eada 64bd 2150 1ebc 89b3 66bd
000000f0: 2d8b 7ebd 5062 0e3c 1097 1ebd bead ef3b
00000100: b0b6 55bd 2d71 403a b88f 05bd 92b7 60bc
00000110: 4224 483c 8664 bc3b 6765 eebc 30fa 1dbd
00000120: c3a1 623b 30a6 86bc 1282 f3bc 8920 6cbd
00000130: 4d63 8fbc f0ce 7abd 041c 37bc 8ad3 14bc
00000140: 3686 4ebd b60e c93b 5840 5bbd 58ce 4b3b
00000150: 0d3d e6bc a49b 99bc 1d47 79bd ea24 e93b
00000160: f074 4dbd e7b1 203c 7d97 21bd 3696 3dbd
00000170: 44ec 25bc 0ac4 05bc 45be f73c df05 533d
00000180: cb6d 053d 9fef 1e3d daff 1bbb 0eca 6c39
00000190: 0e8e f83c a739 613c e7c8 133b 6049 adbc
000001a0: 906b 28bc d5b9 7abd 9055 60bd 85df 30bb
000001b0: 9a83 6abd 1e08 b8bc 2896 61bc 253f c9bb
000001c0: 65f1 cf3b 2b45 54bd 8af3 c8bc c17e d9bc
000001d0: a341 07bd d3f2 72bd 9445 7f3a 43f1 ef3b
000001e0: 839c acbc 490c f03c 273f f23c 34b3 bb3d
000001f0: 3e50 623d c75f 0e3d d0e8 863d f07a 943d
00000200: cd6c 9b3d afd9 2d3d 3efd adbc 0b72 68bd
00000210: 444d 92bd 5620 a3bd 9b2e 22bd bf35 64bd
00000220: 2b4a 28bc 0be3 70bd 8edc 1cbd 9e96 30bd
00000230: 2380 15bd 7d63 5bbd 36a1 f2bc 2fb9 6f3b
00000240: ec79 5bbd c85f 1abd 3522 a83c f30e 253d
00000250: 8e93 563d 3c0f d73c e5fd 803d a6a6 b73d
00000260: d226 253d 1940 2d3d 5767 103d 47ed 263d
00000270: 2fa6 7e3d d21f b03c 02ce 253b e657 8abc
00000280: 8bbb d2bd 57d7 a8bd fdc9 d5bd ca0f c9bd
00000290: 679f 7fbd af6d 09bc b88e 08bd d914 7ebc
000002a0: 254a a83a a7f6 1cbd f06b 03bd 6c48 ebbc
000002b0: 686c ce3b 75f2 fcbc 2e46 023d d4de 893d
000002c0: 3151 293d 8ea0 c13d b362 553d a649 7c3d
000002d0: c740 1c3d a428 883d 6330 a63d d7d9 693d
000002e0: 1bfb 8b3d 12a5 9f3d c92e 0b3d 0d8c 3cbc
000002f0: 8436 97bc da3a d3ba 87d9 7abd 21b5 e0bd
00000300: 8549 7ebd 281e 95bc 42f2 edbc a6cf 443b
00000310: 02e6 66bd 7a32 3abd 3a6b 67ba 5ff1 efbc
00000320: 20d2 22bd 32b3 75bc 9756 ba3c f912 5a3d
00000330: e973 213d 24f9 023d 869c 473d 012f 523d
00000340: 835a 7e3d 4f22 ae3d 767c 9b3d 98e5 903d
00000350: c003 0a3d 1fb2 a63d e024 413d b43c 3f3c
00000360: 97bf 2fbc bc0f e6bc 096e 62ba ee2b 23bd
00000370: 87ca 23bd 1f60 fabc a7ee f7bc 6b89 9dbc
00000380: 2a4a dfbc b70c 7dba 442c b8bc 8e30 f3bc
00000390: 58ca 5b3c af63 a7ba 51be 6ebc dfa7 123d
000003a0: fdd7 913d 495a 943d 6e85 aa3d 6543 283d
000003b0: a18a 903c 316b 4f3d 4aeb 8a3d 0f3b 6f3d
000003c0: d206 bc3d fd7f 513d bb6b 533c 8fe9 a83c
000003d0: a5c3 163d ffd5 0d3d acbe e63b b2ef 87bd
000003e0: 3382 cebb ff3b 09bd 0199 b6bc 64d9 d8bc
000003f0: 2350 4fbd bd9c 083c 68dd 69bd b13f cd3a

neural_predicates.digit.net.0.bias f4 [30]
0.0555386 0.02978744 -0.003906039 0.0022879408 0.014842218 -0.031144183 -0.03616824 -0.026370548
-0.023962703 0.0062326435 0.0051127644 -0.009025004 0.00022143865 -0.03004101 0.01809112 0.029740252
-0.0059000463 0.027318718 0.038087513 0.0015795471 -0.005285689 0.011966343 0.01758353 -0.027396893
0.0014554732 0.039507493 -0.04176171 -0.030420735 0.0056367544 0.027100615
00000000: 717c 633d ca04 f43c 76fc 7fbb 47f1 153b
00000010: c62c 733c 1622 ffbc 2625 14bd 0c07 d8bc
00000020: 6e4d c4bc 343b cc3b fa88 a73b 9cdd 13bc
00000030: fc31 6839 9018 f6bc d433 943c d4a1 f33c
00000040: 2d55 c1bb 81cb df3c a701 1c3d ce08 cf3a
00000050: 9333 adbb 7b0e 443c 560b 903c 736f e0bc
00000060: 94c5 be3a 9cd2 213d 540e 2bbd e834 f9bc
00000070: 86b4 b83b 1c02 de3c

neural_predicates.digit.net.2.weight f4 [5, 30]
0.04668907 0.06978402 -0.02227777 0.20042332 -0.2511317 0.16551961 0.17854393 0.09381813
-0.031096265 -0.19889848 -0.081788026 -0.23900248 -0.30120778 0.080190845 -0.083236955 0.2695762
-0.28226113 -0.19205473 0.2510507 0.12607282 0.13819037 0.21631686 0.0037626342 0.1172507
-0.15836133 -0.042957112 -0.09538228 -0.041815955 0.16574521 -0.21670322 -0.24321558 0.17603572
-0.04408591 -0.21697803 0.05458178 0.033036973 -0.12538661 0.11203036 -0.0005540115 -0.16595422
0.19651492 0.07601514 0.2151433 0.1687373 -0.055849776 -0.31974456 0.24146438 0.18693413
-0.029890275 0.20111206 0.05093533 0.12774982 0.118039556 -0.029716618 0.08114403 0.22343056
0.025289688 0.15879023 -0.1816581 -0.0976057 0.06486025 0.18889564 0.074940674 0.13563068
0.16448598 -0.066101864 -0.008577506 -0.3871072 -0.23103613 0.026491605 0.0028100861 -0.19454269
0.07048876 -0.18178748 0.1749781 0.22586453 -0.12431484 0.29108056 -0.14694309 0.037723865
0.032097496 -0.11225515 -0.047260467 -0.23004223 0.08219468 -0.20991929 0.12942651 -0.1432558
-0.03583764 0.1522066 0.15454362 0.10057855 -0.17081666 0.03781013 -0.02289443 -0.24414979
-0.052230094 -0.045626745 0.078362375 0.19107626 -0.20999289 -0.115862906 0.14033717 0.21368764
-0.1238795 -0.3431481 0.15194522 -0.24907617 -0.063631654 0.028965391 0.019475186 -0.27954704
0.040200498 0.06231559 -0.19997081 0.13511626 -0.034409277 -0.20361286 0.13162936 0.21603385
-0.1693904 -0.18713552 -0.027808534 0.16791679 0.12037466 0.20456702 0.14857976 0.078966826
0.08562425 -0.0006823367 -0.23833062 0.23929916 -0.19769813 0.25404373 0.06259253 -0.19069839
-0.14392677 -0.14537355 0.13134256 -0.19297655 -0.13900608 0.22041199 0.017918346 -0.0881854
0.08522241 -0.24270014 0.15279001 0.18459328 -0.22542165 0.074394025
00000000: 0a3d 3f3d edea 8e3d df7f b6bc c53b 4d3e
00000010: 5694 80be f97d 293e 38d4 363e b823 c03d
00000020: 98bd febc 0bac 4bbe 7b80 a7bd 11bd 74be
00000030: e837 9abe 193b a43d 2378 aabd e405 8a3e
00000040: 8884 90be ffa9 44be b889 803e 3c19 013e
00000050: c781 0d3e 2b82 5d3e 8796 763b 2321 f03d
00000060: 7929 22be ccf3 2fbd c957 c3bd 3547 2bbd
00000070: 1db9 293e 73e7 5dbe 810d 79be b542 343e
00000080: 6d93 34bd 7d2f 5ebe 2591 5f3d c751 073d
00000090: 5965 00be 2c70 e53d 153b 11ba e7ef 29be
000000a0: 353b 493e d3ad 9b3d 864e 5c3e 79c9 2c3e
000000b0: bcc2 64bd 8fb5 a3be 7042 773e a96b 3f3e
000000c0: 73dc f4bc 52f0 4d3e 91a1 503d d9d0 023e
000000d0: b9be f13d 4470 f3bc d72e a63d fbca 643e
000000e0: 522c cf3c e899 223e 9504 3abe 7fe5 c7bd
000000f0: 73d5 843d dc6d 413e 7f7a 993d c5e2 0a3e
00000100: 036f 283e 6a60 87bd ab88 0cbc ea32 c6be
00000110: bc94 6cbe ec04 d93c 6c29 383b 3336 47be
00000120: 695c 903d 7f26 3abe 762d 333e 0849 673e
00000130: c798 febd 8308 953e 4078 16be 5784 1a3d
00000140: aa78 033d 07e6 e5bd 3194 41bd 3190 6bbe
00000150: af55 a83d 15f5 56be 6288 043e a6b1 12be
00000160: 7dca 12bd 0cdc 1b3e af40 1e3e 20fc cd3d
00000170: 90ea 2ebe cbde 1a3d 1a8d bbbc 6702 7abe
00000180: 39ef 55bd 1ce3 3abd 747c a03d 7fa9 433e
00000190: 6008 57be 8849 edbd 8cb4 0f3e efd0 5a3e
000001a0: 89b4 fdbd 1cb1 afbe 8797 1b3e d30d 7fbe
000001b0: 5051 82bd d448 ed3c 6d8a 9f3c ca20 8fbe
000001c0: 47a9 243d a23e 7f3d 26c5 4cbe eb5b 0a3e
000001d0: bef0 0cbd e47f 50be d9c9 063e fa37 5d3e
000001e0: ad74 2dbe 74a0 3fbe b9ce e3bc 61f2 2b3e
000001f0: fd86 f63d 047a 513e 4b25 183e 5cb9 a13d
00000200: c45b af3d d7de 32ba f10c 74be d70a 753e
00000210: 6171 4abe 0512 823e 8330 803d 7046 43be
00000220: 8a61 13be cedc 14be aa7e 063e a59b 45be
00000230: 9c57 0ebe aeb3 613e 7fc9 923c 8c9a b4bd
00000240: 1689 ae3d 6386 78be fc74 1c3e 0506 3d3e
00000250: efd4 66be e55b 983d

neural_predicates.digit.net.2.bias f4 [5]
0.045938846 -0.16772977 0.039376568 0.00360917 -0.039891355
00000000: 5f2a 3c3d 5ac1 2bbe 5349 213d d387 6c3b
00000010: 1e65 23bd

exp_avg f4 [30, 784]
-0.0009250731 -0.0009250731 -0.0009250731 -0.0009250731 -0.0009250731 -0.0009250731 -0.0009250731 -0.0009250731
-0.0009250731 -0.0009250731 -0.0009250731 -0.0009250731 -0.00092519156 -0.0009276312 -0.0009276312 -0.0009251797
-0.0009250731 -0.0009250731 -0.0009250731 -0.0009250731 -0.0009250731 -0.0009250731 -0.0009250731 -0.0009250731
-0.0009250731 -0.0009250731 -0.0009250731 -0.0009250731 -0.0009250731 -0.0009250731 -0.0009250731 -0.0009250731
-0.0009250731 -0.0009250731 -0.0009250731 -0.0009250737 -0.00092510233 -0.00092510576 -0.000925076 -0.000925161
-0.000925345 -0.00092340494 -0.00090593065 -0.000932317 -0.00094305375 -0.000933228 -0.0009251488 -0.0009250731
-0.0009250731 -0.0009250731 -0.0009250731 -0.0009250731 -0.0009250731 -0.0009250731 -0.0009250731 -0.0009250731
-0.0009250731 -0.0009250731 -0.0009250731 -0.00092531065 -0.000925155 -0.00092507305 -0.00092511385 -0.0009254419
-0.0009258848 -0.0009277811 -0.00093139696 -0.00093759014 -0.0009132664 -0.00086020835 -0.00090655475 -0.0009098673
-0.0008480113 -0.0008017017 -0.0009249283 -0.0009008912 -0.0009175861 -0.00092504284 -0.00092502654 -0.0009251566
-0.00092511997 -0.00092507934 -0.0009250731 -0.0009250731 -0.0009250731 -0.0009250731 -0.00092507293 -0.0009257612
-0.0009254032 -0.0009372925 -0.0009416419 -0.00096324424 -0.00096470973 -0.0009942959 -0.0010368616 -0.0011258041
-0.0012870947 -0.001300221 -0.0013988569 -0.0011543394 -0.00072521553 -0.0007042547 -0.00094443955 -0.0010571477
-0.0009590027 -0.00091803964 -0.00092023064 -0.0009218287 -0.00092509744 -0.0009251472 -0.0009250731 -0.0009250731
-0.0009250731 -0.00092507317 -0.0009250754 -0.00092535093 -0.0009226807 -0.0009215103 -0.0009212794 -0.0009447271
-0.0009032023 -0.0009988132 -0.0012928892 -0.0014581534 -0.0013091862 -0.001062888 -0.0010455895 -0.0005322591
-0.0002569036 -0.00014195261 -0.00047905228 -0.00072228914 -0.0005869669 -0.0006502237 -0.0008187638 -0.0008198754
-0.00078262115 -0.0008318912 -0.0009249631 -0.0009250731 -0.0009250731 -0.0009250731 -0.0009250527 -0.0009261794
-0.0009195083 -0.0009422261 -0.0009517348 -0.00089429494 -0.00075603864 -0.00096231984 -0.0012295607 -0.0013255933
-0.00068259693 1.930221e-05 -2.5253423e-05 -0.00016020815 -0.00027896432 -2.302e-05 -6.7222114e-05 -0.00029193363
-0.0002616396 -0.00042568558 -0.0007916084 -0.00071181334 -0.0008083321 -0.00092789606 -0.00092485786 -0.0009250731
-0.0009250731 -0.0009250759 -0.0009275152 -0.00091464544 -0.00090911484 -0.00097126665 -0.000989125 -0.0010387683
-0.00096058846 -0.0009856281 -0.0010403815 -0.0006778545 -2.6518448e-05 -0.0002325368 -0.00023540549 -0.00016174723
2.5693758e-05 4.3677977e-05 -4.4759476e-05 -0.0004088041 -0.00025256482 -0.00051263487 -0.00085510523 -0.0005976374
-0.00077332224 -0.00092156994 -0.00092397316 -0.00092507753 -0.0009250731 -0.0009252569 -0.00093252875 -0.0008571789
-0.00094749726 -0.0010147555 -0.0011070506 -0.00086921087 -0.00090053305 -0.0010257731 -0.000955002 -0.00060038007
-0.00030934883 -3.5518402e-05 0.00010714127 -5.5678975e-05 9.3528855e-05 6.2938416e-05 -3.0775027e-05 -0.00051501504
-7.8946956e-05 -0.00032272562 -0.00081412453 -0.0007916685 -0.00075979216 -0.00091102585 -0.0009150478 -0.0009250824
-0.00093323865 -0.0009252779 -0.0009300418 -0.00085371436 -0.000901881 -0.001007614 -0.0009949871 -0.00078589673
-0.0009094967 -0.0010406324 -0.0010000506 -0.0005827056 -0.00010171383 0.0004023456 0.00013652346 -0.00020967388
-0.0001367116 -5.6497014e-05 -0.0001306108 -0.0006270637 -0.00030394655 -0.0005949303 -0.0009847239 -0.00096694625
-0.00073170837 -0.0008889075 -0.00091823307 -0.0009250731 -0.0009250731 -0.000924684 -0.0009285334 -0.0009645678
00000000: 9b80 72ba 9b80 72ba 9b80 72ba 9b80 72ba
00000010: 9b80 72ba 9b80 72ba 9b80 72ba 9b80 72ba
00000020: 9b80 72ba 9b80 72ba 9b80 72ba 9b80 72ba
00000030: 8e88 72ba 472c 73ba 472c 73ba c287 72ba
00000040: 9b80 72ba 9b80 72ba 9b80 72ba 9b80 72ba
00000050: 9b80 72ba 9b80 72ba 9b80 72ba 9b80 72ba
00000060: 9b80 72ba 9b80 72ba 9b80 72ba 9b80 72ba
00000070: 9b80 72ba 9b80 72ba 9b80 72ba 9b80 72ba
00000080: 9b80 72ba 9b80 72ba 9b80 72ba a580 72ba
00000090: 9182 72ba cc82 72ba cd80 72ba 8186 72ba
000000a0: da92 72ba a810 72ba fa7b 6dba bc66 74ba
000000b0: 4437 77ba dfa3 74ba af85 72ba 9b80 72ba
000000c0: 9b80 72ba 9b80 72ba 9b80 72ba 9b80 72ba
000000d0: 9b80 72ba 9b80 72ba 9b80 72ba 9b80 72ba
000000e0: 9b80 72ba 9b80 72ba 9b80 72ba 8c90 72ba
000000f0: 1a86 72ba 9a80 72ba 5783 72ba 5b99 72ba
00000100: 14b7 72ba 5636 73ba fe28 74ba 9cc8 75ba
00000110: 4568 6fba 9b7f 61ba dca5 6dba 2984 6eba
00000120: 134d 5eba 4a29 52ba e376 72ba c929 6cba
00000130: 298a 70ba 937e 72ba 7b7d 72ba 3586 72ba
00000140: c083 72ba 0681 72ba 9b80 72ba 9b80 72ba
00000150: 9b80 72ba 9b80 72ba 9880 72ba c8ae 72ba
00000160: c296 72ba a3b4 75ba 85d8 76ba 3a82 7cba
00000170: 93e4 7cba 0953 82ba 4de7 87ba b88f 93ba
00000180: bbb3 a8ba 2d6c aaba d959 b7ba 344d 97ba
00000190: 641c 3eba bc9d 38ba 4494 77ba fe8f 8aba
000001a0: 9565 7bba 99a8 70ba a23b 71ba e0a6 71ba
000001b0: 3d82 72ba 9485 72ba 9b80 72ba 9b80 72ba
000001c0: 9b80 72ba 9c80 72ba c280 72ba 4093 72ba
000001d0: 0ee0 71ba 8291 71ba 0482 71ba 90a7 77ba
000001e0: e1c4 6cba 9cea 82ba 2a76 a9ba 821f bfba
000001f0: 0099 abba 9a50 8bba 290c 89ba 4e87 0bba
00000200: 04b1 86b9 1dd9 14b9 4f29 fbb9 0158 3dba
00000210: afde 19ba c673 2aba 4fa2 56ba e8ec 56ba
00000220: d128 4dba 4613 5aba 3979 72ba 9b80 72ba
00000230: 9b80 72ba 9b80 72ba 3c7f 72ba d9ca 72ba
00000240: 280b 71ba b9ff 76ba d77d 79ba 1e6f 6aba
00000250: e530 46ba 3144 7cba 3629 a1ba 88bf adba
00000260: 4ef0 32ba 2eeb a137 50d7 d3b7 8cfd 27b9
00000270: f541 92b9 131b c1b7 99f9 8cb8 ab0e 99b9
00000280: ac2c 89b9 8d2e dfb9 f183 4fba fc98 3aba
00000290: 40e6 53ba 0d3e 73ba 2972 72ba 9b80 72ba
000002a0: 9b80 72ba cb80 72ba 7e24 73ba d1c4 6fba
000002b0: aa51 6eba 9a9c 7eba 87a5 81ba 4827 88ba
000002c0: 00d0 7bba 3130 81ba 695d 88ba 0cb2 31ba
000002d0: ef73 deb7 1fd5 73b9 2ed7 76b9 b19a 29b9
000002e0: ed88 d737 df32 3738 1fbc 3bb8 c254 d6b9
000002f0: ad6a 84b9 5862 06ba 2429 60ba c4aa 1cba
00000300: c7b8 4aba 8395 71ba ca36 72ba e780 72ba
00000310: 9b80 72ba f18c 72ba f274 74ba 4db4 60ba
00000320: 7761 78ba 8b01 85ba 741a 91ba c1db 63ba
00000330: c011 6cba 3c73 86ba 1959 7aba d362 1dba
00000340: 1930 a2b9 98f9 14b8 08b1 e038 d888 69b8
00000350: ec24 c438 cefd 8338 6f14 01b8 1302 07ba
00000360: 5390 a5b8 8033 a9b9 f96a 55ba f987 4fba
00000370: ca2c 47ba e9d1 6eba d2df 6fba 3b81 72ba
00000380: 96a4 74ba 598e 72ba 0cce 73ba cdcb 5fba
00000390: 366c 6cba ea11 84ba 3a6a 82ba a304 4eba
000003a0: 4a6b 6eba d465 88ba 2114 83ba b6c0 18ba
000003b0: 324f d5b8 eaf1 d239 bd27 0f39 e7db 5bb9
000003c0: 3e5a 0fb9 35f7 6cb8 92f4 08b9 8861 24ba
000003d0: 045b 9fb9 19f5 1bba da11 81ba aa7a 7dba
000003e0: 1ed0 3fba 9305 69ba 94b5 70ba 9b80 72ba
000003f0: 9b80 72ba 7e66 72ba d268 73ba 0ddb 7cba

exp_avg_sq f4 [30, 784]
8.488796e-06 8.488796e-06 8.488796e-06 8.488796e-06 8.488796e-06 8.488796e-06 8.488796e-06 8.488796e-06
8.488796e-06 8.488796e-06 8.488796e-06 8.488796e-06 8.488776e-06 8.488202e-06 8.488202e-06 8.488781e-06
8.488796e-06 8.488796e-06 8.488796e-06 8.488796e-06 8.488796e-06 8.488796e-06 8.488796e-06 8.488796e-06
8.488796e-06 8.488796e-06 8.488796e-06 8.488796e-06 8.488796e-06 8.488796e-06 8.488796e-06 8.488796e-06
8.488796e-06 8.488796e-06 8.488796e-06 8.488682e-06 8.483767e-06 8.484855e-06 8.486295e-06 8.474493e-06
8.466319e-06 8.480012e-06 8.500332e-06 8.465225e-06 8.42819e-06 8.459951e-06 8.487184e-06 8.488796e-06
8.488796e-06 8.488796e-06 8.488796e-06 8.488796e-06 8.488796e-06 8.488796e-06 8.488796e-06 8.488796e-06
8.488796e-06 8.488796e-06 8.488796e-06 8.489053e-06 8.4888825e-06 8.488216e-06 8.484351e-06 8.488278e-06
8.462836e-06 8.431386e-06 8.410326e-06 8.341012e-06 8.2981e-06 8.251581e-06 8.30579e-06 8.274155e-06
8.249989e-06 8.350847e-06 8.436167e-06 8.490048e-06 8.479741e-06 8.487895e-06 8.489521e-06 8.483426e-06
8.48648e-06 8.48888e-06 8.488796e-06 8.488796e-06 8.488796e-06 8.488796e-06 8.488655e-06 8.489606e-06
8.488308e-06 8.464763e-06 8.452861e-06 8.435037e-06 8.305631e-06 8.160812e-06 7.974685e-06 7.805485e-06
7.448525e-06 7.1454133e-06 7.082057e-06 7.156181e-06 7.2515763e-06 7.4266445e-06 7.771365e-06 7.895773e-06
8.15501e-06 8.31187e-06 8.45537e-06 8.48313e-06 8.489652e-06 8.488731e-06 8.488796e-06 8.488796e-06
8.488796e-06 8.488856e-06 8.487276e-06 8.478288e-06 8.413052e-06 8.23316e-06 8.160703e-06 7.964217e-06
7.6094366e-06 7.4205404e-06 7.208813e-06 6.9730845e-06 6.524595e-06 6.196101e-06 5.717284e-06 5.4825687e-06
5.1571246e-06 5.3075496e-06 5.6656286e-06 6.4162296e-06 7.2330217e-06 7.991372e-06 8.38575e-06 8.549538e-06
8.528396e-06 8.474394e-06 8.486938e-06 8.488796e-06 8.488796e-06 8.488796e-06 8.488958e-06 8.4651365e-06
8.3167015e-06 7.962724e-06 7.6022543e-06 7.214201e-06 6.928691e-06 7.1656277e-06 8.233166e-06 9.239305e-06
9.46501e-06 9.024165e-06 8.378413e-06 8.042605e-06 6.7467877e-06 4.7973062e-06 4.2272295e-06 4.9733158e-06
6.0789644e-06 7.3026395e-06 8.12077e-06 8.569335e-06 8.54211e-06 8.480521e-06 8.488013e-06 8.488796e-06
8.488796e-06 8.488733e-06 8.488721e-06 8.4435815e-06 8.159495e-06 7.646621e-06 7.1702757e-06 6.95842e-06
7.149919e-06 7.909984e-06 9.370342e-06 1.0955769e-05 1.1209532e-05 1.0377932e-05 9.970673e-06 1.0462745e-05
9.203678e-06 6.1354376e-06 4.425419e-06 4.3330515e-06 5.155465e-06 6.3243824e-06 7.550797e-06 8.389795e-06
8.3863615e-06 8.446452e-06 8.479969e-06 8.487784e-06 8.488796e-06 8.486867e-06 8.4929525e-06 8.395401e-06
8.103387e-06 7.643028e-06 7.188682e-06 6.80484e-06 7.020756e-06 7.316917e-06 8.123115e-06 8.482844e-06
7.695454e-06 6.109289e-06 6.2691192e-06 7.2479843e-06 6.8977897e-06 5.5981586e-06 4.45598e-06 4.4579697e-06
5.07696e-06 5.960104e-06 7.1099594e-06 8.180028e-06 8.266663e-06 8.378712e-06 8.476199e-06 8.4866415e-06
8.48679e-06 8.488274e-06 8.497941e-06 8.3650375e-06 8.124223e-06 7.712937e-06 7.2766593e-06 6.9006687e-06
6.7857736e-06 6.5348313e-06 6.4449505e-06 5.969802e-06 4.9954374e-06 3.687534e-06 3.4335762e-06 3.943621e-06
3.887535e-06 3.7342688e-06 3.994004e-06 4.621374e-06 5.5168766e-06 6.1970277e-06 7.112132e-06 7.9842175e-06
8.306482e-06 8.435e-06 8.47728e-06 8.488796e-06 8.488796e-06 8.491297e-06 8.4948115e-06 8.406396e-06
00000000: 1a6b 0e37 1a6b 0e37 1a6b 0e37 1a6b 0e37
00000010: 1a6b 0e37 1a6b 0e37 1a6b 0e37 1a6b 0e37
00000020: 1a6b 0e37 1a6b 0e37 1a6b 0e37 1a6b 0e37
00000030: 046b 0e37 8d68 0e37 8d68 0e37 096b 0e37
00000040: 1a6b 0e37 1a6b 0e37 1a6b 0e37 1a6b 0e37
00000050: 1a6b 0e37 1a6b 0e37 1a6b 0e37 1a6b 0e37
00000060: 1a6b 0e37 1a6b 0e37 1a6b 0e37 1a6b 0e37
00000070: 1a6b 0e37 1a6b 0e37 1a6b 0e37 1a6b 0e37
00000080: 1a6b 0e37 1a6b 0e37 1a6b 0e37 9d6a 0e37
00000090: 8055 0e37 2d5a 0e37 5c60 0e37 ac2d 0e37
000000a0: 900a 0e37 6045 0e37 a69c 0e37 dd05 0e37
000000b0: cd66 0d37 36ef 0d37 2d64 0e37 1a6b 0e37
000000c0: 1a6b 0e37 1a6b 0e37 1a6b 0e37 1a6b 0e37
000000d0: 1a6b 0e37 1a6b 0e37 1a6b 0e37 1a6b 0e37
000000e0: 1a6b 0e37 1a6b 0e37 1a6b 0e37 346c 0e37
000000f0: 796b 0e37 9c68 0e37 0358 0e37 e068 0e37
00000100: 9bfb 0d37 8774 0d37 131a 0d37 60f0 0b37
00000110: 1138 0b37 4570 0a37 1959 0b37 3ad1 0a37
00000120: 6f69 0a37 9d1a 0c37 1089 0d37 7a70 0e37
00000130: 3644 0e37 3b67 0e37 376e 0e37 0a54 0e37
00000140: 2761 0e37 766b 0e37 1a6b 0e37 1a6b 0e37
00000150: 1a6b 0e37 1a6b 0e37 7f6a 0e37 956e 0e37
00000160: 0169 0e37 e103 0e37 c3d0 0d37 3584 0d37
00000170: 6a58 0b37 6cea 0837 03cb 0537 4ef4 0237
00000180: 58ee f936 a2c2 ef36 68a2 ed36 201f f036
00000190: 9152 f336 6432 f936 c261 0237 1678 0437
000001a0: 80d1 0837 3673 0b37 8adb 0d37 c452 0e37
000001b0: c76e 0e37 d26a 0e37 1a6b 0e37 1a6b 0e37
000001c0: 1a6b 0e37 5c6b 0e37 9364 0e37 f83d 0e37
000001d0: c825 0d37 2721 0a37 f4e9 0837 0d9e 0537
000001e0: 9054 ff36 f5fd f836 3be3 f136 57fa e936
000001f0: d8ed da36 1ae8 cf36 18d7 bf36 e8f6 b736
00000200: 5d0b ad36 8117 b236 611b be36 fe4a d736
00000210: 2fb3 f236 ae12 0637 86b0 0c37 fc6f 0f37
00000220: 2f15 0f37 3f2d 0e37 1f63 0e37 1a6b 0e37
00000230: 1a6b 0e37 1a6b 0e37 cc6b 0e37 7c05 0e37
00000240: f687 0b37 a497 0537 de16 ff36 8411 f236
00000250: 017d e836 4670 f036 2e21 0a37 8302 1b37
00000260: e9cb 1e37 7e66 1737 0391 0c37 baee 0637
00000270: 7762 e236 8cf8 a036 a0d7 8d36 75e0 a636
00000280: e8f9 cb36 3209 f536 713e 0837 03c5 0f37
00000290: 1550 0f37 8f47 0e37 bd67 0e37 1a6b 0e37
000002a0: 1a6b 0e37 d56a 0e37 c76a 0e37 e8a8 0d37
000002b0: c4e4 0837 fd49 0037 3398 f036 5f7c e936
000002c0: 56e9 ef36 1fb5 0437 5035 1d37 abce 3737
000002d0: 9310 3c37 e11c 2e37 b747 2737 2689 2f37
000002e0: 7f69 1a37 02df cd36 0f7e 9436 a164 9136
000002f0: 1bfd ac36 0836 d436 da5c fd36 e5c1 0c37
00000300: 26b3 0c37 3cb5 0d37 3145 0e37 c166 0e37
00000310: 1a6b 0e37 d162 0e37 f47c 0e37 f9d9 0c37
00000320: c8f3 0737 8e3a 0037 4f36 f136 2155 e436
00000330: d693 eb36 d783 f536 8348 0837 8a51 0e37
00000340: b91b 0137 65fe cc36 535b d236 b633 f336
00000350: 9073 e736 d1d7 bb36 9484 9536 ab95 9536
00000360: c15a aa36 e7fc c736 1692 ee36 f43c 0937
00000370: 0cb1 0a37 4b92 0c37 ff34 0e37 d961 0e37
00000380: 7c62 0e37 dc68 0e37 6192 0e37 9057 0c37
00000390: 464d 0837 d066 0137 072a f436 4b8c e736
000003a0: 5ab1 e336 c645 db36 b441 d836 3550 c836
000003b0: 7b9e a736 5a77 7736 646c 6636 7253 8436
000003c0: ac71 8236 409a 7a36 3c04 8636 4d11 9b36
000003d0: 9c1d b936 10f0 cf36 c0a4 ee36 f4f3 0537
000003e0: 125c 0b37 0d84 0d37 a439 0e37 1a6b 0e37
000003f0: 1a6b 0e37 d875 0e37 f084 0e37 3209 0d37

exp_avg f4 [30]
0.0009250731 0.00029613308 -7.2880445e-11 0.00035085942 -0.00034072518 -0.0007143467 1.4012677e-33 -0.0012293144
-0.00033111096 0.000483933 -0.0006158986 -0.0007140811 0.00020434085 -0.00041999115 -0.00016780065 0.00062582863
-0.00010975936 0.0001448698 -0.0001739358 9.136007e-05 4.7473944e-32 0.0007362091 3.345611e-31 0.0005142309
-0.00031647668 3.46274e-05 4.200199e-31 -0.0010322478 0.00090864097 0.00042973194
00000000: 9b80 723a 4f42 9b39 0b44 a0ae 8ef3 b739
00000010: 5ca3 b2b9 ff42 3bba 56d3 e808 f220 a1ba
00000020: f698 adb9 63b8 fd39 4174 21ba 2c31 3bba
00000030: 5444 5639 4232 dcb9 a5f3 2fb9 a60e 243a
00000040: 9c2e e6b8 31e8 1739 8962 36b9 9098 bf38
00000050: b27f 760b 28fe 403a 7f24 d90c 74cd 063a
00000060: c8ec a5b9 e33c 1138 e34d 080d 7d4c 87ba
00000070: dd31 6e3a a54d e139

exp_avg_sq f4 [30]
8.488796e-06 7.872826e-06 9.2540134e-08 1.0117692e-05 5.0639605e-06 9.9640165e-06 7.0835205e-13 5.5937057e-06
5.69496e-06 7.9780075e-06 9.221932e-06 9.296514e-06 8.792533e-06 1.355478e-05 8.306544e-06 6.4431265e-06
1.3579978e-05 1.40596285e-05 7.394171e-06 6.618868e-06 1.1679335e-09 3.1489785e-06 2.4666633e-08 6.4347073e-06
3.964425e-06 1.6791664e-05 3.6634855e-08 3.944384e-06 7.021989e-06 1.05531e-05
00000000: 1a6b 0e37 8815 0437 7aba c633 28bf 2937
00000010: 17eb a936 202b 2737 2562 472b 91b1 bb36
00000020: 5517 bf36 48d9 0537 e5b7 1a37 39f8 1b37
00000030: a483 1337 5669 6337 565c 0b37 0932 d836
00000040: 90d5 6337 a5e1 6b37 721b f836 a517 de36
00000050: 0285 a030 0a53 5336 80e2 d332 b7e9 d736
00000060: 2706 8536 d3db 8c37 7358 1d33 005a 8436
00000070: 6d9e eb36 380d 3137

exp_avg f4 [5, 30]
0.007371705 0.00045824243 9.007709e-18 0.0052760355 -0.00078388496 -0.00057449256 -1.5520441e-32 -0.011457307
-0.0022765214 0.0059757824 -0.0012050302 0.0015918711 0.0037542058 -0.004205316 -0.00428113 0.0061714742
0.004544112 -0.00023727785 0.005488203 0.0008440228 -5.3641116e-32 0.012310375 -5.429239e-31 0.005711613
-0.0022676648 0.004297454 -8.944726e-31 -0.0032490382 0.008246037 0.0036611727 -0.009972688 -0.015583124
1.3862039e-14 -0.011452086 -0.011385096 -0.005783494 2.6804228e-33 -0.0075799315 0.00076522515 -0.006483743
-0.0056141447 -8.5245585e-05 -0.014583665 -7.161045e-05 -0.01270777 -0.0014681328 -0.010877357 -0.006682046
-0.0018519327 -0.013193719 -9.425835e-34 -0.0011085592 1.36167065e-30 -0.0022264204 -0.0038776998 -0.010474165
-2.6316796e-31 -0.0034918478 -0.0030063635 -0.006793569 -0.0008517956 0.0067836125 -5.49916e-12 0.0038624392
0.0053843465 0.0046511316 2.714304e-33 0.016836027 0.006834521 0.0012419304 -0.0006220869 0.0046445285
0.0071915933 0.0064823087 0.006177209 -0.011463602 0.0050628507 -0.0036419248 -9.4840485e-05 0.004617353
1.2363391e-31 -0.0077116964 3.385448e-31 0.002193679 0.0023646506 0.0028646672 2.2447395e-31 0.0069417083
-0.0035996889 0.0008442045 0.0073331236 0.01307741 5.4834123e-12 0.017726634 0.015489937 0.0136634195
2.1722902e-33 0.011489191 0.0017204344 0.004101651 0.008557401 0.0025074603 0.008804658 0.0066469824
0.0213431 0.0063159666 0.0066675567 0.009054959 0.005701055 0.011846123 -2.3438145e-32 0.0026678904
-7.2940205e-31 -0.0024172843 0.009790936 0.007262093 3.2264574e-31 0.011931428 -0.0017491907 0.0069422773
-0.0038803986 -0.0047362293 1.2189046e-15 -0.015413163 -0.008705389 -0.011956645 7.953433e-33 -0.009288017
-0.007043685 -0.004835688 -0.0011161531 -0.008658644 -0.0051668775 -0.008852391 -0.010531516 0.00044430152
-0.00539723 0.0015062724 -0.009242523 -0.0041138646 -4.5611914e-32 -0.0061580027 -4.278899e-31 -0.0032616032
-0.0060102507 -0.0039501083 6.1052116e-31 -0.012132273 0.00010918353 -0.004654179
00000000: 588e f13b 4240 f039 b429 2623 98e2 ac3b
00000010: a17d 4dba 8b99 16ba 692c a18a 6eb7 3bbc
00000020: b131 15bb 7fd0 c33b 1bf2 9dba 55a6 d03a
00000030: 1f09 763b bfcc 89bb b948 8cbb 143a ca3b
00000040: c6e6 943b cacd 78b9 62d6 b33b 6941 5d3a
00000050: a342 8b8b 75b1 493c 5a30 308d 7c28 bb3b
00000060: 1a9d 14bb a8d1 8c3b f022 918d d1ed 54bb
00000070: 631a 073c 49f0 6f3b 7c64 23bc 5c50 7fbc
00000080: 5fb7 7928 88a1 3bbc 8e88 3abc 7783 bdbb
00000090: 4aae 5e09 1361 f8bb 6499 483a 9475 d4bb
000000a0: dcf6 b7bb e0c5 b2b8 53f0 6ebc 912d 96b8
000000b0: 4034 50bc 5d6e c0ba f136 32bc 11f5 dabb
000000c0: 8dbc f2ba 782a 58bc 119d 9c88 134d 91ba
000000d0: 96f1 dc0d 23e9 11bb 0221 7ebb d59b 2bbc
000000e0: 47ce aa8c 7cd7 64bb 6906 45bb 969c debb
000000f0: 094b 5fba 1149 de3b 087c c1ac fa20 7d3b
00000100: 2c6f b03b 8568 983b dd7e 6109 b5eb 893c
00000110: 1ef4 df3b 45c8 a23a 8c13 23ba 2131 983b
00000120: 75a7 eb3b 8c69 d43b 2f6a ca3b d5d1 3bbc
00000130: 45e6 a53b 5cad 6ebb 19e5 c6b8 2a4d 973b
00000140: 6a7c 200c 66b2 fcbb 67ba db0c d4c3 0f3b
00000150: 41f8 1a3b 24bd 3b3b 22b1 910c 4577 e33b
00000160: c2e8 6bbb 9b4d 5d3a b34a f03b a242 563c
00000170: 30ee c02c 7237 913c 81c9 7d3c 89dc 5f3c
00000180: 8177 3409 293d 3c3c 3380 e13a 2467 863b
00000190: 5734 0c3c 3454 243b 6a41 103c eece d93b
000001a0: bad7 ae3c 2bf6 ce3b 857b da3b 405b 143c
000001b0: eacf ba3b 3e16 423c 4765 f38a c6d7 2e3b
000001c0: 5ab4 6c8d 4d6b 1ebb 296a 203c daf6 ed3b
000001d0: b868 d10c 097c 433c 1a45 e5ba 0b7c e33b
000001e0: 494e 7ebb 5f32 9bbb a4a9 af26 7e87 7cbc
000001f0: 0ca1 0ebc cee5 43bc b42f 250a c42c 18bc
00000200: b6ce e6bb b174 9ebb e24b 92ba fcdc 0dbc
00000210: e94e a9bb 9e09 11bc 618c 2cbc 24f1 e839
00000220: 3fdb b0bb 1d6e c53a f46d 17bc 99cd 86bb
00000230: a2d4 6c8b 12c9 c9bb b4db 0a8d 9fc0 55bb
00000240: a3f1 c4bb e96f 81bb 1d20 460d 71c6 46bc
00000250: 76f9 e438 1582 98bb

exp_avg_sq f4 [5, 30]
0.0016312089 0.00069690036 1.5532704e-08 0.0042303805 0.00046390414 0.001197435 8.689891e-11 8.8973924e-05
0.00021144134 0.0005558447 9.524211e-05 0.00021402568 0.00029792855 0.0002779031 0.0016832646 0.00021467246
0.00017309922 3.958824e-05 0.001628965 0.00069323066 1.1010832e-09 0.00053965347 7.5206614e-08 0.00073150225
0.00017914687 0.00022668579 2.3651718e-07 5.006974e-05 0.0012910874 0.0004808781 0.0016421952 0.0022653036
3.4115487e-07 0.0050622956 0.0022152683 0.0014373689 2.5918662e-12 0.0009633093 0.000647305 0.0012196937
0.00083685445 0.00079682557 0.002223736 0.0007903772 0.004371683 1.6788485e-05 0.0014043071 0.0004915133
0.0008232958 0.0015797409 1.9048312e-09 1.0023742e-05 4.9308386e-07 0.00039925054 0.0010634315 0.0012291005
2.1410784e-08 0.00070920895 0.00075214176 0.00147628 0.006091024 0.004327708 2.1396306e-07 0.015402099
0.0045694015 0.00308389 2.6578108e-12 0.0004553228 0.0010641507 0.003106836 0.0008215371 0.00081065815
0.0032714019 0.0012579766 0.010759771 0.00035075133 0.0013971156 0.0007647597 0.0020378742 0.0026664988
2.889822e-09 0.000406744 3.7525194e-08 0.00070563506 0.0011416306 0.0014084886 1.5044813e-08 0.0002868263
0.0027322713 0.003424833 0.00482347 0.00281827 2.0201055e-07 0.010252889 0.0027715585 0.0017301632
1.7023227e-12 0.0004963526 0.0011364818 0.0029158643 0.00046789175 0.0006351861 0.0022346985 0.001300137
0.0062399684 0.00017217852 0.0011898301 0.00031525217 0.001414535 0.0017890823 1.391411e-09 0.00017427508
1.367773e-07 0.00076742173 0.00066680135 0.0011606676 3.2495706e-08 0.00033005557 0.002416885 0.002830491
0.0012465492 0.00090058637 4.3327768e-07 0.006204783 0.001832492 0.0021282183 2.2819973e-11 0.0002420037
0.0008711242 0.00095994683 0.0002726365 0.0014005896 0.0005263517 0.0011182067 0.0041049384 8.026811e-06
0.00036114326 0.00016553266 0.0013339318 0.00067155814 1.0992429e-09 0.0001552642 1.2644665e-07 0.0003589627
0.00079282356 0.00034248838 1.0875204e-07 0.00037017363 0.00063652085 0.0012255273
00000000: 4ace d53a 31b0 363a c76c 8532 019f 8a3b
00000010: 2938 f339 40f3 9c3a bd17 bf2e 8397 ba38
00000020: 5ab6 5d39 1bb6 113a b8bc c738 156c 6039
00000030: 4b33 9c39 86b3 9139 fda0 dc3a b319 6139
00000040: f881 3539 8d0b 2638 ff82 d53a ecb9 353a
00000050: ec54 9730 8877 0d3a 4681 a133 49c2 3f3a
00000060: 5fd9 3b39 81b2 6d39 59f5 7d34 f901 5238
00000070: b439 a93a 5e1e fc39 ed3e d73a 7d75 143b
00000080: f827 b734 9de1 a53b 092e 113b 1966 bc3a
00000090: e962 362c 9886 7c3a e7af 293a 21de 9f3a
000000a0: 5a60 5b3a 0fe2 503a 19bc 113b 5131 4f3a
000000b0: 5640 8f3b ffd4 8c37 ba10 b83a e6d8 003a
000000c0: 72d2 573a 4f0f cf3a 25e6 0231 a52b 2837
000000d0: 775c 0435 8052 d139 d762 8b3a c519 a13a
000000e0: d0ea b732 35ea 393a 612b 453a bd7f c13a
000000f0: 3697 c73b 72cf 8d3b b8bd 6534 1659 7c3c
00000100: ebba 953b 171b 4a3b dd06 3b2c 64b8 ee39
00000110: f97a 8b3a 0f9c 4b3b 6c5c 573a 5982 543a
00000120: 0465 563b b1e2 a43a c049 303c 0ce5 b739
00000130: 6c1f b73a 287a 483a db8d 053b 6dc0 2e3b
00000140: 4996 4631 4140 d539 632b 2133 5efa 383a
00000150: c4a2 953a 099d b83a e53b 8132 2d61 9639
00000160: e80f 333b 2a73 603b 330e 9e3b b9b2 383b
00000170: 3de8 5834 bcfb 273c 09a3 353b a5c6 e23a
00000180: a494 ef2b a91d 023a 00f6 943a 1618 3f3b
00000190: 5e4f f539 9e82 263a 0574 123b 5c69 aa3a
000001a0: a678 cc3b d28a 3439 13f4 9b3a 6e48 a539
000001b0: eb67 b93a a47f ea3a ec3b bf30 9cbd 3639
000001c0: 0fdd 1234 cd2c 493a 48cc 2e3a 8b21 983a
000001d0: 6891 0b33 4f0b ad39 9a64 1e3b c27f 393b
000001e0: 4063 a33a 5415 6c3a 3b9d e834 7e51 cb3b
000001f0: 3a30 f03a 9479 0b3b 03ba c82d 60c2 7d39
00000200: 285c 643a f1a4 7b3a a7f0 8e39 fd93 b73a
00000210: ddfa 093a ca90 923a b882 863b e4aa 0637
00000220: d457 bd39 d692 2d39 53d7 ae3a 810b 303a
00000230: 2c14 9730 6bce 2239 64c5 0734 2833 bc39
00000240: 7dd5 4f3a 0390 b339 118b e933 dd13 c239
00000250: 31dc 263a dfa1 a03a

exp_avg f4 [5]
0.00057798706 -0.0014771855 0.00052445265 0.00173545 -0.0013607182
00000000: 0e84 173a 1f9e c1ba 6c7b 093a 0a78 e33a
00000010: 205a b2ba

exp_avg_sq f4 [5]
5.4909877e-05 0.00010288791 0.00013718735 0.000112379006 7.816239e-05
00000000: 084f 6638 87c5 d738 f3d9 0f39 05ad eb38
00000010: 1deb a338
