nesy/hl2cgynw/checkpoints/epoch=0-step=12.ckpt (torch, 290467 bytes, 12 tensors)

neural_predicates.digit.net.0.weight f4 [30, 784]
0	0xbc98bfe9	-0.018646197
1	0xbac1bf10	-0.0014781673
2	0x3cc9c567	0.024630262
3	0xbcd33930	-0.025784105
4	0x3cc30b74	0.023809172
5	0x3aa08e58	0.0012249453
6	0x3cba321a	0.022728968
7	0xbcb16168	-0.021652892
8	0xbc661f88	-0.014045604
9	0xbb1975ff	-0.0023416278
10	0xb9ac190f	-0.00032825067
11	0x3c850b24	0.016240664
12	0x3c2b5650	0.01045759
13	0x3cf1047a	0.02942108
14	0x3d03def4	0.032195047
15	0x3bd128bf	0.006383031
16	0x3c8a8d11	0.016912969
17	0x3c0131be	0.007885395
18	0x3c33b686	0.01096881
19	0x3c6dd48b	0.014516006
20	0x3cbde194	0.023178853
21	0x3c857a85	0.016293773
22	0x3cbaa542	0.02278388
23	0x3ca6511c	0.020302348
24	0x3cf0c701	0.029391767
25	0xba403dd4	-0.0007333432
26	0x3d142ec5	0.036177415
27	0xbb834fd2	-0.004007318
28	0x3cdbaf99	0.02681713
29	0x3c34dfef	0.011039718
30	0x3ce5f294	0.028069772
31	0xbbbba90b	-0.0057269386
32	0xbca203e7	-0.019777251
33	0xbc72067f	-0.014772057
34	0xbc9ff40a	-0.019525547
35	0x3cf19c81	0.029493572
36	0xbc65e326	-0.014031207
37	0x3ce95af7	0.028485758
38	0xbc7ae67c	-0.015313741
39	0x3cf034e4	0.029322095
40	0x3b516f45	0.003195719
41	0xbc810bbe	-0.01575267
42	0x3cdaab54	0.026693024
43	0x3c7085ac	0.014680307
44	0xbcba0cb1	-0.02271113
45	0x3d24a819	0.040199373
46	0x3cf08b31	0.029363247
47	0x3c1e39da	0.009657348
48	0x3c5bf004	0.013423923
49	0xbc679928	-0.014135636
50	0x3c9cf7b5	0.019161085
51	0xbbbe9378	-0.0058159195
52	0x3d20255f	0.03909814
53	0xbc26bd6e	-0.0101769995
54	0x3d1971db	0.037462097
55	0x3c5425ee	0.012948496
56	0x3b98dbf0	0.0046648905
57	0xbba9619b	-0.005169106
58	0xbb439723	-0.0029844723
59	0xbc9a9c8b	-0.018873474
60	0xbcf7dcc8	-0.030256644
61	0x3d068fe8	0.032852083
62	0x3cc46193	0.023972308
63	0x3d1b0dcc	0.037854955
64	0xbce44628	-0.027865484
65	0x3bf8ab47	0.007588777
66	0x3cdb18bf	0.026745198
67	0xbca00951	-0.019535692
68	0xbc957773	-0.018245434
69	0x3d04fe61	0.032469157
70	0xbc8edaa3	-0.017438238
71	0x3ce8cd11	0.028418096
72	0xbcbf421d	-0.023346955
73	0xbc026384	-0.007958297
74	0x3cf3a885	0.029743442
75	0x3d089310	0.033343375
76	0x3cda50cc	0.026649855
77	0xbcf83f17	-0.030303521
78	0x3ce49e18	0.027907416
79	0x3c83d502	0.016092781
80	0xbbde76ce	-0.006789065
81	0xbb305025	-0.0026903239
82	0xbba820d6	-0.0051308675
83	0x3d08cad2	0.03339655
84	0x3c969b7c	0.018384688
85	0xbcf89bd7	-0.030347748
86	0xbbd7f555	-0.006590525
87	0x3d064dfd	0.03278922
88	0x3cc10441	0.023561599
89	0xbc2a9283	-0.010410908
90	0x3d18b877	0.037285294
91	0xbca22ed6	-0.019797724
92	0x3bb93256	0.0056517525
93	0x3cd29e9f	0.025710402
94	0x3ce882c4	0.028382666
95	0x3c100533	0.008790302
96	0x3c8faea3	0.017539328
97	0x3aca8073	0.0015449658
98	0x3cafbee8	0.021453336
99	0x3cd673cf	0.026178269
100	0x3c9e98ab	0.019359907
101	0x3ca4bad5	0.02010862
102	0x3ca41335	0.02002869
103	0xbc3df1bc	-0.0115932785
104	0x3b41dd94	0.0029581534
105	0xbc11b064	-0.008892152
106	0xbc8deb56	-0.017324131
107	0x3cd3b4da	0.025843073
108	0x3cc1c6d1	0.023654373
109	0x3d0a6b99	0.03379402
110	0xbccd2f02	-0.02504683
111	0xbc325af7	-0.0108859455
112	0x3d1e1d0f	0.03860193
113	0x3c49ecaa	0.0123244915
114	0x3c82532e	0.015908804
115	0x3be0017f	0.006836116
116	0x3bab2645	0.005223068
117	0xbc64d299	-0.013966226
118	0x3ca9675e	0.020679172
119	0xbc29bd8c	-0.010360133
120	0xbccb6872	-0.024830077
121	0xbbd4ca74	-0.006493861
122	0x3cab1c85	0.020887623
123	0xbcf803b9	-0.030275213
124	0x3bb2e8a3	0.0054598614
125	0x3cb75760	0.02238053
126	0xbaaaf214	-0.0013042116
127	0xbcbc9e0a	-0.023024578
128	0xbcd6b438	-0.026208982
129	0x3be1fff9	0.0068969694
130	0x3d2360f7	0.039887395
131	0x3ca43969	0.020046907
132	0x3c2f26cc	0.010690402
133	0xbc90943e	-0.017648812
134	0xbceb4ce3	-0.028723186
135	0x3c8352b1	0.016030641
136	0x3bcab097	0.006185602
137	0x3d02b5f3	0.0319118
138	0xbc1492b4	-0.00906818
139	0x3cc7bfe0	0.024383485
140	0x3d1b200c	0.03787236
141	0xbcb4f5ae	-0.022089805
142	0x3c857d35	0.016295055
143	0x3d242671	0.040075723
144	0x3bb9ec2c	0.005673906
145	0x3c9bac82	0.019003157
146	0x3ccd4fff	0.02506256
147	0xbb77b02b	-0.0037794213
148	0x3ca15dba	0.019698013
149	0xbceab279	-0.028649556
150	0x3cfb9c92	0.030714307
151	0x3d035222	0.03206075
152	0xbca09c73	-0.01960585
153	0x3cc8a889	0.024494426
154	0xbb672bf6	-0.0035274005
155	0x3cf11c05	0.029432306
156	0x3c365505	0.011128669
157	0x3d20b8fe	0.039238922
158	0x3cbcb127	0.023033692
159	0xbc9dcd7c	-0.019263022
160	0x3c880c34	0.016607381
161	0xbc6ff0db	-0.014644827
162	0x3c721ce9	0.0147774005
163	0xbc84b129	-0.016197758
164	0xbae453cc	-0.0017419993
165	0x3b76d09f	0.003766097
166	0x3d14756c	0.036244795
167	0x3cebc8be	0.028782245
168	0xbcdb77d9	-0.026790546
169	0x3d028941	0.031869177
170	0x3d1ed4f0	0.03877729
171	0x3cf56174	0.029953696
172	0x3cfe9d09	0.03108074
173	0x3cfb31d4	0.030663408
174	0xbbe8e14c	-0.0071069356
175	0x3c2d50ee	0.010578377
176	0xbcc1867f	-0.023623703
177	0x3c90659d	0.017626578
178	0xbc0a9159	-0.008457505
179	0x3cbc50b8	0.022987708
180	0xbb13ac5a	-0.002253315
181	0xbbcc7ef1	-0.0062407185
182	0x3aa85f26	0.0012845739
183	0xbc59f61f	-0.013303309
184	0xbc204a7f	-0.009783386
185	0xbcb25124	-0.021767206
186	0x3cad1889	0.021129863
187	0xbc2768bb	-0.010217841
188	0x3d0d1184	0.034440532
189	0xbbca0c74	-0.0061660353
190	0x3b984192	0.0046464885
191	0xbcae4cd8	-0.021276876
192	0x3cf6d43e	0.030130502
193	0xbb6171fe	-0.003440022
194	0x3d091fa3	0.033477437
195	0x3bd28886	0.0064249663
196	0xbcce8721	-0.025210919
197	0xbc2a985d	-0.010412303
198	0x3cf49158	0.029854462
199	0x3cfc3d1e	0.030790862
200	0xbc71fedd	-0.014770237
201	0x3ca771a5	0.020439932
202	0x3d1675b6	0.03673335
203	0x3c327d92	0.010894196
204	0xbc298bd1	-0.010348276
205	0xbcbf0670	-0.0233185
206	0x3cf34f69	0.029700952
207	0x3adf380f	0.0017030257
208	0xbc9c4586	-0.01907612
209	0xbcd2a7ee	-0.02571484
210	0xbc274f7b	-0.010211821
211	0xbcb7b405	-0.022424707
212	0xbc66cc5b	-0.014086808
213	0x3b8bf02b	0.0042705736
214	0x3d13aec6	0.03605535
215	0x3b49321b	0.0030700031
216	0x3bb14197	0.0054094302
217	0x3bd4e411	0.006496914
218	0xbcb10d23	-0.02161271
219	0xbc3f105d	-0.011661616
220	0xbc17dce3	-0.009268972
221	0x3d0bcdc8	0.034131795
222	0xbafba3f8	-0.0019198647
223	0xbc4aafe7	-0.01237104
224	0xbcd6d408	-0.026224151
225	0xbca47b48	-0.020078316
226	0x3cd59bf0	0.026075333
227	0x3ce03e9f	0.02737361
228	0x3ca3980f	0.019969968
229	0xbc4b517c	-0.012409564
230	0x3c04cab5	0.00810497
231	0xbc92651e	-0.017870482
232	0x3d0fba8b	0.03509001
233	0x3cce6b12	0.02519754
234	0x3c8acb76	0.01694272
235	0x3cf2b380	0.029626608
236	0x3c50235b	0.012703742
237	0x3bbe1e72	0.005801969
238	0xbcf4a278	-0.029862627
239	0xbccbfae0	-0.0248999
240	0x3c8562da	0.016282488
241	0xbc73f174	-0.01488911
242	0x3c99ffc4	0.018798716
243	0x3cef0a79	0.029179798
244	0x3ca34f14	0.019935168
245	0xbc243349	-0.010021993
246	0x3d125129	0.03572193
247	0x3c8d2be0	0.017232835
248	0x3cba0d70	0.022711486
249	0x3ca55d63	0.020186132
250	0x3bc088b8	0.005875673
251	0xbce222bf	-0.027604459
252	0xbc13cde0	-0.009021252
253	0x3ca08668	0.01959534
254	0x3b321c03	0.002717734
255	0x3c454d76	0.012042394

neural_predicates.digit.net.0.bias f4 [30]
0	0xbd0b1895	-0.03395899
1	0x3d1a569a	0.037680246
2	0x3cbebc05	0.023283014
3	0xbc70cd4a	-0.014697382
4	0xbc4740b0	-0.012161419
5	0x3ca684fc	0.020327084
6	0x3d1896a6	0.037253045
7	0x39399d74	0.0001770163
8	0x39f0ffbd	0.00045966907
9	0x3c362246	0.01111657
10	0x3d1d7fc9	0.038451944
11	0xbc79202e	-0.015205426
12	0xbc4aee43	-0.012385908
13	0x3c62c0a1	0.013839872
14	0xbb0912da	-0.0020915777
15	0x3c1f23ee	0.009713156
16	0x3bde0a17	0.006776105
17	0xbc957712	-0.018245254
18	0xbb9031c6	-0.0044004647
19	0x3c304b16	0.010760089
20	0xbcea21cb	-0.028580567
21	0xbc1cbc0f	-0.009566321
22	0x3b08783d	0.002082362
23	0x3c0079a7	0.007841504
24	0x3c52ecd3	0.012873846
25	0x3ce89538	0.028391466
26	0x3be4e6e8	0.006985534
27	0xbc153a11	-0.009108082
28	0x3b1af4fb	0.0023644555
29	0x3c74c18e	0.014938725

neural_predicates.digit.net.2.weight f4 [2, 30]
0	0xbde35c61	-0.11101604
1	0xbd1d254b	-0.038365643
2	0x3da41a0e	0.08012782
3	0xbe0182ad	-0.12647505
4	0x3e3465e3	0.17616992
5	0xbe09c512	-0.13454083
6	0xbd06428e	-0.032778315
7	0x3d99f17a	0.07516761
8	0xbd9e704a	-0.07736261
9	0x3ce97768	0.02849932
10	0x3de9f3aa	0.11423428
11	0xbda1bc65	-0.078972615
12	0x3e3eb506	0.18623742
13	0xbd045733	-0.032309722
14	0x3e1b5568	0.15169299
15	0x3d581fce	0.052764706
16	0x3e295eab	0.16540019
17	0xbda792cc	-0.08182296
18	0x3d0e1ee4	0.03469743
19	0xbde955af	-0.11393296
20	0x3d83c10f	0.064333074
21	0x3cf48e05	0.029852876
22	0x3dc52923	0.09626987
23	0xbd14d2d6	-0.03633388
24	0x3e361b62	0.17783883
25	0x3def2dbf	0.11678647
26	0x3de12daf	0.109950416
27	0xbde2a31a	-0.110662654
28	0xbdbfad1a	-0.093591884
29	0xbc853466	-0.016260337
30	0xbde92850	-0.11384642
31	0xbdbe7e66	-0.09301452
32	0xbd705f71	-0.05868477
33	0x3e08d8ea	0.13363996
34	0x3b2dd024	0.0026521767
35	0x3dfab1b4	0.122409254
36	0x3d9490dc	0.07254192
37	0xbc0c662f	-0.008569284
38	0x3d7f94cf	0.062397774
39	0xbd5813fe	-0.05275344
40	0xbe296327	-0.1654173
41	0xbe27721e	-0.16352126
42	0xbdd01566	-0.101603314
43	0x3e039b2a	0.12852159
44	0x3e2b9be1	0.16758682
45	0xbc0bc6af	-0.008531257
46	0x3e367d3d	0.17821212
47	0x3dcc8458	0.0998618
48	0xbdd37ef7	-0.10326951
49	0xbe32c5bd	-0.17458244
50	0x3c11866a	0.0088821445
51	0x3e3a8bf5	0.18217452
52	0xbd9ed7c9	-0.077560015
53	0xbe23961b	-0.1597523
54	0xbe140643	-0.14455514
55	0xbe42211a	-0.1895794
56	0x3d2df1ed	0.042467047
57	0x3d8f99f6	0.070117876
58	0x3e125f85	0.1429425
59	0x3d57c475	0.05267759

neural_predicates.digit.net.2.bias f4 [2]
0	0xbd707be2	-0.058711894
1	0x3e1868a1	0.14883663

exp_avg f4 [30, 784]
0	0xb866934d	-5.4973458e-05
1	0xb866934d	-5.4973458e-05
2	0xb866934d	-5.4973458e-05
3	0xb866934d	-5.4973458e-05
4	0xb866934d	-5.4973458e-05
5	0xb866934d	-5.4973458e-05
6	0xb866934d	-5.4973458e-05
7	0xb866934d	-5.4973458e-05
8	0xb866934d	-5.4973458e-05
9	0xb866934d	-5.4973458e-05
10	0xb866934d	-5.4973458e-05
11	0xb866934d	-5.4973458e-05
12	0xb866934d	-5.4973458e-05
13	0xb866934d	-5.4973458e-05
14	0xb866934d	-5.4973458e-05
15	0xb866934d	-5.4973458e-05
16	0xb866934d	-5.4973458e-05
17	0xb866934d	-5.4973458e-05
18	0xb866934d	-5.4973458e-05
19	0xb866934d	-5.4973458e-05
20	0xb866934d	-5.4973458e-05
21	0xb866934d	-5.4973458e-05
22	0xb866934d	-5.4973458e-05
23	0xb866934d	-5.4973458e-05
24	0xb866934d	-5.4973458e-05
25	0xb866934d	-5.4973458e-05
26	0xb866934d	-5.4973458e-05
27	0xb866934d	-5.4973458e-05
28	0xb866934d	-5.4973458e-05
29	0xb866934d	-5.4973458e-05
30	0xb866934d	-5.4973458e-05
31	0xb866934d	-5.4973458e-05
32	0xb866934d	-5.4973458e-05
33	0xb866934d	-5.4973458e-05
34	0xb866934d	-5.4973458e-05
35	0xb866934d	-5.4973458e-05
36	0xb866934d	-5.4973458e-05
37	0xb866934d	-5.4973458e-05
38	0xb866934d	-5.4973458e-05
39	0xb866934d	-5.4973458e-05
40	0xb866934d	-5.4973458e-05
41	0xb866934d	-5.4973458e-05
42	0xb866934d	-5.4973458e-05
43	0xb866934d	-5.4973458e-05
44	0xb866934d	-5.4973458e-05
45	0xb866934d	-5.4973458e-05
46	0xb866934d	-5.4973458e-05
47	0xb866934d	-5.4973458e-05
48	0xb866934d	-5.4973458e-05
49	0xb866934d	-5.4973458e-05
50	0xb866934d	-5.4973458e-05
51	0xb866934d	-5.4973458e-05
52	0xb866934d	-5.4973458e-05
53	0xb866934d	-5.4973458e-05
54	0xb866934d	-5.4973458e-05
55	0xb866934d	-5.4973458e-05
56	0xb866934d	-5.4973458e-05
57	0xb866934d	-5.4973458e-05
58	0xb866934d	-5.4973458e-05
59	0xb866934d	-5.4973458e-05
60	0xb866934d	-5.4973458e-05
61	0xb866934d	-5.4973458e-05
62	0xb866934d	-5.4973458e-05
63	0xb866934d	-5.4973458e-05
64	0xb866934d	-5.4973458e-05
65	0xb866934d	-5.4973458e-05
66	0xb866934d	-5.4973458e-05
67	0xb866934d	-5.4973458e-05
68	0xb866934d	-5.4973458e-05
69	0xb866934d	-5.4973458e-05
70	0xb866934d	-5.4973458e-05
71	0xb866934d	-5.4973458e-05
72	0xb866934d	-5.4973458e-05
73	0xb866934d	-5.4973458e-05
74	0xb866934d	-5.4973458e-05
75	0xb866934d	-5.4973458e-05
76	0xb866934d	-5.4973458e-05
77	0xb866934d	-5.4973458e-05
78	0xb866934d	-5.4973458e-05
79	0xb866934d	-5.4973458e-05
80	0xb866934d	-5.4973458e-05
81	0xb866934d	-5.4973458e-05
82	0xb866934d	-5.4973458e-05
83	0xb866934d	-5.4973458e-05
84	0xb866934d	-5.4973458e-05
85	0xb866934d	-5.4973458e-05
86	0xb866934d	-5.4973458e-05
87	0xb866934d	-5.4973458e-05
88	0xb866934d	-5.4973458e-05
89	0xb866934d	-5.4973458e-05
90	0xb866934d	-5.4973458e-05
91	0xb866934d	-5.4973458e-05
92	0xb866934d	-5.4973458e-05
93	0xb866934d	-5.4973458e-05
94	0xb866934d	-5.4973458e-05
95	0xb8664f92	-5.491038e-05
96	0xb865f2e2	-5.4824057e-05
97	0xb85ff86f	-5.3398715e-05
98	0xb85bbadc	-5.2387695e-05
99	0xb8634659	-5.4186534e-05
100	0xb867c69c	-5.525966e-05
101	0xb86246a7	-5.39484e-05
102	0xb8638e1e	-5.4253374e-05
103	0xb8630642	-5.4126845e-05
104	0xb8664150	-5.48971e-05
105	0xb866934d	-5.4973458e-05
106	0xb866934d	-5.4973458e-05
107	0xb866934d	-5.4973458e-05
108	0xb866934d	-5.4973458e-05
109	0xb866934d	-5.4973458e-05
110	0xb866934d	-5.4973458e-05
111	0xb866934d	-5.4973458e-05
112	0xb866934d	-5.4973458e-05
113	0xb866934d	-5.4973458e-05
114	0xb866934d	-5.4973458e-05
115	0xb866934d	-5.4973458e-05
116	0xb866934d	-5.4973458e-05
117	0xb866934d	-5.4973458e-05
118	0xb866934d	-5.4973458e-05
119	0xb866934d	-5.4973458e-05
120	0xb866934d	-5.4973458e-05
121	0xb864b77c	-5.453032e-05
122	0xb85f4e45	-5.3240237e-05
123	0xb85f29a1	-5.3206113e-05
124	0xb860cfb7	-5.359921e-05
125	0xb877ebf2	-5.910913e-05
126	0xb87e6198	-6.064921e-05
127	0xb86a55ba	-5.5869787e-05
128	0xb849d14e	-4.8117065e-05
129	0xb8302c56	-4.200296e-05
130	0xb822b8a5	-3.8795773e-05
131	0xb82709a3	-3.9824878e-05
132	0xb829541a	-4.0371066e-05
133	0xb83e8f2e	-4.5432877e-05
134	0xb855803b	-5.090258e-05
135	0xb86495f5	-5.4499094e-05
136	0xb866823d	-5.4957567e-05
137	0xb866934d	-5.4973458e-05
138	0xb866934d	-5.4973458e-05
139	0xb866934d	-5.4973458e-05
140	0xb866934d	-5.4973458e-05
141	0xb866934d	-5.4973458e-05
142	0xb866934d	-5.4973458e-05
143	0xb866934d	-5.4973458e-05
144	0xb866934d	-5.4973458e-05
145	0xb866934d	-5.4973458e-05
146	0xb86424c4	-5.4393677e-05
147	0xb861c4d4	-5.382749e-05
148	0xb862996c	-5.4025484e-05
149	0xb86da7d3	-5.66615e-05
150	0xb86dfcbf	-5.674059e-05
151	0xb8735c3b	-5.802161e-05
152	0xb870abbb	-5.7380395e-05
153	0xb87d124e	-6.0336948e-05
154	0xb8820bca	-6.201079e-05
155	0xb869b111	-5.5716435e-05
156	0xb8206bfe	-3.824755e-05
157	0xb7e629d2	-2.743761e-05
158	0xb7c51fb3	-2.3498991e-05
159	0xb7fbd54e	-3.002086e-05
160	0xb7f6332d	-2.9349316e-05
161	0xb81efaaf	-3.7903603e-05
162	0xb84bb621	-4.8568592e-05
163	0xb8640cce	-5.437136e-05
164	0xb866de2a	-5.504318e-05
165	0xb866934d	-5.4973458e-05
166	0xb866934d	-5.4973458e-05
167	0xb866934d	-5.4973458e-05
168	0xb866934d	-5.4973458e-05
169	0xb866934d	-5.4973458e-05
170	0xb866934d	-5.4973458e-05
171	0xb866934d	-5.4973458e-05
172	0xb866934d	-5.4973458e-05
173	0xb866934d	-5.4973458e-05
174	0xb86429a1	-5.4398206e-05
175	0xb861d084	-5.3838376e-05
176	0xb868f076	-5.5537057e-05
177	0xb876c218	-5.8831734e-05
178	0xb880a981	-6.135088e-05
179	0xb88ad7d9	-6.6205575e-05
180	0xb886718e	-6.410769e-05
181	0xb8803371	-6.113097e-05
182	0xb85f95d2	-5.3306874e-05
183	0xb832455b	-4.25031e-05
184	0xb7e097df	-2.6773601e-05
185	0xb7f70324	-2.9446157e-05
186	0xb7f1c816	-2.8822611e-05
187	0xb8022f37	-3.1038388e-05
188	0xb81cbcc7	-3.736911e-05
189	0xb8357a6a	-4.326777e-05
190	0xb850cf43	-4.9784092e-05
191	0xb862f20c	-5.4108023e-05
192	0xb866cae8	-5.5025244e-05
193	0xb866934d	-5.4973458e-05
194	0xb866934d	-5.4973458e-05
195	0xb866934d	-5.4973458e-05
196	0xb866934d	-5.4973458e-05
197	0xb866934d	-5.4973458e-05
198	0xb866934d	-5.4973458e-05
199	0xb866934d	-5.4973458e-05
200	0xb866b3b9	-5.5003653e-05
201	0xb866934d	-5.4973458e-05
202	0xb8656c64	-5.46988e-05
203	0xb862863e	-5.400762e-05
204	0xb872285e	-5.773489e-05
205	0xb87f09f7	-6.0806018e-05
206	0xb88e8023	-6.794955e-05
207	0xb89af642	-7.389161e-05
208	0xb896bf6b	-7.188212e-05
209	0xb8605c59	-5.3491767e-05
210	0xb826f708	-3.980755e-05
211	0xb7882b26	-1.6232556e-05
212	0xb716af8c	-8.981569e-06
213	0xb79da140	-1.8790946e-05
214	0xb7feea2a	-3.03882e-05
215	0xb831f630	-4.242937e-05
216	0xb8547a24	-5.065849e-05
217	0xb86a6cad	-5.589116e-05
218	0xb86ba1c3	-5.617902e-05
219	0xb8689f23	-5.5461318e-05
220	0xb866934d	-5.4973458e-05
221	0xb866934d	-5.4973458e-05
222	0xb866934d	-5.4973458e-05
223	0xb866934d	-5.4973458e-05
224	0xb866934d	-5.4973458e-05
225	0xb866934d	-5.4973458e-05
226	0xb866934d	-5.4973458e-05
227	0xb866934d	-5.4973458e-05
228	0xb866cef4	-5.5029013e-05
229	0xb866934d	-5.4973458e-05
230	0xb866c29d	-5.501752e-05
231	0xb8679223	-5.5210792e-05
232	0xb877911f	-5.9024544e-05
233	0xb8872b8a	-6.4454114e-05
234	0xb8a0434c	-7.6419296e-05
235	0xb8adbe64	-8.284746e-05
236	0xb89ab9a3	-7.37787e-05
237	0xb84aa63a	-4.8315364e-05
238	0xb7946197	-1.7688419e-05
239	0x377d0144	1.508027e-05
240	0x379aa6f2	1.843597e-05
241	0xb70d6b76	-8.429275e-06
242	0xb80112be	-3.077345e-05
243	0xb8678c21	-5.5205197e-05
244	0xb88ffd23	-6.865922e-05
245	0xb88a1f95	-6.5862354e-05
246	0xb881fa43	-6.197814e-05
247	0xb86e798f	-5.6856832e-05
248	0xb866934d	-5.4973458e-05
249	0xb866934d	-5.4973458e-05
250	0xb866934d	-5.4973458e-05
251	0xb866934d	-5.4973458e-05
252	0xb866934d	-5.4973458e-05
253	0xb866934d	-5.4973458e-05
254	0xb866934d	-5.4973458e-05
255	0xb86681a9	-5.495703e-05

exp_avg_sq f4 [30, 784]
0	0x314c5c19	2.9738259e-09
1	0x314c5c19	2.9738259e-09
2	0x314c5c19	2.9738259e-09
3	0x314c5c19	2.9738259e-09
4	0x314c5c19	2.9738259e-09
5	0x314c5c19	2.9738259e-09
6	0x314c5c19	2.9738259e-09
7	0x314c5c19	2.9738259e-09
8	0x314c5c19	2.9738259e-09
9	0x314c5c19	2.9738259e-09
10	0x314c5c19	2.9738259e-09
11	0x314c5c19	2.9738259e-09
12	0x314c5c19	2.9738259e-09
13	0x314c5c19	2.9738259e-09
14	0x314c5c19	2.9738259e-09
15	0x314c5c19	2.9738259e-09
16	0x314c5c19	2.9738259e-09
17	0x314c5c19	2.9738259e-09
18	0x314c5c19	2.9738259e-09
19	0x314c5c19	2.9738259e-09
20	0x314c5c19	2.9738259e-09
21	0x314c5c19	2.9738259e-09
22	0x314c5c19	2.9738259e-09
23	0x314c5c19	2.9738259e-09
24	0x314c5c19	2.9738259e-09
25	0x314c5c19	2.9738259e-09
26	0x314c5c19	2.9738259e-09
27	0x314c5c19	2.9738259e-09
28	0x314c5c19	2.9738259e-09
29	0x314c5c19	2.9738259e-09
30	0x314c5c19	2.9738259e-09
31	0x314c5c19	2.9738259e-09
32	0x314c5c19	2.9738259e-09
33	0x314c5c19	2.9738259e-09
34	0x314c5c19	2.9738259e-09
35	0x314c5c19	2.9738259e-09
36	0x314c5c19	2.9738259e-09
37	0x314c5c19	2.9738259e-09
38	0x314c5c19	2.9738259e-09
39	0x314c5c19	2.9738259e-09
40	0x314c5c19	2.9738259e-09
41	0x314c5c19	2.9738259e-09
42	0x314c5c19	2.9738259e-09
43	0x314c5c19	2.9738259e-09
44	0x314c5c19	2.9738259e-09
45	0x314c5c19	2.9738259e-09
46	0x314c5c19	2.9738259e-09
47	0x314c5c19	2.9738259e-09
48	0x314c5c19	2.9738259e-09
49	0x314c5c19	2.9738259e-09
50	0x314c5c19	2.9738259e-09
51	0x314c5c19	2.9738259e-09
52	0x314c5c19	2.9738259e-09
53	0x314c5c19	2.9738259e-09
54	0x314c5c19	2.9738259e-09
55	0x314c5c19	2.9738259e-09
56	0x314c5c19	2.9738259e-09
57	0x314c5c19	2.9738259e-09
58	0x314c5c19	2.9738259e-09
59	0x314c5c19	2.9738259e-09
60	0x314c5c19	2.9738259e-09
61	0x314c5c19	2.9738259e-09
62	0x314c5c19	2.9738259e-09
63	0x314c5c19	2.9738259e-09
64	0x314c5c19	2.9738259e-09
65	0x314c5c19	2.9738259e-09
66	0x314c5c19	2.9738259e-09
67	0x314c5c19	2.9738259e-09
68	0x314c5c19	2.9738259e-09
69	0x314c5c19	2.9738259e-09
70	0x314c5c19	2.9738259e-09
71	0x314c5c19	2.9738259e-09
72	0x314c5c19	2.9738259e-09
73	0x314c5c19	2.9738259e-09
74	0x314c5c19	2.9738259e-09
75	0x314c5c19	2.9738259e-09
76	0x314c5c19	2.9738259e-09
77	0x314c5c19	2.9738259e-09
78	0x314c5c19	2.9738259e-09
79	0x314c5c19	2.9738259e-09
80	0x314c5c19	2.9738259e-09
81	0x314c5c19	2.9738259e-09
82	0x314c5c19	2.9738259e-09
83	0x314c5c19	2.9738259e-09
84	0x314c5c19	2.9738259e-09
85	0x314c5c19	2.9738259e-09
86	0x314c5c19	2.9738259e-09
87	0x314c5c19	2.9738259e-09
88	0x314c5c19	2.9738259e-09
89	0x314c5c19	2.9738259e-09
90	0x314c5c19	2.9738259e-09
91	0x314c5c19	2.9738259e-09
92	0x314c5c19	2.9738259e-09
93	0x314c5c19	2.9738259e-09
94	0x314c5c19	2.9738259e-09
95	0x314c5b22	2.973771e-09
96	0x314c5a03	2.9737073e-09
97	0x314263e9	2.8287508e-09
98	0x313b0df7	2.722002e-09
99	0x3147bcfd	2.9065739e-09
100	0x314fc94e	3.0236893e-09
101	0x3144bbac	2.8628433e-09
102	0x31479f51	2.9048872e-09
103	0x314c58be	2.9736351e-09
104	0x314c5af2	2.9737603e-09
105	0x314c5c19	2.9738259e-09
106	0x314c5c19	2.9738259e-09
107	0x314c5c19	2.9738259e-09
108	0x314c5c19	2.9738259e-09
109	0x314c5c19	2.9738259e-09
110	0x314c5c19	2.9738259e-09
111	0x314c5c19	2.9738259e-09
112	0x314c5c19	2.9738259e-09
113	0x314c5c19	2.9738259e-09
114	0x314c5c19	2.9738259e-09
115	0x314c5c19	2.9738259e-09
116	0x314c5c19	2.9738259e-09
117	0x314c5c19	2.9738259e-09
118	0x314c5c19	2.9738259e-09
119	0x314c5c19	2.9738259e-09
120	0x314c5c19	2.9738259e-09
121	0x31490b79	2.925587e-09
122	0x313f8c87	2.7874039e-09
123	0x31420ca4	2.82379e-09
124	0x3145575e	2.8716935e-09
125	0x316e69df	3.469374e-09
126	0x31790ad4	3.6240424e-09
127	0x3150759c	3.0334837e-09
128	0x31185096	2.216472e-09
129	0x30e86bc9	1.6910856e-09
130	0x30d65a8b	1.5596283e-09
131	0x30f79da0	1.8016415e-09
132	0x30f9f2ee	1.8186179e-09
133	0x311805b2	2.2122149e-09
134	0x313866ba	2.6833917e-09
135	0x314c57b1	2.9735754e-09
136	0x314c5bd8	2.9738114e-09
137	0x314c5c19	2.9738259e-09
138	0x314c5c19	2.9738259e-09
139	0x314c5c19	2.9738259e-09
140	0x314c5c19	2.9738259e-09
141	0x314c5c19	2.9738259e-09
142	0x314c5c19	2.9738259e-09
143	0x314c5c19	2.9738259e-09
144	0x314c5c19	2.9738259e-09
145	0x314c5c19	2.9738259e-09
146	0x3148073c	2.9107943e-09
147	0x3143d7d7	2.8498925e-09
148	0x31454d37	2.8711165e-09
149	0x31593c33	3.1611875e-09
150	0x3159a802	3.1673157e-09
151	0x3162f2c7	3.3025331e-09
152	0x315ab379	3.1825194e-09
153	0x316bd87f	3.4320065e-09
154	0x31722f21	3.5242425e-09
155	0x313c7632	2.7424787e-09
156	0x30aad053	1.2428337e-09
157	0x3033545e	6.5239714e-10
158	0x301940ff	5.575344e-10
159	0x30922c41	1.0635476e-09
160	0x308f4842	1.0425156e-09
161	0x30d8623c	1.5743988e-09
162	0x312419f7	2.38799e-09
163	0x3146d7c0	2.8935432e-09
164	0x314c5d49	2.9738934e-09
165	0x314c5c19	2.9738259e-09
166	0x314c5c19	2.9738259e-09
167	0x314c5c19	2.9738259e-09
168	0x314c5c19	2.9738259e-09
169	0x314c5c19	2.9738259e-09
170	0x314c5c19	2.9738259e-09
171	0x314c5c19	2.9738259e-09
172	0x314c5c19	2.9738259e-09
173	0x314c5c19	2.9738259e-09
174	0x31480fda	2.911284e-09
175	0x3143ec56	2.8510576e-09
176	0x31509d60	3.035744e-09
177	0x316a5dbc	3.4104763e-09
178	0x317de10b	3.6944268e-09
179	0x318e276f	4.137227e-09
180	0x317f4e7f	3.7152004e-09
181	0x3166c6f8	3.3582506e-09
182	0x312e5d6d	2.537344e-09
183	0x30e072c3	1.6330762e-09
184	0x30298f85	6.1685795e-10
185	0x3055c292	7.776545e-10
186	0x306316fc	8.261478e-10
187	0x3096dcee	1.0976728e-09
188	0x30d3573c	1.5377064e-09
189	0x310479ea	1.9277828e-09
190	0x312a2584	2.475958e-09
191	0x3143d7fe	2.8499012e-09
192	0x314c5cf6	2.973875e-09
193	0x314c5c19	2.9738259e-09
194	0x314c5c19	2.9738259e-09
195	0x314c5c19	2.9738259e-09
196	0x314c5c19	2.9738259e-09
197	0x314c5c19	2.9738259e-09
198	0x314c5c19	2.9738259e-09
199	0x314c5c19	2.9738259e-09
200	0x314c962a	2.9771265e-09
201	0x314c5c19	2.9738259e-09
202	0x314a3904	2.9427278e-09
203	0x31451864	2.8681137e-09
204	0x3161a075	3.2833019e-09
205	0x317a83f1	3.6454788e-09
206	0x3197a1db	4.4130792e-09
207	0x31aa3b9b	4.9544275e-09
208	0x31a1c0b2	4.7076236e-09
209	0x3134c650	2.6306175e-09
210	0x30cdc2e7	1.4971108e-09
211	0x2f85c4c3	2.4332367e-10
212	0x2eaef4f9	7.95612e-11
213	0x2fd4634f	3.8633138e-10
214	0x3085ba18	9.729915e-10
215	0x3104a927	1.930468e-09
216	0x31350ba7	2.634559e-09
217	0x314fcced	3.0238951e-09
218	0x3151bb94	3.0520129e-09
219	0x314e4137	3.0014016e-09
220	0x314c5c19	2.9738259e-09
221	0x314c5c19	2.9738259e-09
222	0x314c5c19	2.9738259e-09
223	0x314c5c19	2.9738259e-09
224	0x314c5c19	2.9738259e-09
225	0x314c5c19	2.9738259e-09
226	0x314c5c19	2.9738259e-09
227	0x314c5c19	2.9738259e-09
228	0x314cc6f7	2.9799005e-09
229	0x314c5c19	2.9738259e-09
230	0x314cb0d7	2.9786429e-09
231	0x314e2568	2.9998208e-09
232	0x316beb6c	3.4330823e-09
233	0x318bc67e	4.0679984e-09
234	0x31b80e08	5.3567e-09
235	0x31d95ac6	6.325851e-09
236	0x31af24ce	5.0973545e-09
237	0x3117bca7	2.2080628e-09
238	0x2f9f62de	2.899218e-10
239	0x2f84ff96	2.4192265e-10
240	0x2fa2d783	2.962076e-10
241	0x2f176a97	1.3771238e-10
242	0x3090bf09	1.0531674e-09
243	0x315302e3	3.0706182e-09
244	0x319ff787	4.6556496e-09
245	0x318fe441	4.187797e-09
246	0x317d9e8e	3.6906473e-09
247	0x315ac018	3.1832368e-09
248	0x314c5c19	2.9738259e-09
249	0x314c5c19	2.9738259e-09
250	0x314c5c19	2.9738259e-09
251	0x314c5c19	2.9738259e-09
252	0x314c5c19	2.9738259e-09
253	0x314c5c19	2.9738259e-09
254	0x314c5c19	2.9738259e-09
255	0x314c3c7d	2.972029e-09

exp_avg f4 [30]
0	0x3866934d	5.4973458e-05
1	0xbaae1394	-0.0013280981
2	0xbb617c4f	-0.003440637
3	0x39c2e867	0.00037175717
4	0xbbadacdd	-0.005300148
5	0x3802141b	3.101314e-05
6	0xba68ea53	-0.00088850147
7	0xbb0afeb2	-0.002120894
8	0x3aec37dc	0.0018022018
9	0x38ea9df3	0.0001118741
10	0xbbb428ad	-0.005498013
11	0xbad96cab	-0.0016588172
12	0xbbea343e	-0.007147341
13	0xba0a69eb	-0.0005280065
14	0x38c2335a	9.260206e-05
15	0xbaa46d7b	-0.0012544835
16	0x381e69d1	3.7768685e-05
17	0x38df18d2	0.00010638092
18	0xbb7c15b0	-0.0038465075
19	0xbad7a1cf	-0.0016451421
20	0xbacda665	-0.0015689848
21	0xb9afcdac	-0.0003353184
22	0xbb8d1be1	-0.004306302
23	0xbb13b3d6	-0.002253761
24	0x3a35650e	0.00069196604
25	0xbc16c4cf	-0.009202196
26	0x399a4862	0.00029427098
27	0xb7e3d680	-2.7160393e-05
28	0x38abf617	8.199753e-05
29	0x39da4e86	0.00041638705

exp_avg_sq f4 [30]
0	0x314c5c19	2.9738259e-09
1	0x347ad04b	2.3358841e-07
2	0x355d3473	8.240524e-07
3	0x373c37d2	1.121867e-05
4	0x369f1951	4.7415165e-06
5	0x3747185c	1.1866996e-05
6	0x35c8ee10	1.4970447e-06
7	0x34e25de2	4.216409e-07
8	0x35ba122f	1.3863372e-06
9	0x327a59e5	1.4572355e-08
10	0x375a2d11	1.3004305e-05
11	0x34989f99	2.842833e-07
12	0x37124284	8.717765e-06
13	0x3674a9b7	3.645762e-06
14	0x3331e78b	4.142161e-08
15	0x34294800	1.5765545e-07
16	0x3103918a	1.9145738e-09
17	0x321e58a8	9.2169685e-09
18	0x363ad631	2.7840836e-06
19	0x349ac5f6	2.882877e-07
20	0x34b3429f	3.338982e-07
21	0x36783dfb	3.6990957e-06
22	0x36476d25	2.9716841e-06
23	0x361225d7	2.177772e-06
24	0x35011733	4.8090004e-07
25	0x374c3651	1.2171994e-05
26	0x33c36ba0	9.099972e-08
27	0x36b8902e	5.500412e-06
28	0x31e806a8	6.7528454e-09
29	0x3528a363	6.2822636e-07

exp_avg f4 [2, 30]
0	0x3af5a2a8	0.0018740492
1	0xbd742477	-0.059605088
2	0xbd72e321	-0.05929864
3	0x3d8a2f81	0.06747342
4	0xbd69333b	-0.056933623
5	0x3d45a168	0.048249632
6	0x3d603bd1	0.054744545
7	0xbd734153	-0.05938847
8	0xbbbd0f7e	-0.005769669
9	0x38deeba0	0.000106296735
10	0xbdc14253	-0.094364785
11	0xbda09136	-0.07840197
12	0xbdb6bb8f	-0.08922493
13	0x3d9b8d63	0.07595327
14	0x3cd50e3f	0.02600777
15	0xbda4ad07	-0.08040815
16	0x3d913ff3	0.070922755
17	0xb90fb585	-0.00013705164
18	0xbd9cf989	-0.076647826
19	0xbd73e3f5	-0.05954357
20	0xbd873de8	-0.066036046
21	0x3d847411	0.064674504
22	0xbda58e3e	-0.08083771
23	0xbda0da2e	-0.078541145
24	0x39342b20	0.00017182203
25	0xbd4322c3	-0.047640573
26	0x3a082740	0.0005193837
27	0x3d5cddd0	0.053922474
28	0xb7e59c42	-2.737169e-05
29	0x3d5884ab	0.052860897
30	0xbaf5a2a6	-0.001874049
31	0x3d742476	0.059605084
32	0x3d72e320	0.059298635
33	0xbd8a2f81	-0.06747342
34	0x3d69333c	0.056933627
35	0xbd45a166	-0.048249625
36	0xbd603bce	-0.054744534
37	0x3d734153	0.05938847
38	0x3bbd0f7e	0.005769669
39	0xb8deeb9d	-0.00010629671
40	0x3dc14252	0.09436478
41	0x3da09136	0.07840197
42	0x3db6bb8f	0.08922493
43	0xbd9b8d62	-0.07595326
44	0xbcd50e42	-0.026007775
45	0x3da4ad09	0.08040816
46	0xbd913ff3	-0.070922755
47	0x390fb585	0.00013705164
48	0x3d9cf989	0.076647826
49	0x3d73e3f3	0.05954356
50	0x3d873de8	0.066036046
51	0xbd847411	-0.064674504
52	0x3da58e3e	0.08083771
53	0x3da0da2e	0.078541145
54	0xb9342b20	-0.00017182203
55	0x3d4322c3	0.047640573
56	0xba082740	-0.0005193837
57	0xbd5cddd0	-0.053922474
58	0x37e59c40	2.7371687e-05
59	0xbd5884ab	-0.052860897

exp_avg_sq f4 [2, 30]
0	0x366c824d	3.5242585e-06
1	0x38c6cec9	9.4798925e-05
2	0x38c3cb8e	9.3362396e-05
3	0x399a6a4a	0.0002945236
4	0x38d16739	9.985123e-05
5	0x39380a54	0.00017551455
6	0x38dc7110	0.00010511477
7	0x38c3de60	9.339745e-05
8	0x37924754	1.7437771e-05
9	0x324c19fa	1.1880269e-08
10	0x39a78b72	0.00031956617
11	0x391fefa1	0.0001525269
12	0x394bd4a5	0.00019438805
13	0x398084bc	0.00024512957
14	0x393c9e39	0.0001798802
15	0x39285bb5	0.00016055892
16	0x39b0c495	0.000337158
17	0x328e7158	1.6582518e-08
18	0x394c4806	0.00019481787
19	0x38c55769	9.4099734e-05
20	0x3905db1f	0.00012765497
21	0x394bfce2	0.00019453795
22	0x3929609d	0.00016153087
23	0x3969bafe	0.00022290272
24	0x32feb3cb	2.9651252e-08
25	0x3880daab	6.144246e-05
26	0x34917be6	2.7098503e-07
27	0x3933a397	0.00017131712
28	0x304ed649	7.524688e-10
29	0x3986a1d9	0.00025679058
30	0x366c8249	3.5242576e-06
31	0x38c6cec8	9.479892e-05
32	0x38c3cb8d	9.336239e-05
33	0x399a6a4a	0.0002945236
34	0x38d1673b	9.985125e-05
35	0x39380a50	0.00017551449
36	0x38dc710e	0.000105114756
37	0x38c3de61	9.339746e-05
38	0x37924754	1.7437771e-05
39	0x324c19f7	1.18802665e-08
40	0x39a78b71	0.00031956614
41	0x391fefa1	0.0001525269
42	0x394bd4a7	0.00019438808
43	0x398084bb	0.00024512954
44	0x393c9e38	0.00017988018
45	0x39285bb5	0.00016055892
46	0x39b0c497	0.00033715807
47	0x328e7158	1.6582518e-08
48	0x394c4807	0.00019481788
49	0x38c55769	9.4099734e-05
50	0x3905db1d	0.00012765494
51	0x394bfce0	0.00019453792
52	0x3929609e	0.00016153089
53	0x3969bafc	0.00022290269
54	0x32feb3cb	2.9651252e-08
55	0x3880daab	6.144246e-05
56	0x34917be6	2.7098503e-07
57	0x3933a397	0.00017131712
58	0x304ed646	7.5246864e-10
59	0x3986a1d8	0.00025679055

exp_avg f4 [2]
0	0xbc1dc0ee	-0.009628518
1	0x3c1dc0ed	0.009628517

exp_avg_sq f4 [2]
0	0x392718c8	0.00015935593
1	0x392718c9	0.00015935594
