nesy/py3zpo5k/checkpoints/epoch=9-step=250.ckpt (torch, 290467 bytes, 12 tensors)

neural_predicates.digit.net.0.weight f4 [30, 784]
0	0xbbf6d52c	-0.0075327363
1	0xbcc6b94f	-0.024258284
2	0x3ba18ecc	0.004930353
3	0xbb0ce048	-0.0021495987
4	0xbb5db747	-0.0033831166
5	0xbd0526ca	-0.032507695
6	0xba743e38	-0.00093171326
7	0xbccc7226	-0.024956774
8	0x3c5540e2	0.013015958
9	0x3cf0a197	0.029373927
10	0xbd092b1a	-0.03348837
11	0x3b814e5a	0.003946108
12	0xbd089cf2	-0.0333528
13	0x3c759d0b	0.014991055
14	0xbc326edc	-0.010890689
15	0x3ca41126	0.020027708
16	0x3cb71d61	0.022352876
17	0x3badf645	0.0053088986
18	0x3cad79c8	0.021176234
19	0xbbcfd3d2	-0.0063423896
20	0x3c4932bd	0.012280163
21	0xbc058ed7	-0.008151731
22	0xbce3c68e	-0.02780464
23	0x3cd948f5	0.026524046
24	0xbd149648	-0.036276132
25	0xbcb45ab3	-0.022015905
26	0xbcac2cb8	-0.021017417
27	0x3c088e1d	0.008334664
28	0xbb79e218	-0.0038129147
29	0x3cdf4c17	0.027257962
30	0xbb5da10e	-0.003381792
31	0xbc1a979e	-0.009435562
32	0x3cff8537	0.031191451
33	0xbccadf1c	-0.02476459
34	0x3c86dab3	0.016461706
35	0xbc9de543	-0.01927436
36	0xbd0f9d97	-0.0350624
37	0xbc3954b5	-0.0113117
38	0xbc1862be	-0.009300886
39	0xbc842630	-0.01613149
40	0x3cac41f7	0.021027548
41	0xbc261d09	-0.010138758
42	0xbc7c3d54	-0.015395481
43	0x3c95ebbc	0.018300883
44	0xbcd18f3b	-0.025580993
45	0x3cb469af	0.02202305
46	0xbc589f90	-0.013221636
47	0x3c8f3431	0.017480941
48	0x3c38472b	0.0112474365
49	0xbcc24217	-0.023713155
50	0xbc14005c	-0.009033289
51	0xbc55d475	-0.013051142
52	0x3d030393	0.03198583
53	0xbc49f1c1	-0.012325705
54	0x3cefcb2d	0.029271686
55	0x3d069127	0.03285327
56	0xb9a3a270	-0.00031210808
57	0xbcac122d	-0.02100476
58	0xbcb5f1f9	-0.022210108
59	0xbd0e1857	-0.03469118
60	0xbccb7452	-0.02483574
61	0xbd074e5e	-0.03303372
62	0x3a8d3f2a	0.0010776271
63	0xbba58231	-0.0050509204
64	0x3bf5be01	0.007499457
65	0xbc330698	-0.010926865
66	0xbd186b9c	-0.037212
67	0xbc6ac811	-0.014329926
68	0x3cd652fa	0.026162613
69	0xbc5a626b	-0.013329129
70	0x3c872dd5	0.016501347
71	0x3c5e512c	0.013569158
72	0xbc27df2f	-0.010246082
73	0x3d44c3cc	0.04803829
74	0xbcee7196	-0.029106896
75	0xbcd2d053	-0.025734102
76	0x3c173c8e	0.009230746
77	0xbbcdd133	-0.006281042
78	0xbc3312af	-0.0109297475
79	0x3c963d2d	0.018339718
80	0x3c1ec63e	0.009690819
81	0xbc4e34d3	-0.012585836
82	0xbc83e5a9	-0.016100721
83	0xbc649cbe	-0.013953386
84	0x3b983148	0.0046445467
85	0xbb5c0e89	-0.0033578
86	0x3c281c6c	0.010260683
87	0xbd064dc8	-0.03278902
88	0x3cc1e736	0.02366982
89	0xbb52433c	-0.0032083532
90	0xbcedf249	-0.029046195
91	0x3c3033e3	0.010754558
92	0x3cb5569d	0.022136027
93	0x3c16d5e2	0.009206267
94	0x3d0215c5	0.031759042
95	0x3ce24198	0.027619168
96	0xbcddfc9c	-0.027097993
97	0x3c8c3986	0.017117273
98	0xbc9d55b4	-0.019205905
99	0xbcd0dd7f	-0.025496243
100	0x3b24aa15	0.002512579
101	0x3d5f3f23	0.05450357
102	0xbc84c28e	-0.016206052
103	0x3d0f1448	0.03493145
104	0xbc8c7a52	-0.01714817
105	0xbc9cd6e7	-0.019145442
106	0x3cd570b3	0.026054716
107	0xbbf1aad4	-0.0073751006
108	0x3caf0354	0.021363892
109	0xbb962921	-0.0045825397
110	0x3b7b8b6e	0.0038382667
111	0xbcdd24e1	-0.026995124
112	0xbb1501f0	-0.002273675
113	0x3c2fe0e0	0.010734767
114	0xbcdcbc91	-0.026945384
115	0x3ce9bde5	0.028532932
116	0xbc01b266	-0.007916069
117	0xbd02da1a	-0.03194628
118	0xbce9dfc6	-0.028549086
119	0x3c89bf31	0.0168148
120	0x3ba7dd62	0.0051228264
121	0xbbfab3df	-0.007650837
122	0xbcdfea81	-0.0273335
123	0x3d17657c	0.036962017
124	0x3d081c65	0.033230204
125	0x3d24f837	0.04027578
126	0xbcfc404b	-0.030792376
127	0x3c0073aa	0.007840076
128	0xbc5362f1	-0.012902007
129	0x3d596fe8	0.053085238
130	0xbc51e6fe	-0.0128114205
131	0xbd1f63f1	-0.03891367
132	0x3be9bd71	0.007133179
133	0x3cbd0554	0.02307383
134	0xbcd46c4d	-0.025930548
135	0xbb639778	-0.0034727734
136	0x3c9a60ff	0.01884508
137	0xbcf5c009	-0.029998796
138	0xbcfdfc13	-0.031003987
139	0xbcb31c10	-0.021863967
140	0x3d001246	0.031267427
141	0x3857536c	5.1337687e-05
142	0x3bd0b11e	0.0063687703
143	0x3bf374b0	0.0074296817
144	0xbbafd243	-0.0053656413
145	0xbca493d3	-0.02009002
146	0x3c60abde	0.013712851
147	0xbc42ac4b	-0.011881898
148	0x3c59ad62	0.013285967
149	0x3cdee521	0.027208867
150	0x3d19e0ec	0.037568018
151	0xbd26fd19	-0.040768716
152	0x3c53fe22	0.012939008
153	0x3d13473c	0.035956606
154	0xbd9f0068	-0.07763749
155	0xbd4f3b02	-0.050593384
156	0xbd01dd85	-0.031705398
157	0x3c23ac4b	0.009989808
158	0xbd2e4a25	-0.04255118
159	0xbd227eb2	-0.039671607
160	0x3d43c6ca	0.047797002
161	0x3c5f53cb	0.013630818
162	0x3d3dd3dd	0.046344627
163	0xbb43da2e	-0.0029884684
164	0xbd094306	-0.033511184
165	0xbc90aa32	-0.01765928
166	0xbc0f12c8	-0.008732505
167	0xbb17b6e2	-0.0023149778
168	0x3bbacd26	0.005700725
169	0xbbf574b0	-0.007490717
170	0x3c38ea59	0.011286342
171	0x3cbefbf5	0.023313502
172	0xbcc689d8	-0.02423565
173	0xbbefe9ad	-0.0073215575
174	0xbc111724	-0.008855615
175	0x3abeedea	0.0014566754
176	0xbc8a09d0	-0.016850382
177	0x3cc7b609	0.024378793
178	0xbcbae5a7	-0.022814585
179	0xbc947fde	-0.018127378
180	0xbcbc9fff	-0.02302551
181	0xbd18482d	-0.037178207
182	0xbafcc01e	-0.001928333
183	0xbd1c4c97	-0.03815898
184	0xbd3d3a3a	-0.046198107
185	0x3a9c32bf	0.0011916979
186	0x3c9ec5c9	0.01938142
187	0x3c533baf	0.012892648
188	0x3b9a6a7a	0.0047124
189	0x3d6ad61b	0.057333093
190	0xbb9fc60e	-0.004875905
191	0xbd25fce7	-0.04052439
192	0x3c074624	0.008256469
193	0xbc33a034	-0.010963488
194	0xbc54f590	-0.012998
195	0x3cd2abe9	0.025716739
196	0xbc586c25	-0.013209377
197	0x3c8f3d4a	0.01748528
198	0xbae45783	-0.00174211
199	0x3c9a829f	0.018861113
200	0x3b2ea227	0.0026646943
201	0xbcfe058c	-0.031008504
202	0xbbae6cdb	-0.005323035
203	0x3cf80c70	0.030279368
204	0xbc944f30	-0.018104166
205	0xbb7bd4bb	-0.0038426358
206	0xbd11d172	-0.035600133
207	0xbda38f7d	-0.079863526
208	0xbc4218d4	-0.01184674
209	0x3c64ab82	0.013956906
210	0xbd1fc327	-0.03900447
211	0xbd04ae1a	-0.0323926
212	0xbd438a06	-0.04773905
213	0xbd813f86	-0.06310944
214	0xbc80d740	-0.01572764
215	0xbd1b2c73	-0.037884187
216	0x3d0a0cd9	0.03370366
217	0x3cb20c91	0.021734508
218	0xbcbb48f6	-0.022861939
219	0xbd4288e0	-0.047493815
220	0x3c2b516f	0.010456427
221	0xbcc2f63f	-0.02379906
222	0x3cc06346	0.023484837
223	0xbcc08447	-0.023500575
224	0xbd14b8d9	-0.036309097
225	0xbb107dd2	-0.002204765
226	0xbcc70233	-0.02429304
227	0x3c89e81e	0.016834315
228	0x3c94680a	0.018116016
229	0x3c7056a8	0.014669098
230	0xbbf91724	-0.0076016355
231	0xbb7103ce	-0.003677595
232	0xbcacc245	-0.021088729
233	0xbb07ca42	-0.002071992
234	0xbcf6e961	-0.03014058
235	0x3b1e4ee8	0.0024155919
236	0x3c90dad6	0.017682474
237	0x3c530d2d	0.012881559
238	0x3c8c3532	0.01711521
239	0xba804d12	-0.0009788594
240	0xbdda9e3e	-0.106747136
241	0xbd5aa0a6	-0.053375863
242	0xbca0319f	-0.019554911
243	0xbbf5c052	-0.007499733
244	0x3bdbbee1	0.006706104
245	0xbce2c915	-0.027683774
246	0xbc173730	-0.009229466
247	0xbc305d24	-0.010764394
248	0xbd1cb7a5	-0.038261075
249	0x3bdf84d5	0.0068212547
250	0x3c306c55	0.010768016
251	0x3c770e18	0.015079044
252	0xbcd9ca05	-0.026585588
253	0x3c7e6cf2	0.015528904
254	0x3ccf5c1b	0.025312474
255	0x3cc55273	0.024087166

neural_predicates.digit.net.0.bias f4 [30]
0	0x3ca83a03	0.020535475
1	0xbc5b39ea	-0.013380507
2	0x3bb40981	0.005494297
3	0x3d174e7f	0.036940094
4	0x3c33bf09	0.010970839
5	0x3c8e39a9	0.017361479
6	0x3c91a6fd	0.017779822
7	0xbccd43cb	-0.02505674
8	0xbb3e2f4c	-0.002901989
9	0xbca86049	-0.020553725
10	0xbb60d23e	-0.0034305002
11	0xbb133421	-0.0022461491
12	0x3cdee176	0.027207118
13	0xbd1a51ea	-0.037675776
14	0x3c858ee1	0.016303482
15	0xbc868a68	-0.01642342
16	0x3d062453	0.032749485
17	0xbd16415c	-0.036683425
18	0xbcaf220a	-0.021378536
19	0x3c7cc362	0.015427442
20	0x3cc67594	0.024225987
21	0xbd12512a	-0.035721935
22	0x3cb28cf4	0.021795727
23	0xb9fc475c	-0.00048118352
24	0x3cde1e78	0.027114138
25	0x3b092e19	0.0020932017
26	0xbc1a9613	-0.009435195
27	0x3bf027f7	0.007328983
28	0xbcaf1bd7	-0.02137558
29	0x3bc58767	0.006028104

neural_predicates.digit.net.2.weight f4 [2, 30]
0	0xbddf5180	-0.10904217
1	0x3e5244e8	0.20534098
2	0xbcd4ed63	-0.025992101
3	0xbcf96d03	-0.030447489
4	0x3dc936da	0.09824915
5	0x3dd55541	0.104166515
6	0xbe37edf8	-0.17961872
7	0xbdcec9c5	-0.10097078
8	0x3e025413	0.12727384
9	0xbe12dc93	-0.14341955
10	0x3c6f08de	0.014589516
11	0x3d753ad8	0.05987057
12	0xbdf008a6	-0.117203996
13	0xbd6ea532	-0.05826301
14	0xbd5f0a38	-0.054453105
15	0xbd29e0a9	-0.04147402
16	0xbde07edd	-0.10961697
17	0xbe13c115	-0.14429124
18	0xbcbede36	-0.023299318
19	0x3e4fadd1	0.2028115
20	0xbe4db48e	-0.20088407
21	0x3dad3bfb	0.08458706
22	0x3e631611	0.22176386
23	0x3de3abd4	0.11116758
24	0x3d744a86	0.059641384
25	0xbcc3827f	-0.023865936
26	0x3e6066af	0.2191417
27	0xbe119aa0	-0.14219141
28	0xbdb21657	-0.08695667
29	0xbe69d15e	-0.22833773
30	0x3ddd8c83	0.10817816
31	0xbd3eda2f	-0.046594795
32	0x3e105291	0.14093997
33	0xbe7dd1e2	-0.24787095
34	0xbe1cc2e8	-0.15308726
35	0xbdc2807f	-0.09497165
36	0x3e8bd53b	0.2731112
37	0xbc078da8	-0.00827352
38	0xbe51f4d6	-0.20503554
39	0xbe2a84cf	-0.16652225
40	0xbe44cd56	-0.19218954
41	0xbe2950fa	-0.16534796
42	0x3d16e4e9	0.0368394
43	0xbd83930c	-0.06424531
44	0xbe75f183	-0.2401791
45	0x3db1f867	0.08689957
46	0x3e4a3e4f	0.19750331
47	0xbe13be51	-0.14428069
48	0x3d8f394c	0.069933504
49	0xbe0768c2	-0.13223556
50	0x3da90bb4	0.08254185
51	0x3dbb55ef	0.0914725
52	0xbded55a7	-0.115886025
53	0xbe407ce5	-0.18797643
54	0xbe8dafdc	-0.27673233
55	0xbe6a9ccf	-0.2291138
56	0xbe4c7092	-0.19964817
57	0x3d50bb87	0.05096009
58	0x3d79e5d8	0.06101021
59	0x3e6dda1a	0.2322773

neural_predicates.digit.net.2.bias f4 [2]
0	0x3e09d0fe	0.1345863
1	0x3db0f6f9	0.08640856

exp_avg f4 [30, 784]
0	0xb7aff3e0	-2.0975189e-05
1	0xb7aff3e0	-2.0975189e-05
2	0xb7aff3e0	-2.0975189e-05
3	0xb7aff3e0	-2.0975189e-05
4	0xb7aff3e0	-2.0975189e-05
5	0xb7aff3e0	-2.0975189e-05
6	0xb7aff3e0	-2.0975189e-05
7	0xb7aff3e0	-2.0975189e-05
8	0xb7aff3e0	-2.0975189e-05
9	0xb7aff3e0	-2.0975189e-05
10	0xb7aff3e0	-2.0975189e-05
11	0xb7aff3e0	-2.0975189e-05
12	0xb7aff3e0	-2.0975189e-05
13	0xb7aff3e0	-2.0975189e-05
14	0xb7aff3e0	-2.0975189e-05
15	0xb7aff3e0	-2.0975189e-05
16	0xb7aff3e0	-2.0975189e-05
17	0xb7aff3e0	-2.0975189e-05
18	0xb7aff3e0	-2.0975189e-05
19	0xb7aff3e0	-2.0975189e-05
20	0xb7aff3e0	-2.0975189e-05
21	0xb7aff3e0	-2.0975189e-05
22	0xb7aff3e0	-2.0975189e-05
23	0xb7aff3e0	-2.0975189e-05
24	0xb7aff3e0	-2.0975189e-05
25	0xb7aff3e0	-2.0975189e-05
26	0xb7aff3e0	-2.0975189e-05
27	0xb7aff3e0	-2.0975189e-05
28	0xb7aff3e0	-2.0975189e-05
29	0xb7aff3e0	-2.0975189e-05
30	0xb7aff3e0	-2.0975189e-05
31	0xb7aff3e0	-2.0975189e-05
32	0xb7aff3e0	-2.0975189e-05
33	0xb7aff3e0	-2.0975189e-05
34	0xb7aff3e0	-2.0975189e-05
35	0xb7aff3e0	-2.0975189e-05
36	0xb7aff3e0	-2.0975189e-05
37	0xb7aff3e0	-2.0975189e-05
38	0xb7aff3e0	-2.0975189e-05
39	0xb7aff3db	-2.097518e-05
40	0xb7aff3d4	-2.0975167e-05
41	0xb7aff3dc	-2.0975182e-05
42	0xb7aff49b	-2.0975529e-05
43	0xb7afdf85	-2.096571e-05
44	0xb7afb8e1	-2.0947717e-05
45	0xb7afd7bb	-2.0962083e-05
46	0xb7aff3e0	-2.0975189e-05
47	0xb7aff3e0	-2.0975189e-05
48	0xb7aff3e0	-2.0975189e-05
49	0xb7aff3e0	-2.0975189e-05
50	0xb7aff3e0	-2.0975189e-05
51	0xb7aff3e0	-2.0975189e-05
52	0xb7aff3e0	-2.0975189e-05
53	0xb7aff3e0	-2.0975189e-05
54	0xb7aff3e0	-2.0975189e-05
55	0xb7aff3e0	-2.0975189e-05
56	0xb7aff3e0	-2.0975189e-05
57	0xb7aff3e0	-2.0975189e-05
58	0xb7aff3e0	-2.0975189e-05
59	0xb7aff3e0	-2.0975189e-05
60	0xb7aff3e0	-2.0975189e-05
61	0xb7aff3e0	-2.0975189e-05
62	0xb7aff3de	-2.0975185e-05
63	0xb7aff3e0	-2.0975189e-05
64	0xb7aff3e0	-2.0975189e-05
65	0xb7aff3e0	-2.0975189e-05
66	0xb7aff3e6	-2.09752e-05
67	0xb7aff3e9	-2.0975205e-05
68	0xb7b04fc2	-2.1017975e-05
69	0xb7b59c0b	-2.1649545e-05
70	0xb7b14323	-2.1131307e-05
71	0xb7b0015c	-2.0981468e-05
72	0xb7b68e7a	-2.1762437e-05
73	0xb7bf7afd	-2.2826245e-05
74	0xb7b3ac8c	-2.1418811e-05
75	0xb7affdbc	-2.097978e-05
76	0xb7aff638	-2.097628e-05
77	0xb7aff3e0	-2.0975189e-05
78	0xb7aff3e0	-2.0975189e-05
79	0xb7aff3e0	-2.0975189e-05
80	0xb7aff3e0	-2.0975189e-05
81	0xb7aff3e0	-2.0975189e-05
82	0xb7aff3e0	-2.0975189e-05
83	0xb7aff3e0	-2.0975189e-05
84	0xb7aff3e0	-2.0975189e-05
85	0xb7aff3e0	-2.0975189e-05
86	0xb7aff3e1	-2.097519e-05
87	0xb7aff3e1	-2.097519e-05
88	0xb7aff3e0	-2.0975189e-05
89	0xb7aff3e0	-2.0975189e-05
90	0xb7aff3e0	-2.0975189e-05
91	0xb7aff3bb	-2.0975122e-05
92	0xb7b11ea5	-2.1114314e-05
93	0xb7b0f27d	-2.1093752e-05
94	0xb7afcce3	-2.0957033e-05
95	0xb7af90be	-2.0929027e-05
96	0xb7b22bd0	-2.1239655e-05
97	0xb7b3533e	-2.1377225e-05
98	0xb76369cf	-1.355489e-05
99	0xb6cfe01f	-6.195172e-06
100	0xb79b5dd8	-1.852114e-05
101	0xb7c3bfd7	-2.3335144e-05
102	0xb7ba4aa6	-2.2207689e-05
103	0xb7af9bf3	-2.0934245e-05
104	0xb7afdbf1	-2.0964044e-05
105	0xb7afef71	-2.0973124e-05
106	0xb7aff378	-2.0975e-05
107	0xb7aff3b8	-2.0975116e-05
108	0xb7aff39c	-2.0975065e-05
109	0xb7aff3cd	-2.0975154e-05
110	0xb7aff3e0	-2.0975189e-05
111	0xb7aff3e0	-2.0975189e-05
112	0xb7aff3e0	-2.0975189e-05
113	0xb7aff3e0	-2.0975189e-05
114	0xb7aff3e2	-2.0975192e-05
115	0xb7aff3e1	-2.097519e-05
116	0xb7aff3e7	-2.0975202e-05
117	0xb7aff45f	-2.097542e-05
118	0xb7afe753	-2.0969344e-05
119	0xb7afd164	-2.095913e-05
120	0xb7b9ba49	-2.2140464e-05
121	0xb7bd58f8	-2.2571985e-05
122	0xb7b54b67	-2.1611993e-05
123	0xb7b42720	-2.1475891e-05
124	0xb7af626c	-2.0907457e-05
125	0xb79a91b2	-1.8426075e-05
126	0xb65b34c9	-3.2664268e-06
127	0xb50406fa	-4.9183984e-07
128	0xb7274761	-9.970595e-06
129	0xb742036e	-1.15641e-05
130	0xb700d303	-7.6785245e-06
131	0xb78db0e9	-1.689089e-05
132	0xb7b3462f	-2.1371145e-05
133	0xb7ad478c	-2.0656524e-05
134	0xb7b041b9	-2.101144e-05
135	0xb7aff65b	-2.0976344e-05
136	0xb7afde84	-2.0965243e-05
137	0xb7aff3de	-2.0975185e-05
138	0xb7aff3e0	-2.0975189e-05
139	0xb7aff3e0	-2.0975189e-05
140	0xb7aff3e0	-2.0975189e-05
141	0xb7aff3e0	-2.0975189e-05
142	0xb7aff3ee	-2.0975214e-05
143	0xb7aff3d4	-2.0975167e-05
144	0xb7aff3ef	-2.0975216e-05
145	0xb7afebe8	-2.0971478e-05
146	0xb7af2f1c	-2.0883563e-05
147	0xb7a1f788	-1.9307961e-05
148	0xb7ac62e0	-2.055004e-05
149	0xb7a87995	-2.0083777e-05
150	0xb7927303	-1.7458113e-05
151	0xb79a92f8	-1.8426668e-05
152	0xb7a5e4c2	-1.9776056e-05
153	0xb790305c	-1.7188657e-05
154	0x34189633	1.4210745e-07
155	0x3609918d	2.0499313e-06
156	0xb6a9a944	-5.0562976e-06
157	0x366fd650	3.5738522e-06
158	0x36feaaca	7.5896724e-06
159	0x36741249	3.6369477e-06
160	0xb6cf8e1e	-6.1856254e-06
161	0xb79903fb	-1.8240875e-05
162	0xb800eaf0	-3.073638e-05
163	0xb7e91266	-2.7784332e-05
164	0xb7afdd30	-2.0964624e-05
165	0xb7aff3e5	-2.0975198e-05
166	0xb7aff3e0	-2.0975189e-05
167	0xb7aff3e0	-2.0975189e-05
168	0xb7aff3e0	-2.0975189e-05
169	0xb7aff3e0	-2.0975189e-05
170	0xb7aff3e5	-2.0975198e-05
171	0xb7aff401	-2.0975249e-05
172	0xb7aff3ff	-2.0975245e-05
173	0xb7afc86c	-2.0954954e-05
174	0xb7ac4304	-2.0535204e-05
175	0xb79dc046	-1.8805393e-05
176	0xb79ab27b	-1.8441342e-05
177	0xb78a052e	-1.6453294e-05
178	0xb7899cf8	-1.6404767e-05
179	0xb76e1143	-1.41899245e-05
180	0xb70df1ed	-8.460583e-06
181	0xb6f5a10a	-7.3203164e-06
182	0xb6711270	-3.592253e-06
183	0x36fbce39	7.5043904e-06
184	0x3743e2ff	1.1675757e-05
185	0x37ae97ff	2.0813195e-05
186	0x376afafb	1.4005923e-05
187	0x36937c1c	4.3953896e-06
188	0xb6f9af2d	-7.4411714e-06
189	0xb7171c01	-9.0068215e-06
190	0xb7b17611	-2.1155023e-05
191	0xb7a0c674	-1.9165898e-05
192	0xb7ab5373	-2.0423648e-05
193	0xb7afecb2	-2.0971846e-05
194	0xb7aff3cf	-2.0975158e-05
195	0xb7aff3e0	-2.0975189e-05
196	0xb7aff3e0	-2.0975189e-05
197	0xb7aff3e0	-2.0975189e-05
198	0xb7aff3e0	-2.0975189e-05
199	0xb7aff3e7	-2.0975202e-05
200	0xb7b490f3	-2.152517e-05
201	0xb7b40605	-2.1460475e-05
202	0xb7a56ddb	-1.9720688e-05
203	0xb7a3a406	-1.9507494e-05
204	0xb78d55ee	-1.6848524e-05
205	0xb77cd5e6	-1.5070173e-05
206	0xb761d3f7	-1.3460397e-05
207	0xb730f7cc	-1.0548112e-05
208	0xb69bccc5	-4.6431983e-06
209	0x36d63c9d	6.3847533e-06
210	0x370d8b01	8.436619e-06
211	0x36ffa939	7.6192923e-06
212	0x34204ad8	1.4928389e-07
213	0x378769fa	1.6142603e-05
214	0x37a34654	1.9463863e-05
215	0x36b44021	5.3718836e-06
216	0xb6ee90fd	-7.1098316e-06
217	0xb70f1871	-8.529155e-06
218	0xb73fc6d2	-1.1430779e-05
219	0xb78af7e4	-1.6566315e-05
220	0xb790e07a	-1.7270668e-05
221	0xb7a90300	-2.0147767e-05
222	0xb7aff3e4	-2.0975196e-05
223	0xb7aff3e0	-2.0975189e-05
224	0xb7aff2af	-2.0974634e-05
225	0xb7aff3e0	-2.0975189e-05
226	0xb7aff3df	-2.0975187e-05
227	0xb7aff3e0	-2.0975189e-05
228	0xb7b3d451	-2.143733e-05
229	0xb7b318f1	-2.1350077e-05
230	0xb7a1175e	-1.9203577e-05
231	0xb797ff8d	-1.8119603e-05
232	0xb786a846	-1.6052403e-05
233	0xb787c3d2	-1.618444e-05
234	0xb74e00bc	-1.2278728e-05
235	0xb6d56dac	-6.360662e-06
236	0x369c0edf	4.6508935e-06
237	0x3789e782	1.6439477e-05
238	0xb687cbc5	-4.0470354e-06
239	0xb6a4a76d	-4.907072e-06
240	0xb406211d	-1.2491769e-07
241	0x37af9388	2.0930325e-05
242	0x36cacfe2	6.04427e-06
243	0xb6f6d229	-7.355837e-06
244	0xb742e418	-1.1616408e-05
245	0xb6e2b4e9	-6.7563856e-06
246	0xb6f386cb	-7.2576563e-06
247	0xb7a24e5c	-1.9348394e-05
248	0xb79e45af	-1.8867517e-05
249	0xb7a681f1	-1.984925e-05
250	0xb7aff3e0	-2.0975189e-05
251	0xb7aff3e0	-2.0975189e-05
252	0xb7aff3e0	-2.0975189e-05
253	0xb7aff3e1	-2.097519e-05
254	0xb7aff1ca	-2.0974217e-05
255	0xb7aff36b	-2.0974976e-05

exp_avg_sq f4 [30, 784]
0	0x323fe71d	1.1170212e-08
1	0x323fe71d	1.1170212e-08
2	0x323fe71d	1.1170212e-08
3	0x323fe71d	1.1170212e-08
4	0x323fe71d	1.1170212e-08
5	0x323fe71d	1.1170212e-08
6	0x323fe71d	1.1170212e-08
7	0x323fe71d	1.1170212e-08
8	0x323fe71d	1.1170212e-08
9	0x323fe71d	1.1170212e-08
10	0x323fe71d	1.1170212e-08
11	0x323fe71d	1.1170212e-08
12	0x323fe71d	1.1170212e-08
13	0x323fe71d	1.1170212e-08
14	0x323fe71d	1.1170212e-08
15	0x323fe71d	1.1170212e-08
16	0x323fe71d	1.1170212e-08
17	0x323fe71d	1.1170212e-08
18	0x323fe71d	1.1170212e-08
19	0x323fe71d	1.1170212e-08
20	0x323fe71d	1.1170212e-08
21	0x323fe71d	1.1170212e-08
22	0x323fe71d	1.1170212e-08
23	0x323fe71d	1.1170212e-08
24	0x323fe71d	1.1170212e-08
25	0x323fe71d	1.1170212e-08
26	0x323fe71d	1.1170212e-08
27	0x323fe71d	1.1170212e-08
28	0x323fe71d	1.1170212e-08
29	0x323fe71d	1.1170212e-08
30	0x323fe71d	1.1170212e-08
31	0x323fe71d	1.1170212e-08
32	0x323fe71d	1.1170212e-08
33	0x323fe71d	1.1170212e-08
34	0x323fe71d	1.1170212e-08
35	0x323fe71d	1.1170212e-08
36	0x323fe71d	1.1170212e-08
37	0x323fe71d	1.1170212e-08
38	0x323fe71d	1.1170212e-08
39	0x323fe717	1.1170207e-08
40	0x323fe70e	1.1170199e-08
41	0x323fe719	1.1170209e-08
42	0x323fe733	1.1170232e-08
43	0x323fb06c	1.1157777e-08
44	0x323f5356	1.1136612e-08
45	0x323fa00b	1.1154053e-08
46	0x323fe71d	1.1170212e-08
47	0x323fe71d	1.1170212e-08
48	0x323fe71d	1.1170212e-08
49	0x323fe71d	1.1170212e-08
50	0x323fe71d	1.1170212e-08
51	0x323fe71d	1.1170212e-08
52	0x323fe71d	1.1170212e-08
53	0x323fe71d	1.1170212e-08
54	0x323fe71d	1.1170212e-08
55	0x323fe71d	1.1170212e-08
56	0x323fe71d	1.1170212e-08
57	0x323fe71d	1.1170212e-08
58	0x323fe71d	1.1170212e-08
59	0x323fe71d	1.1170212e-08
60	0x323fe71d	1.1170212e-08
61	0x323fe71d	1.1170212e-08
62	0x323fe71e	1.1170213e-08
63	0x323fe71d	1.1170212e-08
64	0x323fe71d	1.1170212e-08
65	0x323fe71d	1.1170212e-08
66	0x323fe71d	1.1170212e-08
67	0x323fe717	1.1170207e-08
68	0x323fed7d	1.1171662e-08
69	0x32406429	1.1198645e-08
70	0x323ffe70	1.1175516e-08
71	0x323fe31c	1.1169302e-08
72	0x3222e4ae	9.481637e-09
73	0x320cf9d4	8.205877e-09
74	0x322e6eac	1.0153297e-08
75	0x323fe185	1.116894e-08
76	0x323fe5c6	1.1169908e-08
77	0x323fe71d	1.1170212e-08
78	0x323fe71d	1.1170212e-08
79	0x323fe71d	1.1170212e-08
80	0x323fe71d	1.1170212e-08
81	0x323fe71d	1.1170212e-08
82	0x323fe71d	1.1170212e-08
83	0x323fe71d	1.1170212e-08
84	0x323fe71d	1.1170212e-08
85	0x323fe71d	1.1170212e-08
86	0x323fe71d	1.1170212e-08
87	0x323fe71d	1.1170212e-08
88	0x323fe71d	1.1170212e-08
89	0x323fe71d	1.1170212e-08
90	0x323fe71d	1.1170212e-08
91	0x323fe71b	1.11702105e-08
92	0x323a075e	1.08283e-08
93	0x323a9712	1.0860974e-08
94	0x323fab04	1.1156548e-08
95	0x323ee389	1.1111191e-08
96	0x323e266b	1.1068191e-08
97	0x323e73c2	1.1085776e-08
98	0x323bf456	1.0940388e-08
99	0x32201cbc	9.319759e-09
100	0x320aa16e	8.069362e-09
101	0x3209ce43	8.021348e-09
102	0x321b50f6	9.040596e-09
103	0x323fca77	1.1163698e-08
104	0x323fe25e	1.1169133e-08
105	0x323fe6c5	1.1170134e-08
106	0x323fe6fd	1.1170184e-08
107	0x323fe711	1.1170202e-08
108	0x323fe70f	1.11702e-08
109	0x323fe71b	1.11702105e-08
110	0x323fe71d	1.1170212e-08
111	0x323fe71d	1.1170212e-08
112	0x323fe71d	1.1170212e-08
113	0x323fe71d	1.1170212e-08
114	0x323fe71d	1.1170212e-08
115	0x323fe71d	1.1170212e-08
116	0x323fe71d	1.1170212e-08
117	0x323fe722	1.1170217e-08
118	0x323fe51f	1.1169759e-08
119	0x323fe403	1.1169507e-08
120	0x3218514a	8.8660475e-09
121	0x320f31a8	8.334986e-09
122	0x3224d881	9.595284e-09
123	0x3222ba50	9.472004e-09
124	0x32209147	9.346258e-09
125	0x320b9a29	8.125917e-09
126	0x32063ed6	7.814114e-09
127	0x31f6f7bd	7.187707e-09
128	0x31c7d41e	5.815777e-09
129	0x31cc83aa	5.95215e-09
130	0x31e38ef9	6.6228236e-09
131	0x3222b1cf	9.47007e-09
132	0x3235406b	1.0550234e-08
133	0x323ca295	1.0980007e-08
134	0x32403032	1.1186829e-08
135	0x323feba9	1.1171246e-08
136	0x323fdbda	1.1167652e-08
137	0x323fe71d	1.1170212e-08
138	0x323fe71d	1.1170212e-08
139	0x323fe71d	1.1170212e-08
140	0x323fe71d	1.1170212e-08
141	0x323fe71d	1.1170212e-08
142	0x323fe71d	1.1170212e-08
143	0x323fe71c	1.1170211e-08
144	0x323fe724	1.11702185e-08
145	0x323fe54f	1.1169802e-08
146	0x323fb9a7	1.1159876e-08
147	0x323ddac3	1.1050989e-08
148	0x320b51ea	8.10949e-09
149	0x3204dbf4	7.733423e-09
150	0x31fd35bc	7.369378e-09
151	0x31e02ab9	6.524115e-09
152	0x31c0b106	5.6080607e-09
153	0x31acaeb0	5.0257185e-09
154	0x31880fbd	3.95991e-09
155	0x319c7e48	4.554554e-09
156	0x319c3676	4.546389e-09
157	0x3191bf66	4.241815e-09
158	0x319cb919	4.5612407e-09
159	0x31f48abe	7.117108e-09
160	0x31fbdfef	7.3305197e-09
161	0x3206d285	7.847693e-09
162	0x321584d1	8.70314e-09
163	0x322c0c89	1.0014568e-08
164	0x323efac4	1.1116473e-08
165	0x323fe71d	1.1170212e-08
166	0x323fe71d	1.1170212e-08
167	0x323fe71d	1.1170212e-08
168	0x323fe71d	1.1170212e-08
169	0x323fe71d	1.1170212e-08
170	0x323fe71d	1.1170212e-08
171	0x323fe719	1.1170209e-08
172	0x323fe71d	1.1170212e-08
173	0x323fca68	1.1163685e-08
174	0x323f60fd	1.1139716e-08
175	0x323dad95	1.1040716e-08
176	0x322dc963	1.0115715e-08
177	0x32039c60	7.660759e-09
178	0x31f2b137	7.063274e-09
179	0x31de5888	6.471115e-09
180	0x31c20d79	5.6476748e-09
181	0x3195217e	4.3402784e-09
182	0x3197096b	4.395749e-09
183	0x31b2995f	5.197918e-09
184	0x3178556a	3.6137302e-09
185	0x31b40f13	5.2404032e-09
186	0x31a06dfe	4.6691175e-09
187	0x31c04a94	5.596414e-09
188	0x31da8bca	6.360527e-09
189	0x31f37edf	7.0866544e-09
190	0x31ede1e6	6.9232895e-09
191	0x3224de97	9.5966675e-09
192	0x32371e26	1.0658857e-08
193	0x323fe154	1.1168897e-08
194	0x323fe720	1.1170215e-08
195	0x323fe71d	1.1170212e-08
196	0x323fe71d	1.1170212e-08
197	0x323fe71d	1.1170212e-08
198	0x323fe71d	1.1170212e-08
199	0x323fe71d	1.1170212e-08
200	0x323f9f8f	1.1153943e-08
201	0x323f7ecb	1.1146493e-08
202	0x323ec0ae	1.1103266e-08
203	0x323e5049	1.107771e-08
204	0x3237cd13	1.069863e-08
205	0x322bd3e0	1.0001685e-08
206	0x31f32039	7.075894e-09
207	0x31f53296	7.1361894e-09
208	0x31ea63d4	6.8216455e-09
209	0x319cb4ab	4.560737e-09
210	0x318d76db	4.1171524e-09
211	0x316f404d	3.4815628e-09
212	0x3185b421	3.8912877e-09
213	0x31a430e8	4.778588e-09
214	0x317068b1	3.4984107e-09
215	0x31ae12fb	5.0662243e-09
216	0x31c1a20b	5.6354614e-09
217	0x31cdefad	5.9935332e-09
218	0x31e1eeca	6.575509e-09
219	0x3221a1b4	9.4082e-09
220	0x322ab314	9.93602e-09
221	0x323e135e	1.1063859e-08
222	0x323fe71d	1.1170212e-08
223	0x323fe71d	1.1170212e-08
224	0x323fe7c8	1.1170364e-08
225	0x323fe71d	1.1170212e-08
226	0x323fe71d	1.1170212e-08
227	0x323fe71d	1.1170212e-08
228	0x323f9673	1.1151871e-08
229	0x323f6a8c	1.1141889e-08
230	0x323d7ed2	1.10300835e-08
231	0x323c885b	1.0974044e-08
232	0x32335c11	1.0440105e-08
233	0x3231a71f	1.0340755e-08
234	0x3213d4f3	8.604945e-09
235	0x31f7b46d	7.209158e-09
236	0x31921edb	4.252667e-09
237	0x319b9a2d	4.5286215e-09
238	0x3178718c	3.6153294e-09
239	0x317200fb	3.5216192e-09
240	0x319b568a	4.520932e-09
241	0x31a6ed2e	4.8582e-09
242	0x315bf312	3.2006864e-09
243	0x31987799	4.437379e-09
244	0x31ca4c6a	5.887661e-09
245	0x31c93106	5.8554432e-09
246	0x31e9da5f	6.8060184e-09
247	0x322921e3	9.8448e-09
248	0x32340561	1.0478602e-08
249	0x323e60e6	1.1081488e-08
250	0x323fe71d	1.1170212e-08
251	0x323fe71d	1.1170212e-08
252	0x323fe71d	1.1170212e-08
253	0x323fe71d	1.1170212e-08
254	0x323fe740	1.1170243e-08
255	0x323fe726	1.117022e-08

exp_avg f4 [30]
0	0x37aff3e0	2.0975189e-05
1	0xb7cb49a8	-2.4233785e-05
2	0x37877116	1.6145914e-05
3	0xb7af582e	-2.0902688e-05
4	0xb7cc31a2	-2.4341807e-05
5	0xb7a16551	-1.9239875e-05
6	0x3836d059	4.358622e-05
7	0x00000000	0.0
8	0xb8061963	-3.1971733e-05
9	0x00000000	0.0
10	0xb7a6f406	-1.9902374e-05
11	0xb7b59550	-2.164641e-05
12	0x377a22a1	1.4909224e-05
13	0x00000000	0.0
14	0xb7958a3b	-1.7826553e-05
15	0x00000000	0.0
16	0x37f8539b	2.9602836e-05
17	0x00000000	0.0
18	0x00000000	0.0
19	0xb8073464	-3.22353e-05
20	0x37e54023	2.7328793e-05
21	0x00000000	0.0
22	0xb8099244	-3.2799566e-05
23	0xb7f3b1f7	-2.9050729e-05
24	0xb80799a9	-3.2329615e-05
25	0xb7a5887c	-1.9733088e-05
26	0xb8292f57	-4.033683e-05
27	0x00000000	0.0
28	0x377088c3	1.4336957e-05
29	0x3839ef2b	4.433018e-05

exp_avg_sq f4 [30]
0	0x323fe71d	1.1170212e-08
1	0x3268a4e0	1.3541666e-08
2	0x31be1fdf	5.533351e-09
3	0x321d8fbb	9.171283e-09
4	0x325e1cff	1.2928694e-08
5	0x32020efe	7.570405e-09
6	0x33530238	4.9129284e-08
7	0x00000000	0.0
8	0x32da3f5b	2.5407351e-08
9	0x00000000	0.0
10	0x3213fbc6	8.613773e-09
11	0x322d440e	1.0085399e-08
12	0x31a60205	4.8314654e-09
13	0x00000000	0.0
14	0x31de8515	6.47618e-09
15	0x00000000	0.0
16	0x32c8d59f	2.3380208e-08
17	0x00000000	0.0
18	0x00000000	0.0
19	0x32e0e55c	2.6181333e-08
20	0x32a58786	1.9270157e-08
21	0x00000000	0.0
22	0x32de7d25	2.590111e-08
23	0x32a9ea43	1.978072e-08
24	0x32d4e703	2.47851e-08
25	0x3207f4df	7.9137115e-09
26	0x33313003	4.125469e-08
27	0x00000000	0.0
28	0x319eaa45	4.6177626e-09
29	0x3363ee24	5.3069144e-08

exp_avg f4 [2, 30]
0	0xb94931cc	-0.00019187405
1	0xb9b7070e	-0.00034909736
2	0xb91af0f8	-0.00014776352
3	0xb9c5c934	-0.00037724676
4	0xb9c56faa	-0.00037657964
5	0xb9eae6b5	-0.00044803848
6	0xb90f1257	-0.00013644375
7	0x00000000	0.0
8	0xb9d0113c	-0.00039685692
9	0x00000000	0.0
10	0xba1f41ff	-0.0006075203
11	0xb9c64453	-0.00037816408
12	0xb94bad99	-0.00019424259
13	0x00000000	0.0
14	0xb9cedb83	-0.0003945493
15	0x00000000	0.0
16	0xb988dd54	-0.00026104844
17	0x00000000	0.0
18	0x00000000	0.0
19	0xb9bca5da	-0.00035981723
20	0xb935a40e	-0.0001732262
21	0x00000000	0.0
22	0xba085e2d	-0.00052020216
23	0xb9c6a018	-0.00037884782
24	0xb9ce833d	-0.00039389162
25	0xb9cb579d	-0.00038784454
26	0xb9bf1ff1	-0.00036454157
27	0x00000000	0.0
28	0xb9745725	-0.00023302117
29	0xb91c9d0a	-0.00014935821
30	0x3949318f	0.00019187316
31	0x39b707a6	0.00034910179
32	0x391af08f	0.000147762
33	0x39c5c9d2	0.00037725136
34	0x39c5703c	0.0003765839
35	0x39eae75d	0.00044804337
36	0x390f1212	0.00013644274
37	0x00000000	0.0
38	0x39d011d7	0.00039686143
39	0x00000000	0.0
40	0x3a1f4270	0.00060752686
41	0x39c644ed	0.00037816857
42	0x394bad36	0.00019424115
43	0x00000000	0.0
44	0x39cedc2b	0.0003945542
45	0x00000000	0.0
46	0x3988dd42	0.0002610479
47	0x00000000	0.0
48	0x00000000	0.0
49	0x39bca677	0.0003598218
50	0x3935a3d7	0.0001732254
51	0x00000000	0.0
52	0x3a085e8f	0.00052020786
53	0x39c6a0c3	0.0003788528
54	0x39ce83d0	0.0003938959
55	0x39cb5844	0.0003878494
56	0x39bf2084	0.00036454585
57	0x00000000	0.0
58	0x397456fc	0.00023302058
59	0x391c9cc0	0.00014935713

exp_avg_sq f4 [2, 30]
0	0x36935d03	4.3917694e-06
1	0x35972c47	1.1263263e-06
2	0x36aa8677	5.0820486e-06
3	0x358da4c7	1.0553275e-06
4	0x35992af4	1.1411889e-06
5	0x35fc34fd	1.8790885e-06
6	0x35f43f91	1.8197917e-06
7	0x00000000	0.0
8	0x35a1d414	1.2057158e-06
9	0x00000000	0.0
10	0x36953840	4.4470944e-06
11	0x35916917	1.0833927e-06
12	0x36a80774	5.007658e-06
13	0x00000000	0.0
14	0x35cbafe6	1.5175872e-06
15	0x00000000	0.0
16	0x36cf934e	6.1862293e-06
17	0x00000000	0.0
18	0x00000000	0.0
19	0x35a9787a	1.2626545e-06
20	0x3673eede	3.634886e-06
21	0x00000000	0.0
22	0x36594755	3.237704e-06
23	0x35a008f0	1.192353e-06
24	0x35976ca7	1.1281999e-06
25	0x3596f7bd	1.1247972e-06
26	0x359c986b	1.1667265e-06
27	0x00000000	0.0
28	0x36b18dad	5.2915043e-06
29	0x36701d9f	3.5780029e-06
30	0x36935cf4	4.3917626e-06
31	0x35972c48	1.1263264e-06
32	0x36aa8665	5.0820404e-06
33	0x358da4cd	1.0553282e-06
34	0x35992afc	1.1411898e-06
35	0x35fc3503	1.8790892e-06
36	0x35f43f7e	1.8197895e-06
37	0x00000000	0.0
38	0x35a1d41b	1.2057166e-06
39	0x00000000	0.0
40	0x36953845	4.4470967e-06
41	0x3591691a	1.083393e-06
42	0x36a80764	5.0076505e-06
43	0x00000000	0.0
44	0x35cbafef	1.5175882e-06
45	0x00000000	0.0
46	0x36cf9338	6.1862193e-06
47	0x00000000	0.0
48	0x00000000	0.0
49	0x35a9787b	1.2626546e-06
50	0x3673eecc	3.634882e-06
51	0x00000000	0.0
52	0x36594755	3.237704e-06
53	0x35a008f4	1.1923535e-06
54	0x35976cab	1.1282003e-06
55	0x3596f7c5	1.1247981e-06
56	0x359c9870	1.1667271e-06
57	0x00000000	0.0
58	0x36b18da1	5.291499e-06
59	0x36701d86	3.5779972e-06

exp_avg f4 [2]
0	0xb8c935fe	-9.594484e-05
1	0x38c9363c	9.594529e-05

exp_avg_sq f4 [2]
0	0x348fa7eb	2.6758002e-07
1	0x348fa7e0	2.675797e-07
