nesy/1r5upf7j/checkpoints/epoch=0-step=73.ckpt (torch, 807091 bytes, 24 tensors)

neural_predicates.digit.conv1.0.weight f4 [16, 1, 5, 5]
000000 9c 97 2b 3e 28 9d b6 bd bb 7e ea bd b8 e6 b5 bd
       0.16757053 -0.08916694 -0.11449953 -0.08881897
000010 c5 2d 48 3d 5b 9d 64 bd f3 cf 2e be 29 43 e5 3d
       0.048871774 -0.05581413 -0.17071514 0.111944504
000020 20 dc 81 3d 9f be 00 3e aa 2b d8 bd d4 30 28 3d
       0.06340814 0.12572716 -0.10555203 0.04106219
000030 00 97 c5 bd 2e f5 2b 3e 7a b7 66 3e f9 37 bc 3d
       -0.096479416 0.16792747 0.22530928 0.091903634
000040 10 c0 04 3e f5 22 1c 3d c9 09 38 3b f1 d6 ee 3d
       0.12963891 0.038119275 0.0028082004 0.116620906
000050 90 51 cd bd a0 6b 1a be c2 91 1a 3d 81 ed 17 3e
       -0.100253224 -0.15080118 0.03773666 0.14836694
000060 b4 78 29 3e 5f 6a b7 3d 1a 7e 66 3e e0 cf 11 3e
       0.16549951 0.089558356 0.22509041 0.14239454
000070 9d 87 27 be 2b 1d 14 3e 5e f9 3b 3c 8c 52 a1 bd
       -0.16360326 0.14464252 0.011473028 -0.07877073
000080 43 15 4f 3e 26 d6 5e bd a1 0c 42 3e 76 28 ee bc
       0.20222954 -0.054403447 0.1895013 -0.029072028
000090 e9 11 24 3e 38 7e f2 3d 1d 2e 99 bd 98 fc 38 3e
       0.16022457 0.118404806 -0.074794985 0.18065107
0000a0 a3 cf aa bc 2a c0 df 3d 8b 9a ac 3c 67 0c dc 3d
       -0.020850962 0.10925324 0.021069786 0.10744553
0000b0 a5 1e 55 3e 7c f5 20 be f8 71 50 bc 0d 6e 1a be
       0.20812471 -0.15718645 -0.012722485 -0.15081044
0000c0 63 80 2e 3d 96 e9 7a 3d ab ce db 3c ee 07 99 3d
       0.042602908 0.06125792 0.026831945 0.074722156
0000d0 81 01 2b be b1 22 40 3d c1 e7 fd bc 7b 93 36 be
       -0.16699792 0.046908084 -0.030994298 -0.17829697
0000e0 f8 d5 1b be 89 94 8b bd 13 35 e8 bd 7f 09 c6 bd
       -0.15218341 -0.0681544 -0.11338248 -0.0966978
0000f0 45 54 55 bc 9e 66 38 3e 7b ec 98 bc f4 62 84 bd
       -0.01302058 0.18007895 -0.01866745 -0.06464186
000100 58 b3 fe 3c 81 26 0c 3e 93 ba ef bd 0b 8a 41 be
       0.031091377 0.13686563 -0.11705508 -0.18900315
000110 32 f0 fb bd b5 e5 df bd cf b6 29 bc 91 da 2d bc
       -0.12301673 -0.10932485 -0.010358526 -0.010611192
000120 33 98 65 3e 5c 1e 3f 3e c7 7b 47 3e a6 53 0c bd
       0.2242134 0.18663925 0.19480811 -0.03425946
000130 1e 7f 42 be 9e f9 6b 3d 04 9c 4c 3e f3 5b 2d 3e
       -0.18993804 0.0576111 0.1998139 0.16929607
000140 1d 5a 31 be 96 f5 a8 bc d3 c3 32 be e3 d5 18 3e
       -0.17319532 -0.020624917 -0.17457514 0.14925341
000150 80 25 df 3d c1 64 09 be 64 45 2c be ca 16 10 3e
       0.108958244 -0.13417341 -0.16823345 0.14071193
000160 9f 5b 0b be d5 d3 90 3d db 89 fe 3c 3c 2e 46 3d
       -0.1360917 0.07071654 0.031071594 0.048383936
000170 1f ac 24 3e ad 29 be 3d 0f bd 35 3e 50 9c 39 be
       0.16081284 0.09285293 0.17747901 -0.18126035
000180 ca ed 12 3e 9a 91 38 bd a7 c9 33 be a6 6f 76 3d
       0.14348522 -0.04506073 -0.17557393 0.06016507
000190 0f 16 1c 3e 29 49 50 3e b5 d2 02 3e f6 12 6f bd
       0.1524279 0.20340408 0.12775691 -0.058367692
0001a0 0c 15 25 3e 3a 85 3e bd 30 7a ba bd a1 6b 44 3d
       0.1612131 -0.046513774 -0.09105337 0.047954205
0001b0 b0 cf 0a 3d ef e9 46 bd 6f 8b 2f 3e df 0c f9 bc
       0.033889472 -0.04856294 0.17143033 -0.030401645
0001c0 60 a1 37 bd ee b5 42 be 99 02 34 be dc ac e8 bc
       -0.044831634 -0.19014713 -0.17579116 -0.028402738
0001d0 9b ae 98 3c 4d f2 62 3e f6 f5 02 3d 40 1f 5d bc
       0.018637946 0.22162743 0.031972848 -0.01349622
0001e0 6d 80 c7 bc 88 da 4a bd 6e 12 0d 3e 82 24 7c 3b
       -0.02435323 -0.049524814 0.13776562 0.0038473909
0001f0 1e a9 12 3e 1a 05 3f 3e dc 83 14 3d 29 1a 27 be
       0.14322326 0.1865429 0.036258563 -0.16318573
000200 2d 9b 42 be ef f3 55 be e0 20 07 be 58 db f7 bd
       -0.19004507 -0.20893835 -0.13196135 -0.121023834
000210 fb e5 85 3d f2 0d 23 be 0f 84 c0 bd 19 10 b6 3d
       0.06538006 -0.15923288 -0.09400188 0.08889789
000220 7e 45 ba bd 97 b5 5d bb ff dc 1d be a3 94 1a 3e
       -0.09095286 -0.003383016 -0.15416335 0.15095763
000230 99 26 fb 3d 82 25 8a 3d 60 53 3a be 71 bd 1d 3d
       0.12263221 0.06745435 -0.18195868 0.038510744
000240 3e 0f b8 bd 9d 07 f0 bd ef eb 76 3d 3f 05 06 be
       -0.08987282 -0.11720202 0.060283598 -0.13087939
000250 50 f5 30 be bd 85 2e be bc d6 43 3d 92 69 c3 bc
       -0.1728108 -0.17043205 0.04781221 -0.02385405
000260 0d 27 54 3c 18 f5 20 be dc 00 7f bd 1a b0 85 3c
       0.012948764 -0.15718496 -0.06225668 0.016319323
000270 3e 18 ac bc e8 b6 39 bd 09 6e 45 be 19 6b ce bd
       -0.021007653 -0.04534045 -0.19280256 -0.10079021
000280 00 5e 17 be 83 45 06 3e e5 71 92 bc 2f e7 1c 3e
       -0.14781952 0.13112454 -0.017876575 0.15322565
000290 4c 49 e8 3d 22 d2 90 3c 46 0f a4 bc 88 86 57 3e
       0.11342105 0.017678324 -0.020026814 0.21047413
0002a0 f4 66 f6 bd a1 ae 99 3d 51 5c 14 be 67 fe ea ba
       -0.120313555 0.07504011 -0.14488341 -0.0017928601
0002b0 93 a4 36 3e 04 a0 01 bb 0d 17 66 3e 58 e0 02 3d
       0.17836218 -0.0019779215 0.2246973 0.031952232
0002c0 93 f6 10 be cc 19 4d 3e 5d 5e 52 3e ea ee 39 be
       -0.1415656 0.20029372 0.20543809 -0.18157545
0002d0 93 cc 34 bd dd 6e 92 bd 68 6d 3b 3e 53 f8 a1 3d
       -0.04414041 -0.07150052 0.18303454 0.07908692
0002e0 a5 22 21 be a5 a6 17 3e 6b 83 2a be 7e d0 6c bd
       -0.15735872 0.14809664 -0.16651694 -0.05781602
0002f0 44 2a 2e bd 56 9a 06 be 5b d5 ed 3d cc 1b ac 3d
       -0.042520776 -0.13144812 0.1161296 0.08403739
000300 cb 7d 5d 3d bb 41 c8 bd b1 5a 72 bd 97 98 46 3d
       0.054075044 -0.09778162 -0.05916852 0.048485365
000310 be 6a 2d 3e 3f 99 ef 3d 7c 17 37 be a9 47 f6 bc
       0.1693525 0.11699151 -0.17880052 -0.030063467
000320 71 e5 f8 3d 59 70 1f 3d 87 5c 49 3e 22 35 0e bc
       0.121531375 0.038925502 0.19664203 -0.00867966
000330 67 d8 49 3e 8e f3 f9 bc 12 90 d9 3d d9 f3 10 bc
       0.19711457 -0.030511644 0.10623182 -0.0088472
000340 a5 a1 be bd a3 39 d2 3c 6a fe 4f bd a6 42 be 3d
       -0.09308175 0.025662249 -0.050779738 0.09290056
000350 6d f7 4b be d7 cd 03 3c b3 de a8 bd 59 75 2c 3e
       -0.19918604 0.0080446815 -0.082456015 0.1684164
000360 7c 64 1f be ab 01 ae 3d 79 80 aa bb f6 84 25 be
       -0.15565675 0.08496412 -0.0052033034 -0.16164002
000370 47 5f 40 3e 39 e1 2f be 46 0c 26 be 4f 7a 30 bd
       0.18786345 -0.1717576 -0.1621562 -0.043085393
000380 c2 05 b0 bd 75 15 9d bd e7 dd c1 bd ac 4b 04 3b
       -0.08594848 -0.07670108 -0.09466153 0.0020186706
000390 03 01 8e 3d 43 da 2b 3e bb cb 4a 3e af 6f 47 3e
       0.06933787 0.16782479 0.1980428 0.19476198
0003a0 76 8b 77 bd a2 01 d1 3d 9d 05 b4 3d 55 f8 2e be
       -0.060435735 0.102053896 0.08790133 -0.17086919
0003b0 cc ea d2 bc 68 95 4b be 89 c6 5e bc 78 8c 3a 3e
       -0.025746725 -0.19881213 -0.013597139 0.18217647
0003c0 a8 85 16 be 9b 57 0b be 6a 46 58 be f6 ea 0b 3d
       -0.14699423 -0.13607638 -0.21120611 0.034159623
0003d0 39 f3 6a 3a cc 74 36 be 24 61 9a bd 9d 05 1b bb
       0.00089626346 -0.17817992 -0.07538059 -0.0023654469
0003e0 ff 71 d8 bd f5 f0 be bd 20 4f da 3d 59 8b 69 3e
       -0.10568618 -0.09323303 0.10659623 0.22807063
0003f0 62 4c b6 bb 0e fa 7e 3d eb 82 36 be 04 00 7c 3c
       -0.0055633048 0.06225019 -0.17823379 0.015380863

neural_predicates.digit.conv1.0.bias f4 [16]
000000 b2 c1 de 3d cb d4 be bb a5 78 24 3e 6a 7c 2a 3e
       0.10876788 -0.0058237067 0.16061647 0.16649023
000010 e4 dd 1b 3e 98 6a 1a 3e 29 94 14 3e d0 78 24 bd
       0.15221363 0.15079725 0.14509644 -0.04015428
000020 c1 fc db 3c a2 c8 d2 bb 43 34 62 3d 42 5a 9e bd
       0.02685392 -0.0064326087 0.055225622 -0.07732059
000030 ad 44 49 bd 37 f0 02 3e 34 a6 20 3d 7c c8 24 3e
       -0.04913776 0.12786947 0.039221004 0.16092104

neural_predicates.digit.conv2.0.weight f4 [32, 16, 5, 5]
000000 3f 55 68 3c ad 04 57 bc 46 e0 96 3d 03 78 2e bc
       0.0141804805 -0.013123673 0.073669955 -0.01064873
000010 f0 25 00 bc bb 8f 8a bd 0a 4b f2 39 b8 42 8e 3d
       -0.007821545 -0.06765696 0.00046213745 0.06946319
000020 7b b4 86 3b ae ca 89 3c 40 ed 85 bd c9 76 be 3b
       0.0041108704 0.016820278 -0.065393925 0.0058125
000030 f2 62 00 3d cf 54 d6 3c 6a 5d 21 bd 8d 11 d9 bc
       0.03134436 0.026163487 -0.039395727 -0.026497627
000040 74 34 1a bd 4e a2 92 3d 6f e9 34 3d e7 d5 07 3c
       -0.03764768 0.071598634 0.044167932 0.008290744
000050 ee 30 05 bd 76 61 47 bd 76 3e 4d bc 45 dd 06 3b
       -0.032517366 -0.04867693 -0.012527099 0.0020578664
000060 de dc e4 3c 7b cb 3e 3d 58 33 62 3d 20 ad 6b 3d
       0.027937349 0.046580773 0.055224746 0.05753815
000070 be 57 42 3b fb e0 06 bd b6 08 14 bd 27 20 04 bd
       0.002965435 -0.0329294 -0.03614112 -0.032257225
000080 cd 1f c7 bb 8c 3f 55 3b 73 84 85 bb c0 0b 85 bd
       -0.006076789 0.0032539098 -0.004074627 -0.06496382
000090 da b6 b8 bc 99 89 06 3b af 58 2c bc aa ec 93 bc
       -0.022548128 0.0020528792 -0.010519191 -0.018057186
0000a0 5a e7 59 3b b4 2f 1b 3a 0d fa 06 bd 85 d4 77 3d
       0.0033249469 0.0005919889 -0.03295331 0.06050541
0000b0 50 70 17 bd f5 10 70 bc d9 4c 1a 3d eb c0 06 bd
       -0.036972344 -0.01465248 0.037670944 -0.032898825
0000c0 fe 60 85 bb 61 2a 00 3d 32 ae 5f bd b4 3e 78 bd
       -0.0040704003 0.031290416 -0.054609485 -0.060606673
0000d0 fa a3 84 bc 1a ec 65 bd 21 56 17 bd 70 10 0d 3c
       -0.016191471 -0.056133367 -0.036947373 0.008609876
0000e0 77 8d e9 bc dd 09 c7 ba fe ad 54 bd ba fd c1 3c
       -0.028509839 -0.0015185435 -0.051923744 0.023680557
0000f0 6f 3c 2d 3c a1 25 0d bd 2e f4 15 bd 73 82 3a bc
       0.0105734905 -0.034459714 -0.03660982 -0.011383641
000100 75 09 88 3c ba 6f 60 3c 05 5c 76 3c 5a 4e f6 bc
       0.016606072 0.013698513 0.015036588 -0.030066658
000110 c2 6a 10 3d bc 0b 8c bc 14 76 10 3d 2e c8 e4 bc
       0.035258062 -0.01709544 0.035268858 -0.027927484
000120 27 00 d4 bc 5c 61 47 3d 45 e3 52 3d 19 a9 0a bd
       -0.025878979 0.048676834 0.051486272 -0.03385267
000130 83 c2 61 3d ae b5 de 3b 81 af 45 3c 29 85 18 3d
       0.05511714 0.0067965603 0.012065769 0.037236366
000140 d6 d3 48 bd da 77 8a 3d ea 64 b2 3c 3a 35 53 3a
       -0.049030147 0.06761141 0.021776635 0.00080569426
000150 47 39 90 bb fd d5 9b bd 95 de 98 bb af 3e 28 3d
       -0.0044013592 -0.076091744 -0.0046652057 0.041075405
000160 db e3 75 3d 42 64 f5 3c e1 84 ae bd f2 64 d0 3c
       0.060031753 0.029955033 -0.085214384 0.02543876
000170 41 c4 a4 bc 05 af b0 3c 43 29 38 bd af c5 44 bd
       -0.020113112 0.02156783 -0.044961225 -0.04804009
000180 41 b3 32 3d 45 f6 f5 bb cd e3 49 3d 00 74 97 bc
       0.04362798 -0.0075061643 0.049289513 -0.01848793
000190 a1 5c 1f 3d 40 b7 97 3c 37 47 7f 3d 7e 3b 3e 3d
       0.038906697 0.018519998 0.062323775 0.046443455
0001a0 2c ef 56 3d 61 b3 15 3d 43 b9 c4 bc 69 c9 0b bd
       0.052474186 0.036548022 -0.02401412 -0.034127627
0001b0 64 32 9b 3d ea 58 13 3d 21 9e 2d bc 8c 15 4e bd
       0.075779706 0.035973467 -0.010596783 -0.050313517
0001c0 b7 e3 dd bc 6f 20 1f 3d c9 db 80 3a 13 0e 1a 3d
       -0.027086122 0.03884929 0.0009831126 0.03761108
0001d0 69 4c 86 bd 22 c7 e9 bc f4 79 1c bb 44 b9 3e 3d
       -0.06557543 -0.028537337 -0.00238764 0.0465634
0001e0 0e 5a c8 bb 52 c3 86 3c c9 c4 9a bd db d9 a5 3c
       -0.006114251 0.016450558 -0.07557065 0.020245483
0001f0 c7 6f ee 3c ba 83 f0 3c ce 8a 08 bd 58 08 5c bd
       0.029106034 0.029359687 -0.0333355 -0.053718895
000200 3f fc a1 bc 35 87 39 3d 0c ae 64 bc c3 c7 4d 3c
       -0.0197736 0.04529496 -0.013957512 0.012559834
000210 e2 cb 18 bd 4e dd 1d bc 62 b1 05 bd 13 41 8e 3c
       -0.037303813 -0.009635283 -0.03263987 0.017365014
000220 37 4f 01 3d 5d 3c f2 bc d7 85 02 3d 36 b2 c2 bc
       0.031569686 -0.0295698 0.03186592 -0.023766618
000230 90 cd 4f 3b a3 28 40 bc eb 28 66 bc c6 bc 9b 3b
       0.0031708218 -0.011728439 -0.014047842 0.004752728
000240 7d e0 7d bc a4 85 b8 bc 4c c1 53 3d ff 49 e8 bc
       -0.015495417 -0.022524662 0.051698014 -0.028355597
000250 2c 86 e7 bb f3 c1 db bc c2 7d a5 3c a7 7e 22 3d
       -0.007065555 -0.02682588 0.020201568 0.039671566
000260 d1 f2 bb 3c 31 59 f8 3c e5 93 38 bd 94 0b 96 bc
       0.022942932 0.030315967 -0.04506292 -0.018316068
000270 17 aa 17 bd c2 ff a6 bb 0b 69 8d bc 15 3f 30 bd
       -0.037027445 -0.0050964067 -0.017262002 -0.04302891
000280 53 e7 74 3c c6 af a5 ba 3d e7 da 3b 57 a8 11 bd
       0.01494773 -0.0012640886 0.006680398 -0.035560932
000290 3f c5 ac bc 59 d2 c4 bc cf dd 0f bd 0d 50 df bb
       -0.021090148 -0.024026083 -0.035123643 -0.0068149627
0002a0 bb 2d cb 3c 76 83 fa bb 85 c1 08 3d 53 02 58 3c
       0.02480208 -0.007645066 0.03338768 0.013184148
0002b0 9e 98 b1 3c f6 17 42 3c 7d 83 64 3d df 62 f6 3c
       0.021679219 0.011846533 0.05578946 0.030076442
0002c0 47 01 91 bc 88 da be bc 1b 6b 21 3d 56 52 57 3d
       -0.017700804 -0.023297563 0.039408784 0.052568756
0002d0 18 aa b6 bc 08 9a c8 bb 01 55 9b 3c 3d 05 92 bc
       -0.022297904 -0.0061218776 0.018961431 -0.017824763
0002e0 62 33 f7 3b d1 72 43 3d 05 81 b2 3c 5e 77 e3 bb
       0.007543967 0.04771692 0.021790037 -0.00694172
0002f0 10 c8 7e 3d 52 4b 58 3c c2 9a de bc f8 2e c9 3c
       0.062202513 0.0132015515 -0.027173404 0.02455853
000300 8d f8 4c bd 5c 56 23 3c c9 f0 a6 bc 9b 6e fc 3c
       -0.050041724 0.00996932 -0.020378487 0.03081446
000310 a6 9b 88 bc 4c c4 e5 bb 85 90 ea 3c 64 e5 26 3d
       -0.016675781 -0.007011926 0.028633365 0.040746108
000320 25 f6 8d bc 2a bf 12 bc a1 d7 4e bd 76 8c 11 3d
       -0.017329285 -0.00895671 -0.05049861 0.035534345
000330 6f c9 84 3d 3f 52 ea 3c c7 85 ab 3b 6b 45 c9 bc
       0.06483733 0.028603671 0.0052344534 -0.024569234
000340 d3 e8 0f 3d 40 02 ff ba 38 c5 3b 3d 62 9a 6f 3c
       0.035134148 -0.0019455627 0.04584238 0.01462421
000350 a5 32 fe bc be 13 cd bc 25 70 cd 3a 5d c4 79 bc
       -0.031030009 -0.025033828 0.001567368 -0.015244571
000360 4c 2e 8e bd 70 5a 14 bd d8 28 2e 3d 94 cc 80 3d
       -0.06942424 -0.03621906 0.04251942 0.0628902
000370 23 99 a4 39 4f 1a 2b bd 62 70 29 bd ea bf ed bc
       0.00031394613 -0.041773137 -0.041366942 -0.029022176
000380 3e 15 ac 3b 83 d0 05 bd 42 02 0d 3b e5 79 05 bd
       0.0052515557 -0.032669555 0.0021516238 -0.03258695
000390 9f b5 36 bc fa 1b d1 bb 38 ae 1c 3d 7e 8c 76 3d
       -0.0111517 -0.006381509 0.038252085 0.060192578
0003a0 5b 4d 18 3d 9d 15 9f bc 23 b5 6c bc 44 4f cc 3c
       0.037183147 -0.019419486 -0.014447483 0.02494014
0003b0 b7 34 22 bc 4b 6c 00 3d 56 09 db 3c b4 68 33 3d
       -0.0099002635 0.031353276 0.02673785 0.043801025
0003c0 f0 f6 21 bc 86 f7 1a 3d 86 2c 61 3d 6d 70 c5 bc
       -0.009885535 0.037833713 0.0549741 -0.02410146
0003d0 71 67 1f 3d 9a 83 41 ba d2 a4 57 3d 7d eb 9e 3b
       0.03891701 -0.0007381976 0.05264742 0.0048498497
0003e0 75 1b cd bc e2 60 02 bd 08 d1 d6 bc 1e f9 ed bc
       -0.025037507 -0.031830676 -0.02622272 -0.029049452
0003f0 dd 7e 36 3c 24 a8 4f 3d ae d1 2c 3b bb 5f 5f 3c
       0.011138645 0.05069746 0.0026370096 0.013633664

neural_predicates.digit.conv2.0.bias f4 [32]
000000 63 93 93 bc a5 7a fa 3b 87 16 08 3d ef 86 2a 3c
       -0.018014615 0.007644015 0.03322461 0.010408147
000010 a5 89 fc 3c cb d6 35 3d fb e7 54 bc cc ba 0c bd
       0.030827353 0.044394296 -0.012994762 -0.03435783
000020 d5 ee 23 3c 9f 53 41 bd d6 59 93 3c 0a e3 6a bb
       0.010005672 -0.047198888 0.017987173 -0.0035840892
000030 04 25 4b 3d 07 d8 1f bc 8c 24 47 bb 85 d0 5e 3c
       0.049595848 -0.009756095 -0.0030386774 0.01359952
000040 f2 a9 00 3d b2 c2 f6 bc 5c 74 ba bc 6e 02 29 bc
       0.031412072 -0.030122135 -0.022760563 -0.010315521
000050 30 5e 7e bc 00 47 03 bd 48 91 1f 3d 51 52 4b 3d
       -0.015525386 -0.032050133 0.03895691 0.04963905
000060 c5 bf 0c 3d f2 f5 0b bd 52 3e a3 3c c0 4a 36 3c
       0.034362573 -0.0341701 0.019927178 0.01112622
000070 54 36 ec 3c 91 66 3c bc be 32 29 bd 32 a0 55 3d
       0.0288345 -0.011499063 -0.041308157 0.052154727

neural_predicates.digit.conv3.0.weight f4 [64, 32, 5, 5]
000000 19 f6 14 3a 15 ae 17 bd 14 2b 6f bc 68 cf 4f bc
       0.00056824234 -0.037031252 -0.014597673 -0.012683727
000010 85 d3 26 bd 6f 1e 31 bc 3a ab 10 bc a6 8d 03 3d
       -0.040729064 -0.010810479 -0.008829886 0.03211751
000020 65 70 c1 3c 23 c2 da bc 77 dc 8b bb 34 64 27 bd
       0.023613164 -0.0267039 -0.004268225 -0.040867046
000030 22 9b 76 3c 0e c5 91 bb 20 a3 ac 3a e3 9d 2a bd
       0.015051635 -0.0044485396 0.0013171174 -0.04165448
000040 9c 72 e3 bc a6 0b be bb ab d3 f0 3c 77 4f 74 b9
       -0.027764611 -0.0057997284 0.029397806 -0.00023299256
000050 33 10 f6 bc 2b c7 75 bc 83 2f 53 bc 20 ea 22 3d
       -0.030037021 -0.015001099 -0.012889746 0.03977406
000060 2a 0b 0e bd b3 8c f7 bc c3 44 b1 bc 4d 35 00 bd
       -0.034678616 -0.030218458 -0.021639233 -0.03130083
000070 48 06 3e bb 82 5b e0 ba 03 ac a3 bc d3 76 d9 3c
       -0.0028995443 -0.0017117115 -0.019979483 0.026545918
000080 c5 ef 3f bd e7 6f 8b bc 18 aa 1a 3d af 84 83 3c
       -0.04685952 -0.017021133 0.03775987 0.01605448
000090 62 0f 05 bc b2 59 ec bb 6d 41 5a bc e5 c9 8a bb
       -0.008121343 -0.007212841 -0.013321263 -0.0042354935
0000a0 45 8c c6 bb 33 cd 24 bc e0 d9 34 bd 92 88 a2 3c
       -0.006059202 -0.010058689 -0.044153094 0.019840512
0000b0 10 81 8b bc 52 34 24 bd 2c 47 f5 3c 56 47 96 bb
       -0.017029315 -0.04008896 0.029941164 -0.0045861406
0000c0 44 46 28 3c 50 37 4f bc 88 26 b3 3c 3b 88 23 3c
       0.010270659 -0.012647465 0.02186896 0.00998121
0000d0 f0 32 04 3d ef 6c 61 3c d6 e7 48 3d c5 db 2d 3d
       0.03227514 0.013758882 0.04904922 0.042445917
0000e0 3e 04 37 3c 7e 9e 36 3d 6f ca b3 bc d5 d4 62 3b
       0.011170445 0.044584744 -0.021947114 0.003461172
0000f0 b0 a5 25 3d 73 f4 7f bc 48 e1 fd bc d0 71 36 bd
       0.040441215 -0.015622246 -0.030991212 -0.044542134
000100 95 32 c2 3c ff 0e cc 3c f6 96 68 3c 39 85 1d bc
       0.02370576 0.024909494 0.014196148 -0.009614282
000110 6d 49 2d bc e5 82 39 3c ed 58 2d 3d 30 53 f2 3c
       -0.010576588 0.011322712 0.042321134 0.029580683
000120 07 55 83 3c f7 0b 01 3d 25 5a fe 3c 39 d4 b0 bc
       0.016031755 0.03150555 0.031048844 -0.02158557
000130 57 0a 19 3d 78 68 d8 bb 62 12 24 bd 2b 4c 67 3d
       0.037363376 -0.0066042505 -0.040056594 0.056469124
000140 d4 49 2a 3d ce f7 13 3c b2 dd ac bc 8d 68 0d bd
       0.041574314 0.009031249 -0.021101806 -0.034523536
000150 ee a8 bc bb d2 54 f8 3c de 39 52 bc 6a cd f4 3c
       -0.0057574427 0.030313883 -0.012831179 0.029883105
000160 b1 07 8d bc f1 de 14 3d 3e 28 f9 bc bb 88 7a bc
       -0.017215582 0.036345426 -0.030414697 -0.015291388
000170 33 a9 d6 3b 34 5b c0 ba f0 45 c8 bc f4 90 c2 3c
       0.006550932 -0.0014675618 -0.024447411 0.02375076
000180 92 11 ef bb 71 66 72 3c 1c 31 aa 3c cb ee 22 bc
       -0.0072957957 0.014794932 0.02077537 -0.009944628
000190 33 31 0d 3c 01 0e c9 3b fd 95 6b 3b 6e 94 ae 3c
       0.008617687 0.0061357026 0.0035947554 0.021311011
0001a0 25 ce 0e 3d 9d 04 a3 3c 83 13 06 3c 59 9f 93 bb
       0.034864563 0.01989966 0.008183363 -0.0045050797
0001b0 d6 60 ea bb da 7e 43 3c bf 0e 6e bc fc c8 ea bc
       -0.007152657 0.011932099 -0.014529883 -0.02866029
0001c0 bc 11 a5 bc 01 8a 25 3c 0d 70 5c 3a 36 cc 4d 3c
       -0.020150058 0.0101037035 0.0008409031 0.012560895
0001d0 66 63 e5 3c 11 22 15 bd aa ab 5c 3c e7 3c 5a bc
       0.028001498 -0.03640944 0.013468662 -0.013320184
0001e0 a3 87 21 bd ec c6 6f bc 87 63 cc bc 6c fe 68 bb
       -0.039435994 -0.014634829 -0.024949802 -0.0035552038
0001f0 77 08 e4 3c 86 5e 26 bd 39 94 b5 3b 0b 58 d2 bb
       0.027836068 -0.04061749 0.005541351 -0.006419187
000200 97 94 3f bd 7b 0e c3 bc 3f ae 04 bd 44 a8 89 bc
       -0.046772566 -0.023810616 -0.032392737 -0.016803868
000210 80 b3 c1 bb c8 fb 3c bd be 4a ad bc 33 bb 3d bd
       -0.0059112906 -0.046138555 -0.021153804 -0.046321105
000220 92 07 27 bb ac 02 29 bc 27 6e fb bc 2a 64 86 3c
       -0.002548669 -0.010315578 -0.030692173 0.016405184
000230 6f b8 ab ba 41 02 c0 3a f9 cf 8c 3c 10 9a 4d bc
       -0.001310123 0.0014649109 0.017189013 -0.012548938
000240 12 50 37 bd a3 e8 95 bc eb 02 3b bc c3 0e 10 3d
       -0.044754095 -0.018299406 -0.01141427 0.035170328
000250 4f cd 06 bd 0c c0 5c bc 7b 68 8b bc ac 8b 1d 3a
       -0.03291064 -0.013473522 -0.017017594 0.00060098874
000260 fd f8 f9 3c 55 bb 8e bc e9 3c 93 3c 44 3a 5d bc
       0.030514235 -0.017423311 0.01797338 -0.013502661
000270 ea 02 7f 3c bb ea 5c 3d 5a 9c 28 bd 90 a3 c3 bb
       0.01556466 0.053934794 -0.041164733 -0.005970426
000280 2b ca 3d bd bf 01 25 3d 00 1f 13 3d 00 26 7c 3b
       -0.04633538 0.04028487 0.035918236 0.0038474798
000290 3b 53 13 3d e9 30 b0 3b 3d 2d 18 3a 64 16 08 3b
       0.035968047 0.0053769243 0.0005805081 0.00207653
0002a0 f3 ac 63 bc 17 01 c5 3c 9b 2e 9f 3c 4c d7 e0 3c
       -0.013896215 0.024048371 0.019431403 0.027446412
0002b0 25 f9 1f 3c 17 a9 d7 3b 52 4a a1 3c b8 83 d0 3c
       0.0097639905 0.0065814364 0.019688759 0.025453433
0002c0 b8 16 cb 3c 29 12 22 bd 9f f0 a5 3c ac 98 11 3d
       0.024791107 -0.0395681 0.020256339 0.03554599
0002d0 a8 35 65 bc f6 68 77 b7 9d cc c2 ba 61 f0 06 3c
       -0.013989843 -1.4746785e-05 -0.0014862005 0.008236022
0002e0 1e 35 58 ba d1 55 51 3c 19 65 f0 bc ba a4 77 3c
       -0.0008247661 0.012776808 -0.029345082 0.0151149575
0002f0 6d 6f 34 bc 6e db 95 3c 02 58 d6 3c fc b6 a6 3a
       -0.011012894 0.018293109 0.026165012 0.0012719329
000300 3d 46 63 bc f4 b7 f9 3c 68 d1 f8 3c 52 75 6b 3a
       -0.013871727 0.030483223 0.03037329 0.00089820207
000310 19 9c bb bc f1 ff 80 3c ef 54 d8 3c 74 a0 e7 3c
       -0.022901582 0.015747042 0.026407687 0.028274752
000320 4d a3 18 bd 9a bf 8d 3b 44 62 a0 3c bc d8 cb bc
       -0.03726511 0.004325819 0.019578107 -0.02488362
000330 51 c6 c9 bc fd 7a b3 3c bc 7b 7b 3c fe 0d 52 3d
       -0.024630697 0.021909231 0.015349325 0.051282875
000340 26 45 c7 3b 8f 6a 23 bd ed bf 98 bc e8 b6 aa 3c
       0.006081241 -0.039896544 -0.018646205 0.02083917
000350 f5 02 93 3c 64 a2 3a 3c 5f 9a 05 3d 16 55 f0 bc
       0.017945746 0.011391256 0.032617923 -0.029337447
000360 61 d6 81 bc ab 3e 9c 3c d7 b9 21 bd 92 3b bc 3c
       -0.015849294 0.019072851 -0.03948387 0.022977624
000370 62 77 03 3d e0 f3 95 3c 71 68 90 3b 96 1c 02 3d
       0.032096274 0.018304765 0.0044069816 0.031765543
000380 ad 8b ec 3c 1b 16 84 3b ea a0 61 bc d8 dd 97 bb
       0.028875196 0.0040309555 -0.013771275 -0.0046346
000390 56 6c 4d bc 1a 65 75 3c 59 b8 ca bb 95 ae 97 bc
       -0.012538036 0.014977718 -0.0061865267 -0.018515864
0003a0 d6 01 c2 3c eb c0 9d 3c 46 bc 01 bc 89 1a 93 3c
       0.023682516 0.01925703 -0.007918423 0.017956989
0003b0 6b 3b 5a bc 61 d1 05 bd 3b 5a b3 bc 41 bd b3 bb
       -0.01331983 -0.032670382 -0.021893611 -0.0054852073
0003c0 c0 ea 58 3a 84 78 2a 3c 66 fb ff bc 14 f3 9e bc
       0.00082747266 0.01040471 -0.031247806 -0.019403018
0003d0 92 be b3 3c e4 4e ce bc 3f af 1f 3c 81 57 bf bc
       0.021941457 -0.025184102 0.009746372 -0.023357155
0003e0 cf e6 a6 bc 42 9c 1d 3c 98 59 b6 3c 6d 18 00 bd
       -0.02037373 0.009619774 0.022259519 -0.031273294
0003f0 c0 56 b6 bc 31 cd 4b 3d d9 84 8c bb 05 8c 94 3c
       -0.022258162 0.049756233 -0.0042882976 0.018133173

neural_predicates.digit.conv3.0.bias f4 [64]
000000 c3 e6 16 3c 17 ed ba 3c c0 70 a0 36 b3 99 cb bc
       0.009210291 0.022818131 4.7814974e-06 -0.024853563
000010 ba 7d 5c bc dd fa c8 bc 79 72 be 3c 8b 47 05 3c
       -0.01345771 -0.024533683 0.023247944 0.008134733
000020 00 fb 8b bc ee b6 fa 3a 48 b3 f5 3a e0 c2 16 3d
       -0.01708746 0.0019128004 0.0018745447 0.03680694
000030 93 d0 20 3d 4d a9 37 bc 86 9c 94 bc 59 83 3b 3c
       0.039261412 -0.011209798 -0.018141042 0.01144489
000040 f5 d7 8d 3c 10 48 fe bb d3 21 a6 bc 64 f6 b8 3c
       0.01731489 -0.0077600554 -0.0202798 0.022578426
000050 40 3a b3 3c a7 ff 2d bc a7 0e f4 bc 66 a8 4d bc
       0.021878362 -0.010620034 -0.029792143 -0.012552356
000060 45 a6 f6 3c a9 1a b2 bc 94 e8 5b 3c 18 7d 97 bc
       0.03010858 -0.021741228 0.01342215 -0.018492267
000070 e5 e6 0b bd 18 40 84 3c b3 3c ac bc 13 6b c3 bb
       -0.034155745 0.016143844 -0.021025037 -0.005963692
000080 04 e5 19 3d 23 de 8d b9 2a 90 20 3d 29 1c bd 3c
       0.037571922 -0.0002705912 0.039199986 0.023084717
000090 18 72 3a bb 4d b7 cb 3c 4c b6 48 3a a3 b5 80 bc
       -0.0028449353 0.024867678 0.0007656559 -0.015711611
0000a0 0c 90 3b bc 22 1c 74 3c a9 e1 0e 3d 34 e4 28 3d
       -0.011447918 0.0148992855 0.034883175 0.041233256
0000b0 7c 12 c8 3b 31 80 88 3b ac ba 14 bd 07 88 92 3c
       0.006105719 0.004165672 -0.036310837 0.017887129
0000c0 77 46 f2 3c bb b2 0e 3d 6a da f8 3c bc 4f 7a bc
       0.029574616 0.03483842 0.030377585 -0.015277799
0000d0 21 e1 95 bb d4 0a bd 3c c3 c1 8e bc 2f 1a e4 bb
       -0.0045739566 0.023076452 -0.017426377 -0.006961129
0000e0 f1 f7 ae bc 26 69 05 bd b9 29 81 3c 3b 4d e2 ba
       -0.021358462 -0.03257098 0.015766965 -0.0017265448
0000f0 c0 5b 5c 3c d4 8c 89 3c e3 35 02 bc 65 e9 32 bc
       0.013449609 0.016790785 -0.007947418 -0.010919903

neural_predicates.digit.out.weight f4 [3, 576]
000000 5a c8 1e bd dd 29 f7 bc d0 3e e5 ba 76 94 29 3d
       -0.03876529 -0.03017133 -0.0017490033 0.04140135
000010 34 41 66 bc b9 ca 76 3d 59 31 23 3d 17 1f 31 bd
       -0.014053632 0.060251925 0.039841983 -0.04324254
000020 b6 8f b5 bc f3 da 45 bd f4 7a 74 bd c4 6b f9 bc
       -0.022163253 -0.04830451 -0.05968757 -0.030446894
000030 35 21 2b 3d db 63 59 3b 58 7a c5 3c 0f fc af bc
       0.041779716 0.003317109 0.02410619 -0.021482496
000040 ba 03 2f 3d a2 4c 84 bd 1b 56 bd bc 57 03 85 3b
       0.042728163 -0.06459929 -0.023112347 0.004059236
000050 bb bb e1 bb ea 17 71 3d 66 2e 85 bd ec 05 4b 3d
       -0.0068888343 0.058860697 -0.065029904 0.049566194
000060 49 29 b6 3c b6 47 b1 bc 61 2b 62 3d d2 65 eb 3c
       0.022236483 -0.02164064 0.05521715 0.028735075
000070 97 09 82 bc 72 08 aa bc f0 a4 f3 bc 33 18 d4 bc
       -0.015873713 -0.02075598 -0.029741734 -0.025890445
000080 32 ee b0 bc d1 a3 f6 bc 3e b9 56 bc 2d 7d 7b 3c
       -0.021597955 -0.03010741 -0.013105689 0.015349668
000090 d3 85 70 3d 22 30 13 bd de 5b 0b ba e5 69 26 3d
       0.058721375 -0.035934575 -0.00053161185 0.040628333
0000a0 69 8d 41 bd a8 45 08 3d df 19 e8 bc e1 c3 06 bc
       -0.047254 0.033269554 -0.028332649 -0.008225412
0000b0 15 38 8b bd 80 83 01 3d 14 c3 1f bd 1c 45 c6 bc
       -0.06797806 0.03161955 -0.0390044 -0.024202876
0000c0 c1 f7 26 3d 49 e2 4a 3d a2 b6 4d 3d 61 bd dd bc
       0.04076362 0.04953221 0.050223 -0.027067842
0000d0 88 75 f9 3c 7e 43 05 3d dc 73 2a bd e5 95 72 bd
       0.030451551 0.03253507 -0.0416144 -0.05922498
0000e0 d6 fb f5 3b 39 6d a7 bb 74 f2 3b 3d 06 e9 85 3c
       0.007506828 -0.005109456 0.04588552 0.016346466
0000f0 5d f8 6e bd 39 32 e9 bb d0 65 b9 bb ba 6b 27 3d
       -0.058342326 -0.0071165827 -0.005657889 0.04087422
000100 89 4c 1b bc e6 00 3c 3d 32 b2 18 3d 6c 36 11 bd
       -0.009478697 0.045899294 0.037279315 -0.03545229
000110 d8 e1 a8 bc 7c a2 e8 3c b0 25 05 bd 03 f6 f4 ba
       -0.020615503 0.028397791 -0.032506645 -0.001868904
000120 f0 b3 8c 3c 7e bb 87 3c 5f 62 ba bc c7 3e 01 bd
       0.017175645 0.016568895 -0.022751985 -0.03155401
000130 c9 c5 46 3d 39 c5 42 3c 08 36 58 3c 50 34 97 bc
       0.048528466 0.011887842 0.013196476 -0.018457562
000140 c7 f3 3b bc 72 6f f1 ba bf ee ab bc df 49 3f bd
       -0.011471695 -0.0018420054 -0.020987866 -0.04670131
000150 d6 06 1b 3c cf b2 a6 bb 22 a5 53 3d 34 0d 2f 3d
       0.009462079 -0.0050872336 0.051671155 0.0427372
000160 34 59 3c 3d 1e a2 8a bc 36 22 a3 bc 55 6d 06 bd
       0.04598351 -0.016923007 -0.019913774 -0.03281911
000170 67 eb 45 3d 0a 80 1b 3b 5a de d9 bb c1 2c 97 3b
       0.0483202 0.002372744 -0.006648821 0.0046134894
000180 82 1d b0 3c ed ea 35 3d 89 0f 16 bd dc b0 93 bb
       0.021498445 0.044413496 -0.03663591 -0.0045071673
000190 f6 08 84 bc 78 1c 35 bb 70 62 7f 3d dc 96 fd bc
       -0.016117554 -0.0027635377 0.062349737 -0.030955724
0001a0 79 7d 67 bc d0 02 af bc 9e 82 62 3d cb 80 83 3c
       -0.014129036 -0.021363646 0.055300348 0.016052624
0001b0 d9 c3 78 3d ee c4 d2 3c 43 5d 34 3d e9 93 22 bd
       0.06073365 0.025728669 0.044034254 -0.03969184
0001c0 a8 30 bb bc a1 ce a6 3c c5 53 17 3d 77 5e 02 bd
       -0.02285035 0.0203622 0.036945123 -0.03182837
0001d0 b5 c0 07 3b e8 b3 fb 38 3b 20 0a bd 15 e0 1e bd
       0.0020714228 0.00012002123 -0.033722144 -0.03878792
0001e0 00 ca 97 bb ac 95 dd 3b 98 b3 26 3d 0d ae cc bc
       -0.0046322346 0.006762227 0.040698618 -0.024985338
0001f0 2c cb 00 3c 11 9d 61 bd 22 50 5e bc 62 5a 30 bb
       0.00786094 -0.05508143 -0.01356891 -0.002690934
000200 79 b5 9c 3c 71 7c d9 3b 76 2c 10 bd 8c 89 4b bd
       0.019129502 0.006637149 -0.03519865 -0.04969172
000210 a1 ba 83 bc 81 fc 81 3d 13 e6 41 bd e7 5a e3 3b
       -0.016080203 0.063469894 -0.047338556 0.0069383266
000220 77 bc 9c bb 73 41 5b 3d 6e ee bb bc f0 57 01 3d
       -0.004783209 0.053529214 -0.02294084 0.031578004
000230 be 60 f9 bb 75 3d 34 bc e9 e6 da ba 9c e9 bc bc
       -0.0076104095 -0.011000981 -0.0016700897 -0.023060612
000240 ad 5e f3 3c 52 ea 15 3d 42 a6 dd 3c e1 b1 ff 3c
       0.02970823 0.03660042 0.027056817 0.031212749
000250 f4 2f 68 3d ec 35 35 bc 7b 23 c6 3a b3 f1 8e bd
       0.056686357 -0.011060219 0.0015116775 -0.06979694
000260 33 1d 33 3c 4b a7 9a bb a5 cd 70 bd 3d 07 81 3d
       0.010932255 -0.00471965 -0.058789868 0.06300209
000270 5c 00 eb 3b 7c ce 26 bd 4b 27 e1 3b 16 98 a3 bc
       0.0071716737 -0.040724263 0.006871139 -0.019969981
000280 ee 89 2d 3d ed 9e 78 bd a9 f6 b4 3c 96 5d ca bb
       0.042367868 -0.06069844 0.022090273 -0.006175707
000290 50 45 89 3c 60 17 01 ba 75 b4 23 bd 49 57 3f bd
       0.016756684 -0.00049244426 -0.03996702 -0.0467141
0002a0 bb de 75 bc 02 7b bd 3c a0 c1 af bc 2b 8e 34 bd
       -0.015006716 0.023129944 -0.021454632 -0.044080894
0002b0 d0 43 4d 3c 87 69 27 bd 8f 84 08 3d 97 28 fe bc
       0.012528375 -0.040872123 0.033329543 -0.031025214
0002c0 6e 04 8d bc c6 31 13 3c 8b 5d 71 bd 94 11 50 3d
       -0.017214026 0.008984035 -0.0589271 0.050798014
0002d0 60 06 a6 bc 44 c4 c0 3c f0 a8 5c bd 18 c4 ed bc
       -0.020266712 0.023531087 -0.05387205 -0.029024169
0002e0 4d a1 ba bc 93 0f 4d 3d 5f 45 05 bd 6b ac fa 3c
       -0.022781992 0.05006368 -0.03253686 0.030599793
0002f0 8b 36 bf bb 67 30 0c 3d e3 49 96 bc 8e d6 d3 3c
       -0.0058353595 0.034225848 -0.018345779 0.025859144
000300 9f e3 0c 3d 79 6d 57 bd 93 12 8c bc 5e 57 da bc
       0.034396764 -0.052594636 -0.0170987 -0.026652988
000310 ab 22 6c 3d 3f 4e f4 3c cd f1 8c 3b 26 08 61 bd
       0.05765025 0.029822467 0.004301286 -0.05493941
000320 e2 66 88 bc 1f de 6a 3d 33 87 8d 3b ca ae bb 3c
       -0.01665062 0.057340737 0.0043190955 0.022910494
000330 d8 b4 74 3c be 4c de 3c 28 9f 17 3d 53 12 82 3d
       0.014935695 0.027136203 0.037017018 0.06351151
000340 6c 18 cd 3c cc a6 0e 3d 52 8a ba 3c 64 12 52 3c
       0.02503606 0.03482704 0.022771034 0.0128217675
000350 33 69 d4 bc 14 c4 c8 bc a0 bb 2b 3d a9 fa 5a bd
       -0.02592907 -0.02450756 0.04192698 -0.053461704
000360 74 22 2e 3d ae eb 96 3b ae ae 19 bd 51 02 28 3d
       0.042513326 0.004605732 -0.037520103 0.041017834
000370 ac c8 ad ba 65 57 56 3d 5e 10 1f bd a7 4a 87 bd
       -0.0013258657 0.05232944 -0.03883397 -0.06606036
000380 44 d8 3e 3d 05 76 5e bc 06 73 21 3d 63 a1 9b 3c
       0.046592966 -0.013577943 0.039416336 0.018997854
000390 8f 72 13 bd c4 2f 73 bd a3 3c 57 39 40 b4 28 bc
       -0.035997923 -0.059371725 0.00020526587 -0.010296881
0003a0 5a e1 22 3c dc 22 64 bc 78 1c be bc d1 70 bb bb
       0.009941423 -0.013924327 -0.023206934 -0.005720236
0003b0 27 39 4a 3d 8a 81 bb bb 50 fd 0e 3c a9 60 9d 3b
       0.04937091 -0.0057222294 0.008727387 0.0048027826
0003c0 f3 8b d9 3c fe aa 05 3d 81 f9 c4 3b 18 0d a6 ba
       0.02655599 0.032633774 0.0060111885 -0.0012668697
0003d0 d5 d7 15 bd 80 d6 44 bd 30 ba a5 3b 83 66 59 3b
       -0.036582787 -0.048056126 0.0050575957 0.0033172674
0003e0 07 c8 b4 bc 78 33 2c 3b 10 2a 58 3d 9f be 5d 3a
       -0.022068037 0.0026275795 0.05277449 0.0008458886
0003f0 5e e9 aa bb d6 31 ca bc fe 20 9c 3c c7 75 08 3d
       -0.005215808 -0.024681967 0.0190587 0.033315446

neural_predicates.digit.out.bias f4 [3]
000000 90 49 e4 3c 5f 02 2b 3b f8 a8 b8 bc
       0.027867109 0.0026093943 -0.022541508

exp_avg f4 [16, 1, 5, 5]
000000 67 fa 0d 3b f6 03 0e 3b 7c 2a 0e 3b fb 4d 13 3b
       0.0021664144 0.0021669841 0.0021692803 0.00224769
000010 13 c3 1b 3b 84 b6 fd 3a 83 f6 d9 3a e0 34 06 3b
       0.0023767396 0.0019356762 0.0016629252 0.0020478293
000020 d9 7a 00 3b c8 ce f0 3a 7f a6 8f 3a 2b ab 85 3a
       0.0019604473 0.0018372172 0.0010959654 0.0010198107
000030 27 b2 94 3a 0f 82 0a 3a 5d f3 44 3a 21 b9 ba 3a
       0.0011344597 0.00052836625 0.00075130706 0.0014245847
000040 e5 26 ac 3a cc a5 f1 3a 64 21 d5 3a 17 d5 c6 3a
       0.001313415 0.0018436252 0.0016260562 0.0015169707
000050 d9 94 64 3b 5b 87 6a 3b cc aa 22 3b fd e8 14 3b
       0.003487876 0.0035786245 0.002482104 0.002272188
000060 ad 0c 17 3b 7d f9 89 ba 1f 72 d8 ba 8b d6 92 ba
       0.0023048327 -0.0010526624 -0.0016513503 -0.0011202855
000070 12 9e f3 39 56 a7 1c 3b 1e 5d a0 39 35 26 1c ba
       0.00046466343 0.002390345 0.00030586956 -0.0005956621
000080 71 90 80 ba 92 52 0b ba 54 06 d2 3a c4 eb 18 3b
       -0.0009808672 -0.0005314733 0.0016023614 0.0023333887
000090 9f f1 b0 3a 90 ea 65 b9 45 dc 2e ba fc 0e 58 3a
       0.0013499743 -0.00021926523 -0.0006670396 0.0008241979
0000a0 5d db 53 3b c7 4c 2a 3b ae a1 66 3a fb 66 a0 39
       0.0032326796 0.0025985704 0.0008797896 0.00030594305
0000b0 65 8c 96 b9 78 8a 39 3b 75 87 08 3b 9e 8b a6 3a
       -0.00028714832 0.0028311294 0.0020832692 0.0012706404
0000c0 61 15 00 3a 86 98 79 ba 0e 09 65 ba f9 9f dd ba
       0.0004885998 -0.0009521324 -0.0008737006 -0.0016908637
0000d0 43 4d ff ba eb fd 88 ba e3 b3 38 b9 a1 af ac b8
       -0.0019477982 -0.001045165 -0.0001761462 -8.2343126e-05
0000e0 70 dc f9 b9 70 c2 a3 b8 80 ea b8 39 23 1d fd b8
       -0.0004765722 -7.8086625e-05 0.0003526993 -0.00012069407
0000f0 0a fc 30 39 6e bd fe 39 48 c2 e8 39 fb 0d c1 39
       0.0001687856 0.0004858779 0.0004439524 0.00036822245
000100 2c b8 43 ba 54 97 9e ba 03 7f 86 ba 9c 93 66 ba
       -0.00074661034 -0.0012099543 -0.0010261241 -0.0008795799
000110 20 e4 b8 ba d5 71 2a bb b3 e6 05 bb 1f e5 05 bb
       -0.0014106072 -0.002600779 -0.0020431697 -0.0020430756
000120 a2 77 77 bb 53 8f 96 bb c8 7f 98 bb 1b 25 e8 3a
       -0.0037760516 -0.0045947223 -0.0046539046 0.0017711254
000130 e7 84 f2 3a 2b 2a 15 3b 6b 4f 1f 3b e0 23 e6 3a
       0.0018502743 0.002276073 0.0024308811 0.0017558299
000140 16 17 01 3b 4b 1d 03 3b 15 b9 16 3b 00 2c 06 3b
       0.0019697598 0.0020006474 0.00229985 0.0020473003
000150 e9 f7 ae 3a bb 03 19 3b 01 c4 14 3b 7c 16 e6 3a
       0.001334903 0.002334817 0.0022699835 0.0017554308
000160 e8 86 e0 3a ca ac f2 b9 06 72 d7 3a 65 ac f7 3a
       0.0017130049 -0.00046286575 0.001643718 0.0018895982
000170 d4 61 e4 3a 81 8d fd 3a f6 53 92 37 ec cd 33 3b
       0.0017424175 0.001934454 1.7443654e-05 0.0027435971
000180 a9 68 4a 3b 51 8f 62 3b 45 b9 5f 3b ac 9c d5 3a
       0.0030885136 0.0034570287 0.003413753 0.0016297302
000190 a8 20 6e 3a 5a b5 da 3a 99 bb e4 3a 72 ad 2d 3a
       0.00090838457 0.0016686127 0.0017450928 0.00066252716
0001a0 ea 98 24 3a 9f 71 d9 3a cf 08 24 3b c8 ee 0e 3b
       0.00062788895 0.0016589648 0.0025029664 0.0021809805
0001b0 05 48 1b 3b 1b 1f 3f 3b 53 8a 02 3b 0a 1c b0 3a
       0.002369405 0.0029162827 0.0019918873 0.0013436091
0001c0 ed 77 8a 3a 1b ea 39 3b c8 04 6d 3b ac 4a 30 3b
       0.0010564305 0.0028368297 0.003616618 0.0026899977
0001d0 e3 c4 0c 3a 06 ef 0a 39 6d 17 8b 3a 23 23 08 3b
       0.00053699146 0.00013249749 0.001061184 0.0020772896
0001e0 f8 5d 62 3b ca 7d 12 3b 40 a5 e6 39 ae 4f bd b9
       0.0034540873 0.0022352808 0.0004399214 -0.00036108255
0001f0 15 21 5b b9 7f 58 ca bb 20 9c cd bb bc 6b b6 bb
       -0.00020897792 -0.0061751003 -0.006274715 -0.005567042
000200 aa 1f c3 bb 51 37 e5 bb 06 d2 cd bb 4d 04 bf bb
       -0.0059547024 -0.0069951196 -0.0062811403 -0.00582937
000210 27 57 a2 bb 0c 6f ab bb 76 88 a7 bb 47 fd 8b bb
       -0.004954237 -0.0052317437 -0.005112703 -0.0042721364
000220 a4 40 80 bb 5c 9f 59 bb 13 4d 62 bb be f7 35 bb
       -0.0039139558 -0.0033206558 -0.0034530803 -0.0027766074
000230 e6 7c 51 bb b9 75 64 bb 2a de 8d bb 59 fc 98 bb
       -0.0031965314 -0.0034860207 -0.0043294625 -0.004668754
000240 ff 24 a7 bb 06 8e bf bb 26 e4 b8 bb 93 f3 d5 bb
       -0.005100846 -0.005845788 -0.005642432 -0.0065292805
000250 0e f3 ec bb 19 78 f5 bb e7 80 81 3b fd 3d 90 3b
       -0.007231123 -0.0074911234 0.003952134 0.004401921
000260 c6 c3 a4 3b dc 0a b4 3b d0 42 c8 3b c5 22 3c 3b
       0.005028221 0.0054944586 0.0061114803 0.0028707248
000270 44 73 7b 3b a5 77 b0 3b 45 62 c4 3b d1 a5 b4 3b
       0.0038368264 0.0053853565 0.00599316 0.005512931
000280 8c 01 0d 3b 40 b0 22 3b 89 03 5d 3b 40 0f 78 3b
       0.0021515815 0.0024824291 0.003372403 0.0037850887
000290 a2 27 1f 3b 1c 8c f4 3a b3 8f ee 3a ba b9 d5 3a
       0.0024285098 0.0018657479 0.0018200785 0.0016305961
0002a0 04 48 e6 3a 50 fb e4 3a 4e d3 5d 3b ba 4b 2f 3b
       0.001756907 0.0017469916 0.0033847871 0.0026748017
0002b0 66 c2 c9 3a 89 12 9e 3a c2 17 46 3a be 30 fc 3a
       0.0015393018 0.0012059967 0.0007556641 0.00192406
0002c0 bf 0d 60 39 bb 0f f1 ba 7b 27 1a bb d8 1f 51 ba
       0.00021367426 -0.0018391529 -0.0023522067 -0.00079774624
0002d0 93 44 b1 3a 7d e1 5b ba d9 17 bc ba 0a 78 f5 b9
       0.0013524465 -0.00083877874 -0.0014350369 -0.00046819478
0002e0 5e 03 5c 3a fa 3c 8c 3a a1 4b 0b ba 9c 63 45 ba
       0.0008392836 0.0010699325 -0.0005313699 -0.00075297966
0002f0 ee 6f e5 39 35 53 87 3a 3f 34 9a 3a d4 7c b6 39
       0.00043761678 0.001032448 0.0011764838 0.0003480675
000300 29 3b db 39 ae a4 74 3a ef 8b 86 3a 8f 56 1a 3a
       0.00041815013 0.00093324005 0.0010265092 0.0005887532
000310 5c 11 4e 3a 79 13 a9 3a 68 da 97 3a 05 71 51 3a
       0.0007860863 0.001289948 0.0011585476 0.00079895585
000320 95 70 8c 3a 8b 76 d2 b9 ac ed 83 ba 56 e0 74 ba
       0.0010714704 -0.00040142643 -0.0010065339 -0.000934129
000330 70 80 10 bb d1 3f a0 3a 12 2c d3 39 fe 9f d3 3a
       -0.002204921 0.001222605 0.0004027789 0.0016145704
000340 d7 30 02 3b 0b 60 86 b8 6e 79 d6 3a 22 df 11 3b
       0.0019865537 -6.407507e-05 0.0016363093 0.0022258242
000350 55 8d 81 3b 04 8d 87 3b ff 51 35 3b 86 74 f6 3a
       0.0039536157 0.0041366834 0.0027667282 0.0018803037
000360 f1 0f 4d 3b 83 56 85 3b c2 d0 91 3b a0 01 68 3b
       0.003129002 0.004069151 0.0044499347 0.003540136
000370 7c 5a 3d 3b 97 f8 3e 3b a3 53 77 3b 1d 20 6a 3b
       0.0028893044 0.002913987 0.003773906 0.0035724707
000380 51 61 13 3b e7 97 8c ba 53 81 38 ba 53 77 07 ba
       0.0022488425 -0.0010726423 -0.0007038314 -0.0005167622
000390 bf 67 8c ba e1 4a 5a b8 04 11 88 ba 05 7c 01 39
       -0.0010712071 -5.2044987e-05 -0.0010381048 0.000123486
0003a0 ba d3 2f 3a a9 cf 0d 3a 7d 23 35 3a 32 c5 8a 38
       0.000670727 0.0005409667 0.000690989 6.617083e-05
0003b0 80 86 8f 3a 97 7f bf 3a 3b cc 24 3b a0 14 db 3a
       0.0010950118 0.0014610168 0.0025146145 0.0016714521
0003c0 1d 08 c0 39 06 2f 9d 3a 1f 75 1f 3b 14 e9 5c 3b
       0.0003662714 0.0011992163 0.0024331284 0.0033708261
0003d0 7e 0b 90 3a 45 fd 00 3a 80 d2 f7 3a 2e d5 7a 3b
       0.0010989753 0.00049205526 0.0018907338 0.0038274038
0003e0 7f 57 5b 3b b1 39 9a 38 5c 94 34 bb 3f 57 5a bb
       0.00334689 7.354038e-05 -0.002755425 -0.0033316163
0003f0 c6 ab 69 bb 83 e0 3d bb bb f3 38 bb 38 1f 39 bb
       -0.0035655363 -0.002897293 -0.0028221447 -0.0028247368

exp_avg_sq f4 [16, 1, 5, 5]
000000 d6 72 56 37 98 fc 60 37 9e 34 2f 37 e8 6d dc 36
       1.2782131e-05 1.3410252e-05 1.0443064e-05 6.5693057e-06
000010 27 91 2b 37 96 db 3f 37 34 08 23 37 b9 ca 87 36
       1.022619e-05 1.14356135e-05 9.717467e-06 4.0469135e-06
000020 18 d7 79 36 9a bf 31 37 71 b8 0d 37 75 3e ae 36
       3.7229092e-06 1.0594633e-05 8.4471985e-06 5.192875e-06
000030 c5 f7 02 36 c7 d1 f4 36 69 c1 2e 37 79 47 e0 36
       1.951573e-06 7.296188e-06 1.041624e-05 6.6840407e-06
000040 76 6c a5 36 f4 4c 4e 36 ec d3 03 37 73 28 06 37
       4.9300097e-06 3.0741185e-06 7.85755e-06 7.99644e-06
000050 ef 25 e0 36 05 30 97 36 27 43 3f 36 c4 7a d3 36
       6.6801363e-06 4.505741e-06 2.8500306e-06 6.302582e-06
000060 45 78 a4 36 58 5e 02 36 d6 24 19 36 23 cb 06 36
       4.901582e-06 1.9426425e-06 2.2820218e-06 2.0085797e-06
000070 85 07 b4 35 c3 d9 0c 36 94 93 15 36 79 eb 75 36
       1.3413234e-06 2.098838e-06 2.2288632e-06 3.6644908e-06
000080 57 15 d9 36 ca 73 ad 36 48 7b 8b 36 d8 33 85 36
       6.4695882e-06 5.1692814e-06 4.1568746e-06 3.9697443e-06
000090 8e 45 e3 36 b5 ab 1c 37 9c 6c 1d 37 29 e7 02 37
       6.7732244e-06 9.338303e-06 9.383217e-06 7.802425e-06
0000a0 0b 9c 7a 36 a8 c5 64 36 52 64 56 36 f8 6a 9a 36
       3.7343732e-06 3.4089699e-06 3.194688e-06 4.6020104e-06
0000b0 dd 12 b1 36 9d 42 c7 36 62 a3 b7 36 8b 78 90 36
       5.277207e-06 5.938417e-06 5.4728453e-06 4.3055675e-06
0000c0 8e af 28 36 b6 08 42 36 b2 c2 4e 37 56 20 75 37
       2.5136137e-06 2.8913323e-06 1.2323888e-05 1.4610667e-05
0000d0 c0 ff 6a 37 98 41 40 37 9a ee 1e 37 4d 12 2f 37
       1.4007033e-05 1.1459364e-05 9.473088e-06 1.0435074e-05
0000e0 d5 7c 4b 37 df f6 39 37 91 65 16 37 a2 aa e4 36
       1.2128808e-05 1.1084338e-05 8.9643445e-06 6.814794e-06
0000f0 74 67 1e 37 a8 3d 23 37 b2 05 14 37 53 e0 fb 36
       9.441621e-06 9.729913e-06 8.8228135e-06 7.5064977e-06
000100 0f da bd 36 03 2a 11 37 bb 62 fd 36 51 52 e1 36
       5.6580243e-06 8.652455e-06 7.5514813e-06 6.7151054e-06
000110 37 e1 d8 36 17 2b e1 36 e2 30 db 36 41 41 c5 36
       6.46352e-06 6.710539e-06 6.5323993e-06 5.878654e-06
000120 c9 78 ec 36 65 d8 2c 37 eb 43 2c 37 a3 2d 8b 37
       7.0474093e-06 1.0302382e-05 1.0267812e-05 1.6591343e-05
000130 5e 55 79 37 5d e0 5b 37 88 20 2b 38 ba 14 8d 38
       1.4861433e-05 1.3105656e-05 4.0799874e-05 6.7272646e-05
000140 4c 99 8d 37 00 ee 6e 37 49 81 69 37 a0 31 46 38
       1.6879894e-05 1.4241319e-05 1.3917984e-05 4.7253096e-05
000150 06 c4 92 38 86 bc 87 37 c5 da 55 37 a6 a3 a3 37
       6.998335e-05 1.6181042e-05 1.2746726e-05 1.9507319e-05
000160 1c 0a 3d 38 e4 fe 78 38 bd b1 66 37 2f c9 5d 37
       4.5070527e-05 5.9365193e-05 1.3750451e-05 1.3219468e-05
000170 23 04 d2 37 4f 78 2f 38 21 86 40 38 50 d7 7d 37
       2.5035877e-05 4.1835297e-05 4.5901284e-05 1.51301065e-05
000180 5a de 95 37 22 f7 fa 37 b2 03 28 38 2a 82 13 38
       1.7865725e-05 2.9917403e-05 4.0057763e-05 3.5168756e-05
000190 36 1c 0e 36 84 87 a5 36 1d fb 6d 36 c8 a6 d4 35
       2.117607e-06 4.9331593e-06 3.546192e-06 1.5843771e-06
0001a0 5b 2d 03 36 49 aa 20 36 4c 53 76 36 82 f1 2e 36
       1.9546922e-06 2.3940977e-06 3.6705342e-06 2.6068597e-06
0001b0 05 de 07 36 0c ce 91 36 cb e1 2c 36 3c c6 59 36
       2.02458e-06 4.3453238e-06 2.5761426e-06 3.2450907e-06
0001c0 d1 23 82 36 eb 84 cc 36 71 21 19 37 1f 37 2d 36
       3.8784715e-06 6.0951475e-06 9.127297e-06 2.5811094e-06
0001d0 d6 7a 11 36 76 a1 0a 36 89 76 ea 35 9a b4 92 36
       2.1678184e-06 2.0657585e-06 1.7468857e-06 4.372164e-06
0001e0 62 fc ac 36 8c d3 59 36 8d b4 03 36 55 c3 ec 35
       5.1553807e-06 3.2458656e-06 1.9625616e-06 1.7640219e-06
0001f0 d9 60 46 36 60 bd a9 38 a2 82 fa 38 25 0f 27 39
       2.9560672e-06 8.093822e-05 0.00011945261 0.00015932003
000200 b6 0b 34 39 d3 12 2d 39 b6 7f be 38 74 c3 06 39
       0.000171705 0.00016505578 9.083694e-05 0.00012852048
000210 94 1a 21 39 32 aa 27 39 b5 58 1b 39 e2 5f b4 38
       0.00015364058 0.00015989764 0.00014814998 8.6009284e-05
000220 dc eb fb 38 d7 47 12 39 cc de 13 39 50 23 05 39
       0.00012012545 0.00013950407 0.00014102011 0.00012697023
000230 b0 6e b8 38 2b b8 e8 38 9c 4a 0f 39 aa fd 14 39
       8.794421e-05 0.00011096926 0.00013665337 0.00014208877
000240 b6 7e 0c 39 68 06 da 38 f9 f8 eb 38 e3 d1 10 39
       0.00013398644 0.00010396243 0.00011252048 0.00013811099
000250 16 47 1b 39 b5 95 0f 39 01 ce 57 38 10 71 80 38
       0.00014808433 0.00013693313 5.145185e-05 6.124575e-05
000260 d3 88 90 38 28 ed ae 38 8d 3c af 38 c0 e6 7c 38
       6.8919406e-05 8.34114e-05 8.355929e-05 6.0296385e-05
000270 1a c1 85 38 e2 a2 8d 38 c5 8b a6 38 46 15 a0 38
       6.377902e-05 6.753743e-05 7.941531e-05 7.633357e-05
000280 f9 2f 87 38 9e df 6d 38 f1 d5 6b 38 d3 fe 83 38
       6.446237e-05 5.6713463e-05 5.6227615e-05 6.2940315e-05
000290 ea 12 77 38 ce 71 7f 38 99 4a 4f 38 60 d6 3f 38
       5.8907004e-05 6.0902727e-05 4.942212e-05 4.57376e-05
0002a0 be ff 64 38 71 bb 55 38 43 6b 79 38 e0 a6 41 38
       5.4597615e-05 5.0957726e-05 5.946612e-05 4.61702e-05
0002b0 28 d3 2f 38 26 81 4f 38 08 c4 35 38 b6 b4 5e 37
       4.1919906e-05 4.9472925e-05 4.333633e-05 1.3274306e-05
0002c0 9d b1 a9 37 b3 56 ee 37 ab 1b ad 37 ba 86 1f 37
       2.0229078e-05 2.8412183e-05 2.0636091e-05 9.508507e-06
0002d0 b3 97 86 37 d7 46 db 37 71 ec 03 38 d5 7c 9a 37
       1.6044685e-05 2.6139822e-05 3.1453037e-05 1.841636e-05
0002e0 25 32 1f 37 57 18 bb 37 7f a4 04 38 f1 ef 01 38
       9.488814e-06 2.2303471e-05 3.162445e-05 3.097946e-05
0002f0 39 13 87 37 72 52 30 37 66 65 d8 37 e4 77 08 38
       1.6102205e-05 1.0509613e-05 2.5796424e-05 3.2536584e-05
000300 d2 39 d0 37 85 37 60 37 7a f0 2f 37 f4 ab df 37
       2.4822457e-05 1.3364367e-05 1.0486803e-05 2.6663743e-05
000310 a5 c1 fc 37 83 e6 a2 37 28 52 49 37 4d f4 24 37
       3.0130914e-05 1.9419245e-05 1.1999662e-05 9.832042e-06
000320 e1 6c 83 37 d0 af 85 37 dd 36 40 37 5e ce 21 37
       1.5667118e-05 1.5936705e-05 1.1456866e-05 9.644396e-06
000330 a5 7f f5 36 ee c0 a7 37 0e 15 97 37 55 a5 7a 37
       7.3164288e-06 1.9997791e-05 1.8010407e-05 1.4939656e-05
000340 a9 44 75 37 13 3d 26 37 44 be cd 37 2d 42 ca 37
       1.4619124e-05 9.908591e-06 2.4526504e-05 2.4111092e-05
000350 83 10 d8 37 7b 7a d2 37 6a 77 ba 37 a0 56 01 38
       2.5756895e-05 2.5090985e-05 2.2228534e-05 3.0836673e-05
000360 bd 78 0e 38 73 44 12 38 56 7a 18 38 35 c0 0e 38
       3.3967885e-05 3.487286e-05 3.635356e-05 3.4034445e-05
000370 45 ca 18 38 8e 89 28 38 76 9b 33 38 a5 de 30 38
       3.6428002e-05 4.018243e-05 4.282171e-05 4.2169024e-05
000380 49 0e 1e 38 7d 95 d6 36 9e a0 c4 36 79 27 f9 36
       3.768344e-05 6.3950997e-06 5.8599535e-06 7.4253735e-06
000390 9a c0 75 37 74 17 bf 37 50 c1 ec 36 9e 7c d8 36
       1.46479815e-05 2.2779896e-05 7.0558526e-06 6.451809e-06
0003a0 b1 c4 d5 36 84 c4 2f 37 75 09 a8 37 fe f3 09 37
       6.3707926e-06 1.0476568e-05 2.0031564e-05 8.222645e-06
0003b0 50 50 fa 36 4f 49 03 37 94 5f 61 37 f5 6b b8 37
       7.45993e-06 7.825277e-06 1.3433299e-05 2.198478e-05
0003c0 61 6a 2a 37 01 6f 36 37 63 6d 86 37 8f b1 e6 37
       1.0157558e-05 1.08738905e-05 1.6024982e-05 2.7500819e-05
0003d0 c3 6b 00 38 92 7f 4d 37 20 eb 8d 37 c3 6a de 37
       3.061794e-05 1.22486545e-05 1.6917998e-05 2.6514177e-05
0003e0 30 43 fd 37 41 35 04 38 2e 92 2f 37 a1 09 3b 37
       3.0191237e-05 3.152085e-05 1.0464848e-05 1.11483105e-05
0003f0 9a 6e 96 37 53 87 c5 37 c0 06 ea 37 d8 a1 06 37
       1.7932896e-05 2.3547245e-05 2.7898117e-05 8.024705e-06

exp_avg f4 [16]
000000 b4 8a 0b bb 3c ad cf 38 51 36 d7 38 7f d1 1e bb
       -0.002129239 9.9027966e-05 0.00010262116 -0.0024233756
000010 df 50 e8 ba 77 5c f5 3b 1a fa ac bb bb 33 57 ba
       -0.0017724297 0.0074878293 -0.005278838 -0.00082093076
000020 a6 e7 79 bb 65 57 8b 39 65 2d 42 3b 86 21 34 bb
       -0.0038132458 0.0002657726 0.0029629108 -0.0027485802
000030 89 96 41 bb fe b4 6c ba ea cd 84 bb d3 6d f8 bb
       -0.0029539189 -0.00090296555 -0.004052867 -0.0075814514

exp_avg_sq f4 [16]
000000 32 a1 9c 37 f1 b3 b2 37 f5 0f 08 37 13 9f b2 37
       1.8671712e-05 2.1303045e-05 8.109947e-06 2.1293328e-05
000010 b8 b2 b8 37 37 fe 44 39 fe 87 dd 38 87 d3 40 37
       2.2017732e-05 0.00018786719 0.00010563432 1.1493342e-05
000020 49 72 40 38 e5 63 25 37 e8 e5 fd 37 04 7b 14 38
       4.5882804e-05 9.858025e-06 3.0267009e-05 3.5400517e-05
000030 2a 7e 88 38 f4 ef 82 36 60 6a 86 38 6e de e9 38
       6.508485e-05 3.902236e-06 6.409432e-05 0.000111517365
