nesy/9nvle13g/checkpoints/epoch=9-step=250.ckpt (torch, 290851 bytes, 12 tensors)

neural_predicates.digit.net.0.weight f4 [30, 784]
000000 cb 6b 23 3c 69 ea 28 bb f0 04 96 3b 31 06 99 bb
       0.00997443 -0.0025774485 0.0045782253 -0.0046699275
000010 61 8b cb bc 1e ce 91 bc 38 dd a9 bc 55 83 e5 bc
       -0.024846734 -0.01779848 -0.020735368 -0.028016726
000020 bc 46 d7 bc 1d 96 5b bd 73 cb 02 bc 02 f0 da bb
       -0.026278846 -0.053609956 -0.007983076 -0.006681443
000030 4f 20 53 bd f4 41 97 bb f6 ee 87 bb c2 31 94 bc
       -0.051544484 -0.0046160165 -0.0041483594 -0.018090133
000040 51 19 6b bd f7 30 0d bd 89 99 31 bc 3c ab 68 bd
       -0.05739719 -0.034470525 -0.010839828 -0.056803927
000050 71 6c 55 3b c8 39 22 bd 8a 17 1e 3c 3d 35 c7 bc
       0.0032565857 -0.039605886 0.009649167 -0.024317378
000060 59 d8 92 bc b7 3c cc bc 8b bd 0f bd 2a 24 20 bc
       -0.017925428 -0.024931295 -0.03509287 -0.009774247
000070 f1 c0 86 bc a1 a5 e5 bc 9f 16 34 ba 0f 9b 0a bd
       -0.016449424 -0.02803308 -0.0006869826 -0.03383928
000080 47 4f 0e bd d6 1e e7 bc b8 76 a1 bb fd 3e fc bc
       -0.034743574 -0.028212946 -0.0049274825 -0.030791754
000090 42 18 42 bc d0 74 c8 bc 82 86 92 3b bf d1 19 bc
       -0.011846604 -0.024469763 0.004471601 -0.009388386
0000a0 3a 3c 14 bd 91 bb d9 bc 6d 28 82 bc a3 2f 70 bd
       -0.03619025 -0.026578696 -0.015888417 -0.05863918
0000b0 98 18 1e bd bb d7 2e bb 0e 26 44 bd f8 c6 59 bd
       -0.038597673 -0.0026678878 -0.047887854 -0.053168267
0000c0 8e 78 cc bc 89 77 df 39 37 08 4d bd bc 75 d2 bc
       -0.024959829 0.00042622935 -0.050056662 -0.025690906
0000d0 0c 12 1a bd b9 db 2b bd 1e 41 cc bc 18 c9 c7 bb
       -0.037614867 -0.04195759 -0.024933394 -0.0060969703
0000e0 96 52 4c bd 74 ed bb bc cc e4 ec bc e3 ac 9d bb
       -0.049883448 -0.022940375 -0.028917693 -0.0048118695
0000f0 ce 95 3b 3c 05 6d e9 bc 41 30 0a bc c3 32 d3 ba
       0.01144929 -0.028494367 -0.008434356 -0.0016113151
000100 92 89 47 bc 1e 0a 2d bd 41 02 e8 bc 8f 18 ca 3c
       -0.012178795 -0.042245977 -0.028321387 0.024669914
000110 69 ec 3b 3c 36 ae 69 bd 71 90 f9 3b 73 7d 63 bc
       0.011469939 -0.057050906 0.0076160957 -0.01388489
000120 cc de d7 bc a1 98 5c bd 3b 20 76 bc dc b6 83 bd
       -0.026351355 -0.053856496 -0.015022333 -0.06431362
000130 78 79 d3 3b 62 b4 c9 bc f3 27 18 bd 2e 1e 36 bd
       0.006453689 -0.024622146 -0.037147474 -0.044462375
000140 4d 38 0d bd 96 ff 66 bd 55 c9 df bc 43 1a 27 bd
       -0.03447752 -0.05639609 -0.027317682 -0.04079653
000150 d8 be 56 bd 9b 17 68 bc 46 89 a2 bc ac 18 0f bd
       -0.052428097 -0.014165784 -0.019840848 -0.03493564
000160 c2 d1 cf 3b aa 16 0a bb 94 24 40 3c 02 db 59 bb
       0.0063421438 -0.0021070638 0.011727471 -0.003324211
000170 45 79 01 bc 43 a2 c5 3c 5e 75 45 3d c2 36 9d 3c
       -0.007902448 0.024125224 0.048207633 0.01919115
000180 d9 30 9e 3c 77 da b2 3c 67 99 1b 3d ff e2 0a bd
       0.019310402 0.021832688 0.037988093 -0.033907887
000190 62 8f b3 bc a7 12 0a bd 8f 30 a5 3a fe f0 8d bd
       -0.021918956 -0.033709195 0.0012602973 -0.06930731
0001a0 05 db 94 bd 96 d4 92 bd 39 89 36 bd eb a9 18 bd
       -0.07268337 -0.07169454 -0.04456446 -0.03727142
0001b0 99 9d 48 3c 0d 65 97 bc fd af 26 bc 83 8c f1 bc
       0.012244605 -0.018480802 -0.010173795 -0.029485947
0001c0 ad 0a f5 bc 46 4d 37 bd 77 5c d2 bc fd 39 d5 ba
       -0.029912317 -0.044751428 -0.025678856 -0.0016267892
0001d0 7c 79 f4 bb 49 76 63 b9 34 d7 47 bd 4c a9 04 3c
       -0.007460771 -0.00021692472 -0.048789218 0.008097004
0001e0 d3 78 05 3d ac 78 0f 3d 14 35 35 3d 9c ce 9f 3d
       0.03258593 0.03502719 0.044240072 0.078030795
0001f0 c3 6b b4 3d 59 80 65 bd 43 36 6e bd be 3b db bd
       0.088096164 -0.056030605 -0.058157217 -0.10704754
000200 6b cc 16 bc 69 d9 2b bd 93 d8 ba 3c 3b 7e 71 bd
       -0.0092040105 -0.041955385 0.022808349 -0.058958273
000210 2c 97 b2 bd af 77 34 bd 9c 30 68 bd 34 53 28 bd
       -0.0872024 -0.04405945 -0.056686983 -0.041094974
000220 62 0d 10 39 35 1a 5c bc 76 b0 93 bc 94 55 c2 3b
       0.00013737896 -0.013433983 -0.01802848 0.005930612
000230 5e 10 d0 3b dd c3 3a bd 4b ce 33 bd 15 29 a5 bc
       0.0063496074 -0.045596946 -0.04389791 -0.020161191
000240 b9 1a 2f bd 12 46 46 bd 30 9e 60 bd 18 3c ba bc
       -0.042750094 -0.048406668 -0.05483836 -0.022733733
000250 ba 74 b4 3c 8b 5b 71 3d 32 fb c9 3d b1 97 bf 3d
       0.022028316 0.058925193 0.09862365 0.09355105
000260 75 64 5b 3d cf 06 4f bc 30 18 a1 bd 8b d7 f2 bb
       0.0535626 -0.012635901 -0.078659415 -0.0074109486
000270 8e 57 2e 3d 48 bd 51 3a 66 f3 61 3d bc 11 4a bc
       0.042563967 0.00080009224 0.055163763 -0.01233333
000280 d9 90 09 bd 5e 23 43 bd e2 40 b9 bd 1c 26 70 bd
       -0.033585403 -0.04764115 -0.090455785 -0.058630094
000290 86 e4 33 bd 16 47 3a 3c 6b 48 31 3c dc 75 15 3c
       -0.04391911 0.011369487 0.010820488 0.009122338
0002a0 ab db 08 bd 36 28 51 3c d5 6f b2 bc dc 55 84 bc
       -0.033412617 0.012765935 -0.021781841 -0.016154222
0002b0 3a d9 4c bc d5 90 19 bd 9d 68 43 bc 65 c0 33 3d
       -0.012502963 -0.03749164 -0.011926797 0.043884654
0002c0 d9 57 1f 3d 62 be 4c 3d 4d 99 64 3b ef cf f0 3a
       0.038902137 0.04998625 0.0034881413 0.0018372516
0002d0 5d a1 96 bc 22 9b 95 3b 76 71 34 3d 9d 20 23 3d
       -0.01838749 0.0045656124 0.044053517 0.039826024
0002e0 62 00 d6 3c 50 bc 2b 3c f2 e8 0b 3d 8f 3b 81 3c
       0.02612323 0.010481909 0.0341577 0.01577547
0002f0 73 09 b0 bd 8b 93 49 bd 5b 2d d0 bd 99 ea 4d bd
       -0.08595552 -0.049212974 -0.10164901 -0.050272558
000300 3b 37 83 bd d0 64 05 bd 87 27 bd bb 11 db 22 bd
       -0.06407019 -0.032566845 -0.0057725343 -0.0397597
000310 3a 9e cd bc fc 3a 4c bd 52 f8 f9 3b c8 f1 1f bb
       -0.025099862 -0.04986094 0.007628479 -0.0024405587
000320 54 a6 93 bc a9 dc 32 3d d7 bb b8 3c 60 89 c5 3b
       -0.018023647 0.04366747 0.022550507 0.0060283393
000330 b8 5b 2e 3d 17 66 30 bc a7 e2 23 bc 8c f1 3e 3b
       0.04256794 -0.010766528 -0.010002769 0.0029135672
000340 e1 1c 47 bc 81 ae c7 3d 7d 20 7f bc 88 c3 cb bc
       -0.012152881 0.09750081 -0.015571711 -0.02487351
000350 3b cd ea bb 0e c3 69 bd a6 f6 7d 3a be f1 05 bb
       -0.0071655787 -0.057070784 0.00096879376 -0.002043828
000360 d9 50 60 bd b8 21 2d bd 42 ae 57 bd 8c 94 63 bd
       -0.054764602 -0.042268485 -0.05265642 -0.055561587
000370 df 57 1a bd 7c bc f4 3b 40 c6 3b bd d6 c1 18 bd
       -0.037681457 0.007468758 -0.045843363 -0.03729423
000380 8b b3 29 3c ed cc c9 bc 7e c7 2a bd db a9 f6 bb
       0.010357748 -0.024633849 -0.041694157 -0.0075275726
000390 de 58 c8 bc 68 00 06 3c f5 25 e4 3b c3 94 04 bc
       -0.024456438 0.008178808 0.0069625326 -0.008092108
0003a0 17 15 30 3c 36 91 58 bc 2f 98 1e 3d 63 8c 4e 3d
       0.010747216 -0.013218215 0.038719352 0.050426852
0003b0 f5 dc 03 bd 81 f1 ec 3c a7 8a f7 bc 24 2e 5c bd
       -0.032193143 0.028923752 -0.030217482 -0.05375494
0003c0 07 e6 fc 3b 88 d1 00 3c c9 04 b3 3b 16 14 0e bd
       0.007717851 0.007862456 0.005463217 -0.034687124
0003d0 1b c8 16 3c 8f 98 33 bd 66 05 c4 bc 4d 64 30 bc
       0.009202982 -0.043846663 -0.023928355 -0.010766101
0003e0 33 9e 81 bc 14 de dd bc 68 6e ea 3b 3a c3 15 bd
       -0.015822506 -0.027083434 0.0071542747 -0.036563136
0003f0 0d 0a b1 3b 6d e6 13 3c 74 95 03 bd 0e 20 7d bb
       0.0054028095 0.009027106 -0.03212495 -0.0038623842

neural_predicates.digit.net.0.bias f4 [30]
000000 89 bd cf bb 8b 00 0e bd 80 3f 51 bb 19 d9 13 3b
       -0.006339733 -0.034668487 -0.0031928718 0.002255982
000010 6e 37 52 3c 44 a2 05 3c e1 b9 04 bd b0 bd 9b bc
       0.012830598 0.008156363 -0.03240383 -0.019011348
000020 23 3a f9 3b dc 9a 37 bc 13 a6 bb 3c a9 f8 0b 3d
       0.0076058074 -0.011206355 0.022906339 0.034172688
000030 22 1f 99 3c db b3 17 bb ec 05 05 bd 30 7f 05 bc
       0.018691603 -0.0023147974 -0.03247635 -0.008148
000040 15 e1 9e 3b b3 e6 eb 3c 30 09 a4 bc 01 b0 70 bc
       0.004848609 0.02879653 -0.020023912 -0.0146904
000050 d8 c5 cf bc 7a f3 f1 bc 2e 02 ae 3c 01 b6 c8 bc
       -0.025362894 -0.029535044 0.021241274 -0.024500849
000060 16 73 eb 3b e1 53 e0 bc b0 51 7b bb 44 35 d3 bc
       0.00718535 -0.027383747 -0.003834825 -0.025782235
000070 3c 85 43 3c 3e ec 82 3c
       0.011933621 0.01598179

neural_predicates.digit.net.2.weight f4 [3, 30]
000000 49 72 21 3c 07 55 26 3e 52 8f 86 3c 04 a8 3c be
       0.009853908 0.16243373 0.016425762 -0.18423468
000010 a9 bf 4e 3d 5a a9 56 bd f0 3c 64 be 68 52 7e bc
       0.05047575 -0.0524076 -0.22288871 -0.015522577
000020 e1 48 e5 3d 2e b0 94 bc eb fc 77 be de b6 25 be
       0.11195541 -0.018150415 -0.24217574 -0.1618304
000030 83 e3 f7 3d ac 5c 04 be b5 a8 c3 bd 84 cf 85 be
       0.12103941 -0.12925977 -0.09553663 -0.26134884
000040 d0 d4 c8 bd c8 44 90 3e e5 58 19 3e 3f cb 41 3e
       -0.09806216 0.28177476 0.14975317 0.18925188
000050 d3 46 2f be 81 6f 65 3e e1 3a b3 bd 60 1b 05 be
       -0.17116861 0.22405817 -0.08751465 -0.12998724
000060 e7 a8 09 3e f1 08 8d 3e 9a 87 b1 bc c0 2f 1a 3e
       0.13443337 0.27545884 -0.021671105 0.15057278
000070 e0 3d 74 bc 93 5b 08 3d f0 34 af be 6f e7 d0 bd
       -0.01490733 0.033290457 -0.34220076 -0.102003925
000080 fd 05 2b bc 6e 27 72 3d f7 c0 b5 bd f5 84 cb 3e
       -0.010438439 0.059119634 -0.08874696 0.39749876
000090 91 37 89 3e ba db 76 bd 09 d3 12 be 60 78 40 bc
       0.26800206 -0.06026814 -0.14338316 -0.01174745
0000a0 12 ae 1e 3e 20 60 75 be 39 08 8c be 0a 4c 50 be
       0.1549609 -0.2396245 -0.27350023 -0.20341507
0000b0 5b 22 7d bd c4 28 4f 3e 09 c6 c8 3d 8f 02 a6 bd
       -0.061800342 0.20230395 0.09803397 -0.08105957
0000c0 ef 07 06 3e 60 98 4d 3e 63 be 98 3c fc 9b 3a 3d
       0.13088964 0.20077658 0.018645471 0.045558915
0000d0 27 04 f9 bd 65 52 10 be 4b 45 fc bd 7b 21 8b 3e
       -0.12158995 -0.14093931 -0.12317904 0.2717398
0000e0 36 d9 49 3d ba 25 88 bd 0a d9 4d bd 3c a7 1d be
       0.049279414 -0.06647821 -0.050255813 -0.15395826
0000f0 0d 09 96 3d b5 c3 0c be ec 48 00 3e 82 b9 4b 3e
       0.07325945 -0.13746531 0.12527817 0.19894984
000100 12 ee 7b bd 10 2c bf be 36 28 8f bd 9f a9 c3 bd
       -0.06150634 -0.37338305 -0.069900915 -0.09553837
000110 71 f5 c6 3d d8 72 70 3e 18 4b 00 3d dc c8 23 3e
       0.09714783 0.2348131 0.031321615 0.1599459
000120 1a 36 fd bd bc 21 66 3e 1c 8a 8d 3d 6d 43 a0 3d
       -0.12363835 0.22473806 0.06911108 0.078253604
000130 f8 b8 27 bd 81 5c 12 3d 47 9b 18 be 57 d0 f5 be
       -0.040947884 0.03573275 -0.14902984 -0.48010513
000140 4b 31 b4 3d 5f a7 b9 bd 1c 55 c0 3d df aa 23 3e
       0.087984644 -0.09065127 0.09391233 0.15983151
000150 d0 bb 06 be b3 67 4c be 3c 34 6b 3c 2c fb 85 3d
       -0.13157582 -0.19961433 0.014355715 0.06542048
000160 5b 1b 10 be b0 c1 0e 3e
       -0.14072935 0.13941073

neural_predicates.digit.net.2.bias f4 [3]
000000 6a 42 0a 3b 2d 1f 0a be 5d e1 f9 bb
       0.0021096715 -0.13488455 -0.0076257423

exp_avg f4 [30, 784]
000000 cb df 81 b8 cb df 81 b8 cb df 81 b8 cb df 81 b8
       -6.192884e-05 -6.192884e-05 -6.192884e-05 -6.192884e-05
000010 cb df 81 b8 cb df 81 b8 cb df 81 b8 cb df 81 b8
       -6.192884e-05 -6.192884e-05 -6.192884e-05 -6.192884e-05
000020 cb df 81 b8 cb df 81 b8 cb df 81 b8 cb df 81 b8
       -6.192884e-05 -6.192884e-05 -6.192884e-05 -6.192884e-05
000030 ec df 81 b8 d5 e2 81 b8 d5 e2 81 b8 ec df 81 b8
       -6.192908e-05 -6.19345e-05 -6.19345e-05 -6.192908e-05
000040 cb df 81 b8 cb df 81 b8 cb df 81 b8 cb df 81 b8
       -6.192884e-05 -6.192884e-05 -6.192884e-05 -6.192884e-05
000050 cb df 81 b8 cb df 81 b8 cb df 81 b8 cb df 81 b8
       -6.192884e-05 -6.192884e-05 -6.192884e-05 -6.192884e-05
000060 cb df 81 b8 cb df 81 b8 cb df 81 b8 cb df 81 b8
       -6.192884e-05 -6.192884e-05 -6.192884e-05 -6.192884e-05
000070 cb df 81 b8 cb df 81 b8 cb df 81 b8 cb df 81 b8
       -6.192884e-05 -6.192884e-05 -6.192884e-05 -6.192884e-05
000080 cb df 81 b8 cb df 81 b8 cb df 81 b8 b9 e5 81 b8
       -6.192884e-05 -6.192884e-05 -6.192884e-05 -6.1939885e-05
000090 69 00 83 b8 a0 e6 82 b8 65 97 82 b8 c5 4c 82 b8
       -6.246643e-05 -6.24184e-05 -6.2270825e-05 -6.2131825e-05
0000a0 b0 4d 82 b8 46 23 82 b8 21 e0 59 b8 03 ea 21 b8
       -6.2133535e-05 -6.205453e-05 -5.1945568e-05 -3.860333e-05
0000b0 7d e3 8b b8 68 6f 82 b8 be f4 81 b8 cb df 81 b8
       -6.6704095e-05 -6.219634e-05 -6.196786e-05 -6.192884e-05
0000c0 cb df 81 b8 cb df 81 b8 cb df 81 b8 cb df 81 b8
       -6.192884e-05 -6.192884e-05 -6.192884e-05 -6.192884e-05
0000d0 cb df 81 b8 cb df 81 b8 cb df 81 b8 cb df 81 b8
       -6.192884e-05 -6.192884e-05 -6.192884e-05 -6.192884e-05
0000e0 cb df 81 b8 cb df 81 b8 cb df 81 b8 00 de 81 b8
       -6.192884e-05 -6.192884e-05 -6.192884e-05 -6.19255e-05
0000f0 2a df 81 b8 cf df 81 b8 d4 e0 81 b8 7d 5a 82 b8
       -6.192767e-05 -6.192887e-05 -6.193077e-05 -6.215738e-05
000100 14 0e 91 b8 3d 9c a1 b8 29 f5 98 b8 ac 57 9d b8
       -6.916761e-05 -7.70618e-05 -7.2935894e-05 -7.5026735e-05
000110 d4 e3 89 b8 e3 3d 11 39 ff 67 05 b8 49 0c 49 38
       -6.575105e-05 0.00013851332 -3.1806525e-05 4.7933576e-05
000120 eb be d4 38 0a a7 79 38 93 e8 3f b8 bc 38 84 b8
       0.00010144509 5.9521793e-05 -4.575455e-05 -6.304818e-05
000130 69 e6 81 b8 74 e1 81 b8 df df 81 b8 12 a0 83 b8
       -6.1941166e-05 -6.193193e-05 -6.1928986e-05 -6.276382e-05
000140 ce aa 82 b8 37 e0 81 b8 cb df 81 b8 cb df 81 b8
       -6.230698e-05 -6.1929626e-05 -6.192884e-05 -6.192884e-05
000150 cb df 81 b8 cb df 81 b8 98 dc 81 b8 e7 d9 81 b8
       -6.192884e-05 -6.192884e-05 -6.192288e-05 -6.191787e-05
000160 17 de 81 b8 e7 eb 81 b8 ae 42 83 b8 9b 00 89 b8
       -6.192567e-05 -6.1951396e-05 -6.258987e-05 -6.532782e-05
000170 54 d1 90 b8 6a 0c c4 b8 70 8e c7 b8 cb 8b de b8
       -6.9054455e-05 -9.3483206e-05 -9.5155905e-05 -0.000106118234
000180 c4 6d f0 37 ab dc db b8 48 0f 79 b9 63 94 00 b9
       2.8661343e-05 -0.000104838364 -0.00023752183 -0.0001226231
000190 47 d6 e1 38 a5 dc 54 39 2d 04 39 39 3f 69 89 38
       0.00010768748 0.00020300092 0.0001764453 6.552273e-05
0001a0 f4 ef bd 38 84 d2 fc 36 9d 0b 80 b8 7d b1 81 b8
       9.056917e-05 7.5346925e-06 -6.105679e-05 -6.184259e-05
0001b0 a9 1d 82 b8 90 dc 81 b8 cb df 81 b8 cb df 81 b8
       -6.204408e-05 -6.192282e-05 -6.192884e-05 -6.192884e-05
0001c0 cb df 81 b8 cb df 81 b8 e3 d4 81 b8 16 d5 81 b8
       -6.192884e-05 -6.192884e-05 -6.1908526e-05 -6.19089e-05
0001d0 d1 d7 68 b8 a4 ce ed 37 b5 1d 07 b6 8f 62 f6 37
       -5.5514105e-05 2.8348826e-05 -2.013386e-06 2.937138e-05
0001e0 e2 b2 e8 38 e5 b7 37 38 84 2c 2f 37 1e bb ac 38
       0.000110959416 4.3801865e-05 1.0441177e-05 8.2364524e-05
0001f0 34 4c 64 38 2f b3 f8 38 4c 92 c6 b8 67 54 37 38
       5.4430406e-05 0.00011858937 -9.468626e-05 4.3709206e-05
000200 95 cd f2 38 9a be 02 39 73 4b 21 b9 d9 a5 51 b9
       0.00011577752 0.00012468771 -0.00015382264 -0.00019993576
000210 2b 8d 20 b8 b4 d3 b5 37 87 41 02 b8 52 9a 03 b8
       -3.8278446e-05 2.1675463e-05 -3.1055442e-05 -3.1376556e-05
000220 07 97 77 b8 1b ed 81 b8 cb df 81 b8 cb df 81 b8
       -5.9030044e-05 -6.195364e-05 -6.192884e-05 -6.192884e-05
000230 cb df 81 b8 cb df 81 b8 77 be 81 b8 8d b0 82 b8
       -6.192884e-05 -6.192884e-05 -6.186676e-05 -6.231768e-05
000240 81 ad 99 b8 9b 0d 39 39 98 f6 81 39 8b 70 11 39
       -7.327926e-05 0.00017648043 0.00024788524 0.00013870203
000250 2b 08 f4 38 94 d5 2f 39 67 eb 57 39 e0 0c 37 38
       0.00011636348 0.00016768865 0.00020591692 4.364259e-05
000260 75 7b 16 39 2a 69 28 38 c2 fe 82 b7 4e 02 eb 38
       0.00014351106 4.0152263e-05 -1.5615838e-05 0.000112061025
000270 bb 4f 0f b9 17 9d 73 39 53 70 93 b8 8b e0 ea b8
       -0.00013667245 0.00023232806 -7.030428e-05 -0.00011199814
000280 ea a6 e9 b8 45 a6 94 b9 16 67 c5 b8 02 83 06 37
       -0.00011141396 -0.0002835264 -9.412893e-05 8.017525e-06
000290 a9 5e 07 b8 64 c4 7d b8 6a df 81 b8 cb df 81 b8
       -3.2274667e-05 -6.0502804e-05 -6.1928135e-05 -6.192884e-05
0002a0 cb df 81 b8 cb df 81 b8 db 59 87 b8 0c 2d c3 b8
       -6.192884e-05 -6.192884e-05 -6.4540385e-05 -9.306715e-05
0002b0 3b fd ca b8 99 43 0f 38 1a a3 34 39 87 80 66 38
       -9.6792784e-05 3.4156812e-05 0.00017226898 5.4955974e-05
0002c0 de 43 25 b8 35 52 8e b8 fb 13 aa 38 a0 1c 93 b8
       -3.940227e-05 -6.7864e-05 8.109953e-05 -7.014838e-05
0002d0 c9 08 03 38 de b1 13 39 ac 51 ab 38 0e 49 ff 38
       3.1241016e-05 0.00014085273 8.169128e-05 0.00012172955
0002e0 7b f8 a2 39 35 fb 6f 39 ac 9b 01 b8 1a 5b de 35
       0.0003108418 0.00022886398 -3.0900977e-05 1.6566803e-06
0002f0 f7 ce 4f b8 e4 7d b5 b9 7a e8 38 b9 33 d6 6a b8
       -4.9545397e-05 -0.00034616806 -0.00017634212 -5.5989436e-05
000300 8f b0 e9 b7 ae 23 b1 b8 db df 81 b8 85 df 81 b8
       -2.7857981e-05 -8.4466636e-05 -6.192896e-05 -6.192833e-05
000310 cb df 81 b8 cb df 81 b8 32 99 9b b8 e2 98 c9 b8
       -6.192884e-05 -6.192884e-05 -7.419511e-05 -9.6129035e-05
000320 c4 b7 de b8 4f 2f 2c b9 8d b0 6e b8 70 bd de b7
       -0.00010620014 -0.00016420822 -5.6908048e-05 -2.6552676e-05
000330 68 a2 b7 b8 36 e9 68 b8 18 bc f5 38 94 3a a2 b8
       -8.7563705e-05 -5.5530305e-05 0.000117175456 -7.735673e-05
000340 99 86 89 b8 a3 49 90 b8 35 46 89 39 ea 6e 1c 39
       -6.55774e-05 -6.880171e-05 0.00026182985 0.00014918638
000350 38 99 59 39 52 a4 07 b8 2c 9f 2a b9 fa 93 c2 b8
       0.00020751811 -3.2339543e-05 -0.0001627176 -9.278204e-05
000360 6a 5f 4c b7 6d b2 5e b9 e5 d1 53 b9 fe 9e 1b b9
       -1.2181563e-05 -0.00021238039 -0.0002020072 -0.00014841181
000370 4b c9 a4 b8 70 70 c3 b8 3f bb 81 b8 39 df 81 b8
       -7.857623e-05 -9.319268e-05 -6.186077e-05 -6.192778e-05
000380 67 59 81 b8 4b f3 81 b8 77 ff 95 b8 24 02 9c b8
       -6.167852e-05 -6.196516e-05 -7.152458e-05 -7.4390584e-05
000390 8b 3a 00 b9 b9 1f 2f b9 4d a7 ae b8 aa 45 92 38
       -0.0001222884 -0.00016701118 -8.328129e-05 6.9747985e-05
0003a0 3e ae 19 b8 01 43 7a b9 b9 24 a3 b8 07 06 61 b8
       -3.664032e-05 -0.00023866819 -7.779286e-05 -5.3649794e-05
0003b0 be 36 21 39 4c 2b ac 38 33 ac 4c 39 91 fd c5 b8
       0.0001537455 8.209664e-05 0.00019519105 -9.4409224e-05
0003c0 f1 5f 71 b8 87 e2 9a b8 6d 6a 40 b9 d8 13 3c b9
       -5.754823e-05 -7.385486e-05 -0.00018350194 -0.0001793647
0003d0 d6 88 36 b9 4a a5 25 b9 76 29 83 b9 86 57 8d b9
       -0.00017407848 -0.00015797201 -0.00025017158 -0.00026958826
0003e0 15 ba 1b b8 24 f9 7d b8 cb df 81 b8 cb df 81 b8
       -3.7128182e-05 -6.055193e-05 -6.192884e-05 -6.192884e-05
0003f0 cb df 81 b8 50 26 81 b8 3c 4b 8e b8 3b e5 84 b8
       -6.192884e-05 -6.1583356e-05 -6.785101e-05 -6.336948e-05

exp_avg_sq f4 [30, 784]
000000 bb 28 90 37 bb 28 90 37 bb 28 90 37 bb 28 90 37
       1.7185104e-05 1.7185104e-05 1.7185104e-05 1.7185104e-05
000010 bb 28 90 37 bb 28 90 37 bb 28 90 37 bb 28 90 37
       1.7185104e-05 1.7185104e-05 1.7185104e-05 1.7185104e-05
000020 bb 28 90 37 bb 28 90 37 bb 28 90 37 bb 28 90 37
       1.7185104e-05 1.7185104e-05 1.7185104e-05 1.7185104e-05
000030 ba 28 90 37 b6 28 90 37 b6 28 90 37 ba 28 90 37
       1.7185102e-05 1.7185095e-05 1.7185095e-05 1.7185102e-05
000040 bb 28 90 37 bb 28 90 37 bb 28 90 37 bb 28 90 37
       1.7185104e-05 1.7185104e-05 1.7185104e-05 1.7185104e-05
000050 bb 28 90 37 bb 28 90 37 bb 28 90 37 bb 28 90 37
       1.7185104e-05 1.7185104e-05 1.7185104e-05 1.7185104e-05
000060 bb 28 90 37 bb 28 90 37 bb 28 90 37 bb 28 90 37
       1.7185104e-05 1.7185104e-05 1.7185104e-05 1.7185104e-05
000070 bb 28 90 37 bb 28 90 37 bb 28 90 37 bb 28 90 37
       1.7185104e-05 1.7185104e-05 1.7185104e-05 1.7185104e-05
000080 bb 28 90 37 bb 28 90 37 bb 28 90 37 a2 28 90 37
       1.7185104e-05 1.7185104e-05 1.7185104e-05 1.7185059e-05
000090 2c 24 90 37 0d 25 90 37 bd 26 90 37 43 28 90 37
       1.7182982e-05 1.718339e-05 1.7184177e-05 1.7184886e-05
0000a0 33 28 90 37 6f 28 90 37 44 73 8b 37 3e cb 86 37
       1.7184857e-05 1.7184966e-05 1.6623766e-05 1.6068687e-05
0000b0 54 76 8e 37 20 1e 90 37 93 27 90 37 bb 28 90 37
       1.698282e-05 1.7180166e-05 1.7184566e-05 1.7185104e-05
0000c0 bb 28 90 37 bb 28 90 37 bb 28 90 37 bb 28 90 37
       1.7185104e-05 1.7185104e-05 1.7185104e-05 1.7185104e-05
0000d0 bb 28 90 37 bb 28 90 37 bb 28 90 37 bb 28 90 37
       1.7185104e-05 1.7185104e-05 1.7185104e-05 1.7185104e-05
0000e0 bb 28 90 37 bb 28 90 37 bb 28 90 37 b7 28 90 37
       1.7185104e-05 1.7185104e-05 1.7185104e-05 1.7185097e-05
0000f0 b9 28 90 37 bb 28 90 37 be 28 90 37 f1 26 90 37
       1.71851e-05 1.7185104e-05 1.718511e-05 1.7184271e-05
000100 c2 03 90 37 59 c9 8f 37 c7 3a 8f 37 1d f3 8e 37
       1.7167888e-05 1.7140688e-05 1.7074299e-05 1.7040928e-05
000110 e2 08 8f 37 7e b8 90 37 c2 9e 87 37 ca 04 7e 37
       1.7051065e-05 1.7252049e-05 1.6167181e-05 1.5140695e-05
000120 46 f3 87 37 f3 fc 8f 37 08 ca 8f 37 ff 9e 90 37
       1.6206537e-05 1.7164717e-05 1.7141007e-05 1.7240176e-05
000130 68 41 90 37 b4 28 90 37 bc 28 90 37 43 27 90 37
       1.7196595e-05 1.7185092e-05 1.7185106e-05 1.718442e-05
000140 f1 27 90 37 a5 28 90 37 bb 28 90 37 bb 28 90 37
       1.7184737e-05 1.7185064e-05 1.7185104e-05 1.7185104e-05
000150 bb 28 90 37 bb 28 90 37 b6 28 90 37 b1 28 90 37
       1.7185104e-05 1.7185104e-05 1.7185095e-05 1.7185086e-05
000160 b7 28 90 37 9a 28 90 37 fe 1d 90 37 12 f3 8f 37
       1.7185097e-05 1.7185044e-05 1.7180104e-05 1.7160117e-05
000170 37 61 8f 37 10 82 8e 37 4d 7a 8d 37 c4 33 89 37
       1.7092198e-05 1.6988284e-05 1.686546e-05 1.6355778e-05
000180 8b 84 84 37 1b 91 77 37 e6 14 54 37 b8 a0 48 37
       1.5797346e-05 1.4756132e-05 1.26410505e-05 1.1958349e-05
000190 7a c3 57 37 69 fe 79 37 1d 19 86 37 70 0b 8c 37
       1.2860512e-05 1.4900791e-05 1.5985739e-05 1.6694627e-05
0001a0 6c 38 8d 37 1b 32 8e 37 48 0a 90 37 8d 26 90 37
       1.6834783e-05 1.6951051e-05 1.7170925e-05 1.718409e-05
0001b0 3e 28 90 37 9a 28 90 37 bb 28 90 37 bb 28 90 37
       1.7184877e-05 1.7185044e-05 1.7185104e-05 1.7185104e-05
0001c0 bb 28 90 37 bb 28 90 37 af 28 90 37 ae 28 90 37
       1.7185104e-05 1.7185104e-05 1.7185082e-05 1.718508e-05
0001d0 37 29 90 37 a4 00 90 37 ef c7 8f 37 77 4a 8e 37
       1.718533e-05 1.7166436e-05 1.714003e-05 1.6962395e-05
0001e0 5f 74 8b 37 31 1d 86 37 a3 ad 7e 37 ba d5 66 37
       1.662428e-05 1.5987638e-05 1.5180008e-05 1.375883e-05
0001f0 c6 67 4b 37 01 01 2e 37 cf d6 13 37 d8 cc 03 37
       1.21239045e-05 1.0371442e-05 8.811897e-06 7.855902e-06
000200 2a 9c 0a 37 32 0a 21 37 e7 3b 33 37 7d 68 55 37
       8.261801e-06 9.598722e-06 1.06831785e-05 1.2720117e-05
000210 5d 07 6d 37 44 de 7c 37 97 9b 88 37 d1 ec 8e 37
       1.4128015e-05 1.5072121e-05 1.6284916e-05 1.7037995e-05
000220 be 0b 90 37 b7 28 90 37 bb 28 90 37 bb 28 90 37
       1.7171606e-05 1.7185097e-05 1.7185104e-05 1.7185104e-05
000230 bb 28 90 37 bb 28 90 37 ad 28 90 37 9a 24 90 37
       1.7185104e-05 1.7185104e-05 1.7185079e-05 1.7183182e-05
000240 a0 15 90 37 5b 8a 8f 37 91 f3 8d 37 fc 32 8a 37
       1.7176208e-05 1.7111355e-05 1.692193e-05 1.6474623e-05
000250 a5 f4 83 37 3a e0 71 37 c4 78 5c 37 0a f5 42 37
       1.5730338e-05 1.4416926e-05 1.314114e-05 1.1620354e-05
000260 62 d4 23 37 ed 98 06 37 4b d3 e4 36 d7 6b ca 36
       9.765006e-06 8.022628e-06 6.8195272e-06 6.0326233e-06
000270 42 4e c5 36 58 13 ef 36 fd 68 08 37 d3 da 21 37
       5.880168e-06 7.125007e-06 8.130676e-06 9.647297e-06
000280 b9 43 38 37 a0 c1 0b 37 58 01 48 37 50 78 8a 37
       1.0983023e-05 8.3301275e-06 1.1921242e-05 1.6506907e-05
000290 ff b6 8f 37 d2 2c 90 37 b9 28 90 37 bb 28 90 37
       1.7132143e-05 1.7187009e-05 1.71851e-05 1.7185104e-05
0002a0 bb 28 90 37 bb 28 90 37 9d 23 90 37 76 1b 90 37
       1.7185104e-05 1.7185104e-05 1.7182721e-05 1.7178925e-05
0002b0 da 0c 8f 37 5d d2 8e 37 b8 16 8b 37 2d 69 85 37
       1.7052913e-05 1.7025677e-05 1.658067e-05 1.5903812e-05
0002c0 ad 37 7a 37 71 58 62 37 76 1c 47 37 71 2f 2f 37
       1.4914124e-05 1.3491242e-05 1.1867951e-05 1.0441859e-05
0002d0 d1 1e 0f 37 52 23 f1 36 36 5a d7 36 9a 30 c2 36
       8.530639e-06 7.1864715e-06 6.4180012e-06 5.7873085e-06
0002e0 aa 20 c0 36 22 f1 d8 36 c9 21 f2 36 4a 54 0b 37
       5.7258485e-06 6.465373e-06 7.216095e-06 8.304671e-06
0002f0 49 c5 c8 36 7a ff 0d 37 40 00 39 37 69 8c 89 37
       5.9834315e-06 8.463738e-06 1.10269175e-05 1.6397056e-05
000300 31 5e 8f 37 d7 eb 8f 37 b6 28 90 37 b3 28 90 37
       1.709079e-05 1.715675e-05 1.7185095e-05 1.718509e-05
000310 bb 28 90 37 bb 28 90 37 8e 16 90 37 00 0d 90 37
       1.7185104e-05 1.7185104e-05 1.717664e-05 1.7172191e-05
000320 ed e5 4e 37 bf 6c 48 37 d5 f2 83 37 6b 3c 80 37
       1.2332091e-05 1.1946248e-05 1.5729494e-05 1.5286923e-05
000330 19 ea 73 37 79 67 58 37 58 ca 3d 37 50 3d 1b 37
       1.4538434e-05 1.2898695e-05 1.131239e-05 9.252995e-06
000340 20 3e 06 37 ad e8 fc 36 a9 11 dc 36 e8 59 c7 36
       8.001487e-06 7.5372723e-06 6.558567e-06 5.9411286e-06
000350 49 85 c3 36 1d 32 d3 36 7a 86 ec 36 3d 9b 9f 36
       5.8269693e-06 6.294124e-06 7.049003e-06 4.7566414e-06
000360 55 66 03 37 61 c0 00 37 3a ce 5b 37 cf 6d 89 37
       7.8320345e-06 7.674186e-06 1.3101433e-05 1.6382806e-05
000370 97 c2 8e 37 7d ef 8f 37 d7 28 90 37 aa 28 90 37
       1.7018332e-05 1.7158449e-05 1.7185155e-05 1.7185073e-05
000380 a2 28 90 37 b0 28 90 37 21 19 90 37 5b 0f 90 37
       1.7185059e-05 1.7185084e-05 1.717784e-05 1.7173288e-05
000390 bd af 51 37 c2 d5 39 37 7b 64 71 37 fb ae 78 37
       1.2498288e-05 1.1076629e-05 1.4388114e-05 1.4822693e-05
0003a0 44 fb 6a 37 c1 3e 48 37 40 e0 2c 37 d0 1c 13 37
       1.4005989e-05 1.193554e-05 1.0304211e-05 8.768591e-06
0003b0 00 62 0d 37 ce 86 02 37 e7 a4 e1 36 83 00 d2 36
       8.427072e-06 7.7799905e-06 6.7247197e-06 6.2585473e-06
0003c0 b2 51 bd 36 1c 20 cd 36 a1 e3 94 36 6c 5b e0 36
       5.6421495e-06 6.113214e-06 4.437243e-06 6.686363e-06
0003d0 04 0f fe 36 9f a0 36 37 ce fe 7d 37 01 cd 89 37
       7.571538e-06 1.0885443e-05 1.51393015e-05 1.6427135e-05
0003e0 54 07 8f 37 7d 26 90 37 bb 28 90 37 bb 28 90 37
       1.705034e-05 1.718406e-05 1.7185104e-05 1.7185104e-05
0003f0 bb 28 90 37 bf 1f 90 37 f1 1d 90 37 87 26 90 37
       1.7185104e-05 1.718092e-05 1.718008e-05 1.7184078e-05

exp_avg f4 [30]
000000 cb df 81 38 b6 55 5f 39 00 00 00 00 11 8a 7a b9
       6.192884e-05 0.00021298867 0.0 -0.00023893292
000010 00 00 00 00 68 5a d3 b9 bc cd 6e b9 00 00 00 00
       0.0 -0.00040312414 -0.00022774091 0.0
000020 00 00 00 00 08 54 e2 b8 02 77 63 b8 30 35 09 b9
       0.0 -0.00010792172 -5.4231852e-05 -0.00013085152
000030 14 03 6c 39 bf e5 be b8 00 00 00 00 80 8e 12 b9
       0.0002250786 -9.1026996e-05 0.0 -0.0001397673
000040 00 00 00 00 cc 70 19 39 00 00 00 00 59 2d 8e b9
       0.0 0.00014633237 0.0 -0.00027118137
000050 00 00 00 00 5f f5 13 39 f4 b4 86 b8 00 00 00 00
       0.0 0.0001411042 -6.423323e-05 0.0
000060 b6 c7 42 39 83 60 79 39 00 00 00 00 00 00 00 00
       0.0001857568 0.00023782444 0.0 0.0
000070 00 00 00 00 37 8e 79 37
       0.0 1.48746685e-05

exp_avg_sq f4 [30]
000000 bb 28 90 37 bc 49 ff 35 00 00 00 00 77 de d5 36
       1.7185104e-05 1.902044e-06 0.0 6.373793e-06
000010 00 00 00 00 98 b2 9a 37 c2 ed 3a 37 00 00 00 00
       0.0 1.8441395e-05 1.1141821e-05 0.0
000020 00 00 00 00 60 b2 17 37 b5 15 09 36 81 0c aa 37
       0.0 9.0418325e-06 2.0427226e-06 2.0271402e-05
000030 92 a5 1b 36 67 86 cd 37 00 00 00 00 8a 82 27 36
       2.3193174e-06 2.450049e-05 0.0 2.4960923e-06
000040 00 00 00 00 5b ee ab 35 00 00 00 00 8b 84 0e 37
       0.0 1.2809863e-06 0.0 8.49472e-06
000050 00 00 00 00 01 ac 54 36 75 8c d3 36 00 00 00 00
       0.0 3.1690581e-06 6.3046414e-06 0.0
000060 da cf b6 35 98 2c 93 37 00 00 00 00 00 00 00 00
       1.362055e-06 1.7544531e-05 0.0 0.0
000070 00 00 00 00 db 55 1c 37
       0.0 9.318314e-06

exp_avg f4 [3, 30]
000000 89 83 34 3b 21 06 ae b9 00 00 00 00 dc 00 af 3b
       0.0027544221 -0.00033192433 0.0 0.0053406786
000010 00 00 00 00 7f 8c de 3a 7c c4 4b 3b 00 00 00 00
       0.0 0.0016979127 0.0031092456 0.0
000020 00 00 00 00 65 6d 86 3b 10 bc 9e 3b ae b2 96 3a
       0.0 0.0041023963 0.004844196 0.0011497342
000030 0d 35 d3 3b 34 68 e9 3a 00 00 00 00 e3 68 a7 3b
       0.006445533 0.0017807544 0.0 0.005108939
000040 00 00 00 00 50 7b 90 3b 00 00 00 00 82 22 d0 bb
       0.0 0.0044092312 0.0 -0.00635177
000050 00 00 00 00 ca 55 2c bb 3b 26 96 3b 00 00 00 00
       0.0 -0.0026296251 0.004582194 0.0
000060 3e 97 fb b9 8a f1 be 3a 00 00 00 00 00 00 00 00
       -0.00047987135 0.0014567834 0.0 0.0
000070 00 00 00 00 33 ad 88 3b da 15 90 3a 7c 58 83 ba
       0.0 0.0041710376 0.001099284 -0.0010020877
000080 00 00 00 00 bf a0 89 bb 00 00 00 00 24 9e 07 bc
       0.0 -0.0042000706 0.0 -0.00827745
000090 c7 48 b2 bb 00 00 00 00 00 00 00 00 95 7b db ba
       -0.0054408046 0.0 0.0 -0.0016745204
0000a0 c5 97 cd bb 1a 8b 5e ba 91 cf d3 3a 2e cc 90 ba
       -0.006274196 -0.00084893557 0.0016159882 -0.0011047178
0000b0 00 00 00 00 37 62 bf bb 00 00 00 00 2d 37 15 3b
       0.0 -0.0058405655 0.0 0.0022768483
0000c0 00 00 00 00 fc a9 76 bb 00 00 00 00 24 95 af ba
       0.0 -0.003763794 0.0 -0.0013395888
0000d0 30 ef c9 ba 00 00 00 00 44 75 02 ba 82 6c 01 bc
       -0.0015406366 0.0 -0.00049765804 -0.007899405
0000e0 00 00 00 00 00 00 00 00 00 00 00 00 36 2f 84 ba
       0.0 0.0 0.0 -0.0010084871
0000f0 58 8f 7c bb 9a d8 ae 3a 00 00 00 00 62 80 95 ba
       -0.0038537588 0.0013339699 0.0 -0.0011406059
000100 00 00 00 00 2f 99 d7 3b 2c cd 18 3b 00 00 00 00
       0.0 0.00657954 0.0023315651 0.0
000110 00 00 00 00 1f 1d 1f bb 72 6e bb 3a d1 b3 9d b9
       0.0 -0.0024278832 0.0014299883 -0.00030079347
000120 06 15 04 bc b0 37 31 ba 00 00 00 00 1f cb 3f 3a
       -0.008061653 -0.0006760312 0.0 0.0007316339
000130 00 00 00 00 87 17 db bb 00 00 00 00 3b bb 25 3c
       0.0 -0.0066861543 0.0 0.01011544
000140 00 00 00 00 d8 0f 82 3b 0d 55 47 bb 00 00 00 00
       0.0 0.003969174 -0.0030415684 0.0
000150 19 1f 80 3a 9b 1c d3 3b 00 00 00 00 00 00 00 00
       0.0009774893 0.006442619 0.0 0.0
000160 00 00 00 00 ff 42 4f bb
       0.0 -0.0031625626

exp_avg_sq f4 [3, 30]
000000 02 a2 77 3a 77 e3 70 39 00 00 00 00 f4 b6 8b 39
       0.00094464433 0.00022972921 0.0 0.00026648457
000010 00 00 00 00 ac 90 31 37 62 2d 6a 38 00 00 00 00
       0.0 1.0583706e-05 5.5832214e-05 0.0
000020 00 00 00 00 53 fa ed 39 e7 14 b8 39 49 ae 57 39
       0.0 0.0004539067 0.00035110788 0.00020568924
000030 b3 0c 3a 3b e3 a9 7b 39 00 00 00 00 3d b5 8a 39
       0.0028388917 0.00024000513 0.0 0.00026456444
000040 00 00 00 00 fe 7b 61 3a 00 00 00 00 34 b3 62 39
       0.0 0.0008601545 0.0 0.00021619798
000050 00 00 00 00 e4 e8 cf 38 5b 3d d3 39 00 00 00 00
       0.0 9.9139084e-05 0.0004029077 0.0
000060 84 2c 58 39 75 04 c9 38 00 00 00 00 00 00 00 00
       0.00020615949 9.585257e-05 0.0 0.0
000070 00 00 00 00 40 87 6a 3a 2c e9 99 3a b4 f0 43 39
       0.0 0.00089465454 0.0011742464 0.00018686318
000080 00 00 00 00 84 71 4f 3b 00 00 00 00 73 b3 ee 39
       0.0 0.0031653354 0.0 0.00045528598
000090 f7 2b 92 3b 00 00 00 00 00 00 00 00 54 89 b6 3a
       0.0044608074 0.0 0.0 0.0013926425
0000a0 98 be 18 3c 99 70 94 39 70 9b 38 3b 9e b9 c8 39
       0.009322785 0.00028312652 0.002816882 0.00038285268
0000b0 00 00 00 00 c2 22 02 3c 00 00 00 00 6f da e1 38
       0.0 0.007942857 0.0 0.000107695225
0000c0 00 00 00 00 6d 9d a9 38 00 00 00 00 21 c0 c8 39
       0.0 8.087871e-05 0.0 0.0003829012
0000d0 20 75 97 3a 00 00 00 00 91 bf c3 38 19 6e 6a 3a
       0.0011555292 0.0 9.3340066e-05 0.00089427974
0000e0 00 00 00 00 00 00 00 00 00 00 00 00 96 f5 6c 3a
       0.0 0.0 0.0 0.00090392807
0000f0 4b c4 40 3b fd ab 00 3a 00 00 00 00 dd 3b 87 3b
       0.0029413875 0.0004908441 0.0 0.0041270093
000100 00 00 00 00 91 d3 da 39 8f 8a 90 3b 00 00 00 00
       0.0 0.0004173783 0.0044110487 0.0
000110 00 00 00 00 fd 61 22 3b 60 10 29 3c 19 57 36 3a
       0.0 0.0024777644 0.0103188455 0.00069557276
000120 85 2c f5 3b 3a ec 64 3a 00 00 00 00 9f fe 0e 3c
       0.007482114 0.000873271 0.0 0.008727699
000130 00 00 00 00 0b 21 8b 3a 00 00 00 00 b9 12 bd 39
       0.0 0.0010614706 0.0 0.0003606284
000140 00 00 00 00 16 3c 0c 3a 12 b0 09 3b 00 00 00 00
       0.0 0.00053495297 0.0021009487 0.0
000150 ba 70 b3 39 b7 63 55 3a 00 00 00 00 00 00 00 00
       0.00034225528 0.0008140164 0.0 0.0
000160 00 00 00 00 a4 10 1e 3b
       0.0 0.0024118805

exp_avg f4 [3]
000000 82 c5 42 3a b6 8b a5 b9 77 ff df b9
       0.00074299437 -0.00031575345 -0.0004272421

exp_avg_sq f4 [3]
000000 a5 1e b3 37 6b 6d ca 38 5a 47 19 39
       2.1352733e-05 9.652491e-05 0.00014617798
