nesy/o1xlo6p5/checkpoints/epoch=7-step=584.ckpt (torch, 290915 bytes, 12 tensors)

neural_predicates.digit.net.0.weight f4 [30, 784]
0	0xbc65b009	-0.014019021
1	0x3bae37fc	0.0053167325
2	0xbc33cf66	-0.010974741
3	0xbcc0b00b	-0.023521444
4	0xbc804bc1	-0.015661122
5	0xbbe1791d	-0.006880893
6	0x3c615158	0.013752304
7	0xbd0ba97c	-0.03409718
8	0xbd2f8fc1	-0.042861704
9	0xbc1681b3	-0.009186196
10	0x3b9b1a1e	0.004733338
11	0xbd1bea5b	-0.038065296
12	0xbd427064	-0.047470465
13	0xbc51ff5e	-0.012817232
14	0xbaa2db7e	-0.0012425033
15	0xbbb8fa82	-0.0056450972
16	0xbcefa25a	-0.02925222
17	0xbcef0f46	-0.029182088
18	0xbb995682	-0.004679502
19	0xbcf917dc	-0.030406885
20	0x3c188456	0.009308895
21	0x3c2738b8	0.010206394
22	0xbc961536	-0.018320661
23	0x3c6c68ce	0.014429284
24	0xbd0fc48a	-0.035099544
25	0x3c5d97d5	0.013524969
26	0xba17b8be	-0.00057877216
27	0xbd265c16	-0.040615164
28	0xbd2d3663	-0.042288195
29	0xbcf8a3f2	-0.030351613
30	0xbab1b6bd	-0.0013558489
31	0xbd136494	-0.03598459
32	0xbc3cbfc7	-0.011520333
33	0xbd3a8be6	-0.045543574
34	0x3b1ab37d	0.0023605519
35	0xbcfca921	-0.030842366
36	0xba025476	-0.0004971692
37	0xbcfc6292	-0.03080872
38	0xbd045c64	-0.032314673
39	0xbcd1e9c6	-0.025624167
40	0xbd1c5353	-0.0381654
41	0xbc9a3896	-0.01882581
42	0x3c2c000f	0.010498061
43	0xbc09c654	-0.0084091015
44	0xbc0ba175	-0.008522381
45	0x3c89b93e	0.016811963
46	0xbb9bcb84	-0.0047544856
47	0xbcdd46c9	-0.027011292
48	0xbccd5af3	-0.025067782
49	0xbc9f71ab	-0.01946338
50	0x3bfe2c85	0.007756772
51	0x3bc890dc	0.006120784
52	0xbbe4dd41	-0.0069843833
53	0xbc4af549	-0.012387582
54	0xbca3736e	-0.019952502
55	0xbce9c164	-0.028534599
56	0xbd1be975	-0.03806444
57	0x3be21452	0.006899395
58	0xbcc88f86	-0.0244825
59	0x3c6699fb	0.014074798
60	0x3c94177e	0.018077608
61	0xbd347a23	-0.04406179
62	0xbc41735d	-0.01180729
63	0xbd3cf74b	-0.046134274
64	0x3c08bfde	0.008346526
65	0x3bc2a62f	0.005940221
66	0xbcc04931	-0.0234724
67	0x3aa94f54	0.0012917318
68	0x3c8d73a8	0.017267063
69	0x3b17eac6	0.0023180707
70	0x3c5060b4	0.012718368
71	0xbd0e6d2f	-0.034772094
72	0xbcbf83c9	-0.02337827
73	0xbd1c2df3	-0.038129758
74	0x3c379dd3	0.011207062
75	0x3c64b8b3	0.013960051
76	0x3c775b53	0.015097457
77	0x3b3820e8	0.0028095786
78	0x3c47013c	0.01214629
79	0xbd3ce3bc	-0.046115622
80	0xbd1d4d29	-0.038403664
81	0xbce848c6	-0.028355014
82	0x3c9dd011	0.019264253
83	0xbcb47c9b	-0.022032073
84	0x3b7c4a70	0.0038496517
85	0xbc98d14f	-0.018654494
86	0xbcf972ac	-0.030450188
87	0x3c8b47a4	0.017001934
88	0x3b4f414f	0.003162462
89	0xbd2fc2cc	-0.042910382
90	0x3c869561	0.016428651
91	0xbc8adbf7	-0.01695059
92	0xbc9430f0	-0.018089741
93	0x3cf8d346	0.03037418
94	0x3d7f6771	0.06235451
95	0x3cfbb725	0.030726979
96	0x3d2a5732	0.041587062
97	0x3d6a69b1	0.0572297
98	0x392f7027	0.0001673108
99	0x3d2b15b4	0.041768745
100	0x3c952a35	0.018208602
101	0x3d039b18	0.03213033
102	0xbc4f506b	-0.0126534505
103	0xbd014f1b	-0.03156958
104	0xbd2d4bb3	-0.04230852
105	0xbd3ea09b	-0.046539884
106	0xbc79e50f	-0.015252366
107	0xbd4b24b9	-0.04959557
108	0xbd301cf9	-0.04299638
109	0xbb77e7df	-0.0037827415
110	0xbcbb24c0	-0.022844672
111	0x3ad171e9	0.0015979382
112	0x3c412064	0.011787508
113	0xbce41a52	-0.027844582
114	0xbc638216	-0.013885995
115	0xbd2ecc41	-0.04267526
116	0xbbdc5d25	-0.006724971
117	0xbc6a9666	-0.014318084
118	0x3c9722a4	0.018449135
119	0xbd036fdb	-0.032089096
120	0x3cae40f4	0.021271206
121	0x3c856e3e	0.01628792
122	0x3cc1ca80	0.02365613
123	0x3d855175	0.06509677
124	0x3d5624af	0.052281078
125	0x3d4a70c3	0.049423944
126	0x3c0ebed2	0.008712487
127	0x3ccb5817	0.024822278
128	0x3cd47fbf	0.02593982
129	0x3ce1ae0f	0.027548818
130	0x3c3052b6	0.010761907
131	0xbd113023	-0.035446297
132	0xbc806548	-0.015673295
133	0xbd8a05bc	-0.06739375
134	0xbd16f524	-0.036854878
135	0xbd2b9ac8	-0.041895658
136	0xbcec8989	-0.028874176
137	0x3a277c3c	0.0006389057
138	0xbbaf70c3	-0.0053540184
139	0x3c497b9f	0.01229754
140	0xbd1a25ce	-0.03763371
141	0xbd072234	-0.032991603
142	0x3b580fe8	0.0032968465
143	0xbd15e21e	-0.036592595
144	0xbd1aa298	-0.037752718
145	0xbc8e5c30	-0.017377943
146	0x3cd36ed2	0.02580968
147	0x3a86a0da	0.0010271326
148	0x3d8c6d36	0.06856768
149	0x3d9d320e	0.07675563
150	0x3d229f01	0.03970242
151	0x3cb95325	0.022622654
152	0x3d07a426	0.03311553
153	0xbbc4633b	-0.0059932745
154	0xbbaf124a	-0.0053427564
155	0x3d116bda	0.035503246
156	0x3da03a86	0.078236625
157	0x3d871b68	0.06597024
158	0xbbee750a	-0.0072771357
159	0xbd253c25	-0.04034056
160	0x3b74a52b	0.0037329893
161	0xbb8921a4	-0.0041849185
162	0xbd01ce19	-0.03169069
163	0xbc73245e	-0.014840214
164	0xbd527656	-0.051382385
165	0xbcdd7c60	-0.027036846
166	0x3bb9c853	0.0056696325
167	0xbcdf188b	-0.027233383
168	0xbb7a6f9b	-0.0038213495
169	0xbc873ecf	-0.016509442
170	0xbc4c0e37	-0.012454561
171	0x3ca9eb0a	0.020741958
172	0xbd2d55e1	-0.04231823
173	0xbd0916e4	-0.033469096
174	0xbc5bce45	-0.013415878
175	0xba22b39e	-0.00062065746
176	0x3cf7a927	0.030232025
177	0x3d0a8ed1	0.033827607
178	0xbb869103	-0.004106642
179	0x3c1c27d2	0.009530978
180	0x3c8dcb6b	0.017308911
181	0xba7d73d0	-0.00096684415
182	0xbcbe3cbd	-0.023222322
183	0xbbf7bdac	-0.0075604524
184	0x3cb34d7c	0.021887533
185	0x3c6098fb	0.013708348
186	0x3b3b5bdf	0.0028588695
187	0x3b06f114	0.002059047
188	0x3c3678f9	0.011137241
189	0xbc38c9c0	-0.01127857
190	0xbd2fcf0c	-0.042922065
191	0xbcb3ff49	-0.021972315
192	0xbd50a0e4	-0.050934687
193	0xbc19684b	-0.009363244
194	0x3c8c008d	0.017090106
195	0x3b2b180e	0.0026106867
196	0xbd4517b8	-0.048118323
197	0xbbaf14b5	-0.0053430446
198	0xbcf6b6ec	-0.03011652
199	0xbd26e1f2	-0.040742822
200	0x3b390346	0.002823071
201	0x3d0795e7	0.033101942
202	0x3d2fedd9	0.04295144
203	0x3d4def7f	0.05027723
204	0x3cde2f12	0.027122054
205	0x3b2d3989	0.0026431999
206	0x3c620900	0.013796091
207	0x3d29adfd	0.041425694
208	0x3c99167e	0.018687483
209	0x3cd0e3f6	0.025499325
210	0xbcfdef49	-0.03099789
211	0xbcc5c1ae	-0.024140205
212	0xbb8d43aa	-0.0043110447
213	0xbd988498	-0.07447165
214	0xbce5bfb8	-0.02804552
215	0xbc91ba5f	-0.017789064
216	0xbd732276	-0.059359036
217	0xbc87401f	-0.016510068
218	0xbc1e6a65	-0.009668921
219	0xbcbec944	-0.02328933
220	0xbd808b4e	-0.0627657
221	0xbc3bd57d	-0.011464474
222	0x3c73d238	0.014881663
223	0x3b89872b	0.0041970215
224	0xbcccd0b8	-0.025001869
225	0x3c2b7925	0.010465895
226	0xbb8fb9e9	-0.004386176
227	0xbd2529b9	-0.040322993
228	0xbcb51a23	-0.02210719
229	0x3d3d02ff	0.046145435
230	0xbbd006c3	-0.0063484623
231	0x3cf8a98f	0.03035429
232	0x3cb9cf84	0.022681959
233	0x3ca953c2	0.020669822
234	0xbbe2b325	-0.0069183283
235	0x3c0f9419	0.008763337
236	0xbd4b4a01	-0.049631122
237	0x3bfd018a	0.0077211307
238	0xbd0c8b8a	-0.034312762
239	0x3c0ba404	0.008522991
240	0xbd1326fb	-0.035925847
241	0xbcc2402f	-0.023712246
242	0xbc403a87	-0.011732704
243	0x3c077604	0.008267883
244	0xbd6007d1	-0.054694954
245	0xbcae1800	-0.021251678
246	0xbc80280f	-0.015644101
247	0xbd1a1acd	-0.037623215
248	0xbcd38037	-0.025817974
249	0x3c22a6d0	0.0099274665
250	0xbd351725	-0.044211525
251	0xbd0c0af3	-0.03419013
252	0xbcca52df	-0.02469772
253	0xbcbd89d8	-0.023137018
254	0xbd3f8790	-0.04676014
255	0xbc9c35de	-0.019068655

neural_predicates.digit.net.0.bias f4 [30]
0	0xbc911749	-0.017711299
1	0x3d256f05	0.04038908
2	0x3c877b9d	0.016538436
3	0x3d0887e0	0.033332705
4	0xbd19f24d	-0.03758459
5	0x3a9be5ba	0.0011894025
6	0xbccb7881	-0.024837734
7	0x3b8daef3	0.004323834
8	0xbc9a2ad6	-0.018819254
9	0xbd07abad	-0.033122707
10	0xbb41439b	-0.002948976
11	0xbbd17e56	-0.0063932342
12	0x3c4ac0fb	0.012375112
13	0xbcd6bca6	-0.026213001
14	0xbca88e5e	-0.020575698
15	0x3c953682	0.018214468
16	0xbc8eaf1c	-0.017417483
17	0xbd1bed5b	-0.038068157
18	0x3be97107	0.0071240696
19	0x3bf70d57	0.007539432
20	0x3cb50020	0.022094786
21	0xbc77ba32	-0.015120076
22	0x3d5ffcc2	0.054684408
23	0x3d33491c	0.043770894
24	0xbc973c64	-0.018461414
25	0x3d377594	0.044789866
26	0x3d16f029	0.03685013
27	0xbb5efb47	-0.0034024285
28	0xbcbf0ffa	-0.023323048
29	0xbd1c7e0e	-0.038206153

neural_predicates.digit.net.2.weight f4 [3, 30]
0	0xbe58d67b	-0.21175568
1	0xbdd1737f	-0.10227107
2	0xbe1d6d70	-0.15373778
3	0xbd6baa57	-0.057535496
4	0xbd466ef7	-0.048445668
5	0xbd7c4f5f	-0.06159913
6	0xbe30537d	-0.17219348
7	0x3e029da8	0.12755454
8	0xbe1f77ec	-0.1557309
9	0xbdb2014e	-0.08691655
10	0xbdb0cdc6	-0.08632998
11	0xbe8193e2	-0.25308138
12	0x3e87516b	0.26429304
13	0x3df737ec	0.12071213
14	0xbe8aa1e4	-0.27076638
15	0x3dec0b83	0.11525633
16	0xbe63317c	-0.22186846
17	0x3db76ac2	0.08955909
18	0x3dd893e6	0.105750844
19	0xbe459475	-0.19294913
20	0x3dfb81be	0.12280606
21	0x3cab5ee4	0.02091927
22	0x3e1edc39	0.15513696
23	0x3e647cd1	0.22313239
24	0x3e50c2a6	0.20386752
25	0x3de47492	0.111550465
26	0x3e35d075	0.17755301
27	0xbcdf9b2c	-0.027295671
28	0x3dbff19a	0.09372254
29	0x3d872688	0.06599146
30	0xbce5bd3c	-0.028044336
31	0xbdd894c1	-0.105752476
32	0xbe25f088	-0.16205037
33	0x3e1eac2f	0.1549537
34	0x3e4f45c8	0.20241463
35	0xbc7ffa3a	-0.0156236235
36	0x3e07e4a8	0.13270819
37	0x39fc69b1	0.00048143932
38	0x3b43c965	0.002987468
39	0xbc9aab1a	-0.018880416
40	0xbe26e827	-0.16299497
41	0x3df866a5	0.12128953
42	0xbe448f99	-0.19195403
43	0x3dac13b6	0.08402197
44	0xbb6a0bbc	-0.003571256
45	0x3dc1615b	0.09442397
46	0x3e107e75	0.1411074
47	0xbdcf604f	-0.10125791
48	0xbe138971	-0.14407898
49	0xbdc16d45	-0.0944467
50	0xbe7e6e0d	-0.24846669
51	0x3e1c20a1	0.15246822
52	0xbe3043a2	-0.172133
53	0xbe1c574a	-0.15267673
54	0x3e12c58e	0.14333174
55	0xbe67e17a	-0.22644606
56	0xbe887a3d	-0.2665576
57	0xbe990690	-0.2988782
58	0x3cc3be4f	0.023894457
59	0x3dffdfa8	0.12493831
60	0x3ddb564a	0.10709818
61	0x3dd17bc4	0.102286845
62	0x3e18fda5	0.14940508
63	0x3e2210f0	0.15826774
64	0xbcd3a148	-0.02583374
65	0xbe121559	-0.14265956
66	0xbd97a0d7	-0.07403725
67	0xbe037d40	-0.12840748
68	0x3de7a2c6	0.113103434
69	0x3dd832b9	0.105565496
70	0x3e1fc7f6	0.15603623
71	0xbe4fa982	-0.20279506
72	0xbe40af50	-0.18816876
73	0x3dfe037d	0.12403009
74	0xbda1348a	-0.07871349
75	0xbe5f3a57	-0.21799599
76	0xbe294b3d	-0.16532607
77	0xbd399875	-0.04531141
78	0x3dfcbf95	0.12341229
79	0x3e0715b1	0.13191868
80	0xbe4357b0	-0.19076419
81	0x3ce4e0ac	0.027939163
82	0x3d9da143	0.07696774
83	0x3e568990	0.20950913
84	0xbe14edd4	-0.14543849
85	0x3cf1410c	0.029449962
86	0x3d721e70	0.05911106
87	0xbe17a517	-0.1480907
88	0xbdfde340	-0.1239686
89	0xbe8635d8	-0.26212955

neural_predicates.digit.net.2.bias f4 [3]
0	0xbd7bd07f	-0.061478134
1	0x3de0d7c0	0.10978651
2	0x3dcd9ff6	0.10040276

exp_avg f4 [30, 784]
0	0xba4eda85	-0.00078908383
1	0xba4eda85	-0.00078908383
2	0xba4eda85	-0.00078908383
3	0xba4eda85	-0.00078908383
4	0xba4eda85	-0.00078908383
5	0xba4eda85	-0.00078908383
6	0xba4eda85	-0.00078908383
7	0xba4eda85	-0.00078908383
8	0xba4eda85	-0.00078908383
9	0xba4eda85	-0.00078908383
10	0xba4eda85	-0.00078908383
11	0xba4eda85	-0.00078908383
12	0xba4eda87	-0.00078908395
13	0xba4edabb	-0.000789087
14	0xba4edabb	-0.000789087
15	0xba4eda87	-0.00078908395
16	0xba4eda85	-0.00078908383
17	0xba4eda85	-0.00078908383
18	0xba4eda85	-0.00078908383
19	0xba4eda85	-0.00078908383
20	0xba4eda85	-0.00078908383
21	0xba4eda85	-0.00078908383
22	0xba4eda85	-0.00078908383
23	0xba4eda85	-0.00078908383
24	0xba4eda85	-0.00078908383
25	0xba4eda85	-0.00078908383
26	0xba4eda85	-0.00078908383
27	0xba4eda85	-0.00078908383
28	0xba4eda85	-0.00078908383
29	0xba4eda85	-0.00078908383
30	0xba4eda85	-0.00078908383
31	0xba4eda85	-0.00078908383
32	0xba4eda85	-0.00078908383
33	0xba4eda85	-0.00078908383
34	0xba4eda85	-0.00078908383
35	0xba4eda8c	-0.00078908424
36	0xba4edb81	-0.0007890985
37	0xba4f1736	-0.0007899882
38	0xba4f4c7f	-0.0007907822
39	0xba4f802e	-0.00079155236
40	0xba4f826f	-0.00079158595
41	0xba4f2d61	-0.00079031853
42	0xba5017c7	-0.00079381134
43	0xba4fe078	-0.0007929872
44	0xba4ff8ec	-0.00079335156
45	0xba4f7143	-0.00079133007
46	0xba4f2d99	-0.0007903218
47	0xba4eda85	-0.00078908383
48	0xba4eda85	-0.00078908383
49	0xba4eda85	-0.00078908383
50	0xba4eda85	-0.00078908383
51	0xba4eda85	-0.00078908383
52	0xba4eda85	-0.00078908383
53	0xba4eda85	-0.00078908383
54	0xba4eda85	-0.00078908383
55	0xba4eda85	-0.00078908383
56	0xba4eda85	-0.00078908383
57	0xba4eda85	-0.00078908383
58	0xba4eda85	-0.00078908383
59	0xba4ed7d3	-0.00078904367
60	0xba4ed997	-0.00078907
61	0xba4eda8c	-0.00078908424
62	0xba4edc88	-0.0007891138
63	0xba4ee1e4	-0.00078919367
64	0xba4fb08c	-0.0007922731
65	0xba50b609	-0.00079616957
66	0xba50fd9f	-0.0007972363
67	0xba518f1a	-0.0007994041
68	0xba578331	-0.0008221148
69	0xba37566d	-0.00069937744
70	0xba56c3b4	-0.0008192614
71	0xba3500c0	-0.0006904714
72	0xba2929ba	-0.0006453056
73	0xba39f4f7	-0.00070936925
74	0xba4255d7	-0.0007413304
75	0xba3bbb4f	-0.0007161395
76	0xba4a4aad	-0.0007716816
77	0xba4edae4	-0.00078908936
78	0xba4eda8d	-0.0007890843
79	0xba4edad6	-0.00078908855
80	0xba4edacc	-0.00078908796
81	0xba4eda9d	-0.0007890852
82	0xba4eda85	-0.00078908383
83	0xba4eda85	-0.00078908383
84	0xba4eda85	-0.00078908383
85	0xba4eda85	-0.00078908383
86	0xba4ed9e9	-0.00078907475
87	0xba4ed293	-0.00078896544
88	0xba4ed7f1	-0.0007890454
89	0xba4ed907	-0.0007890616
90	0xba512f37	-0.0007979753
91	0xba569515	-0.0008185667
92	0xba5a13b3	-0.00083189755
93	0xba66d44f	-0.000880544
94	0xba5d7c0b	-0.0008448965
95	0xba5c9772	-0.0008414901
96	0xba22ad64	-0.0006205647
97	0xb95acb58	-0.00020865852
98	0xb9306ef3	-0.00016826
99	0xba023058	-0.000496631
100	0xb984c49c	-0.00025323487
101	0xb9581ea6	-0.00020610783
102	0xba095fa1	-0.0005240385
103	0xba625d6c	-0.0008635137
104	0xba4db7f5	-0.0007847541
105	0xba522a4f	-0.0008017169
106	0xba4d5a65	-0.0007833599
107	0xba4e6b42	-0.0007874259
108	0xba4ec303	-0.00078873354
109	0xba4ed3d4	-0.0007889841
110	0xba4eda85	-0.00078908383
111	0xba4eda85	-0.00078908383
112	0xba4eda85	-0.00078908383
113	0xba4eda85	-0.00078908383
114	0xba4ed86d	-0.00078905263
115	0xba4edc87	-0.00078911375
116	0xba4e992a	-0.00078810996
117	0xba5006c5	-0.0007935579
118	0xba558bb8	-0.0008146125
119	0xba76c332	-0.00094132416
120	0xba480f5f	-0.0007631685
121	0xba113f79	-0.0005540769
122	0xb9eab1c3	-0.000447644
123	0xb955644f	-0.00020350631
124	0x3924cfb8	0.0001571764
125	0x3a400c38	0.00073260395
126	0x3a2fb470	0.00067026075
127	0x3a406a65	0.0007340073
128	0x3a287ee1	0.0006427598
129	0x393e4afd	0.00018147747
130	0xb967af13	-0.00022095097
131	0xb97e3bc5	-0.00024245594
132	0xb9f1bac1	-0.00046106245
133	0xba450850	-0.0007516192
134	0xba660249	-0.0008774144
135	0xba4965ae	-0.0007682693
136	0xba49c5a5	-0.0007696993
137	0xba4ed9e1	-0.0007890743
138	0xba4eda85	-0.00078908383
139	0xba4eda85	-0.00078908383
140	0xba4eda85	-0.00078908383
141	0xba4eda85	-0.00078908383
142	0xba4eda58	-0.0007890812
143	0xba4ee67c	-0.0007892621
144	0xba52808c	-0.0008030019
145	0xba5568c9	-0.00081409194
146	0xba555e7d	-0.0008139385
147	0xba54ddc0	-0.00081202015
148	0xba11a1f3	-0.00055554433
149	0xb96e5cba	-0.00022731992
150	0xb9761522	-0.00023468261
151	0xb95b343b	-0.00020904925
152	0x39828edf	0.0002490198
153	0x3a49cd0a	0.00076980947
154	0x3a84a44b	0.0010119764
155	0x3a7f125a	0.00097302126
156	0x39894d74	0.00026188383
157	0x3a2c6c99	0.00065774616
158	0x39f80948	0.0004730916
159	0x39908354	0.00027563667
160	0xb6476fd2	-2.9718399e-06
161	0xba648908	-0.0008717929
162	0xba818ec0	-0.0009884462
163	0xba5c3902	-0.0008400829
164	0xba3a38ae	-0.0007103783
165	0xba4ed8f8	-0.0007890607
166	0xba4eda85	-0.00078908383
167	0xba4eda85	-0.00078908383
168	0xba4eda85	-0.00078908383
169	0xba4eda85	-0.00078908383
170	0xba50912b	-0.0007956202
171	0xba4f1f55	-0.0007901092
172	0xba55b1a1	-0.0008151774
173	0xba51d0c5	-0.00080038264
174	0xba44bfc8	-0.0007505384
175	0xba1cafd4	-0.0005977128
176	0xb9a52534	-0.0003149897
177	0xb9c446f6	-0.00037436903
178	0xb98db8cb	-0.00027031297
179	0xb8a207b4	-7.726197e-05
180	0x3921cd9c	0.00015430752
181	0x3a40b43a	0.00073510746
182	0x3a6c9b34	0.00090258126
183	0x3a3aa748	0.0007120264
184	0x3a6dcfa4	0.00090717734
185	0x3a81fdd8	0.000991757
186	0x3a040234	0.00050357287
187	0x38cce709	9.770512e-05
188	0x389a782f	7.365678e-05
189	0xba257ee3	-0.0006313158
190	0xba61111d	-0.0008585619
191	0xba4ba9fb	-0.00077691645
192	0xba368017	-0.0006961836
193	0xba4f0abf	-0.00078980246
194	0xba4edab3	-0.0007890865
195	0xba4eda7c	-0.0007890833
196	0xba4eda85	-0.00078908383
197	0xba4eda85	-0.00078908383
198	0xba56c0a6	-0.0008192159
199	0xba502336	-0.0007939817
200	0xba5214cc	-0.0008013963
201	0xba3e5d93	-0.00072618684
202	0xba1fc41c	-0.0006094591
203	0xb9d96351	-0.00041463462
204	0xba17a94c	-0.000578542
205	0xb99fa619	-0.00030450596
206	0xb9237bbe	-0.00015590989
207	0xb8f1c189	-0.00011527824
208	0x394dca92	0.00019625787
209	0x3a1f8137	0.0006084623
210	0x3a026b59	0.00049751025
211	0x3a035492	0.00050098554
212	0x3a1a2a7c	0.00058809645
213	0x3a7c4446	0.00096232106
214	0x3a778837	0.00094426
215	0x39d7159b	0.00041024093
216	0x38c792ea	9.516424e-05
217	0xb88e035b	-6.771713e-05
218	0xba24d996	-0.00062885263
219	0xba3f45ad	-0.0007296454
220	0xba35ebd0	-0.0006939741
221	0xba648c78	-0.0008718441
222	0xba4edaa0	-0.0007890854
223	0xba4eda6f	-0.00078908255
224	0xba4ed963	-0.00078906695
225	0xba4edfe9	-0.00078916416
226	0xba5515bc	-0.0008128544
227	0xba506bb1	-0.00079506176
228	0xba525ca4	-0.0008024669
229	0xba309738	-0.00067364005
230	0xba03c23a	-0.00050261954
231	0xb9de74d3	-0.0004243018
232	0xb9a9c894	-0.00032383634
233	0xb92e8ea9	-0.00016647078
234	0xb9c6b892	-0.00037903019
235	0xb94dc3ef	-0.00019623314
236	0x3990e681	0.0002763756
237	0xb7340dd9	-1.073206e-05
238	0xb99f4ac2	-0.00030382542
239	0xb9eb1bc3	-0.00044843377
240	0x38ac0fdb	8.2045524e-05
241	0x3a0fc022	0.0005483647
242	0x3a3fcd4d	0.0007316664
243	0x3a48f992	0.00076665834
244	0x38f184bc	0.00011516499
245	0x39bf5df4	0.0003650036
246	0xb98805df	-0.00025944316
247	0xba4cb7d6	-0.0007809376
248	0xba4b9f7c	-0.00077676005
249	0xba538a3d	-0.00080696103
250	0xba4eda85	-0.00078908383
251	0xba4eda85	-0.00078908383
252	0xba4eda85	-0.00078908383
253	0xba4ed3df	-0.00078898476
254	0xba52b914	-0.0008038443
255	0xba4fe598	-0.00079306355

exp_avg_sq f4 [30, 784]
0	0x372c2ebb	1.0262879e-05
1	0x372c2ebb	1.0262879e-05
2	0x372c2ebb	1.0262879e-05
3	0x372c2ebb	1.0262879e-05
4	0x372c2ebb	1.0262879e-05
5	0x372c2ebb	1.0262879e-05
6	0x372c2ebb	1.0262879e-05
7	0x372c2ebb	1.0262879e-05
8	0x372c2ebb	1.0262879e-05
9	0x372c2ebb	1.0262879e-05
10	0x372c2ebb	1.0262879e-05
11	0x372c2ebb	1.0262879e-05
12	0x372c2eb9	1.0262877e-05
13	0x372c2e77	1.0262817e-05
14	0x372c2e77	1.0262817e-05
15	0x372c2eb9	1.0262877e-05
16	0x372c2ebb	1.0262879e-05
17	0x372c2ebb	1.0262879e-05
18	0x372c2ebb	1.0262879e-05
19	0x372c2ebb	1.0262879e-05
20	0x372c2ebb	1.0262879e-05
21	0x372c2ebb	1.0262879e-05
22	0x372c2ebb	1.0262879e-05
23	0x372c2ebb	1.0262879e-05
24	0x372c2ebb	1.0262879e-05
25	0x372c2ebb	1.0262879e-05
26	0x372c2ebb	1.0262879e-05
27	0x372c2ebb	1.0262879e-05
28	0x372c2ebb	1.0262879e-05
29	0x372c2ebb	1.0262879e-05
30	0x372c2ebb	1.0262879e-05
31	0x372c2ebb	1.0262879e-05
32	0x372c2ebb	1.0262879e-05
33	0x372c2ebb	1.0262879e-05
34	0x372c2ebb	1.0262879e-05
35	0x372c2e18	1.0262731e-05
36	0x372c2e44	1.0262771e-05
37	0x372c0f4c	1.02555605e-05
38	0x372bf362	1.0249061e-05
39	0x372bddc8	1.0244032e-05
40	0x372bde9a	1.0244223e-05
41	0x372c0623	1.0253428e-05
42	0x372bc384	1.0237916e-05
43	0x372b872e	1.0223868e-05
44	0x372b7046	1.0218535e-05
45	0x372bc1e1	1.0237535e-05
46	0x372c2b51	1.0262084e-05
47	0x372c2ebb	1.0262879e-05
48	0x372c2ebb	1.0262879e-05
49	0x372c2ebb	1.0262879e-05
50	0x372c2ebb	1.0262879e-05
51	0x372c2ebb	1.0262879e-05
52	0x372c2ebb	1.0262879e-05
53	0x372c2ebb	1.0262879e-05
54	0x372c2ebb	1.0262879e-05
55	0x372c2ebb	1.0262879e-05
56	0x372c2ebb	1.0262879e-05
57	0x372c2ebb	1.0262879e-05
58	0x372c2ebb	1.0262879e-05
59	0x372c2f89	1.02630665e-05
60	0x372c2f09	1.026295e-05
61	0x372c2ee9	1.0262921e-05
62	0x372c2f31	1.02629865e-05
63	0x372c217a	1.0259793e-05
64	0x372ba845	1.0231573e-05
65	0x372ac719	1.0179146e-05
66	0x3729e8b1	1.0127363e-05
67	0x372746ae	9.970432e-06
68	0x3726973a	9.929581e-06
69	0x3727481a	9.970763e-06
70	0x3728d0b2	1.0062171e-05
71	0x3729f183	1.0129416e-05
72	0x372a0128	1.0133059e-05
73	0x372afd7d	1.0191809e-05
74	0x372bac24	1.0232474e-05
75	0x372ca2d7	1.0289913e-05
76	0x372c4938	1.02690465e-05
77	0x372c3118	1.0263429e-05
78	0x372c2ed4	1.0262902e-05
79	0x372c2e8a	1.0262835e-05
80	0x372c2db9	1.02626445e-05
81	0x372c2e24	1.0262742e-05
82	0x372c2ebb	1.0262879e-05
83	0x372c2ebb	1.0262879e-05
84	0x372c2ebb	1.0262879e-05
85	0x372c2ebb	1.0262879e-05
86	0x372c2e11	1.0262725e-05
87	0x372c30df	1.0263378e-05
88	0x372c2fbc	1.0263113e-05
89	0x372c41bc	1.0267304e-05
90	0x372c0597	1.02533e-05
91	0x372b67f1	1.0216595e-05
92	0x372804e1	1.0014716e-05
93	0x3722ec03	9.710903e-06
94	0x371f9993	9.512895e-06
95	0x37198ae3	9.151848e-06
96	0x3713453d	8.778004e-06
97	0x370fa8e5	8.562788e-06
98	0x370fa0a6	8.560868e-06
99	0x3712f70f	8.759801e-06
100	0x3715324e	8.8928045e-06
101	0x3717dfb3	9.052385e-06
102	0x371d1690	9.3631825e-06
103	0x3721f139	9.652512e-06
104	0x37254885	9.851651e-06
105	0x3727cf4a	1.0002239e-05
106	0x372be8d8	1.0246607e-05
107	0x372c20f0	1.0259668e-05
108	0x372c26ec	1.0261061e-05
109	0x372c2b87	1.0262133e-05
110	0x372c2ebb	1.0262879e-05
111	0x372c2ebb	1.0262879e-05
112	0x372c2ebb	1.0262879e-05
113	0x372c2ebb	1.0262879e-05
114	0x372c2caa	1.0262398e-05
115	0x372c2a4f	1.026185e-05
116	0x372c20f3	1.02596705e-05
117	0x372c0d66	1.02551185e-05
118	0x372b2a1a	1.0202197e-05
119	0x3729074f	1.0074887e-05
120	0x3720b5f0	9.579104e-06
121	0x3716f977	8.99878e-06
122	0x371542d4	8.896652e-06
123	0x37100e2b	8.586368e-06
124	0x370a6150	8.248098e-06
125	0x36fd2a66	7.5449234e-06
126	0x36e6f9dd	6.883622e-06
127	0x36c4c875	5.8645915e-06
128	0x36b98fde	5.530178e-06
129	0x36b4ec52	5.3919293e-06
130	0x36bdaf43	5.653042e-06
131	0x36e83ea0	6.9214293e-06
132	0x37083675	8.118911e-06
133	0x3719750c	9.146763e-06
134	0x37258704	9.866202e-06
135	0x3729a687	1.0111958e-05
136	0x372b8845	1.0224122e-05
137	0x372c244c	1.026045e-05
138	0x372c2ebb	1.0262879e-05
139	0x372c2ebb	1.0262879e-05
140	0x372c2ebb	1.0262879e-05
141	0x372c2ebb	1.0262879e-05
142	0x372c29c0	1.026172e-05
143	0x372bfb14	1.0250853e-05
144	0x372b8f3e	1.0225745e-05
145	0x372c167f	1.0257237e-05
146	0x372ade46	1.0184542e-05
147	0x3721adc4	9.636806e-06
148	0x37191e8b	9.126622e-06
149	0x3716f5f9	8.997967e-06
150	0x371aab19	9.218952e-06
151	0x37145890	8.8421075e-06
152	0x37062ce5	7.997475e-06
153	0x36e4f9e6	6.8240215e-06
154	0x36b2db58	5.3303484e-06
155	0x3684c2ba	3.9565757e-06
156	0x366f6c75	3.5676906e-06
157	0x365e4b7a	3.312451e-06
158	0x36807427	3.828219e-06
159	0x36a8bcce	5.02877e-06
160	0x36dce128	6.5827226e-06
161	0x3703720d	7.834763e-06
162	0x3717cb59	9.047647e-06
163	0x3726348c	9.906606e-06
164	0x372a0052	1.0132864e-05
165	0x372bf9a0	1.0250515e-05
166	0x372c2e89	1.0262834e-05
167	0x372c2ebb	1.0262879e-05
168	0x372c2ebb	1.0262879e-05
169	0x372c2ebb	1.0262879e-05
170	0x372c26ff	1.0261078e-05
171	0x372bad1f	1.0232702e-05
172	0x372b0861	1.0194345e-05
173	0x3728bf73	1.0058156e-05
174	0x372208e9	9.658027e-06
175	0x3717b757	9.0429885e-06
176	0x3712bb6e	8.7459175e-06
177	0x3715bedb	8.925529e-06
178	0x371154ec	8.662446e-06
179	0x36f7236f	7.3652986e-06
180	0x36bdfcee	5.662084e-06
181	0x36a55940	4.9277733e-06
182	0x36858365	3.979005e-06
183	0x36657acc	3.4195136e-06
184	0x366da8d9	3.5414034e-06
185	0x36697b87	3.4791608e-06
186	0x366b0fcc	3.5026924e-06
187	0x36903153	4.2972765e-06
188	0x36bcb66c	5.6240733e-06
189	0x36ee8c80	7.109309e-06
190	0x37105fd2	8.605379e-06
191	0x37229f5d	9.693057e-06
192	0x3729f8b5	1.0131092e-05
193	0x372ba5c6	1.0230991e-05
194	0x372c2881	1.0261429e-05
195	0x372c2eb1	1.026287e-05
196	0x372c2ebb	1.0262879e-05
197	0x372c2ebb	1.0262879e-05
198	0x372b9234	1.0226435e-05
199	0x372b206d	1.0199944e-05
200	0x372922b9	1.00812695e-05
201	0x3722e53e	9.709327e-06
202	0x37198181	9.149663e-06
203	0x370bb5a9	8.327342e-06
204	0x37084213	8.121616e-06
205	0x3701b169	7.730306e-06
206	0x36db512c	6.5361583e-06
207	0x36a7c4d2	4.9999007e-06
208	0x3688fed7	4.082783e-06
209	0x3685d2ee	3.9882643e-06
210	0x3687795f	4.037443e-06
211	0x3670cee5	3.5883215e-06
212	0x3668cc04	3.4689447e-06
213	0x367e48c1	3.7891298e-06
214	0x367dcf0b	3.7820453e-06
215	0x3690939a	4.3087175e-06
216	0x36ad97b3	5.173462e-06
217	0x36ddf1e7	6.6144744e-06
218	0x370b4db1	8.303135e-06
219	0x371f600c	9.499501e-06
220	0x37282ba2	1.0023739e-05
221	0x372a588d	1.0153407e-05
222	0x372c2bff	1.02622425e-05
223	0x372c2e9c	1.0262851e-05
224	0x372c2e68	1.0262804e-05
225	0x372c26fd	1.0261077e-05
226	0x372bdd55	1.0243927e-05
227	0x372add9c	1.0184387e-05
228	0x3727690d	9.978435e-06
229	0x371ea553	9.456026e-06
230	0x370f1688	8.52871e-06
231	0x3702c10b	7.79355e-06
232	0x36f79de1	7.379553e-06
233	0x36d2f83d	6.2873864e-06
234	0x36afffcc	5.245185e-06
235	0x369800eb	4.53006e-06
236	0x36a141d4	4.8058373e-06
237	0x36b66582	5.4358397e-06
238	0x36b4a187	5.3832223e-06
239	0x36944af4	4.4194694e-06
240	0x3691cfb5	4.345517e-06
241	0x36909005	4.3083005e-06
242	0x368fc208	4.2843203e-06
243	0x368ddf54	4.2281263e-06
244	0x36adc441	5.1786487e-06
245	0x36de7585	6.6297966e-06
246	0x370c65fd	8.368396e-06
247	0x371dc005	9.402637e-06
248	0x37288028	1.0043419e-05
249	0x372b85ee	1.0223577e-05
250	0x372c2ebb	1.0262879e-05
251	0x372c2ebb	1.0262879e-05
252	0x372c2ebb	1.0262879e-05
253	0x372c3323	1.0263905e-05
254	0x372c24bf	1.02605545e-05
255	0x372af642	1.0190126e-05

exp_avg f4 [30]
0	0x3a4eda85	0.00078908383
1	0x39d0f108	0.00039852434
2	0x3a199b21	0.0005859603
3	0x3a20dff1	0.00061368855
4	0x397716ac	0.00023564202
5	0x0e390968	2.280754e-30
6	0x0e4e996c	2.546533e-30
7	0xb9e45f26	-0.0004355844
8	0x0ccf9b42	3.1986842e-31
9	0x2993b369	6.559234e-14
10	0x0f128fdf	7.226064e-30
11	0x39bdce4a	0.00036202586
12	0xbaabf0dd	-0.0013118048
13	0x0cf95ffd	3.8422295e-31
14	0x3a1c38d7	0.00059593975
15	0xb9bbd86f	-0.00035828675
16	0x39cf427c	0.0003953165
17	0x0bd81d5f	8.3244366e-32
18	0x0de7f4fd	1.4295453e-30
19	0x3a3de3d2	0.00072437257
20	0xba78c419	-0.000948967
21	0x098642ce	3.232215e-33
22	0xb9fc1cf1	-0.0004808675
23	0xb9c630fc	-0.00037802
24	0x3935ca8d	0.00017336961
25	0xb9fe10ae	-0.00048459083
26	0xba2b6120	-0.0006537605
27	0xba14c037	-0.0005674394
28	0xb9de1bc4	-0.00042363827
29	0x3a213b94	0.00061505404

exp_avg_sq f4 [30]
0	0x372c2ebb	1.0262879e-05
1	0x36d734e1	6.4136552e-06
2	0x378a3612	1.647606e-05
3	0x36488a6e	2.98829e-06
4	0x367ad88e	3.7378954e-06
5	0x3380aefd	5.992295e-08
6	0x3390a114	6.7348225e-08
7	0x36c69d1c	5.9191498e-06
8	0x30b0fffa	1.2878438e-09
9	0x348eb8eb	2.6584107e-07
10	0x3519fef1	5.736793e-07
11	0x3728fc39	1.00723055e-05
12	0x37550d4a	1.2698883e-05
13	0x31626b0f	3.2948184e-09
14	0x362b4975	2.5523743e-06
15	0x3790fcf3	1.7283926e-05
16	0x3711602a	8.665063e-06
17	0x2e9b8466	7.0721026e-11
18	0x32eb5033	2.7394071e-08
19	0x3770d595	1.4354843e-05
20	0x3708e5d3	8.159742e-06
21	0x2a140dcf	1.3149831e-13
22	0x36843136	3.9396355e-06
23	0x374fd96e	1.2388786e-05
24	0x372baab5	1.023214e-05
25	0x368e061d	4.2326415e-06
26	0x372239e2	9.669429e-06
27	0x35b54729	1.3506261e-06
28	0x369b076c	4.620224e-06
29	0x372387a3	9.7471375e-06

exp_avg f4 [3, 30]
0	0xbc38b98a	-0.011274705
1	0xbc2d3d36	-0.010573676
2	0xbc4a3ad9	-0.012343132
3	0xbc154d90	-0.009112731
4	0x3af9785b	0.0019033061
5	0x0efef72e	6.285386e-30
6	0x8eb4ac73	-4.453949e-30
7	0xbb9f2864	-0.00485711
8	0x8cbc7574	-2.9036676e-31
9	0xa9b8dc32	-8.209439e-14
10	0x8f5db9fc	-1.09319605e-29
11	0x3a40146c	0.0007327262
12	0xbc240ff0	-0.010013565
13	0x0e888130	3.365099e-30
14	0xbc0b2097	-0.008491657
15	0xbb9a05fe	-0.0047004214
16	0xbb37f754	-0.0028071003
17	0x0b57ff44	4.1599534e-32
18	0x8df218b5	-1.49203495e-30
19	0xbc753bec	-0.0149679
20	0xbc817665	-0.015803525
21	0x8a796e1a	-1.2009622e-32
22	0xbce56343	-0.028001433
23	0xbccf871a	-0.025332976
24	0xbbaad045	-0.005212816
25	0xbcd3df89	-0.025863426
26	0xbcc45d2d	-0.02397021
27	0xbd031fbf	-0.032012697
28	0xbc1d3a74	-0.009596456
29	0xbbaaa84c	-0.005208051
30	0x3a39b68a	0.00070843904
31	0xba1d3798	-0.0005997359
32	0x3a96a7d6	0.0011494111
33	0x3b1d601d	0.0024013587
34	0x3a4c34f1	0.00077898713
35	0x8d806512	-7.912941e-31
36	0x0d839c00	8.111054e-31
37	0x3b2cb1e5	0.002635115
38	0x0c0db191	1.0915679e-31
39	0x2846a7eb	1.1027619e-14
40	0x0ddd8626	1.3652472e-30
41	0x3aedf1a2	0.0018153677
42	0x3ba2e16d	0.0049707205
43	0x8dafae13	-1.0827115e-30
44	0x3b391804	0.0028243074
45	0x3b96c892	0.0046015466
46	0x3b5aa156	0.0033360324
47	0x8987da86	-3.2705566e-33
48	0x8d6d3403	-7.309387e-31
49	0xb86c3888	-5.6319433e-05
50	0x3b8e995f	0.0043517794
51	0x082c53d8	5.1857925e-34
52	0x3bd7596e	0.00657194
53	0x3b8d30a2	0.004308776
54	0x3a957d00	0.0011405051
55	0x3bfd525a	0.0077307643
56	0x3b793664	0.0038026804
57	0x3c1281c9	0.008942076
58	0x3b97f3f8	0.0046372376
59	0xbb0a1fac	-0.0021076007
60	0x3c2d1e31	0.01056628
61	0x3c3710b8	0.01117342
62	0x3c3765e5	0.011193727
63	0x3bdbeb0f	0.006711371
64	0xbb2fc924	-0.002682277
65	0x8ededdea	-5.494092e-30
66	0x0e93c56a	3.64284e-30
67	0x3b119f18	0.0022220071
68	0x0c6b394b	1.8120982e-31
69	0x29a00726	7.1066674e-14
70	0x0f420919	9.5666906e-30
71	0xbb26fdd4	-0.0025480883
72	0x3ba53e84	0.005042853
73	0x8e392b73	-2.282393e-30
74	0x3bb9b548	0.0056673624
75	0x38cf611d	9.888618e-05
76	0xba0aa710	-0.00052891765
77	0x8b4703f0	-3.8328968e-32
78	0x0e345947	2.2229698e-30
79	0x3c762835	0.015024235
80	0x3c3ba026	0.011451757
81	0x0a6ea8f0	1.1491057e-32
82	0x3caf8cf2	0.021429513
83	0x3cac3af4	0.021024205
84	0x3b85710c	0.004072314
85	0x3c948afc	0.01813268
86	0x3ca53667	0.020167543
87	0x3cbcfea4	0.02307064
88	0x3ba28100	0.0049592257
89	0x3befb826	0.0073156534

exp_avg_sq f4 [3, 30]
0	0x3addf24c	0.0016933172
1	0x3a61be15	0.0008611393
2	0x3a90cde4	0.0011047688
3	0x3af0c1d2	0.001836831
4	0x39c09e0a	0.00036738842
5	0x3495dcef	2.7914163e-07
6	0x34751fa5	2.2828915e-07
7	0x3a0473e9	0.00050526723
8	0x3091dafb	1.0612377e-09
9	0x35623e5b	8.42823e-07
10	0x35a65a16	1.2394182e-06
11	0x3a0d98ae	0.0005401474
12	0x3a1ad9dd	0.0005907098
13	0x340805a9	1.2668046e-07
14	0x3ae70b78	0.0017627319
15	0x39ee4f25	0.00045453865
16	0x3a1e9ad3	0.0006050292
17	0x2d9b5904	1.766099e-11
18	0x32b5ea23	2.1177646e-08
19	0x3ad07dad	0.0015906595
20	0x3ade4395	0.0016957397
21	0x2bff7f93	1.8154249e-12
22	0x3b4949c5	0.0030714136
23	0x3b2e2256	0.0026570759
24	0x398a7405	0.00026407852
25	0x3b31bb7c	0.0027119806
26	0x3b310010	0.0027008094
27	0x3b73064a	0.0037082606
28	0x3a303574	0.00067218323
29	0x3990a57a	0.0002758911
30	0x3b7a0127	0.003814766
31	0x3a7bf1c6	0.0009610917
32	0x3ab7ba44	0.0014017303
33	0x3bd74aea	0.0065702097
34	0x3b20ac8e	0.0024516913
35	0x31065f37	1.955369e-09
36	0x31dca624	6.4217307e-09
37	0x3987838a	0.0002584721
38	0x2f24e669	1.4997571e-10
39	0x3428ecef	1.5732415e-07
40	0x32340942	1.0479484e-08
41	0x3b3ff66b	0.0029291164
42	0x38e1a95c	0.00010760382
43	0x331ae268	3.6061834e-08
44	0x3be656c9	0.0070293886
45	0x39dec380	0.00042488798
46	0x3b4838be	0.00305514
47	0x29f5d11d	1.0916461e-13
48	0x31bb8b4a	5.4582516e-09
49	0x3b35e474	0.0027754577
50	0x3a0bd3db	0.0005333998
51	0x2773e8fc	3.3849325e-15
52	0x3a472ccf	0.00075979246
53	0x3a8a2812	0.0010540506
54	0x39cf5f69	0.00039553203
55	0x3a371e9c	0.0006985457
56	0x3a5f813f	0.0008526034
57	0x3a1f72de	0.0006082485
58	0x3a4746ca	0.0007601796
59	0x3a210162	0.00061418687
60	0x3bc0c1fd	0.0058825
61	0x3b0d3f10	0.002155248
62	0x3b40d7bc	0.0029425463
63	0x3c11498b	0.008867632
64	0x3b1eeb53	0.002424915
65	0x34937328	2.746467e-07
66	0x342a1cef	1.584301e-07
67	0x3a43401a	0.00074482115
68	0x2fe33912	4.133161e-10
69	0x35d8e2fc	1.6159315e-06
70	0x35962d34	1.1189027e-06
71	0x3b43e038	0.0029888283
72	0x3a281a16	0.00064125785
73	0x3313f8d7	3.4452423e-08
74	0x3c129840	0.008947432
75	0x3a58f80a	0.0008276707
76	0x3b5a7d1f	0.0033338738
77	0x2d83e18a	1.4993135e-11
78	0x334eb85d	4.813079e-08
79	0x3ba09e2b	0.0049016676
80	0x3ac35e11	0.0014905353
81	0x2be9e904	1.6620321e-12
82	0x3b6dd614	0.003629093
83	0x3b53bade	0.0032307426
84	0x3a3ef32d	0.0007284161
85	0x3b541987	0.0032363848
86	0x3b45641e	0.003011949
87	0x3b68c7a5	0.0035519388
88	0x3acb2153	0.0015497602
89	0x3a863d1f	0.0010241604

exp_avg f4 [3]
0	0xbb39bce5	-0.002834135
1	0x3a6b64c0	0.00089795515
2	0x3afdc791	0.0019361844

exp_avg_sq f4 [3]
0	0x38bbe5dc	8.9596695e-05
1	0x3909f1ca	0.00013155412
2	0x397c061e	0.00024034872
