nesy/78qf6b8o/checkpoints/epoch=0-step=40.ckpt (torch, 291619 bytes, 12 tensors)

neural_predicates.digit.net.0.weight f4 [30, 784]
00000000: 63f3 e0bb b15a e7bc 3c65 af3b 851d 09bd
00000010: c5d5 6a3c b220 8d3c 20ac c13c 274d 08bd
00000020: 31ca 93bc b1d8 ccbc 06eb e7bc ce90 39bb
00000030: 0653 10bd e837 f73c f0ab 84bc b486 d9bc
00000040: b583 dd3c d7df b73c 1567 1b3c 92b7 ca3b
00000050: 8038 78bc eed5 12bb 4a74 1abd 61cf a1bc
00000060: a60a da3c 0d5c 6cbc 29fc e93c 06c0 973c
00000070: eae3 a8bc c5bd 683c a2ae 24bd cef9 d5bc
00000080: f2a8 2e3c c3c6 833c 3635 f93c 2f68 e2bc
00000090: 04fe 863c 4c82 dcbc 5d53 153c 3c1a 3d3c
000000a0: 8b8c 3eba 7e32 f6bb a9ee 2cbc 5203 2ebc
000000b0: bd21 53bc 0395 a53c 1b14 843c be3a e4bb
000000c0: c276 edba e0e5 123c 207b 0d3c 80c4 ab3b
000000d0: f805 05bd 3877 343c 2906 66bc a8b2 df3c
000000e0: 5c1f 08bd 4bc5 e9bb 60fc 29bc bb36 acbc
000000f0: 8d0c 04bc 30f7 0c3c dcae d6bc 8216 4cbc
00000100: 2d68 e83c 23f4 18bd 5204 eabc aa3e a03c
00000110: 59cf d13c 23a4 68bc 3a5d a1bc 1589 fb3c
00000120: 4532 25bc 5851 943c cd1b c53c de31 f4bb
00000130: 3e01 f63c f268 c93c efc9 bbbb d93c 8c3c
00000140: e5a3 efba d211 b73a 8f81 3d3c 48b7 c9bc
00000150: dfef 09bd c2ae 16bd ab9b 89bb 91f7 c23c
00000160: e92d debb b2df 8bbc 1cdd d3ba 128c a2bb
00000170: a2c4 dcb9 3dfd 05bd 7e61 d03c af55 133c
00000180: 8c30 2fbd 0f4f 6ebc 8f96 b53c fc14 34bc
00000190: bd41 ab3b 652d f6bc 037e 3d3c 1969 8c3c
000001a0: f662 8abc 4988 83bc d60a f9bc a6d9 c6bc
000001b0: 85f1 0abd 7e19 ccbc e585 1dbd 0410 cd3c
000001c0: 8743 d43c b10d 233c d0fe 943c ace9 01bd
000001d0: b85f d6bc fe03 593c b8ef 20bd 8b2c 4f3c
000001e0: 0e70 3aba 2aaf 56bc ba98 87bc 6beb c3bc
000001f0: 7b94 16bd c10e 7ebd 7712 fa3a 4c32 413c
00000200: 57e3 1cbd 75ad 96bc 57dc a7bc a002 ddbc
00000210: 1e02 ea3b 314c 94bc 7a98 c9bc ecfd 96bc
00000220: bf8f 24bc 2d66 023c 310b 9fbc 4a1a d23c
00000230: 6c35 ddbb 2aee 14bd f5be 4dbc aa5c e83c
00000240: 1cde 1bbd 5931 3f3c 4e11 9e3c e59d 26bd
00000250: 3a91 433b ff07 91bc f14b 1abd 483b 48bd
00000260: 37cc d4bc 9201 bfbc 7e1a 78bd bbdd 37bd
00000270: f420 133c 1791 033c 6b6e 24bc af6d fabc
00000280: c392 a3bc 5abb 9139 2fb5 1ebd a693 81bc
00000290: d4d7 de3c 68ff b4bc bf64 15bd 81fa f4bc
000002a0: d8db d83c c82e 303c 6016 a6bc 76f2 1dbb
000002b0: 819b 35bc 6f52 31bd 9598 4abd 8be3 95bc
000002c0: 68b0 a7bc fa99 a6bc 8efb 0cbd edd0 cbbc
000002d0: cdeb 91bd a7d1 cabb a1c3 913c d878 12bb
000002e0: c5ae 313d a6e4 15bc 033f 1f3d 10f0 343c
000002f0: 254b d9bc dd66 1f3c c59b 84bc 4fe7 b43b
00000300: 3b6c cf3b df5e 5ebc 6001 d83c 1124 1a3b
00000310: 9021 203c 4b01 253c 03f0 21bd 0331 16bd
00000320: a227 5fbc b10b 023c ceb2 b2bc 7a51 09bc
00000330: 5828 d8ba 4731 35bd 3975 55bd e055 5ebd
00000340: 786f 58b9 01ca fcbc 6f40 b53a 89bd 2b3b
00000350: 3165 3a3d 90aa df3c 03cb 0e3d ac70 17bc
00000360: 1062 9e3c f252 bebb db36 d13c 99c8 babc
00000370: 1082 31bc 5289 963c c906 16bd 3372 f7bc
00000380: 4f1e dabc 0ba5 9ebc 8132 9b3c b2b2 9abc
00000390: 50ae afbc 23e4 04bd c4d1 34bd 0d2d 4fbc
000003a0: a988 923b c1e3 ffbc 2c7c 53bc 72d0 f93c
000003b0: 7d42 193d 31a0 d13b 86bb 203d 8dc7 603d
000003c0: 1a79 303d 5b1c 2ebc dc68 1b3c ad6a a5bc
000003d0: 2c5d 073d a37f 3ebc 657d 50bc 8bbd 48bb
000003e0: 068d e63c 7749 3e3c 7e9a 15bd 3afd 80bb
000003f0: e033 123b db26 d83c 0790 67bc 1d10 243c
-0.0068649515 -0.028241487 0.0053526442 -0.033475418 0.014333193 0.017227504 0.023641646 -0.033276703
-0.018040748 -0.02500567 -0.02831031 -0.002831507 -0.035235427 0.030178025 -0.016195267 -0.02655349
0.027040342 0.022445602 0.009485026 0.006186434 -0.015150189 -0.0022405344 -0.03770856 -0.019752206
0.026616406 -0.0144262435 0.028562622 0.018524181 -0.02061649 0.014205401 -0.040205605 -0.026120093
0.010660397 0.016085988 0.03042088 -0.02763757 0.016478546 -0.0269176 0.009114114 0.011541899
-0.00072688673 -0.0075133434 -0.010554948 -0.010620909 -0.012886462 0.020212656 0.016122868 -0.0069650104
-0.0018117058 0.008965939 0.008635312 0.0052419305 -0.032476395 0.011014752 -0.014039555 0.02730687
-0.03323303 -0.007134115 -0.010375112 -0.021022191 -0.008059633 0.008603856 -0.026206426 -0.012456538
0.028369987 -0.037342202 -0.028566513 0.01956113 0.025611566 -0.0141992895 -0.019697774 0.030705014
-0.010082786 0.018105194 0.024061108 -0.0074522337 0.03002989 0.024586175 -0.0057308595 0.017118858
-0.0018283097 0.0013967103 0.011566534 -0.024623528 -0.033676025 -0.036787756 -0.0041994653 0.02379969
-0.0067803753 -0.01707444 -0.0016163918 -0.0049605453 -0.00042108173 -0.03271221 0.025437113 0.0089925965
-0.042770907 -0.014545216 0.022166518 -0.010991331 0.0052263425 -0.030050943 0.011565688 0.017139958
-0.016892891 -0.016056197 -0.030400675 -0.024273705 -0.033921737 -0.0249145 -0.03845777 0.02503205
0.025911106 0.009951995 0.01818791 -0.031716987 -0.02616869 0.013245581 -0.039291114 0.012644897
-0.00071120344 -0.013103286 -0.016552318 -0.023915967 -0.036762696 -0.06202579 0.0019078989 0.011791777
-0.038302746 -0.018393258 -0.020490808 -0.02697879 0.0071413657 -0.018102737 -0.02460884 -0.018431626
-0.010044037 0.007958931 -0.019414516 0.025647301 -0.006750753 -0.036359943 -0.012557735 0.028364498
-0.038053617 0.01166948 0.01929536 -0.040677924 0.00298412 -0.017704008 -0.03767008 -0.04888466
-0.025976283 -0.023316178 -0.06057214 -0.044889193 0.008980025 0.008030198 -0.010036091 -0.03056988
-0.019967442 0.00027796143 -0.03874701 -0.015817475 0.027202524 -0.022094443 -0.036473032 -0.029904606
0.026472017 0.010753341 -0.020274341 -0.0024100817 -0.011084438 -0.043291505 -0.04946192 -0.018296978
-0.02046986 -0.020337094 -0.03441959 -0.024879897 -0.071250536 -0.0061895433 0.017793478 -0.002234986
0.043379564 -0.009148752 0.038878452 0.0110435635 -0.02652509 0.009729114 -0.016187558 0.005520738
0.0063300407 -0.013572424 0.026367843 0.0023520032 0.009773627 0.010071109 -0.039535534 -0.036667835
-0.013620289 0.007937358 -0.021813776 -0.008381242 -0.0016491516 -0.044236448 -0.052113745 -0.054281116
-0.0002064089 -0.030858042 0.0013828407 0.00262055 0.04550666 0.02730301 0.034861576 -0.009243172
0.01933387 -0.0058082277 0.025538852 -0.02280073 -0.010834232 0.018376026 -0.036627565 -0.030205822
-0.02662578 -0.019365808 0.01894498 -0.018884037 -0.021445423 -0.03244413 -0.04414536 -0.012645018
0.0044718576 -0.031236531 -0.012908023 0.030494902 0.037416924 0.00639727 0.039241336 0.054877806
0.04308424 -0.010626878 0.00948545 -0.020192469 0.03304784 -0.011627111 -0.012725209 -0.0030630555
0.028143417 0.011614195 -0.03652429 -0.003936437 0.0022308752 0.026385715 -0.01413346 0.010013607

neural_predicates.digit.net.0.bias f4 [30]
00000000: 4366 163d b9b5 a8bc e681 88bc e7db 70bc
00000010: 07e9 6f3c 2855 c13b d835 163d 6000 89bc
00000020: 9ff1 933c 0854 0d3d 86a3 933c 01fc 20bd
00000030: d175 f23c c74a 6d3c 3490 013d dfa7 8b3c
00000040: e26a 0cbb 5421 b8bc 8f58 25bd daa9 d9bc
00000050: 7e88 80bc 62f1 ffbb a135 5d38 ccd1 073d
00000060: 441a 0dbd c38a d1bc 9b23 20bd 64a2 5fbb
00000070: 3944 9d3c b968 783c
0.036718618 -0.020594465 -0.016663503 -0.014700866 0.01464296 0.005900044 0.036672443 -0.016723812
0.01805955 0.034503967 0.01802231 -0.03930283 0.029597195 0.01448316 0.031631663 0.01704782
-0.0021426012 -0.02247683 -0.04036766 -0.02657025 -0.015690085 -0.0078107575 5.274045e-05 0.033159062
-0.034448877 -0.025578862 -0.039096456 -0.0034123892 0.01919757 0.015161687

neural_predicates.digit.net.2.weight f4 [5, 30]
00000000: 56be 343e 4088 0b3e 1932 2d3e 717e 80bd
00000010: 120a fcbd 09f8 133e 4c92 1bbd 9665 0a3e
00000020: 10f4 123d b0a4 9c3d ab7b 143e 749f 29bd
00000030: 2e38 fbbd 364c a03d f843 0ebe f112 b43d
00000040: ed68 403e 4f9d 07be 9f77 fcbd 6315 3ebe
00000050: 106e 953d cbf4 5e3d f7fd 4abd e073 d03d
00000060: 51a7 ae3d a494 2d3e e176 1cbe a46e 903d
00000070: ebc3 edbc f575 81bd 0c91 ad3d 8cd3 12be
00000080: 74d6 893d 480b 2bbe 2fbf 743d 85cc f4bc
00000090: d96a 1d3d 4307 2abe 8692 aebd f9ab 803d
000000a0: b2c9 d03d 19e0 123c 73fe b0bc bbb5 e6bd
000000b0: 91a1 083e acb5 2fbe 7577 563d 28da 893d
000000c0: a2ab fb3d 6046 9e3d e2a3 493d 56ad 1b3d
000000d0: 76de ae3d d2cd 13be 3b05 843d d035 a53d
000000e0: 550b 8bbd 232e f73d 2617 ac3c 6b82 733d
000000f0: c29f 1e3a de4e bb3d d67a 243e 2afb e4bd
00000100: bbeb 7cbd cdd9 66bc f4fb 45bd 381b 79bd
00000110: a274 363e 91b2 8fbd 6583 7bbc 606d 11ba
00000120: 5ef0 2c3e 5c5b c3bd 57e0 493e c346 1b3e
00000130: d56b 3d3e 4b75 67bd 032f 09be 15d2 92bc
00000140: f3d5 87bd ecda 16be 7df2 0dbe 51ed 3c3e
00000150: 4d8a b83d c27b 40be 5c1a 3b3e f51a 18bd
00000160: 8cd2 b0bd b6ef aebd 94eb debd 0c47 2f3e
00000170: 9aca 0d3e b648 5cbd fcb2 1c3e 85a3 723b
00000180: 8d98 353e 11f8 6dbb c657 aebc c728 683d
00000190: d147 4abe 80ed 07bd 3b22 283e 2f3f 463e
000001a0: 869e b13c cf64 34be 2c64 b43d 59ee de3d
000001b0: 0185 813d 8920 ef3d 90bd c2bd 56dc 9c3d
000001c0: 8bb4 4cbd 1dcf 253e c61a fcbd 0a0d 29bd
000001d0: d788 d1bd 5eac 2e3e 3ea8 923d 0b14 473e
000001e0: 4211 053e d320 133e 430e cf3b 5fcf 37be
000001f0: 3a1c 2c3e 957d ad3d 30e7 2b3e 44ee 29be
00000200: a710 08be c292 08be fee0 453e b91d c23d
00000210: f995 17bc 6ce0 3abe d1ad 61bd f8d6 283e
00000220: 7b64 e6bd 437f bbbc a472 b5bd f03a 07bd
00000230: 823b 083e 9a16 153e e4b4 21be 1319 69bd
00000240: 1fda 313e bfeb 9dbc 3e1d b4bd faf6 45be
00000250: 1489 343d 05b5 7abd
0.17650732 0.13626194 0.16913642 -0.06274117 -0.12306608 0.14450087 -0.037981316 0.13515314
0.035877287 0.07648599 0.145003 -0.041411832 -0.12266575 0.07827036 -0.13893116 0.08792675
0.18790026 -0.13243602 -0.123275034 -0.18562846 0.072963834 0.05443267 -0.049558606 0.101783514
0.08528007 0.16951233 -0.15279724 0.07052353 -0.029024085 -0.06321327 0.08474931 -0.14338511
0.06730357 -0.16703522 0.05975264 -0.029882679 0.038431976 -0.16604333 -0.08524041 0.06282801
0.1019472 0.008964562 -0.021605706 -0.11265131 0.13342883 -0.17159146 0.052360017 0.06731063
0.12288596 0.07728267 0.049228556 0.038007103 0.08538525 -0.14433983 0.0644631 0.080669045
-0.06789271 0.12069347 0.021007132 0.05945055 0.00060510274 0.09145902 0.16062483 -0.11180718
-0.061748248 -0.014090014 -0.048335984 -0.060816973 0.1781793 -0.07016481 -0.015351151 -0.0005547609
0.16888568 -0.0953891 0.19714485 0.15163712 0.18498166 -0.056508344 -0.1339684 -0.01792244
-0.066326044 -0.1473195 -0.13862033 0.18449904 0.09010754 -0.1879721 0.18271774 -0.037135083
-0.08633909 -0.08541815 -0.10884777 0.17116946 0.13846818 -0.05378028 0.15302652 0.0037023735
0.17733975 -0.003631119 -0.021282088 0.056679513 -0.19753958 -0.033185482 0.16419308 0.1936004
0.021682035 -0.1761658 0.08808169 0.10885305 0.063241966 0.116761275 -0.095088124 0.07659213
-0.049976867 0.16192289 -0.12309794 -0.0412722 -0.10231178 0.1705794 0.07160996 0.1944124
0.12994865 0.1436799 0.006318839 -0.179502 0.16807643 0.084712185 0.1678741 -0.16594797
-0.13287602 -0.13337234 0.19324109 0.094783254 -0.009252065 -0.18249673 -0.055097405 0.16488254
-0.11249634 -0.022887832 -0.088597566 -0.03301519 0.1330395 0.14559403 -0.1579166 -0.05690868
0.17368363 -0.019277452 -0.0879464 -0.19332495 0.04407604 -0.06120779

neural_predicates.digit.net.2.bias f4 [5]
00000000: 30dc 33be 14fb dfbd 42db e6bd b87e f03c
00000010: 1a80 4f3e
-0.17564464 -0.10936561 -0.11272289 0.0293573 0.2026371

exp_avg f4 [30, 784]
00000000: 11ac 9439 11ac 9439 11ac 9439 11ac 9439
00000010: 11ac 9439 11ac 9439 11ac 9439 11ac 9439
00000020: 11ac 9439 11ac 9439 11ac 9439 11ac 9439
00000030: 37c6 9439 93e0 9639 93e0 9639 99c3 9439
00000040: 11ac 9439 11ac 9439 11ac 9439 11ac 9439
00000050: 11ac 9439 11ac 9439 11ac 9439 11ac 9439
00000060: 11ac 9439 11ac 9439 11ac 9439 11ac 9439
00000070: 11ac 9439 11ac 9439 11ac 9439 11ac 9439
00000080: 11ac 9439 11ac 9439 11ac 9439 d5bc 9439
00000090: a257 9539 923b 9539 97ea 9639 4e63 9139
000000a0: a503 8539 3f39 9039 62ee 9839 181e 9f39
000000b0: 72f0 b739 cae1 9d39 3bb0 9439 11ac 9439
000000c0: 11ac 9439 11ac 9439 11ac 9439 11ac 9439
000000d0: 11ac 9439 11ac 9439 11ac 9439 11ac 9439
000000e0: 11ac 9439 11ac 9439 11ac 9439 96a7 9439
000000f0: 8aaa 9439 1348 9639 d37a 9d39 7ebf a339
00000100: f734 b039 0e21 cc39 6673 db39 44be 023a
00000110: 014e 133a 82c4 123a 50bd 193a f072 1d3a
00000120: d42d 173a f68d f139 caea b139 6603 9d39
00000130: ae49 9a39 4872 9639 bef0 9539 bef1 9539
00000140: b1af a039 2a72 9c39 11ac 9439 11ac 9439
00000150: 11ac 9439 11ac 9439 8361 9439 e409 9639
00000160: 2ef5 9539 712e b039 8225 ce39 53a8 053a
00000170: 471e 3c3a 58d4 953a d8a1 de3a 75ca 1f3b
00000180: c5c2 613b 7eaa 803b bd09 823b 8bd5 783b
00000190: 209e 5d3b 0eb1 343b 0a0d e43a 3e2b 943a
000001a0: 8961 273a 261c de39 48c3 9b39 82b7 8739
000001b0: ab05 9b39 7a04 9b39 11ac 9439 11ac 9439
000001c0: 11ac 9439 11ac 9439 b8bc 9439 8e23 9f39
000001d0: 522c ac39 d925 143a 476a 7a3a 98bc d43a
000001e0: 38b5 323b eebc 883b 6a06 b63b 3947 eb3b
000001f0: c565 093c 55ae 043c 97ae f43b bb2b d93b
00000200: 5b50 b33b a078 823b a2dd 073b 49b1 283a
00000210: 88a8 2f39 e3fd d738 b030 3039 3024 8d38
00000220: 51c1 8639 1df5 9c39 37a5 9239 11ac 9439
00000230: 11ac 9439 11ac 9439 d2c4 9639 5bfd a739
00000240: 121f 183a 820c 9d3a 9226 0c3b 9ac5 713b
00000250: 612a b73b 1363 f23b 3c7f 1a3c 512a 3e3c
00000260: 3df6 4b3c 04c5 3c3c 4cee 223c df90 0a3c
00000270: 55b3 de3b 93a1 8c3b 4bf1 193b 8749 ac3a
00000280: c655 da39 ba86 aeb9 a074 a2b8 ab67 49b9
00000290: 9313 a638 7ef3 8b39 b976 9139 11ac 9439
000002a0: 11ac 9439 55b4 9539 b7ef a039 af8d ec39
000002b0: fba2 683a b9bf ea3a 31e6 623b 7cb6 b63b
000002c0: 3831 f53b 907f 113c 765e 2d3c 61d7 4f3c
000002d0: cf71 533c 7597 363c b736 213c c1cf 103c
000002e0: af1d e03b b681 833b 41f2 203b bcf7 0c3b
000002f0: 4392 ca3a c5a4 d439 316a 1ab9 78bd beb9
00000300: 268a 4838 42a1 9039 a3e3 9139 11ac 9439
00000310: 11ac 9439 fe66 a639 9a40 a739 a9cc 093a
00000320: 0adb a13a 56d3 1e3b ca99 863b b97b ae3b
00000330: 134c d23b 7a04 e73b 87cb 063c a90f 1b3c
00000340: 3837 0f3c 4731 e63b f49e a63b abd3 7d3b
00000350: 52f9 303b 00ab e939 83df 6538 1844 c33a
00000360: 82cc 213b 8d4d a03a ba48 6fb8 0900 00ba
00000370: 6ee7 6db8 d7f2 8e39 1871 9939 11ac 9439
00000380: 9ea3 9439 7fef 9939 4e4d a239 0ccf 053a
00000390: 506f bc3a aed1 1e3b 3bf1 5e3b 03a4 6a3b
000003a0: 7b39 593b a3d0 413b e43b 813b ff94 6d3b
000003b0: d15f 273b b7b7 273a ae77 7dba 402a f9ba
000003c0: e153 10bb 1a7d 22bb eaf4 efba b922 9139
000003d0: 94d7 fc3a 6ec0 cc3a 93c0 8338 75cb 74ba
000003e0: 97da 55b9 05c6 9a39 fe89 9b39 11ac 9439
000003f0: 11ac 9439 be73 9739 dd26 9b39 33c2 073a
0.0002835696 0.0002835696 0.0002835696 0.0002835696 0.0002835696 0.0002835696 0.0002835696 0.0002835696
0.0002835696 0.0002835696 0.0002835696 0.0002835696 0.0002837644 0.0002877755 0.0002877755 0.0002837449
0.0002835696 0.0002835696 0.0002835696 0.0002835696 0.0002835696 0.0002835696 0.0002835696 0.0002835696
0.0002835696 0.0002835696 0.0002835696 0.0002835696 0.0002835696 0.0002835696 0.0002835696 0.0002835696
0.0002835696 0.0002835696 0.0002835696 0.0002836945 0.00028484786 0.00028463878 0.00028785013 0.00027730543
0.00025370452 0.00027508472 0.00029169308 0.00030349265 0.00035083626 0.000301136 0.00028360062 0.0002835696
0.0002835696 0.0002835696 0.0002835696 0.0002835696 0.0002835696 0.0002835696 0.0002835696 0.0002835696
0.0002835696 0.0002835696 0.0002835696 0.0002835362 0.0002835582 0.0002866393 0.00030036885 0.00031232456
0.00033608798 0.0003893454 0.00041856914 0.0004987458 0.00056192285 0.000559874 0.00058646966 0.0006006202
0.0005767022 0.0004607287 0.00033935002 0.00029947906 0.00029428065 0.00028695376 0.00028598862 0.00028599607
0.00030648478 0.00029839698 0.0002835696 0.0002835696 0.0002835696 0.0002835696 0.00028301412 0.000286176
0.00028602168 0.00033603937 0.00039319327 0.00050986296 0.00071761425 0.0011431081 0.0016985489 0.0024382148
0.0034448367 0.0039265743 0.003968446 0.0037969078 0.0033816174 0.0027571353 0.0017398905 0.0011304391
0.00063850783 0.00042364112 0.000297094 0.0002588593 0.00029568127 0.0002956724 0.0002835696 0.0002835696
0.0002835696 0.0002835696 0.00028369366 0.00030353334 0.00032839418 0.00056513917 0.000955258 0.0016230522
0.002726866 0.004172913 0.005554964 0.0071801213 0.00838608 0.008098205 0.007467102 0.0066275275
0.0054722256 0.003981665 0.0020731469 0.0006435109 0.00016752083 0.00010299289 0.00016802805 6.7301444e-05
0.00025702504 0.00029937262 0.00027970385 0.0002835696 0.0002835696 0.0002835696 0.00028756872 0.00032041487
0.00058029697 0.0011981877 0.0021385294 0.0036891461 0.0055897688 0.0073970645 0.009429749 0.011606769
0.0124488445 0.011521582 0.00994451 0.0084573915 0.0067962804 0.004291722 0.002348977 0.0013144471
0.00041644106 -0.00033288245 -7.746485e-05 -0.00019207473 7.919143e-05 0.00026693562 0.0002774501 0.0002835696
0.0002835696 0.00028553852 0.0003069618 0.0004511899 0.00088743836 0.0017909921 0.0034622068 0.005575953
0.007482674 0.008880511 0.010581603 0.012685628 0.012905552 0.011144509 0.009839705 0.008838595
0.006839476 0.0040132655 0.0024558457 0.0021509966 0.0015454966 0.00040558554 -0.00014726144 -0.0003638079
4.7812377e-05 0.00027585967 0.00027826158 0.0002835696 0.0002835696 0.00031738722 0.00031900854 0.0005256632
0.0012348604 0.0024234853 0.0041076886 0.0053248075 0.00641776 0.007050094 0.008227236 0.009464183
0.0087411925 0.0070249173 0.0050848667 0.00387309 0.0027004075 0.00044568628 5.4806016e-05 0.0014897613
0.0024688547 0.0012230143 -5.7049772e-05 -0.0004882818 -5.672074e-05 0.0002726528 0.00029266695 0.0002835696
0.00028350664 0.00029360873 0.00030956644 0.00051044 0.0014376435 0.0024233866 0.0034018296 0.0035803325
0.0033145833 0.002957382 0.003943907 0.0036252139 0.0025539289 0.000639792 -0.0009669018 -0.0019009784
-0.0022022652 -0.0024793805 -0.0018307243 0.00027682426 0.0019290322 0.0015621313 6.2824365e-05 -0.0009338179
-0.00020394694 0.00029520705 0.00029666716 0.0002835696 0.0002835696 0.000288872 0.0002959286 0.0005178779

exp_avg_sq f4 [30, 784]
00000000: f318 4836 f318 4836 f318 4836 f318 4836
00000010: f318 4836 f318 4836 f318 4836 f318 4836
00000020: f318 4836 f318 4836 f318 4836 f318 4836
00000030: ad1a 4836 733e 4836 733e 4836 811a 4836
00000040: f318 4836 f318 4836 f318 4836 f318 4836
00000050: f318 4836 f318 4836 f318 4836 f318 4836
00000060: f318 4836 f318 4836 f318 4836 f318 4836
00000070: f318 4836 f318 4836 f318 4836 f318 4836
00000080: f318 4836 f318 4836 f318 4836 9a18 4836
00000090: 7e15 4836 970c 4836 edff 4736 f984 4836
000000a0: 04b5 4836 5564 4836 3113 4836 e4f9 4736
000000b0: 2871 4836 53f2 4736 6119 4836 f318 4836
000000c0: f318 4836 f318 4836 f318 4836 f318 4836
000000d0: f318 4836 f318 4836 f318 4836 f318 4836
000000e0: f318 4836 f318 4836 f318 4836 fe1c 4836
000000f0: 591a 4836 f60e 4836 fccc 4736 9f57 4836
00000100: 018d 4836 4f83 4636 1210 4636 18d8 4836
00000110: 5800 4936 56d4 4536 c4bc 4336 47d7 4236
00000120: da1b 4536 7719 4636 9416 4636 2400 4736
00000130: 83c1 4736 b7e8 4736 3428 4836 e923 4836
00000140: 4181 4836 3c5c 4836 f318 4836 f318 4836
00000150: f318 4836 f318 4836 3611 4836 a72f 4836
00000160: 4909 4836 a81e 4736 ec46 4636 6182 4436
00000170: 7290 4036 a93e 3e36 a550 3b36 1de2 3536
00000180: a128 3836 1676 3536 702a 2e36 1ac8 2936
00000190: 29c3 2b36 8604 3236 ed7d 3136 1840 3836
000001a0: e4cf 4236 d89e 4436 f7fc 4636 3498 4736
000001b0: 6b06 4836 8406 4836 f318 4836 f318 4836
000001c0: f318 4836 f318 4836 b6e5 4736 8847 4836
000001d0: 3985 4736 ea6c 4536 aa75 3e36 2a9c 3c36
000001e0: 12f6 3836 ba50 3836 8f76 4036 3f00 3e36
000001f0: e8ed 3b36 d479 2336 5036 0a36 cd65 f035
00000200: b489 c535 66de ba35 a018 be35 378d f335
00000210: b555 2536 f0a6 3b36 b9cb 4536 4f23 4836
00000220: 3125 4a36 1798 4836 fb52 4836 f318 4836
00000230: f318 4836 f318 4836 ba04 4836 3f98 4736
00000240: d755 4236 e18a 3836 ffb9 3236 13e0 3936
00000250: b234 4b36 a059 6d36 b38c 8936 3d5c a036
00000260: dc64 9f36 b335 7f36 6ac9 3536 ba37 fe35
00000270: 39e8 ca35 9359 7235 efbf 2435 a652 6f35
00000280: d79e dd35 9e73 1b36 9ce2 3d36 81b4 4436
00000290: 06ed 4736 0bcc 4736 7af4 4736 f318 4836
000002a0: f318 4836 7f1b 4836 b6fa 4736 7fb7 4536
000002b0: 9697 3e36 32ce 3236 1f41 3536 0573 4136
000002c0: 4ce6 6236 f43e 8336 f160 9336 e2a1 ad36
000002d0: 4101 9f36 1056 6736 a2ee 3336 92cb 2236
000002e0: 4ba1 0136 67c1 8f35 6212 3635 c8d7 3935
000002f0: 8728 a335 7bea 0536 c6c7 2e36 90a3 3a36
00000300: 7f35 4536 02e2 4636 5f90 4836 f318 4836
00000310: f318 4836 1da6 4836 9f59 4836 a95b 4636
00000320: d469 3f36 b6a9 3836 5e95 3a36 6888 3a36
00000330: 0420 3b36 94d2 2d36 5504 2936 c341 2b36
00000340: 076e 0836 ff01 b435 c264 a935 5562 bd35
00000350: e63a a635 3a58 5735 e18e 2435 1e14 3835
00000360: b5ef 8a35 7a1b df35 cff2 1b36 3a4e 3036
00000370: f1e2 4136 90cf 4636 fc0c 4836 f318 4836
00000380: 4c1c 4836 0a5e 4836 4eab 4736 6162 4436
00000390: 108f 3e36 2d1d 3a36 48a0 3036 f101 1736
000003a0: 0277 ee35 5a00 b235 22f2 9735 1a22 8b35
000003b0: a9b5 8135 dda0 9335 a41e c535 2d04 b135
000003c0: 9aef 8235 14fa 0d35 0308 f434 aba0 3d35
000003d0: ba1d 8135 442d d835 e339 1036 ba70 2836
000003e0: e7cb 3d36 fdb6 4636 636d 4736 f318 4836
000003f0: f318 4836 eb8b 4836 31a6 4736 8a45 4536
2.9816845e-06 2.9816845e-06 2.9816845e-06 2.9816845e-06 2.9816845e-06 2.9816845e-06 2.9816845e-06 2.9816845e-06
2.9816845e-06 2.9816845e-06 2.9816845e-06 2.9816845e-06 2.981785e-06 2.9838673e-06 2.9838673e-06 2.981775e-06
2.9816845e-06 2.9816845e-06 2.9816845e-06 2.9816845e-06 2.9816845e-06 2.9816845e-06 2.9816845e-06 2.9816845e-06
2.9816845e-06 2.9816845e-06 2.9816845e-06 2.9816845e-06 2.9816845e-06 2.9816845e-06 2.9816845e-06 2.9816845e-06
2.9816845e-06 2.9816845e-06 2.9816845e-06 2.9816642e-06 2.9814832e-06 2.980965e-06 2.980228e-06 2.9879723e-06
2.9907687e-06 2.9860723e-06 2.9813493e-06 2.9798766e-06 2.9868188e-06 2.9794362e-06 2.9817095e-06 2.9816845e-06
2.9816845e-06 2.9816845e-06 2.9816845e-06 2.9816845e-06 2.9816845e-06 2.9816845e-06 2.9816845e-06 2.9816845e-06
2.9816845e-06 2.9816845e-06 2.9816845e-06 2.9819198e-06 2.9817659e-06 2.981103e-06 2.9772627e-06 2.9853325e-06
2.9884397e-06 2.958073e-06 2.9513653e-06 2.9928106e-06 2.9951534e-06 2.9478883e-06 2.916714e-06 2.903356e-06
2.93715e-06 2.9519122e-06 2.9517441e-06 2.9653393e-06 2.976595e-06 2.9788769e-06 2.9825724e-06 2.9823225e-06
2.9877558e-06 2.985601e-06 2.9816845e-06 2.9816845e-06 2.9816845e-06 2.9816845e-06 2.981234e-06 2.983006e-06
2.9807727e-06 2.9671155e-06 2.954558e-06 2.9282166e-06 2.8694308e-06 2.834868e-06 2.7912113e-06 2.7102717e-06
2.7441786e-06 2.7039837e-06 2.5952722e-06 2.5299437e-06 2.5594584e-06 2.65267e-06 2.6448354e-06 2.7455444e-06
2.902926e-06 2.9298735e-06 2.9651544e-06 2.9741905e-06 2.9806058e-06 2.9806115e-06 2.9816845e-06 2.9816845e-06
2.9816845e-06 2.9816845e-06 2.978702e-06 2.984396e-06 2.9730857e-06 2.9418684e-06 2.8380696e-06 2.8105082e-06
2.7561368e-06 2.7465126e-06 2.867924e-06 2.831235e-06 2.800365e-06 2.4359806e-06 2.0595216e-06 1.7911021e-06
1.4717721e-06 1.3922806e-06 1.416327e-06 1.814601e-06 2.4636804e-06 2.7962342e-06 2.947387e-06 2.9822875e-06
3.0121994e-06 2.989085e-06 2.9850623e-06 2.9816845e-06 2.9816845e-06 2.9816845e-06 2.9805074e-06 2.974193e-06
2.8958218e-06 2.7498975e-06 2.663233e-06 2.7697577e-06 3.028003e-06 3.536792e-06 4.0992977e-06 4.7791095e-06
4.750311e-06 3.8029218e-06 2.708834e-06 1.8940693e-06 1.5117758e-06 9.0282373e-07 6.137406e-07 8.915471e-07
1.6512012e-06 2.3164098e-06 2.8295099e-06 2.9311343e-06 2.9791277e-06 2.977208e-06 2.9795615e-06 2.9816845e-06
2.9816845e-06 2.9818327e-06 2.9799244e-06 2.9462096e-06 2.840044e-06 2.6644088e-06 2.7009007e-06 2.8826191e-06
3.3810675e-06 3.911433e-06 4.392227e-06 5.1746474e-06 4.7387152e-06 3.4471777e-06 2.681198e-06 2.4258375e-06
1.9316383e-06 1.0710618e-06 6.7827034e-07 6.9231874e-07 1.2156241e-06 1.995503e-06 2.6044304e-06 2.7811366e-06
2.9386426e-06 2.9635853e-06 2.9886357e-06 2.9816845e-06 2.9816845e-06 2.9899013e-06 2.9854489e-06 2.9557652e-06
2.8522818e-06 2.7516921e-06 2.7803103e-06 2.7795559e-06 2.7883807e-06 2.5901581e-06 2.5185484e-06 2.5519264e-06
2.0329624e-06 1.3411626e-06 1.2620806e-06 1.4110216e-06 1.2385105e-06 8.022213e-07 6.1302677e-07 6.8574616e-07
1.0351565e-06 1.6622791e-06 2.3238133e-06 2.6271578e-06 2.8891338e-06 2.9625116e-06 2.980988e-06 2.9816845e-06
2.9818793e-06 2.985706e-06 2.9753023e-06 2.926354e-06 2.839548e-06 2.7733142e-06 2.631934e-06 2.2501883e-06
1.7767018e-06 1.3262136e-06 1.1320847e-06 1.0366232e-06 9.664119e-07 1.0999171e-06 1.4686561e-06 1.3188743e-06
9.755488e-07 5.2890505e-07 4.545437e-07 7.064179e-07 9.6199e-07 1.6106428e-06 2.1491367e-06 2.5099566e-06
2.8281881e-06 2.9610812e-06 2.9716982e-06 2.9816845e-06 2.9816845e-06 2.9883765e-06 2.9750047e-06 2.9395765e-06

exp_avg f4 [30]
00000000: 11ac 94b9 cece 7737 e6e7 2935 37d3 c639
00000010: ca4a de38 1c80 8937 00f4 8cbb b6d5 23ba
00000020: f1c3 7ebb 7476 24ba 90f8 c1bb 43ee 6a37
00000030: b7ee f837 1f28 803a 3c0e 8ebb 610e f337
00000040: 9af1 2dbb c0c4 ea37 68ff 8036 71d5 cd3a
00000050: 06f7 1d36 4183 c6b9 1655 9239 bae8 d0bb
00000060: 422e a636 d37d 45ba e608 0f37 13d9 54b9
00000070: 2ea9 2937 4aa3 ac39
-0.0002835696 1.4770498e-05 6.329486e-07 0.0003792287 0.000105997155 1.6391328e-05 -0.004301548 -0.0006249802
-0.0038874114 -0.00062737544 -0.0059195235 1.40029615e-05 2.9675064e-05 0.0009777582 -0.004335193 2.8974553e-05
-0.002654171 2.7986593e-05 3.8444305e-06 0.0015703869 2.353861e-06 -0.00037863295 0.00027910684 -0.0063753994
4.9525706e-06 -0.0007533703 8.525536e-06 -0.00020298762 1.0112575e-05 0.00032928056

exp_avg_sq f4 [30]
00000000: f318 4836 d323 a133 4110 1d2f 97d4 c134
00000010: 044b 8336 e6b3 5133 7659 d736 b5b9 b135
00000020: df35 e735 ef33 dc35 d28a b236 743d e733
00000030: d54e 2a35 2a02 3236 5cfd a535 c379 5b34
00000040: dfc8 7b36 1dce 2335 c412 ba31 dbf9 3036
00000050: 4c29 b630 43ea 9435 6a5f c335 831c 7e36
00000060: b767 0932 dbda 6636 19f2 6333 a13c fb35
00000070: f55c 4c35 7c96 a535
2.9816845e-06 7.503663e-08 1.4284841e-10 3.610373e-07 3.912837e-06 4.882522e-08 6.417914e-06 1.3241576e-06
1.722652e-06 1.6406392e-06 5.320974e-06 1.0767954e-07 6.344465e-07 2.6525327e-06 1.2367195e-06 2.0440261e-07
3.7518837e-06 6.1022166e-07 5.415446e-09 2.6371479e-06 1.325398e-09 1.1095038e-06 1.4556401e-06 3.7865545e-06
7.998032e-09 3.4400061e-06 5.3072743e-08 1.8718603e-06 7.613119e-07 1.2337255e-06

exp_avg f4 [5, 30]
00000000: 688c b8bc 5710 6ab7 8354 8735 16f4 f3bc
00000010: acbb b0b8 186d 8d38 616f a93e c015 adbd
00000020: 7c07 a83d f138 94bc bcdd 1c3e dfd6 b5b7
00000030: 53cd 8ab8 1234 25bb a796 a93e 362a 52b9
00000040: b01c a8bb bf71 bcb8 9701 52b7 a108 073e
00000050: b8ab ee35 dbe8 fa3d b775 ea3c 77e3 903d
00000060: a3a7 3137 f3e5 86bd 3c3f 65b8 6043 213c
00000070: 8fef 70b9 13ef 7b3d 7ab5 6f3d 7d1c cab6
00000080: 1d91 ba34 6589 af3d 5a2b 3bb8 0906 7536
00000090: 35dc da3e 0151 9c3d e400 953d 8674 58bd
000000a0: f1af 693e 4bf6 26b7 5dd4 07b8 1375 ac3d
000000b0: bb7c d5bc 361e e9b8 ec1a 593c 66af 6db8
000000c0: b22a a3b6 9b53 113d dcee c0b5 c48a 823e
000000d0: 1725 2ebe d33d 613e 205b c436 7968 85bd
000000e0: cfb9 08b8 f1ee 3dbd 6f26 1fb9 163d 453d
000000f0: 742e e3bc 96b2 19b5 5269 c831 25d0 abbc
00000100: f921 6eb6 0708 2bb7 f3ea 39be 4707 2abd
00000110: 8748 99be 17a4 bb3a ba49 42be 904f 1e34
00000120: c6e8 76b5 356d bfbc b6ac b9be a72d b0b7
00000130: aaf2 efbd 8301 1db7 2660 2d34 c3db 87bd
00000140: 860a 41b6 a112 873b c4d6 f2ba 6874 50be
00000150: 0d16 0fb4 53cd fa3c 264b 1eb6 be8a ac3c
00000160: f3b5 06b8 86c3 efbb 144f c03d 1950 ef36
00000170: bb8e 4ab5 bb20 64bd 807b 5b38 b54a e9b7
00000180: 2e9a c73d 4ffe de3c 839c ca3d 006a a03b
00000190: d202 5a3e 1db5 7d37 0822 2a38 e068 a1bd
000001a0: df78 483e da38 ed38 76f7 503d 012a 8238
000001b0: 5130 da36 7d8f 26bd cb55 4ab5 18a5 4f3d
000001c0: 925c 933d b534 2ebd 8426 03b7 0e69 883d
000001d0: bc3b 0238 7586 5dbc 495e 0139 d907 eebd
000001e0: 4b3b d1bd b411 6137 acf3 22b5 fbdf a93c
000001f0: c104 a838 2dc3 0ab8 789e 2cbf e022 b83c
00000200: 12fa 3a3d 3f53 843d 8f23 cfbe dc3a 8937
00000210: ac28 7738 8de2 a73c 749d 0dbe bc22 6639
00000220: 6aaa 6d3d a3bf c438 4cc9 3337 6a2f 77bd
00000230: 87c1 5c36 2356 ddbe 5c1b 923d 82b8 36bd
00000240: 5c72 0eb7 0b64 0a3d 1fa2 7538 6874 ed3c
00000250: c232 9839 506f 633c
-0.022527888 -1.3951291e-05 1.008288e-06 -0.029779475 -8.4272906e-05 6.743724e-05 0.33092788 -0.08451414
0.082045525 -0.018093558 0.1531896 -2.1676939e-05 -6.6185974e-05 -0.0025208038 0.3312275 -0.00020042885
-0.005130373 -8.9857254e-05 -1.2517346e-05 0.13186885 1.7782359e-06 0.12251445 0.028620584 0.070746355
1.0589053e-05 -0.06586828 -5.4656746e-05 0.009842724 -0.00022977426 0.061507296 0.05852268 -6.0233856e-06
3.4750784e-07 0.08571128 -4.462465e-05 3.6511358e-06 0.4274613 0.07632638 0.072755605 -0.0528455
0.22821023 -9.951716e-06 -3.2384287e-05 0.08420768 -0.026060453 -0.00011115933 0.013251048 -5.6668556e-05
-4.862749e-06 0.035480123 -1.4374632e-06 0.25496495 -0.17006336 0.2199624 5.8518635e-06 -0.06514067
-3.2597974e-05 -0.04637045 -0.00015177739 0.04815396 -0.027732112 -5.725682e-07 5.8327396e-09 -0.020973274
-3.5484538e-06 -1.0194263e-05 -0.18156032 -0.041510846 -0.29938146 0.001431587 -0.18973437 1.4743841e-07
-9.198087e-07 -0.023367504 -0.3626458 -2.1002093e-05 -0.11716206 -9.358281e-06 1.6146859e-07 -0.06633713
-2.8765367e-06 0.004122094 -0.001852714 -0.20356905 -1.3325935e-07 0.030615484 -2.3587577e-06 0.021062251
-3.2117543e-05 -0.0073170094 0.09390083 7.1320796e-06 -7.5458564e-07 -0.055695277 5.2328687e-05 -2.7810553e-05
0.09746204 0.027220873 0.098931335 0.0048954487 0.21290138 1.5122144e-05 4.0562853e-05 -0.078813314
0.19577359 0.0001131163 0.051017247 6.206707e-05 6.502531e-06 -0.040664185 -7.537571e-07 0.050694555
0.07195391 -0.042530734 -7.817176e-06 0.066606626 3.1050047e-05 -0.013520827 0.00012337523 -0.116225906
-0.10216387 1.3415167e-05 -6.070429e-07 0.020736685 8.01175e-05 -3.3083536e-05 -0.67429304 0.022477567
0.045648642 0.064611904 -0.40456817 1.6359081e-05 5.8927268e-05 0.02049377 -0.13829595 0.00021947449
0.058023848 9.3817034e-05 1.07160995e-05 -0.060347952 3.2895202e-06 -0.4322978 0.07134125 -0.044609554
-8.490486e-06 0.033786815 5.856354e-05 0.02898617 0.00029029517 0.013881519

exp_avg_sq f4 [5, 30]
00000000: 712d 5e39 bbc4 9433 5349 c72f 61e0 db38
00000010: 1fb4 2936 194a 3135 dbe1 3e3b 9743 da39
00000020: 105b b739 0e7c 3d39 8b82 783a 8e21 4c34
00000030: ddc8 f935 2e88 9c38 f8b5 293b 981e 9b37
00000040: 6b66 2d39 6b28 8336 6835 7033 5b81 043a
00000050: b134 3330 5bc7 dd39 45d0 2639 0104 9239
00000060: be7b 2533 e74b 6c39 52ac ba35 0122 7637
00000070: 4794 ff37 92e2 1539 9a36 cb38 7459 5e32
00000080: 9060 3d2e 433c 2539 0633 3735 3699 9a31
00000090: 1d94 913b 4cb9 0339 ff82 6139 43c4 bf38
000000a0: 1d2f ba3a 1ca3 3b33 c274 d234 54d0 3139
000000b0: f13f 663a dc79 9a36 2aec d837 e23d b935
000000c0: 3062 1132 9a8a 3539 3d0e 4130 9137 c63a
000000d0: 6acf 243a 2ee7 843a 3954 5632 6cd1 f538
000000e0: af06 f534 a18e 6838 3738 2437 ebdf ba38
000000f0: aa92 0f38 3353 ab2e b586 5a28 ceb1 7a37
00000100: f29e 3f31 910c ee32 9a02 393a b1fd 3a38
00000110: 7aa7 e73a 16fd 0338 d6cd 493a 4f25 5c2f
00000120: 46ee 5b31 adff d437 eef6 2a3b 4996 9533
00000130: b054 9239 a82d d332 ff14 352d 505b 0039
00000140: 46c3 5131 037d 8937 d1f5 3a38 8227 583a
00000150: 3ffe a92c 2f85 bb37 9083 6431 ad77 4037
00000160: b03f 8b34 9274 5237 46e5 7f39 7fad a032
00000170: 493b 5f2f e872 0c39 13c8 7835 13d4 0334
00000180: 36cf 4a3a 6a3b 1539 acf4 e039 866b 0a39
00000190: a497 a23a 0051 9633 dbf8 2435 b2ad 5239
000001a0: c496 cd3a 43a5 c636 4f9a 2839 7243 d435
000001b0: 50b2 8232 acb3 6639 1c13 ed2e ccdc d338
000001c0: 667a 7d39 5147 a639 c25f bb32 94dc 5d39
000001d0: 4d74 0c35 85fa e937 23cc 4537 d577 bf39
000001e0: c9b1 8839 eefa 8433 4c78 102f cc6a ce37
000001f0: 7fd5 1736 28dc 3634 e470 2c3c 3d5f 6838
00000200: 04cb f038 a7ed 3439 4591 6e3b dce0 2534
00000210: c2bd bc35 a783 0138 fd40 383a f7cf 9537
00000220: 2c05 c038 6fa2 8c36 f220 2f33 4608 7a39
00000230: d791 9b31 09e9 893b 9e65 4239 665d cf38
00000240: 6d66 dc32 06df 8e38 0265 be35 8220 9037
00000250: e282 0538 af6b c637
0.00021188498 6.927572e-08 3.624999e-10 0.000104845276 2.5287807e-06 6.6045465e-07 0.002912632 0.0004163056
0.00034972327 0.00018070659 0.00094799016 1.9011188e-07 1.8610405e-06 7.464025e-05 0.0025895815 1.8491686e-05
0.0001653672 3.9088095e-06 5.5927927e-08 0.0005054676 6.51947e-10 0.00042300936 0.0001590858 0.00027850273
3.85296e-08 0.0002253499 1.3908232e-06 1.467066e-05 3.0467416e-05 0.00014294151 9.689965e-05 1.294244e-08
4.305939e-11 0.00015758075 6.824706e-07 4.499408e-09 0.0044427053 0.00012562162 0.00021506472 9.144146e-05
0.0014204715 4.3687677e-08 3.92005e-07 0.00016957644 0.0008783332 4.603744e-06 2.5859179e-05 1.3801584e-06
8.462436e-09 0.00017313138 7.0233225e-10 0.0015122761 0.00062870106 0.0010139698 1.24755895e-08 0.00011721518
4.563967e-07 5.5445944e-05 9.78825e-06 8.910879e-05 3.423045e-05 7.790959e-11 1.2130641e-14 1.494256e-05
2.7884508e-09 2.7712561e-08 0.00070575776 4.4582124e-05 0.0017673813 3.146854e-05 0.00076982134 2.0022138e-10
3.2004137e-09 2.5391428e-05 0.0026087123 6.96569e-08 0.00027910387 2.4584395e-08 1.0293321e-11 0.00012241048
3.0524503e-09 1.6389886e-05 4.457479e-05 0.0008245633 4.831496e-12 2.2354156e-05 3.3253151e-09 1.1471956e-05
2.5937106e-07 1.25441165e-05 0.00024404106 1.8705348e-08 2.0302794e-10 0.00013394246 9.2678346e-07 1.2277478e-07
0.00077365653 0.00014231881 0.00042906904 0.00013200761 0.0012404812 6.999653e-08 6.1456893e-07 0.00020091867
0.001568519 5.920099e-06 0.00016079213 1.581486e-06 1.5215079e-08 0.00022001442 1.0780907e-10 0.00010102391
0.00024173557 0.00031715122 2.181321e-08 0.00021158374 5.2323304e-07 2.7892422e-05 1.1789644e-05 0.0003651964
0.00026072402 6.192373e-08 1.3139462e-10 2.4606845e-05 2.2625024e-06 1.7030163e-07 0.010524962 5.5401808e-05
0.000114819064 0.0001725467 0.0036402505 1.5448626e-07 1.4062318e-06 3.0878608e-05 0.0007028727 1.7859025e-05
9.156237e-05 4.191235e-06 4.0775326e-08 0.0002384494 4.527674e-09 0.004208688 0.00018539137 9.887926e-05
2.5657949e-08 6.812629e-05 1.41855e-06 1.7181275e-05 3.1831565e-05 2.3653583e-05

exp_avg f4 [5]
00000000: d210 6a3d 2d88 6f3d 1fd5 67bd 6643 f73c
00000010: dcb2 b6bd
0.057144947 0.058479477 -0.056599732 0.030183505 -0.089208335

exp_avg_sq f4 [5]
00000000: 569d 5039 6a15 fa38 c20d 9a38 6460 bb38
00000010: 2e4c 9d39
0.00019895038 0.000119249176 7.345855e-05 8.934809e-05 0.00030002132
