nesy/z26jlbus/checkpoints/epoch=9-step=250.ckpt (torch, 290467 bytes, 12 tensors)

neural_predicates.digit.net.0.weight f4 [30, 784]
-0.037740175 0.018505577 0.010976802 -0.034199856 -0.025805613 0.0016111461 -0.038512666 -0.038102858
0.014603025 -0.02214706 0.011218243 -0.011270027 0.01557897 0.0065365112 -0.03239138 -0.024916764
-0.035290614 -0.013451613 -0.03797535 0.016564557 0.005034283 -0.034835223 0.017480193 0.009245579
0.012058782 -0.03918538 -0.0005205607 -0.021795219 -0.029411066 -0.019787025 -0.017138869 -0.03804957
-0.0076923342 0.019853944 0.019507617 -0.035599176 -0.023398418 0.014377358 0.024865163 -0.031181088
0.016196592 -0.012206277 -0.0141809285 -0.026485486 -0.03178842 0.018417906 0.015425618 -0.017946612
-0.03205488 0.007388386 -0.01910571 0.022052702 0.01766177 -0.032524515 -0.0073908186 0.011396372
-0.010008434 -0.022272715 -0.023866108 -0.028628463 0.010728916 0.0029421702 -0.04000091 0.01939788
-0.04402251 -0.02649098 -0.033678308 -0.043709397 0.0014174476 0.0041278615 -0.028722767 -0.03541224
0.0074025285 0.018832654 0.02205759 0.02120885 -0.037461363 -0.032321125 -0.025371622 -0.011341273
-0.04424442 -0.035514105 -0.04562943 -0.0034381356 -0.0103759235 -0.041424528 -0.015575284 0.0051325127
-0.00043631135 -0.012747956 -0.012925264 -0.0042752596 -0.02909564 -0.026143093 0.01659216 0.009231881
-0.008557364 0.0189632 -0.015900446 -0.037833598 -0.047591176 0.013989994 -0.0246394 0.024671989
-0.03379645 -0.026755517 -0.025800554 0.016789606 -1.8010913e-05 -0.031137796 -0.031637058 -0.011240783
-0.0101913 -0.030566098 0.0005274674 0.0013021524 -0.033263538 -0.012163254 0.024532124 -0.0381104
0.0021567703 -0.031547576 0.022512771 -0.035217084 -0.03703509 -0.007260931 -0.023843883 0.0037490244
-0.013252148 -0.03181071 -0.006488351 -0.02200564 -0.060375914 -0.04067532 0.0044880193 -0.014956691
-0.01860641 0.016309258 -0.022424685 -0.013239041 -0.026282568 0.022307854 -0.025456358 0.024349675
0.021592392 -0.0001032956 0.018050421 0.025093546 -0.008091556 0.004908558 0.031914055 0.02376184
0.012369305 -0.012052902 0.014466455 0.023432149 0.029945984 0.0359874 0.048648883 0.009871232
-0.010991803 -0.0359068 -0.048348818 -0.050122593 -0.038896736 -0.035677355 -0.044141073 0.012620065
-0.045134556 0.006396672 -0.041440703 -0.038149063 0.016784089 -0.0067860894 -0.008110199 -0.04109718
-0.020348212 -0.032814547 0.025669223 0.031554617 -0.019018667 0.005351678 0.04334851 0.04188076
0.03519933 0.006463765 0.013218504 0.008895799 -0.021761067 0.0048799766 0.02863422 0.02274252
0.011413332 0.0021457737 -0.020830955 -0.033970706 0.0014978787 -0.016810507 -0.004768189 0.01308367
-0.00592428 -0.008969426 0.009975865 0.003195026 0.0049496004 -0.009899144 -0.0067846435 -0.016440695
-0.0031527528 0.013393679 -0.02204603 -0.011350401 0.06200565 0.012537943 -0.0054268143 -0.00044122417
0.011397128 -0.016508661 0.025001517 -0.019146135 -0.038782507 -0.027070854 -0.016442513 -0.0089215245
-0.0010979944 -0.023388235 -0.04305748 0.024805278 -0.039033428 -0.015556114 -0.022875547 -0.020147767
0.025110293 0.0068209935 -0.016485196 -0.015721964 -0.007193462 0.0331892 -0.03134275 0.010540608
0.03293679 0.075487226 0.049854316 0.034832332 -0.010764625 0.026990829 0.03189498 -0.014663868
-0.03155113 -0.008863833 -0.016812596 -0.0021851282 -0.043932043 0.00036697887 -0.010345911 -0.03949348
00000000: 7195 1abd 0299 973c 0bd8 333c 2615 0cbd
00000010: 4b66 d3bc 182d d33a 75bf 1dbd be11 1cbd
00000020: 8741 6f3c c06d b5bc b9cc 373c eba5 38bc
00000030: f03e 7f3c 3b30 d63b d3ac 04bd 3e1e ccbc
00000040: e48c 10bd 2764 5cbc 0a8c 1bbd 65b2 873c
00000050: a0f6 a43b 61af 0ebd 9f32 8f3c c57a 173c
00000060: 3392 453c d980 20bd 3d76 08ba e38b b2bc
00000070: 7aef f0bc 6618 a2bc d066 8cbc ded9 1bbd
00000080: fa0f fcbb bda4 a23c 70ce 9f3c 71d0 11bd
00000090: 0aae bfbc 038f 6b3c 07b2 cb3c 7b6f ffbc
000000a0: b7ae 843c d6fc 47bc 2057 68bc 17f8 d8bc
000000b0: 9334 02bd 26e1 963c bbbb 7c3c c604 93bc
000000c0: fa4b 03bd 461a f23b 9483 9cbc dea7 b43c
000000d0: 6baf 903c 6d38 05bd ae2e f2bb d9b7 3a3c
000000e0: 6afa 23bc 4575 b6bc db82 c3bc 3d86 eabc
000000f0: 56c8 2f3c 6dd1 403b ffd7 23bd 4ee8 9e3c
00000100: f350 34bd 9d03 d9bc 44f2 09bd a008 33bd
00000110: a6c9 b93a 0343 873b 024c ebbc 6d0c 11bd
00000120: e990 f23b f046 9a3c 1eb2 b43c 2fbe ad3c
00000130: 1671 19bd 2863 04bd 26d8 cfbc bfd0 39bc
00000140: a339 35bd 3d77 11bd ede5 3abd 5852 61bb
00000150: c7ff 29bc c4ac 29bd 7a2f 7fbc a32e a83b
00000160: b8c0 e4b9 cedc 50bc 7dc4 53bc 7a17 8cbb
00000170: fb59 eebc 0a2a d6bc 48ec 873c 5141 173c
00000180: 3034 0cbc b658 9b3c a741 82bc 67f7 1abd
00000190: f7ee 42bd 4a36 653c 91d8 c9bc e91c ca3c
000001a0: 256e 0abd 632e dbbc af5b d3bc 5b8a 893c
000001b0: 2416 97b7 b114 ffbc dc95 01bd 432b 38bc
000001c0: 69f9 26bc c165 fabc bd45 0a3a fcac aa3a
000001d0: 593f 08bd 6348 47bc 98f7 c83c a719 1cbd
000001e0: 9a58 0d3b 0838 01bd b46c b83c ca3f 10bd
000001f0: 1bb2 17bd 1bed edbb 3f54 c3bc 31b2 753b
00000200: 8a1f 59bc f24b 02bd 3c9c d4bb 2c45 b4bc
00000210: bc4c 77bd 2a9b 26bd 3c10 933b e90c 75bc
00000220: 786c 98bc fe9a 853c f9b3 b7bc 90e8 58bc
00000230: 8a4e d7bc f6be b63c da89 d0bc f878 c73c
00000240: 87e2 b03c 67a0 d8b8 7ade 933c fb90 cd3c
00000250: 7292 04bc f8d7 a03b 50b8 023d 31a8 c23c
00000260: a0a8 4a3c 8979 45bc b604 6d3c c7f4 bf3c
00000270: 4851 f53c 8667 133d 0d44 473d f3ba 213c
00000280: f716 34bc 0213 13bd 6909 46bd 594d 4dbd
00000290: 2f52 1fbd 6b22 12bd 45cd 34bd 64c4 4e3c
000002a0: 03df 38bd 2d9b d13b babd 29bd 3142 1cbd
000002b0: c97e 893c d85d debb a4e0 04bc 8455 28bd
000002c0: 4bb1 a6bc 8c68 06bd 4348 d23c 6a3f 013d
000002d0: 09cd 9bbc 215d af3b 358e 313d 298b 2b3d
000002e0: 2c2d 103d fecd d33b 6d92 583c afbf 113c
000002f0: 4444 b2bc 36e8 9f3b 5092 ea3c 854e ba3c
00000300: fcfe 3a3c 1ca0 0c3b aea5 aabc de24 0bbd
00000310: 7854 c43a 30b6 89bc 783e 9cbb e45c 563c
00000320: 7620 c2bb 80f4 12bc cf71 233c a463 513b
00000330: 4230 a23b 0530 22bc b751 debb a3ae 86bc
00000340: 6a9e 4ebb 2971 5b3c e099 b4bc 08f7 39bc
00000350: a3f9 7d3d f26b 4d3c 6bd3 b1bb 1b54 e7b9
00000360: 05bb 3a3c 2c3d 87bc fbcf cc3c 5bd8 9cbc
00000370: 68da 1ebd b2c3 ddbc 73b2 86bc 962b 12bc
00000380: 94ea 8fba af98 bfbc 0a5d 30bd 7034 cb3c
00000390: 84e1 1fbd 12df 7ebc 8065 bbbc ee0c a5bc
000003a0: 1ab4 cd3c a482 df3b f60b 87bc 59cb 80bc
000003b0: 22b7 ebbb 66f1 073d 4161 00bd 84b2 2c3c
000003c0: bae8 063d 0c99 9a3d 0a34 4c3d 59ac 0e3d
000003d0: 1c5e 30bc df1b dd3c 50a4 023d b840 70bc
000003e0: c23b 01bd 9c39 11bc 92ba 89bc 5e34 0fbb
000003f0: 16f2 33bd 1267 c039 e581 29bc eac3 21bd

neural_predicates.digit.net.0.bias f4 [30]
-0.013563258 0.012810379 0.02863199 -0.03296361 0.027067829 0.01511916 0.016822001 0.012141935
0.033825208 0.016501103 -0.017992381 0.0017262865 0.019441761 -0.010995077 0.032521736 -0.027670056
0.01759108 0.0008525691 0.0038981882 0.01557023 -0.030332543 -0.0062845303 -0.012002781 -0.019709088
0.003479482 0.023946993 0.014138421 -0.015670089 -0.032694135 -0.012864623
00000000: 6d38 5ebc a0e2 513c a38d ea3c da04 07bd
00000010: 5abd dd3c 5ab6 773c 4bce 893c f7ee 463c
00000020: 4d8c 0a3d 522d 873c c264 93bc 9044 e23a
00000030: 5444 9f3c b224 34bc 8335 053d 50ac e2bc
00000040: 2b1b 903c f27e 5f3a bf78 7f3b 471a 7f3c
00000050: f47b f8bc 76ee cdbb 50a7 44bc f474 a1bc
00000060: 0508 643b 7c2c c43c d6a4 673c 8f5e 80bc
00000070: 49ea 05bd 24c6 52bc

neural_predicates.digit.net.2.weight f4 [2, 30]
0.028711557 0.16464977 -0.20743854 0.024422688 -0.036668487 0.029279513 0.15266697 0.10153688
0.06872104 -0.04176279 0.16917127 -0.0061952597 0.025593366 0.09314372 0.06929382 -0.048310906
-0.059208017 -0.18496573 0.036236577 -0.11506655 -0.113927074 0.007929059 -0.20236449 -0.11852038
-0.12606944 -0.15228318 -0.09351871 -0.14537446 -0.18850562 0.038120385 -0.14780529 -0.13406236
0.09115116 0.03586407 -0.18951175 0.16542044 -0.088652484 -0.018613586 -0.05427665 -0.20233919
-0.111747615 -0.07027976 -0.13761161 -0.18354763 -0.08050454 0.0016125749 0.05671527 -0.01872707
-0.14932284 -0.24523263 0.0019465243 -0.03398316 -0.07440034 0.21418418 -0.17843454 -0.12951651
-0.006858358 0.005890102 0.12977035 -0.0997909
00000000: 8034 eb3c f399 283e c56a 54be 1712 c83c
00000010: b231 16bd 97db ef3c bb54 1c3e 91f2 cf3d
00000020: 9ebd 8c3d 760f 2bbd 3c3b 2d3e 9b01 cbbb
00000030: 2ea9 d13c 22c2 be3d ebe9 8d3d a8e1 45bd
00000040: 1b84 72bd a867 3dbe ce6c 143d 03a8 ebbd
00000050: 9952 e9bd e2e8 013c a338 4fbe d0ba f2bd
00000060: 5918 01be 1ff0 1bbe bd86 bfbd 0bdd 14be
00000070: 9e07 41be 1f24 1c3d 455a 17be a547 09be
00000080: 76ad ba3d 34e6 123d 5e0f 42be fa63 293e
00000090: 6f8f b5bd 857b 98bc 3151 5ebd 0132 4fbe
000000a0: efdb e4bd d6ee 8fbd 0fea 0cbe e9f3 3bbe
000000b0: 90df a4bd 095d d33a 454e 683d 8369 99bc
000000c0: 16e8 18be 431e 7bbe 8422 ff3a ed31 0bbd
000000d0: 355f 98bd 1953 5b3e 8bb7 36be fa9f 04be
000000e0: 14bc e0bb c201 c13b 85e2 043e 2c5f ccbd

neural_predicates.digit.net.2.bias f4 [2]
0.025414323 0.16980402
00000000: b331 d03c 1be1 2d3e

exp_avg f4 [30, 784]
4.2808042e-05 4.2808042e-05 4.2808042e-05 4.2808042e-05 4.2808042e-05 4.2808042e-05 4.2808042e-05 4.2808042e-05
4.2808042e-05 4.2808042e-05 4.2808042e-05 4.2808042e-05 4.2808042e-05 4.2808042e-05 4.2808042e-05 4.2808042e-05
4.2808042e-05 4.2808042e-05 4.2808042e-05 4.2808042e-05 4.2808042e-05 4.2808042e-05 4.2808042e-05 4.2808042e-05
4.2808042e-05 4.2808042e-05 4.2808042e-05 4.2808042e-05 4.2808042e-05 4.2808042e-05 4.2808042e-05 4.2808042e-05
4.2808042e-05 4.2808042e-05 4.2808042e-05 4.2808042e-05 4.2808042e-05 4.2808042e-05 4.2808042e-05 4.2725824e-05
4.2645515e-05 4.2741234e-05 4.3001164e-05 4.2542517e-05 4.1398973e-05 4.2119605e-05 4.2808042e-05 4.2808042e-05
4.2808042e-05 4.2808042e-05 4.2808042e-05 4.2808042e-05 4.2808042e-05 4.2808042e-05 4.2808042e-05 4.2808042e-05
4.2808042e-05 4.2808042e-05 4.2808042e-05 4.2808013e-05 4.280803e-05 4.2808042e-05 4.2783347e-05 4.2800002e-05
4.280792e-05 4.2808042e-05 4.2808042e-05 4.275903e-05 4.3473294e-05 5.4335513e-05 4.88294e-05 4.6856363e-05
5.0590796e-05 6.012845e-05 4.8392525e-05 4.604824e-05 4.3577427e-05 4.2808042e-05 4.2808042e-05 4.2808042e-05
4.2808042e-05 4.2808042e-05 4.2808042e-05 4.2808042e-05 4.2808042e-05 4.2808042e-05 4.2808042e-05 4.280795e-05
4.2807987e-05 4.2807795e-05 4.2807882e-05 4.2758445e-05 4.388072e-05 4.3904613e-05 4.2201667e-05 3.9691302e-05
4.3060885e-05 3.4464414e-05 4.826285e-05 6.6619905e-05 7.392911e-05 9.111272e-05 7.608426e-05 4.8308335e-05
4.7055775e-05 4.494883e-05 4.3051656e-05 4.2728487e-05 4.2670166e-05 4.2768574e-05 4.2808042e-05 4.2808042e-05
4.2808042e-05 4.2808042e-05 4.2808042e-05 4.2807897e-05 4.28321e-05 4.299833e-05 4.2730724e-05 4.1866548e-05
5.228635e-05 5.5779008e-05 4.836052e-05 4.417237e-05 4.995446e-05 4.85706e-05 4.864278e-05 6.538186e-05
6.0378665e-05 6.842528e-05 4.892876e-05 6.8916124e-05 8.498026e-05 6.352823e-05 5.5810437e-05 4.711481e-05
4.2982192e-05 4.2804175e-05 4.2808042e-05 4.2808042e-05 4.2808042e-05 4.2808042e-05 4.2812208e-05 4.2805605e-05
4.3137894e-05 4.5274624e-05 4.375243e-05 3.403918e-05 4.4542234e-05 5.415889e-05 4.2006614e-05 2.025528e-05
1.2681717e-05 5.661788e-06 -8.766753e-06 3.082505e-05 6.5350374e-05 8.25512e-05 9.018598e-05 9.106848e-05
0.00011766897 0.00010980855 9.559986e-05 8.7444714e-05 4.964738e-05 4.3032782e-05 4.2810792e-05 4.2808042e-05
4.2808042e-05 4.2808042e-05 4.2809086e-05 4.284137e-05 4.3330587e-05 4.4202156e-05 4.4243603e-05 5.5088924e-05
5.7754718e-05 3.3831635e-05 2.1650758e-05 -1.6665875e-06 9.957552e-07 -4.7305643e-06 3.8648184e-05 6.0534283e-05
6.984968e-05 8.4680476e-05 0.00012978457 0.00012130596 0.0001227955 0.00010124952 1.6072256e-05 1.1939842e-05
4.7594942e-05 4.240897e-05 4.275951e-05 4.280773e-05 4.2808042e-05 4.2808042e-05 4.2820815e-05 4.280894e-05
4.36036e-05 4.403725e-05 4.774593e-05 7.809057e-05 4.9174298e-05 6.446823e-06 -8.106336e-06 -2.053961e-05
1.6817225e-05 6.914296e-05 0.000102623584 9.829784e-05 8.2611165e-05 3.3433364e-05 9.129972e-05 8.39089e-05
0.00011055567 7.672661e-05 -1.5149962e-05 -3.86832e-05 4.6709474e-08 1.1732597e-05 4.280975e-05 4.2807373e-05
4.220949e-05 4.2808042e-05 4.281027e-05 4.2806896e-05 4.3414973e-05 4.00301e-05 5.0791554e-05 7.8671656e-05
5.5375665e-05 2.316873e-05 1.0309175e-05 5.6864672e-05 0.00012858609 0.000118557924 0.00010197561 7.416729e-05
-2.7803882e-05 4.531428e-06 8.3033934e-05 9.2195034e-05 9.259831e-05 5.568738e-05 7.070313e-06 -9.948246e-06
2.933069e-05 3.505636e-05 4.2808042e-05 4.2808042e-05 4.2808042e-05 4.281714e-05 4.278959e-05 4.2804284e-05
00000000: c98c 3338 c98c 3338 c98c 3338 c98c 3338
00000010: c98c 3338 c98c 3338 c98c 3338 c98c 3338
00000020: c98c 3338 c98c 3338 c98c 3338 c98c 3338
00000030: c98c 3338 c98c 3338 c98c 3338 c98c 3338
00000040: c98c 3338 c98c 3338 c98c 3338 c98c 3338
00000050: c98c 3338 c98c 3338 c98c 3338 c98c 3338
00000060: c98c 3338 c98c 3338 c98c 3338 c98c 3338
00000070: c98c 3338 c98c 3338 c98c 3338 c98c 3338
00000080: c98c 3338 c98c 3338 c98c 3338 c98c 3338
00000090: c98c 3338 c98c 3338 c98c 3338 8134 3338
000000a0: 46de 3238 0d45 3338 265c 3438 ae6f 3238
000000b0: cfa3 2d38 95a9 3038 c98c 3338 c98c 3338
000000c0: c98c 3338 c98c 3338 c98c 3338 c98c 3338
000000d0: c98c 3338 c98c 3338 c98c 3338 c98c 3338
000000e0: c98c 3338 c98c 3338 c98c 3338 c18c 3338
000000f0: c68c 3338 c98c 3338 4572 3338 2784 3338
00000100: a78c 3338 c98c 3338 c98c 3338 2958 3338
00000110: 1857 3638 50e6 6338 2bce 4c38 a387 4438
00000120: 7431 5438 6e32 7c38 14f9 4a38 ec23 4138
00000130: e8c6 3638 c98c 3338 c98c 3338 c98c 3338
00000140: c98c 3338 c98c 3338 c98c 3338 c98c 3338
00000150: c98c 3338 c98c 3338 c98c 3338 b08c 3338
00000160: ba8c 3338 858c 3338 9d8c 3338 8857 3338
00000170: 900c 3838 3826 3838 b201 3138 367a 2638
00000180: 469c 3438 e28d 1038 d76d 4a38 4ab6 8b38
00000190: 640a 9b38 c513 bf38 6d8f 9f38 ae9e 4a38
000001a0: c15d 4538 7087 3c38 5d92 3438 5d37 3338
000001b0: bef8 3238 6862 3338 c98c 3338 c98c 3338
000001c0: c98c 3338 c98c 3338 c98c 3338 a18c 3338
000001d0: 9ea6 3338 1b59 3438 c439 3338 dd99 2f38
000001e0: 0a4e 5b38 41f4 6938 b7d6 4a38 b945 3938
000001f0: 3186 5138 49b8 4b38 ca05 4c38 9e1d 8938
00000200: 193f 7d38 8b7f 8f38 db38 4d38 1087 9038
00000210: 6e37 b238 753a 8538 0016 6a38 249d 4538
00000220: c747 3438 a288 3338 c98c 3338 c98c 3338
00000230: c98c 3338 c98c 3338 4291 3338 2b8a 3338
00000240: f6ee 3438 42e5 3d38 d082 3738 4bc5 0e38
00000250: dcd2 3a38 aa28 6338 4230 3038 e2e9 a937
00000260: 8fc3 5437 63fa bd36 eb14 13b7 254a 0138
00000270: b70c 8938 571f ad38 3b22 bd38 05fc be38
00000280: 0cc5 f638 0449 e638 c97c c838 8662 b738
00000290: 783c 5038 197e 3438 bd8f 3338 c98c 3338
000002a0: c98c 3338 c98c 3338 e88d 3338 92b0 3338
000002b0: ddbd 3538 b465 3938 3592 3938 480f 6738
000002c0: a83d 7238 71e6 0d38 a69e b537 83af dfb5
000002d0: e3a5 8535 3dbb 9eb6 2c1a 2238 31e6 7d38
000002e0: 437c 9238 7c96 b138 c816 0839 a465 fe38
000002f0: abc2 0039 ec55 d438 e8d2 8637 3b51 4837
00000300: aea0 4738 49e0 3138 ad58 3338 738c 3338
00000310: c98c 3338 c98c 3338 809a 3338 c08d 3338
00000320: 02e3 3638 a3b4 3838 cd42 4838 8ec4 a338
00000330: 8040 4e38 ca51 d836 7300 08b7 7a4c acb7
00000340: b712 8d37 d800 9138 9e37 d738 4025 ce38
00000350: 883f ad38 cd3a 0c38 2a78 bf38 3ff8 af38
00000360: 20da e738 49e8 a038 972c 7eb7 c53f 22b8
00000370: 9c9d 4833 1fd7 4437 9e8e 3338 118c 3338
00000380: 180a 3138 c98c 3338 2d8f 3338 8e8b 3338
00000390: 7918 3638 fee5 2738 0409 5538 86fc a438
000003a0: 2b43 6838 785a c237 92f5 2c37 fa81 6e38
000003b0: 11d5 0639 4da2 f838 bddb d538 438a 9b38
000003c0: 623c e9b7 ac0c 9836 8122 ae38 d558 c138
000003d0: 5731 c238 de91 6938 873d ed36 64e7 26b7
000003e0: 2d0b f637 7b09 1338 c98c 3338 c98c 3338
000003f0: c98c 3338 8e96 3338 f978 3338 c088 3338

exp_avg_sq f4 [30, 784]
4.4266707e-07 4.4266707e-07 4.4266707e-07 4.4266707e-07 4.4266707e-07 4.4266707e-07 4.4266707e-07 4.4266707e-07
4.4266707e-07 4.4266707e-07 4.4266707e-07 4.4266707e-07 4.4266707e-07 4.4266707e-07 4.4266707e-07 4.4266707e-07
4.4266707e-07 4.4266707e-07 4.4266707e-07 4.4266707e-07 4.4266707e-07 4.4266707e-07 4.4266707e-07 4.4266707e-07
4.4266707e-07 4.4266707e-07 4.4266707e-07 4.4266707e-07 4.4266707e-07 4.4266707e-07 4.4266707e-07 4.4266707e-07
4.4266707e-07 4.4266707e-07 4.4266707e-07 4.4266707e-07 4.4266707e-07 4.4266707e-07 4.4266707e-07 4.418548e-07
4.4111832e-07 4.420027e-07 4.428425e-07 4.432905e-07 4.4414662e-07 4.427763e-07 4.4266707e-07 4.4266707e-07
4.4266707e-07 4.4266707e-07 4.4266707e-07 4.4266707e-07 4.4266707e-07 4.4266707e-07 4.4266707e-07 4.4266707e-07
4.4266707e-07 4.4266707e-07 4.4266707e-07 4.426597e-07 4.426646e-07 4.4266707e-07 4.4233474e-07 4.4252994e-07
4.426584e-07 4.4266707e-07 4.4266707e-07 4.420361e-07 4.4040527e-07 4.409924e-07 4.4937073e-07 4.497879e-07
4.3996585e-07 4.4177239e-07 4.415553e-07 4.435984e-07 4.4296675e-07 4.4266707e-07 4.4266707e-07 4.4266707e-07
4.4266707e-07 4.4266707e-07 4.4266707e-07 4.4266707e-07 4.4266707e-07 4.4266707e-07 4.4249728e-07 4.4260509e-07
4.4265806e-07 4.4265323e-07 4.4265698e-07 4.4212678e-07 4.3874977e-07 4.3761278e-07 4.3975132e-07 4.374765e-07
4.136787e-07 4.034224e-07 4.0174615e-07 3.8904466e-07 3.6507595e-07 3.8187287e-07 4.103447e-07 4.193239e-07
4.3204034e-07 4.3248255e-07 4.3435267e-07 4.394617e-07 4.4342403e-07 4.4287333e-07 4.4266707e-07 4.4266707e-07
4.4266707e-07 4.4266707e-07 4.4208835e-07 4.4110337e-07 4.4087128e-07 4.3962544e-07 4.4040442e-07 4.4092587e-07
4.358255e-07 4.1713415e-07 3.9475677e-07 3.675763e-07 3.3138357e-07 3.122999e-07 2.587043e-07 2.108114e-07
2.0216675e-07 1.8008011e-07 1.8668868e-07 2.5271555e-07 3.426332e-07 3.759392e-07 3.902755e-07 4.2811104e-07
4.3967324e-07 4.4271857e-07 4.4266707e-07 4.4266707e-07 4.4266707e-07 4.4266707e-07 4.426003e-07 4.4112295e-07
4.4197137e-07 4.3934367e-07 4.26957e-07 4.233606e-07 4.0275535e-07 3.7504546e-07 3.6617135e-07 3.9428357e-07
4.526894e-07 3.9486955e-07 3.1773766e-07 4.652627e-07 7.3502247e-07 6.453221e-07 4.1237638e-07 2.6022732e-07
2.3131838e-07 3.112489e-07 3.5496956e-07 4.1119387e-07 4.3692816e-07 4.424285e-07 4.4265664e-07 4.4266707e-07
4.4266707e-07 4.4266707e-07 4.4267057e-07 4.4366848e-07 4.4190998e-07 4.3164704e-07 4.154311e-07 3.9548596e-07
3.5978962e-07 3.567539e-07 5.204036e-07 8.79075e-07 1.1514073e-06 1.0646392e-06 8.0794246e-07 8.982747e-07
1.2783679e-06 1.5766348e-06 1.347637e-06 1.0003574e-06 6.1232606e-07 3.5638456e-07 3.2618655e-07 3.9559802e-07
4.3565655e-07 4.4218382e-07 4.4254259e-07 4.4155786e-07 4.4266707e-07 4.4266707e-07 4.424942e-07 4.4194888e-07
4.4221082e-07 4.251865e-07 4.0897385e-07 3.7100284e-07 3.5299925e-07 5.352835e-07 1.1059137e-06 1.9137563e-06
2.274419e-06 1.6640371e-06 8.1255945e-07 6.3692113e-07 9.2667767e-07 1.616678e-06 2.1041694e-06 2.1539774e-06
1.6808699e-06 9.843806e-07 4.7081048e-07 3.4447515e-07 4.1287961e-07 4.3873257e-07 4.4250982e-07 4.4033902e-07
4.412235e-07 4.4266707e-07 4.4261841e-07 4.4265397e-07 4.4111917e-07 4.244076e-07 3.993566e-07 3.693544e-07
4.8157415e-07 1.0284914e-06 2.049735e-06 3.102776e-06 3.115309e-06 1.487117e-06 3.0816386e-07 1.1274573e-07
2.521165e-07 7.383988e-07 1.7996086e-06 2.9001048e-06 3.0845242e-06 2.097621e-06 8.979772e-07 3.651038e-07
3.863922e-07 4.4321504e-07 4.4266707e-07 4.4266707e-07 4.4266707e-07 4.426433e-07 4.426087e-07 4.426433e-07
00000000: b3a7 ed34 b3a7 ed34 b3a7 ed34 b3a7 ed34
00000010: b3a7 ed34 b3a7 ed34 b3a7 ed34 b3a7 ed34
00000020: b3a7 ed34 b3a7 ed34 b3a7 ed34 b3a7 ed34
00000030: b3a7 ed34 b3a7 ed34 b3a7 ed34 b3a7 ed34
00000040: b3a7 ed34 b3a7 ed34 b3a7 ed34 b3a7 ed34
00000050: b3a7 ed34 b3a7 ed34 b3a7 ed34 b3a7 ed34
00000060: b3a7 ed34 b3a7 ed34 b3a7 ed34 b3a7 ed34
00000070: b3a7 ed34 b3a7 ed34 b3a7 ed34 b3a7 ed34
00000080: b3a7 ed34 b3a7 ed34 b3a7 ed34 b3a7 ed34
00000090: b3a7 ed34 b3a7 ed34 b3a7 ed34 1038 ed34
000000a0: d7d2 ec34 634c ed34 cfbf ed34 62fd ed34
000000b0: 0c73 ee34 b6b6 ed34 b3a7 ed34 b3a7 ed34
000000c0: b3a7 ed34 b3a7 ed34 b3a7 ed34 b3a7 ed34
000000d0: b3a7 ed34 b3a7 ed34 b3a7 ed34 b3a7 ed34
000000e0: b3a7 ed34 b3a7 ed34 b3a7 ed34 b0a6 ed34
000000f0: 5ca7 ed34 b3a7 ed34 067a ed34 da94 ed34
00000100: 82a6 ed34 b3a7 ed34 b3a7 ed34 fb50 ed34
00000110: d770 ec34 89c1 ec34 0b41 f134 617a f134
00000120: 7234 ec34 bc2c ed34 e60e ed34 b327 ee34
00000130: e3d0 ed34 b3a7 ed34 b3a7 ed34 b3a7 ed34
00000140: b3a7 ed34 b3a7 ed34 b3a7 ed34 b3a7 ed34
00000150: b3a7 ed34 b3a7 ed34 5d90 ed34 2e9f ed34
00000160: 76a6 ed34 cca5 ed34 50a6 ed34 715d ed34
00000170: 4f8d eb34 0bf1 ea34 f616 ec34 50de ea34
00000180: 9117 de34 f495 d834 92af d734 e4dd d034
00000190: a8ff c334 3504 cd34 594d dc34 701f e134
000001a0: 2cf3 e734 f32f e834 fa30 e934 28ef eb34
000001b0: bc0f ee34 0cc4 ed34 b3a7 ed34 b3a7 ed34
000001c0: b3a7 ed34 b3a7 ed34 2958 ed34 c9d0 ec34
000001d0: e3b0 ec34 a905 ec34 b970 ec34 64b8 ec34
000001e0: 67fb e934 7bf2 df34 f5ee d334 4d57 c534
000001f0: 03e9 b134 2caa a734 0ce4 8a34 655b 6234
00000200: 2c13 5934 0b5c 4134 9874 4834 f6ac 8734
00000210: 26f3 b734 b1d4 c934 0e87 d134 22d7 e534
00000220: 3b0c ec34 c7ae ed34 b3a7 ed34 b3a7 ed34
00000230: b3a7 ed34 b3a7 ed34 869e ed34 7ad3 ec34
00000240: 1548 ed34 efde eb34 8638 e534 3d4a e334
00000250: 463a d834 db59 c934 3596 c434 ecad d334
00000260: 2809 f334 75fe d334 8895 aa34 38c9 f934
00000270: 5c4e 4535 323a 2d35 9464 dd34 5fb5 8b34
00000280: 5060 7834 b919 a734 a592 be34 0ec2 dc34
00000290: f392 ea34 e986 ed34 44a6 ed34 b3a7 ed34
000002a0: b3a7 ed34 b3a7 ed34 2ea8 ed34 5531 ee34
000002b0: a53f ed34 1ebd e734 6a08 df34 2d53 d434
000002c0: 1c29 c134 e287 bf34 ddb1 0b35 93f9 6b35
000002d0: 0e8a 9a35 b9e4 8e35 62e1 5835 f820 7135
000002e0: 6394 ab35 c29c d335 74e0 b435 0544 8635
000002f0: ba5e 2435 1f55 bf34 bd1e af34 9462 d434
00000300: 2ee4 e934 4865 ed34 9796 ed34 400f ed34
00000310: b3a7 ed34 b3a7 ed34 f18f ed34 fe44 ed34
00000320: fe68 ed34 3045 e434 f090 db34 3e2e c734
00000330: d983 bd34 67b0 0f35 e86e 9435 156e 0036
00000340: 39a2 1836 e157 df35 a91e 5a35 e3f8 2a35
00000350: cec0 7835 a2fc d835 5b35 0d36 0d8d 1036
00000360: 409a e135 0f1f 8435 b3c3 fc34 4ef0 b834
00000370: bea9 dd34 f28a eb34 1692 ed34 bc67 ec34
00000380: 4ce1 ec34 b3a7 ed34 03a1 ed34 e6a5 ed34
00000390: f5d2 ec34 23da e334 2767 d634 af4b c634
000003a0: 8645 0135 b20a 8a35 2e8e 0936 4939 5036
000003b0: 9a10 5136 f398 c735 b871 a534 9f1e f233
000003c0: a15a 8734 6136 4635 158a f135 6c9f 4236
000003d0: b9ff 4e36 dbc4 0c36 860c 7135 7c03 c434
000003e0: 5771 cf34 03f3 ed34 b3a7 ed34 b3a7 ed34
000003f0: b3a7 ed34 6fa4 ed34 ad9f ed34 6fa4 ed34

exp_avg f4 [30]
-4.2808042e-05 4.24522e-15 6.089115e-05 2.5135807e-17 -3.7235335e-05 6.3726126e-15 -5.447076e-05 -2.9019848e-05
-3.0377058e-05 -3.9137252e-05 -6.811034e-05 4.723808e-15 0.0 -6.6625485e-05 -3.6329406e-05 1.4378872e-15
2.8675305e-15 3.4019256e-05 -4.513531e-05 -3.3919285e-05 3.178027e-15 1.1010564e-15 2.619699e-05 6.810268e-05
0.0 1.572569e-15 8.113789e-15 6.612622e-15 6.505571e-05 -3.3774693e-05
00000000: c98c 33b8 3ef3 9827 6065 7f38 3fd6 e723
00000010: 232d 1cb8 fa98 e527 8877 64b8 a66f f3b7
00000020: 3cd2 feb7 4e27 24b8 76d6 8eb8 7031 aa27
00000030: 0000 0000 49b9 8bb8 6760 18b8 ad38 cf26
00000040: 9aa0 4e27 e6af 0e38 ac4f 3db8 8e44 0eb8
00000050: 4000 6527 d0ad 9e26 9cc1 db37 59d2 8e38
00000060: 0000 0000 8ea1 e226 3f2a 1228 ac3e ee27
00000070: 856e 8838 4da9 0db8

exp_avg_sq f4 [30]
4.4266707e-07 8.606759e-08 1.4310136e-06 3.855182e-12 1.7079054e-07 1.7287793e-07 1.3822065e-06 9.146268e-08
9.3327465e-08 4.7637576e-07 1.5695315e-06 1.0896915e-07 0.0 1.7366676e-06 1.4727931e-07 9.8738955e-09
3.926948e-08 3.2501728e-07 6.839276e-07 3.641432e-08 4.5996323e-08 1.395899e-08 8.808072e-08 1.5321413e-06
0.0 1.118554e-08 1.3816921e-07 1.948034e-07 2.363847e-06 1.3615308e-07
00000000: b3a7 ed34 28d4 b833 4111 c035 64a4 872c
00000010: 8c62 3734 53a0 3934 4184 b935 246a c433
00000020: 516b c833 96c0 ff34 b1a8 d235 6c02 ea33
00000030: 0000 0000 7217 e935 d423 1e34 daa1 2932
00000040: 40a9 2833 097e ae34 2697 3735 f865 1c33
00000050: 7e8d 4533 4ad0 6f32 e326 bd33 f9a3 cd35
00000060: 0000 0000 862a 4032 aa5b 1434 272b 5134
00000070: 95a2 1e36 7931 1234

exp_avg f4 [2, 30]
-0.003171182 1.1943785e-15 0.0015573035 1.989997e-14 -0.0036729053 -1.0136713e-14 -0.002985618 -0.0036713895
-0.0037472793 -0.0031888655 -0.0026671707 1.4520542e-14 0.0 -0.003079403 -0.0037560002 -3.5779726e-15
-2.425717e-15 0.0019017314 -0.0031037652 -0.007078376 -5.6683267e-15 9.658671e-15 0.0030413698 0.001377237
0.0 -1.2621878e-14 -6.7313824e-14 -7.797859e-15 0.0011849789 -0.00379792 0.0031711974 -1.1943785e-15
-0.0015573034 -1.989997e-14 0.0036729204 1.0136713e-14 0.0029856337 0.0036714072 0.003747296 0.0031888795
0.002667185 -1.4520542e-14 0.0 0.0030794188 0.0037560144 3.5779726e-15 2.425717e-15 -0.0019017311
0.0031037799 0.007078396 5.6683267e-15 -9.658671e-15 -0.0030413705 -0.0013772368 0.0 1.2621878e-14
6.7313824e-14 7.797859e-15 -0.0011849784 0.0037979353
00000000: 9bd3 4fbb ca20 ac26 6f1e cc3a 353e b328
00000010: 20b5 70bb 569b 36a8 5caa 43bb b29b 70bb
00000020: ea94 75bb 49fc 50bb b3cb 2ebb 17ca 8228
00000030: 0000 0000 cfcf 49bb 3a27 76bb f9e8 80a7
00000040: 95ca 2ea7 8443 f93a 8a68 4bbb b9f1 e7bb
00000050: 1639 cca7 c2fe 2d28 b851 473b 6884 b43a
00000060: 0000 0000 2360 63a8 c793 97a9 4779 0ca8
00000070: 4b51 9b3a 86e6 78bb ddd3 4f3b ca20 aca6
00000080: 6e1e ccba 353e b3a8 61b5 703b 569b 3628
00000090: 9faa 433b fe9b 703b 3295 753b 85fc 503b
000000a0: f0cb 2e3b 17ca 82a8 0000 0000 13d0 493b
000000b0: 7727 763b f9e8 8027 95ca 2e27 8243 f9ba
000000c0: c968 4b3b e4f1 e73b 1639 cc27 c2fe 2da8
000000d0: bb51 47bb 6684 b4ba 0000 0000 2360 6328
000000e0: c793 9729 4779 0c28 4751 9bba c8e6 783b

exp_avg_sq f4 [2, 30]
0.00059004663 6.812764e-09 0.00047019921 1.890706e-06 0.00031528214 4.8880855e-07 0.0006620597 0.00056789134
0.00048094604 0.00031700017 0.0002905763 1.0116194e-06 0.0 0.0006120661 0.00030164057 6.113827e-08
2.8100866e-08 0.0007057381 0.0002899915 0.0004070864 1.5174784e-07 6.2540005e-07 0.0006397955 0.0003324141
0.0 7.476458e-07 1.4480766e-05 2.8477268e-07 0.00061600783 0.0004222489 0.00059004663 6.812764e-09
0.00047019913 1.8907067e-06 0.00031528214 4.8880884e-07 0.0006620595 0.0005678915 0.00048094586 0.00031700017
0.0002905763 1.0116195e-06 0.0 0.0006120662 0.0003016406 6.113827e-08 2.810087e-08 0.00070573826
0.00028999147 0.0004070863 1.5174788e-07 6.2540005e-07 0.0006397955 0.00033241406 0.0 7.476457e-07
1.4480766e-05 2.8477268e-07 0.0006160077 0.00042224888
00000000: 5cad 1a3a b515 ea31 1285 f639 2ac4 fd35
00000010: 744c a539 ab36 0335 138e 2d3a 8bde 143a
00000020: 7c27 fc39 0b33 a639 7e58 9839 fac6 8735
00000030: 0000 0000 1073 203a 8325 9e39 1f4b 8333
00000040: 7562 f132 4801 393a 000a 9839 366e d539
00000050: 21f0 2234 2ae1 2735 f3b7 273a de47 ae39
00000060: 0000 0000 d4b1 4835 6bf2 7237 dce2 9834
00000070: 967b 213a 4a61 dd39 5cad 1a3a b515 ea31
00000080: 0f85 f639 30c4 fd35 744c a539 b036 0335
00000090: 108e 2d3a 8ede 143a 7627 fc39 0b33 a639
000000a0: 7e58 9839 fbc6 8735 0000 0000 1173 203a
000000b0: 8425 9e39 1f4b 8333 7762 f132 4b01 393a
000000c0: ff09 9839 336e d539 24f0 2234 2ae1 2735
000000d0: f3b7 273a dc47 ae39 0000 0000 d2b1 4835
000000e0: 6bf2 7237 dce2 9834 947b 213a 4961 dd39

exp_avg f4 [2]
-0.00020412105 0.00020412142
00000000: 5409 56b9 6d09 5639

exp_avg_sq f4 [2]
2.759631e-05 2.7596305e-05
00000000: a07e e737 9d7e e737
