nesy/hcrc3yzq/checkpoints/epoch=5-step=150.ckpt (torch, 290467 bytes, 12 tensors)

neural_predicates.digit.net.0.weight f4 [30, 784]
0.003881642 -0.037246395 -0.010565919 -0.02193251 -0.026935838 -0.0013186677 0.024078118 -0.03914196
-0.013803329 -0.027241474 -0.04101271 0.010319152 0.025835808 -0.02882979 -0.008140162 0.008498222
-0.030897213 0.01702745 -0.008652467 -0.0072481507 -0.021395192 -0.030688528 0.013718204 -0.03647477
-0.029023888 -0.0056294585 -0.021527436 -0.014649178 0.014901276 0.011577984 -0.014501183 -0.040450376
-0.032900337 0.024531903 -0.032539558 -0.020153565 -0.042631842 -0.032867663 -0.0124722505 -0.001204876
-0.0045297057 -0.04471562 -0.025637414 -0.0350196 -0.04125676 -0.03980366 0.024649132 -0.0064332928
0.0050521153 -0.03844679 -0.019336639 0.024441974 -0.014219363 -0.006327249 -0.03433708 0.022208257
0.024378654 -0.044555165 -0.030352753 -0.03985351 0.021354752 0.020350961 -0.0046196203 0.021045037
-0.045057796 0.02420617 -0.0026574698 0.0036480816 0.016474267 0.005760272 -0.023513796 -0.013289558
-0.005036982 -0.021741426 -0.044212583 -0.03723187 0.017934509 -0.014908158 0.0072001787 -0.014732557
0.012200024 0.017709687 0.023533903 -0.030223956 0.013136657 0.01746332 0.012591836 0.018200142
0.010737266 -0.029887581 0.011069392 -0.007912928 0.011331799 -0.033584114 -0.019374646 0.016467983
-0.018580487 0.018042868 -0.0031406828 -0.026803434 0.012246202 -0.036776077 0.010945119 0.021112673
-0.0004906242 -0.011420154 0.005244918 0.0019907265 -0.010826013 -0.0032241126 -0.030906549 -0.034825545
-0.03985967 -0.039400633 0.0069766697 -0.01750327 0.02430861 0.01815441 -0.025394814 -0.044902153
-0.011172229 0.017927852 0.015469099 -0.019902315 -0.038658693 0.014917706 -0.048537523 -0.047975246
-0.037513793 -0.031561654 -0.0162466 0.019902052 0.012127789 -0.031924218 -0.041127644 0.019124378
-0.006152309 -0.015352732 -0.030626344 -0.012494229 0.0039809044 0.0011159119 0.0055917786 0.0031477816
0.0011157187 -0.006229158 0.023928557 -0.019023828 0.018458879 0.007836166 0.0057197334 0.0032645029
0.023537857 0.0025847314 -0.0043544024 0.014922603 -0.012883243 0.0028713783 -0.0016854887 -0.013660896
-0.021415599 -0.017334986 0.015717559 0.020132687 -0.014547061 -0.00444431 -0.024339143 0.007419405
0.01738553 -0.03625511 -0.015708487 -0.02544869 -0.0139086945 0.0014308945 0.012718588 -0.0155771095
-0.026971672 -0.030797062 0.004268067 0.0046438663 -0.011329626 -0.020690093 0.009743633 0.045722406
0.009188986 -0.0012827619 0.021300092 0.01659039 -0.0046792338 -0.026996799 -0.022521175 0.009938195
-0.006070002 0.003997197 0.0041297274 -0.011499484 0.0043792315 -0.03936211 0.021857066 -0.030102467
0.0046151374 -0.045351796 0.021329619 -0.022778975 -0.0143816285 -0.0013964949 -0.009051973 0.032762732
0.03864139 -0.026512265 0.02093684 -0.01779417 0.023174351 0.036582004 -0.0061821286 0.031773444
-0.019220682 0.00023748857 0.013677352 0.010609307 -0.028934268 0.005421772 -0.017289722 -0.01784166
0.017938139 -0.013614089 0.015923135 0.008171296 -0.016645612 0.011118067 -0.044007808 -0.019453904
0.02631406 -0.010898183 -0.006387335 -0.01936986 0.0013368466 0.007835205 -0.024729844 -0.011302354
0.031733166 -0.0060307626 0.034021974 0.035536453 0.023850936 0.008123803 -0.0012633167 0.02486386
0.025846556 -0.0057333554 -0.04066321 0.016471013 -0.041636284 0.01727611 -0.0050476855 -0.027028028
00000000: 2563 7e3b ad8f 18bd ad1c 2dbc cfab b3bc
00000010: 8ca8 dcbc 25d7 acba 793f c53c 5253 20bd
00000020: 5c27 62bc 8329 dfbc f2fc 27bd a911 293c
00000030: 9ea5 d33c 742c ecbc 505e 05bc 203c 0b3c
00000040: 271c fdbc 277d 8b3c 14c3 0dbc e581 edbb
00000050: f844 afbc 8266 fbbc 51c2 603c 9266 15bd
00000060: 81c3 edbc 5277 b8bb 4e5a b0bc 1b03 70bc
00000070: 7b24 743c 96b1 3d3c 5f96 6dbc 4baf 25bd
00000080: 81c2 06bd 21f7 c83c 3348 05bd 1719 a5bc
00000090: ba9e 2ebd 3ea0 06bd 6958 4cbc eeec 9dba
000000a0: ed6d 94bb ba27 37bd 8e05 d2bc b670 0fbd
000000b0: d9fc 28bd 2a09 23bd faec c93c 5fce d2bb
000000c0: 378c a53b 627a 1dbd df67 9ebc 893a c83c
000000d0: 55f8 68bc d054 cfbb 0aa5 0cbd 17ee b53c
000000e0: beb5 c73c 7a7f 36bd 56a6 f8bc 6f3d 23bd
000000f0: 29f0 ae3c 0fb7 a63c 2f60 97bb a466 ac3c
00000100: 868e 38bd 054c c63c f228 2ebb a714 6f3b
00000110: 0bf5 863c aac0 bc3b 01a0 c0bc 72bc 59bc
00000120: 440d a5bb 131b b2bc 4118 35bd 7280 18bd
00000130: 64eb 923c 5941 74bc 7aef eb3b d360 71bc
00000140: 9ce2 473c e813 913c 2cca c03c 3b98 f7bc
00000150: 223b 573c 3d0f 8f3c fd4d 4e3c 7718 953c
00000160: 5ceb 2f3c cdd6 f4bc 655c 353c 3aa5 01bc
00000170: 03a9 393c 7f8f 09bd 94b7 9ebc dde7 863c
00000180: 1b36 98bc a3ce 933c ead3 4dbb e092 dbbc
00000190: 4ba4 483c 83a2 16bd 2853 333c 7cf4 ac3c
000001a0: 3c9d 00ba 991b 3bbc 90dd ab3b d976 023b
000001b0: 975f 31bc a24b 53bb bb2f fdbc 3ba5 0ebd
000001c0: e543 23bd 8f62 21bd 8c9c e43b 0563 8fbc
000001d0: da22 c73c 8fb8 943c c908 d0bc 52eb 37bd
000001e0: ba0b 37bc 6edd 923c 1b72 7d3c 2e0a a3bc
000001f0: 9458 1ebd 6569 743c 48cf 46bd b181 44bd
00000200: 10a8 19bd cb46 01bd 9717 85bc a109 a33c
00000210: a2b3 463c f8c2 02bd 7675 28bd baaa 9c3c
00000220: 4f99 c9bb 068a 7bbc 19e4 fabc 98b4 4cbc
00000230: 3f72 823b ca43 923a 3d3b b73b 034b 4e3b
00000240: 4f3d 923a f71d ccbb d205 c43c dcd7 9bbc
00000250: 1337 973c 4363 003c 9a6c bb3b 45f1 553b
00000260: 77d2 c03c 9964 293b 60af 8ebb ef7d 743c
00000270: 3d14 53bc bc2d 3c3b 9eeb dcba f3d1 5fbc
00000280: c46f afbc 1a02 8ebc 1cc2 803c 4eed a43c
00000290: cc56 6ebc 93a1 91bb e262 c7bc 7b1e f33b
000002a0: 196c 8e3c 3d80 14bd 16af 80bc c579 d0bc
000002b0: 4be1 63bc da8c bb3a a061 503c 2237 7fbc
000002c0: b2f3 dcbc 1f4a fcbc 24db 8b3b 932b 983b
000002d0: e59f 39bc 457e a9bc c2a3 1f3c 6b47 3b3d
000002e0: 678d 163c 5922 a8ba 887d ae3c 92e8 873c
000002f0: 4254 99bb 6428 ddbc 547e b8bc d0d3 223c
00000300: dee6 c6bb ebfa 823b aa52 873b 5568 3cbc
00000310: a87f 8f3b 2a3a 21bd 970d b33c 7399 f6bc
00000320: 943a 973b cec2 39bd 74bb ae3c f99a babc
00000330: eca0 6bbc 980a b7ba ba4e 14bc 3732 063d
00000340: 6f46 1e3d 4030 d9bc bc83 ab3c 14c5 91bc
00000350: 23d8 bd3c 03d7 153d 7493 cabb df24 023d
00000360: b174 9dbc 5a06 7939 f916 603c a9d2 2d3c
00000370: 8f07 edbc 1fa9 b13b 2da3 8dbc ac28 92bc
00000380: 01f3 923c a10d 5fbc 3c71 823c e6e0 053c
00000390: 615c 88bc 8e28 363c 8841 34bd cb5d 9fbc
000003a0: 9590 d73c 4b8e 32bc d94c d1bb 8aad 9ebc
000003b0: 2139 af3a 3b5f 003c 3e96 cabc 822d 39bc
000003c0: a3fa 013d b49d c5bb a05a 0b3d ac8e 113d
000003d0: 0a63 c33c b319 053c e095 a5ba 4baf cb3c
000003e0: 28bc d33c dfde bbbb 778e 26bd 38ee 863c
000003f0: cf8a 2abd a186 8d3c 0e67 a5bb e269 ddbc

neural_predicates.digit.net.0.bias f4 [30]
0.00012832569 0.019396242 0.0084867375 -0.03434403 0.032987397 -0.020605013 0.02601009 -0.032851037
0.03525815 -0.009044673 -0.0007176486 -0.012257791 0.012882353 0.0057664183 -0.035683174 0.00403102
0.031073907 -0.020172143 0.018361561 -0.028747369 -0.037439317 0.017403342 -0.021923361 0.015447208
-0.016751084 0.0066646268 -0.00467328 0.029956624 -0.014672516 0.021567332
00000000: 2a8f 0639 dee4 9e3c f50b 0b3c 53ac 0cbd
00000010: cb1d 073d d8cb a8bc 1d13 d53c cf8e 06bd
00000020: da6a 103d 1c30 14bc 9520 3cba e7d4 48bc
00000030: 8110 533c 39f4 bc3b 8528 12bd a616 843b
00000040: b58e fe3c 0d40 a5bc fc6a 963c 9a7f ebbc
00000050: f859 19bd 7491 8e3c 9f98 b3bc 4916 7d3c
00000060: 9239 89bc f162 da3b 5022 99bb 9867 f53c
00000070: fe64 70bc f9ad b03c

neural_predicates.digit.net.2.weight f4 [2, 30]
0.10869103 0.13859876 -0.12551408 -0.013310868 0.060071886 -0.010863992 -0.05460727 -0.08158471
0.06649572 0.18617404 -0.15968998 -0.2107781 -0.04246481 -0.0014101962 -0.2023607 0.1091068
0.15255295 0.11988438 -0.21971707 0.032546885 -0.13619553 -0.15288444 0.19088405 -0.09913299
0.20210433 -0.076317765 -0.15229554 0.123670295 -0.10757694 -0.0966743 -0.21035717 -0.010705872
-0.21366535 0.16012484 -0.17873873 0.025321513 0.20081843 -0.07935187 0.2055422 -0.066473395
0.07702094 0.14322715 0.15368293 0.03714678 0.064068794 -0.12904675 -0.025672166 -0.10001643
0.05172197 0.021180477 0.08119412 -0.18281884 -0.20683123 0.18708743 -0.12817124 0.05641739
-0.0375046 -0.0068868576 0.117276944 0.11987322
00000000: 6799 de3d d5ec 0d3e c386 00be d415 5abc
00000010: f00d 763d e3fe 31bc dfab 5fbd e215 a7bd
00000020: e82e 883d 68a4 3e3e c585 23be 37d6 57be
00000030: 95ef 2dbd 55d6 b8ba a537 4fbe 6373 df3d
00000040: d736 1c3e f185 f53d 83fd 60be e24f 053d
00000050: d776 0bbe bd8d 1cbe 1c77 433e 3d06 cbbd
00000060: 70f4 4e3e 7d4c 9cbd 5df3 1bbe da46 fd3d
00000070: 4c51 dcbd 2dfd c5bd df67 57be af67 2fbc
00000080: 17cb 5abe c4f7 233e 4907 37be 106f cf3c
00000090: 59a3 4d3e 3c83 a2bd a879 523e 3423 88bd
000000a0: 28bd 9d3d 23aa 123e 0f5f 1d3e 3927 183d
000000b0: 8036 833d d524 04be 6f4e d2bc 6ad5 ccbd
000000c0: 6bda 533d ae82 ad3c 1a49 a63d dd34 3bbe
000000d0: 91cb 53be d993 3f3e 523f 03be ec15 673d
000000e0: 6c9e 19bd 26ab e1bb e52e f03d 1780 f53d

neural_predicates.digit.net.2.bias f4 [2]
0.12974168 0.034379125
00000000: 01db 043e 20d1 0c3d

exp_avg f4 [30, 784]
0.00022914042 0.00022914042 0.00022914042 0.00022914042 0.00022914042 0.00022914042 0.00022914042 0.00022914042
0.00022914042 0.00022914042 0.00022914042 0.00022914042 0.00022914042 0.00022914042 0.00022914042 0.00022914042
0.00022914042 0.00022914042 0.00022914042 0.00022914042 0.00022914042 0.00022914042 0.00022914042 0.00022914042
0.00022914042 0.00022914042 0.00022914042 0.00022914042 0.00022914042 0.00022914042 0.00022914042 0.00022914042
0.00022914042 0.00022914042 0.00022914042 0.00022914042 0.00022914042 0.00022914042 0.00022914042 0.00022876861
0.0002284055 0.00022883834 0.00022959033 0.00022569117 0.0002179869 0.00022379048 0.00022914042 0.00022914042
0.00022914042 0.00022914042 0.00022914042 0.00022914042 0.00022914042 0.00022914042 0.00022914042 0.00022914042
0.00022914042 0.00022914042 0.00022914042 0.00022914023 0.00022914034 0.00022914042 0.00022907916 0.0002291195
0.0002291399 0.00022914042 0.00022914566 0.0002289825 0.00023318564 0.00029005215 0.00025190372 0.00024035091
0.0002560601 0.00028838983 0.00024411114 0.00023105294 0.00022959452 0.00022914042 0.00022914042 0.00022914042
0.00022914042 0.00022914042 0.00022914042 0.00022914042 0.00022914042 0.00022914042 0.00022914365 0.0002291406
0.00022914023 0.00022914007 0.00022914023 0.00022904747 0.00023317368 0.00023333209 0.00022832782 0.000220422
0.00024569948 0.00028850883 0.00033205433 0.00027945405 0.0002963344 0.00030599703 0.00026015862 0.00022941262
0.00023323047 0.00022879466 0.00022658597 0.0002291701 0.00022911183 0.00022913223 0.00022914042 0.00022914042
0.00022914042 0.00022914042 0.00022915141 0.00022914288 0.00022925212 0.00023021133 0.00022939987 0.00022979015
0.00027036475 0.00028099047 0.00024866598 0.00023536694 0.00026876142 0.0003304879 0.0003014622 0.00033127045
0.0003352266 0.000310644 0.00014612734 0.00012596398 0.00030500448 0.0003306866 0.0002761898 0.0002445853
0.0002295173 0.00022913926 0.00022914042 0.00022914042 0.00022914042 0.00022914042 0.0002291481 0.00022912474
0.0002294881 0.0002337058 0.00023310623 0.00023333776 0.00029204064 0.00032983243 0.00024831085 0.00019182682
0.00019264265 0.0001885915 4.9616378e-05 0.00013368919 0.00028586082 0.00015660239 0.0001036043 0.0001759177
0.0003690634 0.0004703667 0.00044141474 0.00036162164 0.00025715883 0.00022921806 0.00022914795 0.00022914042
0.00022914042 0.00022914042 0.00022914195 0.00022924127 0.00022966025 0.000230985 0.00026935994 0.00032415387
0.00033044652 0.0002505947 0.00017541063 0.00015514335 0.00017284589 0.00013125499 0.00013214053 0.000103340666
5.4778167e-05 4.2979795e-05 0.00021364892 0.0002922509 0.00041106576 0.00037000544 0.00027885137 0.00025627122
0.00026864774 0.00022857545 0.00022902763 0.00022913975 0.00022914042 0.00022914042 0.00022916656 0.0002291415
0.00023241637 0.0002446764 0.00031957182 0.00041054984 0.0002976411 0.0001487303 0.00010631055 8.805724e-05
0.00019607786 0.00024637097 0.0002477576 0.00011613712 -4.5709512e-05 -5.028592e-05 0.00014497008 0.000259507
0.00039407884 0.0003359324 0.00013782686 0.0001321145 0.00020578696 0.00019200341 0.00022914767 0.00022913898
0.00022748446 0.00022914042 0.00022914326 0.00022913591 0.00023211824 0.00022762055 0.0003009975 0.00039789587
0.00030253053 0.00019825295 0.0001427994 0.00019049528 0.00031532327 0.00030482045 0.00033515334 7.17662e-05
-0.00023915844 -0.00017241649 4.634117e-05 0.000272722 0.00036493535 0.0003251875 0.00016628952 0.00012491448
0.00021825529 0.00022260104 0.00022914042 0.00022914042 0.00022914042 0.00022915316 0.00022890224 0.00022908617
00000000: 6a45 7039 6a45 7039 6a45 7039 6a45 7039
00000010: 6a45 7039 6a45 7039 6a45 7039 6a45 7039
00000020: 6a45 7039 6a45 7039 6a45 7039 6a45 7039
00000030: 6a45 7039 6a45 7039 6a45 7039 6a45 7039
00000040: 6a45 7039 6a45 7039 6a45 7039 6a45 7039
00000050: 6a45 7039 6a45 7039 6a45 7039 6a45 7039
00000060: 6a45 7039 6a45 7039 6a45 7039 6a45 7039
00000070: 6a45 7039 6a45 7039 6a45 7039 6a45 7039
00000080: 6a45 7039 6a45 7039 6a45 7039 6a45 7039
00000090: 6a45 7039 6a45 7039 6a45 7039 9be1 6f39
000000a0: 2280 6f39 53f4 6f39 2fbe 7039 83a7 6c39
000000b0: 6a93 6439 4da9 6a39 6a45 7039 6a45 7039
000000c0: 6a45 7039 6a45 7039 6a45 7039 6a45 7039
000000d0: 6a45 7039 6a45 7039 6a45 7039 6a45 7039
000000e0: 6a45 7039 6a45 7039 6a45 7039 5d45 7039
000000f0: 6445 7039 6a45 7039 f834 7039 cc3f 7039
00000100: 4645 7039 6a45 7039 d246 7039 061b 7039
00000110: 4b83 7439 2412 9839 f211 8439 b506 7c39
00000120: ce3f 8639 0733 9739 16f8 7f39 cd46 7239
00000130: 4fbf 7039 6a45 7039 6a45 7039 6a45 7039
00000140: 6a45 7039 6a45 7039 6a45 7039 6a45 7039
00000150: 6a45 7039 6a45 7039 4846 7039 7645 7039
00000160: 5d45 7039 5245 7039 5d45 7039 762c 7039
00000170: 1580 7439 9baa 7439 486b 6f39 1521 6739
00000180: 3ad1 8039 0043 9739 9417 ae39 b083 9239
00000190: 545d 9b39 3a6e a039 e665 8839 7b8e 7039
000001a0: 548f 7439 99e8 6f39 b597 6d39 614d 7039
000001b0: bd3d 7039 3743 7039 6a45 7039 6a45 7039
000001c0: 6a45 7039 6a45 7039 5d48 7039 1346 7039
000001d0: 6663 7039 e264 7139 0f8b 7039 d3f3 7039
000001e0: bebf 8d39 e751 9339 625f 8239 d5cc 7639
000001f0: 8ce8 8c39 5645 ad39 920d 9e39 5eae ad39
00000200: 5ac1 af39 efdd a239 c239 1939 3315 0439
00000210: 02e9 9f39 0160 ad39 91cd 9039 af3b 8039
00000220: 95aa 7039 1a45 7039 6a45 7039 6a45 7039
00000230: 6a45 7039 6a45 7039 7a47 7039 3441 7039
00000240: bea2 7039 ec0e 7539 fa6d 7439 21ac 7439
00000250: 081d 9939 5ced ac39 b82f 8239 1f25 4939
00000260: 1e00 4a39 a5c0 4539 2e1b 5038 eb2e 0c39
00000270: 97df 9539 a235 2439 2346 d938 8c76 3839
00000280: da7e c139 8d9b f639 af6d e739 0998 bd39
00000290: 46d3 8639 415a 7039 6f47 7039 6a45 7039
000002a0: 6a45 7039 6a45 7039 d345 7039 7c60 7039
000002b0: f4d0 7039 9034 7239 e138 8d39 32f3 a939
000002c0: c83f ad39 4062 8339 6fee 3739 faad 2239
000002d0: f73d 3539 7ea1 0939 348f 0a39 99b8 d838
000002e0: 9cc1 6538 3445 3438 f206 6039 4039 9939
000002f0: 5084 d739 4afd c139 cc32 9239 245c 8639
00000300: 4ad9 8c39 c1ad 6f39 2327 7039 3c45 7039
00000310: 6a45 7039 6a45 7039 6e4c 7039 b445 7039
00000320: cbb4 7339 e947 8039 348c a739 113f d739
00000330: b60c 9c39 7cf4 1b39 0bf3 de38 5fab b838
00000340: 409a 4d39 5a2b 8139 76e5 8139 a48e f338
00000350: 37b8 3fb8 18ea 52b8 1c03 1839 710e 8839
00000360: 5e9c ce39 1520 b039 9e85 1039 3788 0a39
00000370: 84c8 5739 8654 4939 5c47 7039 0745 7039
00000380: e588 6e39 6a45 7039 2d46 7039 3444 7039
00000390: c464 7339 6dad 6e39 33cf 9d39 ae9c d039
000003a0: f69c 9e39 1fe2 4f39 6cbc 1539 b0bf 4739
000003b0: f951 a539 4fd0 9f39 85b7 af39 2f81 9638
000003c0: 9bc6 7ab9 b3ca 34b9 745e 4238 21fc 8e39
000003d0: cb54 bf39 ed7d aa39 015e 2e39 7afb 0239
000003e0: 75db 6439 036a 6939 6a45 7039 6a45 7039
000003f0: 6a45 7039 d548 7039 7a05 7039 da36 7039

exp_avg_sq f4 [30, 784]
2.6003013e-06 2.6003013e-06 2.6003013e-06 2.6003013e-06 2.6003013e-06 2.6003013e-06 2.6003013e-06 2.6003013e-06
2.6003013e-06 2.6003013e-06 2.6003013e-06 2.6003013e-06 2.6003013e-06 2.6003013e-06 2.6003013e-06 2.6003013e-06
2.6003013e-06 2.6003013e-06 2.6003013e-06 2.6003013e-06 2.6003013e-06 2.6003013e-06 2.6003013e-06 2.6003013e-06
2.6003013e-06 2.6003013e-06 2.6003013e-06 2.6003013e-06 2.6003013e-06 2.6003013e-06 2.6003013e-06 2.6003013e-06
2.6003013e-06 2.6003013e-06 2.6003013e-06 2.6003013e-06 2.6003013e-06 2.6003013e-06 2.6003013e-06 2.5984966e-06
2.59706e-06 2.59881e-06 2.600565e-06 2.5996874e-06 2.602694e-06 2.5990778e-06 2.6003013e-06 2.6003013e-06
2.6003013e-06 2.6003013e-06 2.6003013e-06 2.6003013e-06 2.6003013e-06 2.6003013e-06 2.6003013e-06 2.6003013e-06
2.6003013e-06 2.6003013e-06 2.6003013e-06 2.597523e-06 2.5993431e-06 2.6003013e-06 2.6002826e-06 2.5997595e-06
2.600163e-06 2.6003013e-06 2.6003038e-06 2.5989934e-06 2.5973757e-06 2.6043842e-06 2.6276628e-06 2.6417931e-06
2.5980585e-06 2.5886022e-06 2.593983e-06 2.5987094e-06 2.5997633e-06 2.6003013e-06 2.6003013e-06 2.6003013e-06
2.6003013e-06 2.6003013e-06 2.6003013e-06 2.6003013e-06 2.6003013e-06 2.6003013e-06 2.6002992e-06 2.5922707e-06
2.5976196e-06 2.600301e-06 2.6003008e-06 2.5993188e-06 2.5660634e-06 2.5921659e-06 2.6001806e-06 2.5663994e-06
2.5575105e-06 2.5111635e-06 2.4896876e-06 2.3926127e-06 2.4156172e-06 2.4305416e-06 2.4762553e-06 2.52322e-06
2.5604108e-06 2.5253826e-06 2.5533234e-06 2.597667e-06 2.600321e-06 2.6003077e-06 2.6003013e-06 2.6003013e-06
2.6003013e-06 2.6003013e-06 2.600294e-06 2.5999866e-06 2.600223e-06 2.5987242e-06 2.571853e-06 2.598017e-06
2.5724864e-06 2.4787066e-06 2.3662808e-06 2.0708108e-06 1.6592609e-06 1.1687789e-06 8.382247e-07 6.688481e-07
7.64538e-07 9.716296e-07 1.2963341e-06 1.7827143e-06 2.1537699e-06 2.2322693e-06 2.3382333e-06 2.4816393e-06
2.5518195e-06 2.5990935e-06 2.6003013e-06 2.6003013e-06 2.6003013e-06 2.6003013e-06 2.598509e-06 2.5986767e-06
2.6002979e-06 2.6046134e-06 2.595637e-06 2.5185584e-06 2.446164e-06 2.1744956e-06 1.7785156e-06 1.2095422e-06
6.782185e-07 3.5890164e-07 4.8518734e-07 8.530983e-07 1.4374998e-06 1.5296583e-06 1.2939296e-06 1.3731075e-06
1.7454034e-06 1.9887082e-06 2.213859e-06 2.418651e-06 2.5464697e-06 2.5993886e-06 2.6010528e-06 2.6003013e-06
2.6003013e-06 2.6003013e-06 2.5998531e-06 2.6002738e-06 2.589809e-06 2.531714e-06 2.539466e-06 2.468124e-06
2.2030838e-06 1.8064054e-06 1.5293234e-06 1.3289231e-06 1.1183295e-06 8.093045e-07 8.029706e-07 1.4948703e-06
2.728012e-06 3.7540306e-06 3.190693e-06 2.1203823e-06 1.7660686e-06 1.870524e-06 2.0596638e-06 2.298323e-06
2.5088566e-06 2.5969096e-06 2.6014607e-06 2.6000773e-06 2.6003013e-06 2.6003013e-06 2.6002633e-06 2.5989636e-06
2.5839763e-06 2.5166994e-06 2.4902051e-06 2.2811196e-06 1.8838624e-06 1.6420432e-06 1.7992685e-06 2.3535463e-06
2.1245944e-06 8.826828e-07 6.147172e-07 1.1847118e-06 2.3919667e-06 3.9701863e-06 4.412079e-06 3.8364865e-06
2.6535297e-06 2.200415e-06 2.2465476e-06 2.2634604e-06 2.4524297e-06 2.5882564e-06 2.6002738e-06 2.5998334e-06
2.6003202e-06 2.6003013e-06 2.6000994e-06 2.5928857e-06 2.5840407e-06 2.5267145e-06 2.3568175e-06 1.9957045e-06
1.6298455e-06 1.8118365e-06 2.8114036e-06 3.5651465e-06 2.5665213e-06 6.4717017e-07 2.7677402e-07 2.7272927e-07
8.224137e-07 2.2735783e-06 3.8895087e-06 5.144679e-06 4.5184393e-06 3.203438e-06 2.6062585e-06 2.321902e-06
2.436564e-06 2.5883508e-06 2.6003013e-06 2.6003013e-06 2.6003013e-06 2.6003095e-06 2.5983818e-06 2.576577e-06
00000000: d680 2e36 d680 2e36 d680 2e36 d680 2e36
00000010: d680 2e36 d680 2e36 d680 2e36 d680 2e36
00000020: d680 2e36 d680 2e36 d680 2e36 d680 2e36
00000030: d680 2e36 d680 2e36 d680 2e36 d680 2e36
00000040: d680 2e36 d680 2e36 d680 2e36 d680 2e36
00000050: d680 2e36 d680 2e36 d680 2e36 d680 2e36
00000060: d680 2e36 d680 2e36 d680 2e36 d680 2e36
00000070: d680 2e36 d680 2e36 d680 2e36 d680 2e36
00000080: d680 2e36 d680 2e36 d680 2e36 d680 2e36
00000090: d680 2e36 d680 2e36 d680 2e36 d561 2e36
000000a0: 2749 2e36 3767 2e36 5e85 2e36 4a76 2e36
000000b0: f1a9 2e36 d16b 2e36 d680 2e36 d680 2e36
000000c0: d680 2e36 d680 2e36 d680 2e36 d680 2e36
000000d0: d680 2e36 d680 2e36 d680 2e36 d680 2e36
000000e0: d680 2e36 d680 2e36 d680 2e36 1b51 2e36
000000f0: 6070 2e36 d680 2e36 8480 2e36 8777 2e36
00000100: 767e 2e36 d680 2e36 e180 2e36 5e6a 2e36
00000110: 934e 2e36 fbc6 2e36 e756 3036 a949 3136
00000120: 4e5a 2e36 d9b7 2d36 4a14 2e36 7d65 2e36
00000130: 9877 2e36 d680 2e36 d680 2e36 d680 2e36
00000140: d680 2e36 d680 2e36 d680 2e36 d680 2e36
00000150: d680 2e36 d680 2e36 cd80 2e36 dff6 2d36
00000160: c452 2e36 d580 2e36 d480 2e36 f56f 2e36
00000170: a234 2c36 12f5 2d36 c37e 2e36 683a 2c36
00000180: b2a1 2b36 7685 2836 8214 2736 c690 2036
00000190: fd1b 2236 631c 2336 be2d 2636 9754 2936
000001a0: 86d3 2b36 be79 2936 c359 2b36 9453 2e36
000001b0: 2d81 2e36 f280 2e36 d680 2e36 d680 2e36
000001c0: d680 2e36 d680 2e36 b680 2e36 6e7b 2e36
000001d0: 7e7f 2e36 be65 2e36 1998 2c36 9859 2e36
000001e0: fba2 2c36 db57 2636 65cc 1e36 42f8 0a36
000001f0: c5b3 de35 f0de 9c35 5d02 6135 e48a 3335
00000200: a73a 4d35 f068 8235 b3fd ad35 9945 ef35
00000210: 7c89 1036 18ce 1536 8bea 1c36 3d8a 2636
00000220: ed3f 2b36 166c 2e36 d680 2e36 d680 2e36
00000230: d680 2e36 d680 2e36 0b62 2e36 ed64 2e36
00000240: c780 2e36 ebca 2e36 b430 2e36 8104 2936
00000250: c728 2436 8ded 1136 55b5 ee35 8e57 a235
00000260: d20e 3635 11af c034 d23d 0235 7800 6535
00000270: 1ef0 c035 a94e cd35 15ab ad35 9d4b b835
00000280: 9b43 ea35 bf75 0536 cf91 1436 1c50 2236
00000290: 04e4 2a36 2871 2e36 bf8d 2e36 d680 2e36
000002a0: d680 2e36 d680 2e36 2379 2e36 5d80 2e36
000002b0: 94cc 2d36 84e6 2936 b26b 2a36 0ca2 2536
000002c0: b1d8 1336 9e73 f235 2743 cd35 735d b235
000002d0: 8219 9635 fb3e 5935 b88b 5735 5aa3 c835
000002e0: e412 3736 c1ed 7b36 b01f 5636 e44b 0e36
000002f0: a809 ed35 b70e fb35 c138 0a36 e33c 1a36
00000300: d45d 2836 9146 2e36 c194 2e36 fd7c 2e36
00000310: d680 2e36 d680 2e36 2f80 2e36 db69 2e36
00000320: 6068 2d36 91e4 2836 661d 2736 5615 1936
00000330: 05d9 fc35 2d64 dc35 657e f135 9ef1 1d36
00000340: 4194 0e36 80f1 6c35 0b03 2535 6302 9f35
00000350: ad85 2036 a437 8536 780b 9436 2bbb 8036
00000360: 4b13 3236 d8aa 1336 65c3 1636 f4e5 1736
00000370: 6c94 2436 e8b1 2d36 5d80 2e36 cc78 2e36
00000380: 2981 2e36 d680 2e36 5e7d 2e36 7001 2e36
00000390: 7b69 2d36 a090 2936 d129 1e36 f1ed 0536
000003a0: 11c1 da35 3a2e f335 8cab 3c36 c040 6f36
000003b0: 803c 2c36 32b9 2d35 8897 9434 a06b 9234
000003c0: d7c3 5c35 c793 1836 a082 8236 75a0 ac36
000003d0: 199d 9736 a5fa 5636 2ee7 2e36 f9d1 1b36
000003e0: da83 2336 87b3 2d36 d680 2e36 d680 2e36
000003f0: d680 2e36 fa80 2e36 dc5f 2e36 41e9 2c36

exp_avg f4 [30]
-0.00022914042 -0.00010724959 -6.804033e-05 0.00012118217 -0.00016951864 1.7055068e-12 0.00018050525 5.3453273e-11
0.0001005077 -0.00017978677 5.3605932e-11 0.00025132514 1.0877414e-10 4.5223398e-11 0.00018871082 -0.00016868456
-0.00012654268 -0.00015608124 0.00019498232 3.221155e-13 7.1159125e-12 -2.1783577e-05 -0.0002816849 0.00020340468
-0.0002346819 9.554664e-05 8.069492e-05 -9.4002586e-05 0.00015800614 6.9703515e-10
00000000: 6a45 70b9 2feb e0b8 e0b0 8eb8 2f23 fe38
00000010: d0c0 31b9 5c07 f02b 0246 3d39 0917 6b2e
00000020: a9c7 d238 2585 3cb9 eac2 6b2e 4ac4 8339
00000030: 6632 ef2e 05e5 462e ade0 4539 ebe0 30b9
00000040: 8bb0 04b9 bda9 23b9 2b74 4c39 bc55 b52a
00000050: 715e fa2c e0bb b6b7 1baf 93b9 0749 5539
00000060: f114 76b9 3660 c838 c13a a938 4123 c5b8
00000070: 73ae 2539 7d99 3f30

exp_avg_sq f4 [30]
2.6003013e-06 3.4066138e-06 2.2715483e-08 3.30809e-06 7.925997e-06 1.0831741e-11 6.0579237e-06 8.035565e-09
2.2546764e-07 1.2469261e-05 1.0700808e-08 1.4551871e-05 3.9885688e-08 7.76585e-09 8.812109e-06 3.3680762e-06
5.263781e-06 5.238192e-06 6.0180986e-07 3.8637997e-13 1.8856125e-10 1.2306475e-08 1.5583115e-05 8.77011e-06
1.990296e-05 4.0962044e-07 1.0406613e-06 2.0878695e-06 5.5390797e-06 1.3300314e-06
00000000: d680 2e36 2e9d 6436 e01f c332 8e00 5e36
00000010: e6f9 0437 d38d 3e2d 2b45 cb36 ca0c 0a32
00000020: 1318 7234 1133 5137 a7d6 3732 cf23 7437
00000030: c74e 2b33 926a 0532 b8d7 1337 1c07 6236
00000040: 899f b036 bac3 af36 0f8c 2135 3983 d92a
00000050: 4653 4f2f 736c 5332 7cb8 8237 5623 1337
00000060: 48f5 a637 cee9 db34 daac 8b35 531d 0c36
00000070: 55dc b936 8883 b235

exp_avg f4 [2, 30]
-0.0039814115 -0.0034483674 -0.0072659613 9.49013e-05 -0.0033453347 -5.8878635e-12 0.00021723301 -2.2758437e-09
-0.00047288672 -0.002944583 -2.0636054e-11 -2.5445932e-05 -5.7062143e-11 -2.3165067e-10 5.9544786e-06 -0.0038598806
-0.0029327546 -0.0041004005 0.0013158041 -7.391528e-11 -2.1261129e-12 -0.0023840999 -0.0033717416 -0.00012722351
-0.0031906802 -0.00021815018 0.00013029946 -0.0038866892 -0.00019513014 -2.1502609e-09 0.003981412 0.0034483685
0.00726596 -9.490299e-05 0.003345334 5.8878635e-12 -0.00021723521 2.2758437e-09 0.0004728841 0.0029445826
2.0636054e-11 2.5444144e-05 5.7062143e-11 2.3165067e-10 -5.9568247e-06 0.0038598792 0.002932754 0.0041003996
-0.0013158052 7.391526e-11 2.1261129e-12 0.002384099 0.0033717419 0.00012722118 0.0031906788 0.00021814863
-0.00013030141 0.0038866904 0.00019512986 2.1502609e-09
00000000: 8076 82bb 01fe 61bb 4d17 eebb bf05 c738
00000010: 673d 5bbb 2929 cfac 0bc9 6339 1165 1cb1
00000020: c8ed f7b9 e8f9 40bb 4384 b5ad b974 d5b7
00000030: 43f6 7aae deb3 7eaf 95cc c736 0df6 7cbb
00000040: 7533 40bb a75c 86bb 0f77 ac3a 9a8a a2ae
00000050: a59c 15ac 8f3e 1cbb 70f8 5cbb 4d67 05b9
00000060: bb1a 51bb 3ebf 64b9 ffa0 0839 d3b7 7ebb
00000070: d99b 4cb9 cac3 13b1 8176 823b 06fe 613b
00000080: 4a17 ee3b a806 c7b8 643d 5b3b 2929 cf2c
00000090: a2c9 63b9 1165 1c31 6eed f739 e6f9 403b
000000a0: 4384 b52d e270 d537 43f6 7a2e deb3 7e2f
000000b0: bce0 c7b6 07f6 7c3b 7333 403b a55c 863b
000000c0: 1977 acba 988a a22e a59c 152c 8b3e 1c3b
000000d0: 71f8 5c3b ad66 0539 b51a 513b d4be 6439
000000e0: 85a1 08b9 d8b7 7e3b c69b 4c39 cac3 1331

exp_avg_sq f4 [2, 30]
6.093542e-05 0.0003621462 0.0001694121 0.0001789384 0.00012019827 1.290942e-10 0.00012964984 1.7718114e-05
0.00012160192 0.00019478767 1.5857855e-09 0.00020133732 1.1960161e-08 2.0415722e-07 0.00017450402 7.485295e-05
0.00017864609 0.00021295752 4.080745e-05 2.034508e-08 1.6833104e-11 5.7014364e-05 2.5567335e-05 0.00019306436
0.00010439015 0.00011593353 0.00023316003 0.00047140187 0.00013150461 1.6014716e-05 6.093543e-05 0.00036214615
0.00016941204 0.00017893838 0.000120198245 1.2909418e-10 0.00012964982 1.7718117e-05 0.0001216019 0.00019478763
1.5857858e-09 0.0002013373 1.1960162e-08 2.0415722e-07 0.000174504 7.485296e-05 0.00017864605 0.00021295752
4.080745e-05 2.0345079e-08 1.6833104e-11 5.7014375e-05 2.5567328e-05 0.00019306436 0.000104390165 0.00011593349
0.00023316 0.00047140193 0.00013150461 1.6014716e-05
00000000: e994 7f38 71de bd39 37a4 3139 69a1 3b39
00000010: f412 fc38 c9f0 0d2f 9df2 0739 5ca1 9437
00000020: 8904 ff38 eb3f 4c39 def2 d930 131e 5339
00000030: 5879 4d32 4f36 5b34 11fb 3639 5ffa 9c38
00000040: f252 3b39 594d 5f39 aa28 2b38 4ec3 ae32
00000050: c810 942d b522 6f38 6f79 d637 5271 4a39
00000060: 09ec da38 5721 f338 6b7c 7439 7d26 f739
00000070: 80e4 0939 5757 8637 eb94 7f38 6fde bd39
00000080: 33a4 3139 68a1 3b39 f112 fc38 c8f0 0d2f
00000090: 9cf2 0739 5ea1 9437 8604 ff38 e83f 4c39
000000a0: e1f2 d930 121e 5339 5979 4d32 4f36 5b34
000000b0: 10fb 3639 60fa 9c38 ef52 3b39 594d 5f39
000000c0: aa28 2b38 4dc3 ae32 c810 942d b822 6f38
000000d0: 6b79 d637 5271 4a39 0bec da38 5221 f338
000000e0: 697c 7439 7f26 f739 80e4 0939 5757 8637

exp_avg f4 [2]
-0.00071308354 0.0007130811
00000000: 3aee 3aba 10ee 3a3a

exp_avg_sq f4 [2]
0.00022820878 0.00022820874
00000000: 544b 6f39 514b 6f39
