nesy/1y45rgw9/checkpoints/epoch=0-step=49.ckpt (torch, 291235 bytes, 12 tensors)

neural_predicates.digit.net.0.weight f4 [30, 784]
0	0xbd07a6c5	-0.03311803
1	0x3ce441a0	0.027863324
2	0xbbf50333	-0.007477188
3	0x3cc5c49a	0.024141598
4	0x3c7828f8	0.015146486
5	0xbbfac311	-0.0076526483
6	0xbd231e3f	-0.039823767
7	0x3cbeabde	0.023275312
8	0xbd0a6676	-0.03378912
9	0xbb7dbdc9	-0.0038717857
10	0x3c3f2004	0.011665348
11	0xbd249c0e	-0.040187888
12	0xbc63f0e5	-0.013912414
13	0xbccd8459	-0.025087522
14	0xbb892eb9	-0.004186478
15	0x3b5cc6ad	0.0033687756
16	0xbd1d425a	-0.038393356
17	0x3c20d9ee	0.0098175835
18	0x3cddae0f	0.027060537
19	0xbaeaf0af	-0.0017924513
20	0xbc643284	-0.0139280595
21	0x3be3d329	0.0069526625
22	0xbc883af6	-0.016629677
23	0xbb50200a	-0.0031757378
24	0xbcb16dcb	-0.021658799
25	0xba3acafd	-0.00071255845
26	0x3bd51ddf	0.006503805
27	0x3bd70ffb	0.0065631843
28	0xbb0f8281	-0.0021897855
29	0xbcc474cc	-0.023981474
30	0x3c5f2b79	0.0136212045
31	0xbcbf47f6	-0.023349743
32	0xbc321744	-0.010869805
33	0xbd15a7f2	-0.03653712
34	0xbd220962	-0.03955973
35	0xbcb08cac	-0.021551453
36	0xbca5cf79	-0.020240532
37	0x3bf3f401	0.007444859
38	0xbc94455e	-0.018099483
39	0xb999aa30	-0.00029309234
40	0x3cf4aa3e	0.029866334
41	0xbcd056e7	-0.025432063
42	0x3cef6ab8	0.029225692
43	0x3cf58bb5	0.029973844
44	0xbb802aaf	-0.0039113383
45	0x3cac38bf	0.021023152
46	0xb81c1424	-3.7212056e-05
47	0x3cc999a1	0.024609389
48	0x3c9285a2	0.017885987
49	0xbd2122e4	-0.039339915
50	0x3c90f4a1	0.017694773
51	0x3cb5a9d6	0.02217571
52	0xbc4e9222	-0.012608083
53	0xbcc6368a	-0.024195928
54	0x3c44db53	0.012015182
55	0xbbcfe46e	-0.0063443696
56	0xbd0032fb	-0.03129862
57	0xbc98f400	-0.018671036
58	0x3cdf0636	0.027224641
59	0x3cc372f8	0.023858532
60	0x3ce90a44	0.028447278
61	0x3c90e39c	0.017686658
62	0x3bf9c68e	0.0076225465
63	0xbd17cf71	-0.037063066
64	0x3b509f3a	0.0031833188
65	0xbceeea65	-0.029164502
66	0xbbcc10a3	-0.006227569
67	0xbcea1d4e	-0.028578427
68	0xbbbd629a	-0.0057795765
69	0xbd06d6f7	-0.03291985
70	0x3c93fa36	0.018063646
71	0xbc250aaf	-0.010073348
72	0x3cd625db	0.026141098
73	0x3cefd1cc	0.029274844
74	0xbcea6e7c	-0.028617136
75	0x3ca688a9	0.020328837
76	0xba85e4be	-0.0010215265
77	0xbcdfb441	-0.027307631
78	0xbd23ec9c	-0.04002057
79	0xbcc9193c	-0.024548166
80	0xbd02700f	-0.03184515
81	0xbd169a3f	-0.036768194
82	0xbd1f69d6	-0.038919292
83	0xbc797645	-0.015225952
84	0x3c3eef67	0.011653758
85	0xbc2d1d3b	-0.010566051
86	0x3b520ce4	0.003205114
87	0xbd1c3d87	-0.038144615
88	0x3a7fc39a	0.0009756625
89	0xba0e79a2	-0.0005434995
90	0x3ccfae60	0.025351703
91	0xbcd7db71	-0.026349755
92	0x3b1c90c7	0.0023890005
93	0xbcd07f34	-0.02545128
94	0x3c222515	0.009896536
95	0xbccde433	-0.025133228
96	0x3bb0ba45	0.005393299
97	0xbbf7b7f3	-0.0075597703
98	0xbc57ffa9	-0.013183513
99	0xbbce8099	-0.006301951
100	0xbd215171	-0.03938431
101	0xba50082d	-0.00079357886
102	0x3c98eede	0.018668588
103	0xbd11211d	-0.03543197
104	0x3a37a4b8	0.0007005441
105	0xbc2c9778	-0.01053416
106	0x3b6daf1a	0.0036267699
107	0x3c8ec1fb	0.017426481
108	0xba183d2e	-0.00058074563
109	0x3bcea536	0.006306316
110	0x3cdaabd0	0.026693255
111	0xbcb6cd36	-0.02231465
112	0x3c9d3978	0.019192442
113	0xbcfd74a0	-0.0309394
114	0x3cc6e904	0.024281032
115	0xbc93c745	-0.018039355
116	0xbd0afc07	-0.03393176
117	0x3c630de4	0.013858292
118	0x3b35ab2c	0.0027720435
119	0x3cec46b9	0.028842317
120	0x3c68646e	0.014184101
121	0xbc8595f6	-0.016306859
122	0xbcb7281a	-0.02235799
123	0x3c983cf1	0.018583747
124	0xbd1d027d	-0.03833245
125	0xbce7218c	-0.028214239
126	0xbd1109f0	-0.035409868
127	0xbc83eee1	-0.016105117
128	0xbc728297	-0.014801643
129	0xbd5498ce	-0.05190354
130	0xbab4df00	-0.0013799369
131	0xbccb9b4f	-0.02485433
132	0xbcc0979b	-0.023509791
133	0x3b15f4df	0.002288155
134	0xbc3a0ce6	-0.011355614
135	0x3ce6c34e	0.0281693
136	0x3c292de5	0.0103258835
137	0xbc736f05	-0.014858012
138	0xbd16df2b	-0.036833923
139	0x3bcf92fc	0.0063346606
140	0xbcfe877b	-0.031070461
141	0xbd0f8fe9	-0.035049353
142	0xbb259a99	-0.002526915
143	0xbc8aa39a	-0.016923714
144	0x383ee730	4.551484e-05
145	0xbce5b912	-0.02804235
146	0x3d082891	0.033241812
147	0xbcddea6e	-0.027089324
148	0x3d1d6e65	0.03843536
149	0xbb553103	-0.0032530434
150	0x3b807377	0.0039200145
151	0x3bd2e133	0.0064355372
152	0xbc90114a	-0.017586369
153	0x3d215c47	0.039394643
154	0xbca73638	-0.020411596
155	0xbd01b5c0	-0.03166747
156	0x3c680a80	0.01416266
157	0xbca49828	-0.020092085
158	0x3c5b1a24	0.013372932
159	0x3b537e84	0.0032271454
160	0x3c027369	0.007962086
161	0xbc4720c7	-0.012153811
162	0xbc4b605a	-0.012413109
163	0x3cc2d1a6	0.023781609
164	0xbc32420a	-0.010880003
165	0x3c995990	0.018719465
166	0x3c8c7181	0.017143967
167	0xbcbb7644	-0.022883542
168	0xbcf324d0	-0.02968064
169	0x3c6fcf8c	0.014636885
170	0xbbd2ad0d	-0.0064293207
171	0xbccc8107	-0.024963869
172	0xbcdf23d4	-0.027238764
173	0x3c5af34a	0.013363669
174	0xbcdc3b49	-0.026883738
175	0x3ab11c9f	0.0013512558
176	0xbc2b4300	-0.010452986
177	0x3d216d62	0.039410956
178	0x3bac9884	0.0052672047
179	0x3cae82d0	0.02130261
180	0x3cc5ba11	0.024136575
181	0xba879f8c	-0.0010347231
182	0x3c22352a	0.009900371
183	0x3c95fb2e	0.018308248
184	0x3cc7f3b0	0.024408191
185	0x3ca8c1e1	0.020600261
186	0x3af0351a	0.0018326372
187	0xbc80d15f	-0.015724836
188	0xbbf9b568	-0.0076205023
189	0x3d024219	0.031801317
190	0xbd09cd55	-0.033643086
191	0x3ca3cb7a	0.019994486
192	0x3ce4e9a0	0.027943432
193	0xbd0d0d37	-0.03443643
194	0xbd137f8e	-0.036010318
195	0x3b9f1fec	0.0048561003
196	0x3c39996d	0.011328083
197	0xbcfb489c	-0.030674271
198	0x3ca1ca7f	0.019749878
199	0x3b03440a	0.0020029568
200	0xbcdde3a0	-0.02708608
201	0x3d14d15f	0.036332484
202	0xbbdabf4a	-0.0066756355
203	0x3d14153e	0.03615307
204	0x3ae88863	0.0017740842
205	0x3d1ca54f	0.038243588
206	0x3d31d733	0.04341812
207	0x3cc9c34e	0.024629261
208	0x3c480623	0.012208494
209	0x3d12678c	0.03574328
210	0x3d0bf565	0.034169573
211	0x3c49fc6c	0.0123282485
212	0xbc104733	-0.008806038
213	0x3901d802	0.00012382868
214	0xbbe48249	-0.006973539
215	0xbb113362	-0.002215587
216	0xbc6df3b6	-0.014523437
217	0x3caee9f3	0.02135179
218	0xbd10169c	-0.035177812
219	0x3caafa99	0.020871447
220	0xbcd8a6ef	-0.026446788
221	0xbd094fa4	-0.033523217
222	0x3cec5265	0.028847883
223	0xb917bfe7	-0.00014471971
224	0x3c84c21e	0.016205844
225	0xbcd8c968	-0.026463225
226	0xbb212ba2	-0.0024592658
227	0xbd17e74f	-0.037085827
228	0x3d1de2fd	0.03854655
229	0x3cdb548b	0.026773712
230	0x3c34ca6a	0.011034587
231	0x3d24232f	0.040072616
232	0x3d06c862	0.032905944
233	0x3d26b7fb	0.0407028
234	0x3b142128	0.002260277
235	0xbc7a30be	-0.01527041
236	0xbcaa0bbd	-0.02075755
237	0xbccdf9c7	-0.025143517
238	0xbd195c86	-0.037441753
239	0xbc73d798	-0.0148829445
240	0xbce5233d	-0.027970904
241	0x3cbe015a	0.023194004
242	0xbce96e5e	-0.02849501
243	0xbc5dc805	-0.013536458
244	0x3a885d71	0.0010403824
245	0x3cfed755	0.031108538
246	0x3c509b72	0.012732374
247	0x3c52d758	0.012868725
248	0xbc50187e	-0.012701152
249	0x3c654a7c	0.013994809
250	0x3ccc227e	0.02491879
251	0xbcf3adcf	-0.029745964
252	0x3bc49030	0.005998634
253	0x3c73f750	0.014890507
254	0x39bdfc4c	0.00036236865
255	0x3b962c9a	0.0045829536

neural_predicates.digit.net.0.bias f4 [30]
0	0x3aa826d1	0.0012828951
1	0xbc567fc1	-0.013091982
2	0xbc18f527	-0.009335793
3	0x3af71b27	0.0018852697
4	0xbc2e93e1	-0.010655374
5	0xbaf0f4a2	-0.0018383453
6	0x3cabdcb2	0.02097926
7	0x3c0a6ada	0.008448327
8	0xbac32527	-0.0014888392
9	0xba5ba92b	-0.0008379395
10	0xbca21803	-0.01978684
11	0xbb1e8d04	-0.0024192939
12	0x3bfd9b7c	0.0077394824
13	0xbc78d01a	-0.015186334
14	0x3baf9c0f	0.00535918
15	0xbcd6331e	-0.026147421
16	0x3d0c49ba	0.03425
17	0xbbddc23a	-0.0067675384
18	0x3c93d340	0.018045068
19	0xbc98ccaf	-0.018652288
20	0x3d536c3b	0.05161689
21	0xbd26e741	-0.040747885
22	0x3ccf2862	0.02528781
23	0x3cb55ebf	0.022139905
24	0x3c10c21c	0.008835342
25	0xbb9990f9	-0.0046864715
26	0xbcda622e	-0.026658144
27	0xbc66d654	-0.014089186
28	0x3cc84a1b	0.024449399
29	0x3ce0a449	0.027422087

neural_predicates.digit.net.2.weight f4 [4, 30]
0	0xbd921a23	-0.071338914
1	0xbe522cc0	-0.20524883
2	0xbc91abd5	-0.017782131
3	0xbe01a79e	-0.12661597
4	0xbe26ab3c	-0.16276258
5	0xbcbdd39b	-0.02317219
6	0xbe47417b	-0.19458573
7	0x3e5f3766	0.21798477
8	0xbe3de917	-0.18545948
9	0x3d35d5d4	0.044393376
10	0xbe0ef76b	-0.1396157
11	0x3c6cfb1b	0.014464165
12	0x3e1e5bba	0.15464678
13	0xbde79297	-0.11307257
14	0x3e151ff8	0.14562976
15	0x3d027cce	0.031857304
16	0x3e28fa3c	0.16501707
17	0xbdc413fe	-0.09574126
18	0xbdd09c73	-0.1018609
19	0xbcca8681	-0.02472234
20	0x3e008c35	0.12553485
21	0xbe413041	-0.18866064
22	0x3d9bbcad	0.076043464
23	0xbd3583d5	-0.044315178
24	0xbdba8686	-0.091076896
25	0xbddd3f13	-0.10803046
26	0xbe08be5f	-0.13353871
27	0xbdd7dd40	-0.10540247
28	0x3ddfa5cd	0.10920296
29	0xbdfe268d	-0.12409697
30	0xbd9e4036	-0.07727091
31	0xbe384ac6	-0.17997274
32	0x3e004270	0.12525344
33	0xbe08ae25	-0.13347681
34	0xbd5d78da	-0.05407033
35	0x3d60a1e2	0.054841883
36	0x3dc68419	0.096931644
37	0x3dbd52bd	0.09244297
38	0x3daed290	0.08536255
39	0x3c406b19	0.011744284
40	0xbde2a625	-0.11066846
41	0xbd40c358	-0.047061294
42	0xbdf0e636	-0.11762659
43	0x3d8d7afa	0.069082215
44	0x3c77632d	0.015099329
45	0x3dda69f8	0.10664743
46	0x3c502bb7	0.012705735
47	0x3c461154	0.012089092
48	0x3ab3a548	0.0013705874
49	0xbd4cecef	-0.050030645
50	0xbe0e52f1	-0.13898827
51	0x3e1aad17	0.15105091
52	0x3d8dacb9	0.0691771
53	0x3d21d659	0.03951106
54	0xbd99ef2c	-0.075163215
55	0x3d9d99c4	0.07695344
56	0x3ccb8132	0.024841879
57	0x3e3ae2e2	0.18250611
58	0xbe24c047	-0.16088973
59	0xbde061b3	-0.10956135
60	0xbde1cb9f	-0.11025166
61	0xba89fb07	-0.0010527082
62	0xbcb7d491	-0.022440227
63	0xbe25cc19	-0.16191138
64	0xbd7fbcf3	-0.062436055
65	0x3d48ef13	0.049056124
66	0x3d376617	0.044775095
67	0xbe587f9e	-0.21142432
68	0x3de6290e	0.11238299
69	0x3e32227a	0.17395964
70	0xbc0b867a	-0.008515948
71	0x3d9bdde5	0.076106824
72	0x3d76ba3e	0.06023621
73	0x3df7a6e6	0.1209238
74	0xbdf17562	-0.11789967
75	0xbe0e9750	-0.13924909
76	0x3de26156	0.110537216
77	0x3d4f3ab7	0.050593104
78	0x3e3c8887	0.18411456
79	0x3c85bdee	0.016325917
80	0x3d263d43	0.040585767
81	0xbe1acdf2	-0.15117624
82	0x3e0220c9	0.12707819
83	0x3ceb6f76	0.028739672
84	0x3e0191ba	0.12653247
85	0x3e371e7a	0.1788272
86	0x3e2f013d	0.17090316
87	0x3e2f5a07	0.17124186
88	0x3d00eddf	0.03147685
89	0xbd91c74e	-0.071180925
90	0x3e5a46a6	0.21316013
91	0x3de2b6ac	0.11069998
92	0xbd7ce4b2	-0.06174154
93	0x3e50b093	0.20379858
94	0x3cb80587	0.022463573
95	0xbcc333f6	-0.023828488
96	0xbc3233d5	-0.0108766155
97	0xbdd7e2f5	-0.105413355
98	0xbd6252cd	-0.055254746
99	0xbe1ecb73	-0.15507297
100	0x3d4037f7	0.046928372
101	0xbdd9201d	-0.10601828
102	0x3cf84752	0.030307446
103	0x3d4b70d9	0.049668167
104	0xbd57cd0c	-0.052685782
105	0x3e5dc288	0.21656239
106	0xbe069de7	-0.13146172
107	0xbc3f0ffb	-0.011661525
108	0x3e1e8b94	0.15482932
109	0xbe399a62	-0.18125299
110	0x3e1b6c2b	0.15177982
111	0xbe1f57b6	-0.15560803
112	0x3ca78a01	0.020451548
113	0xbdd8cc51	-0.10585845
114	0xbe03de5d	-0.12877794
115	0xbe17c2bf	-0.14820383
116	0x3d3b1924	0.045678273
117	0x3dd385a6	0.10328226
118	0xbdb49657	-0.088177375
119	0xbdb4ad0e	-0.0882207

neural_predicates.digit.net.2.bias f4 [4]
0	0x3e3b73cf	0.18305896
1	0x3d8554e5	0.06510333
2	0x3e3c72b6	0.18403134
3	0x3d7c9da3	0.06167377

exp_avg f4 [30, 784]
0	0xba23f30a	-0.0006254172
1	0xba23f30a	-0.0006254172
2	0xba23f30a	-0.0006254172
3	0xba23f30a	-0.0006254172
4	0xba23f30a	-0.0006254172
5	0xba23f30a	-0.0006254172
6	0xba23f30a	-0.0006254172
7	0xba23f30a	-0.0006254172
8	0xba23f30a	-0.0006254172
9	0xba23f30a	-0.0006254172
10	0xba23f30a	-0.0006254172
11	0xba23f30a	-0.0006254172
12	0xba23d9f7	-0.0006250436
13	0xba21d58a	-0.00061734824
14	0xba21d58a	-0.00061734824
15	0xba23dc77	-0.00062508084
16	0xba23f30a	-0.0006254172
17	0xba23f30a	-0.0006254172
18	0xba23f30a	-0.0006254172
19	0xba23f30a	-0.0006254172
20	0xba23f30a	-0.0006254172
21	0xba23f30a	-0.0006254172
22	0xba23f30a	-0.0006254172
23	0xba23f30a	-0.0006254172
24	0xba23f30a	-0.0006254172
25	0xba23f30a	-0.0006254172
26	0xba23f30a	-0.0006254172
27	0xba23f30a	-0.0006254172
28	0xba23f30a	-0.0006254172
29	0xba23f30a	-0.0006254172
30	0xba23f30a	-0.0006254172
31	0xba23f30a	-0.0006254172
32	0xba23f30a	-0.0006254172
33	0xba23f30a	-0.0006254172
34	0xba23f30a	-0.0006254172
35	0xba23f16d	-0.0006253932
36	0xba23e0f2	-0.0006251476
37	0xba23cd88	-0.0006248583
38	0xba233156	-0.0006225308
39	0xba22ea52	-0.0006214726
40	0xba23877a	-0.0006238144
41	0xba21af80	-0.0006167814
42	0xba1fc74c	-0.0006095066
43	0xba216136	-0.0006156148
44	0xba1facb9	-0.00060911063
45	0xba2111ca	-0.00061443134
46	0xba23cf11	-0.0006248812
47	0xba23f30a	-0.0006254172
48	0xba23f30a	-0.0006254172
49	0xba23f30a	-0.0006254172
50	0xba23f30a	-0.0006254172
51	0xba23f30a	-0.0006254172
52	0xba23f30a	-0.0006254172
53	0xba23f30a	-0.0006254172
54	0xba23f30a	-0.0006254172
55	0xba23f30a	-0.0006254172
56	0xba23f30a	-0.0006254172
57	0xba23f30a	-0.0006254172
58	0xba23f30a	-0.0006254172
59	0xba23f0f4	-0.00062538614
60	0xba23f250	-0.0006254064
61	0xba23d292	-0.0006249334
62	0xba23276c	-0.0006223831
63	0xba23357a	-0.0006225925
64	0xba22e8d2	-0.00062145025
65	0xba1d8474	-0.0006008812
66	0xba18c671	-0.000582791
67	0xba15652c	-0.0005698975
68	0xba125031	-0.00055814075
69	0xba1fd565	-0.0006097167
70	0xba255aee	-0.00063078
71	0xba10205d	-0.00054979866
72	0xba18339b	-0.00058060297
73	0xba434c35	-0.00074500154
74	0xba3e5e57	-0.00072619825
75	0xba2a28d2	-0.0006491068
76	0xba23f414	-0.0006254327
77	0xba23eb71	-0.000625304
78	0xba23f226	-0.00062540395
79	0xba23b65b	-0.00062451296
80	0xba2385b8	-0.0006237882
81	0xba23bb5e	-0.00062458764
82	0xba23f30a	-0.0006254172
83	0xba23f30a	-0.0006254172
84	0xba23f30a	-0.0006254172
85	0xba23f30a	-0.0006254172
86	0xba23f14a	-0.00062539114
87	0xba23ec28	-0.00062531466
88	0xba23df99	-0.0006251275
89	0xba23246a	-0.00062233827
90	0xba199ffe	-0.00058603275
91	0xba028bd2	-0.00049799413
92	0xb9cb5957	-0.0003878574
93	0xba014046	-0.0004930537
94	0xba5ca45b	-0.0008416825
95	0xba67b970	-0.0008839583
96	0xba6d2920	-0.00090469606
97	0xba895e07	-0.0010480293
98	0xbaa84173	-0.0012836888
99	0xbaaa9f08	-0.0013017366
100	0xba81de39	-0.0009908146
101	0xba8363c6	-0.0010024242
102	0xba90f824	-0.001106028
103	0xba7ec705	-0.0009718987
104	0xba473599	-0.0007599234
105	0xba2d60d4	-0.0006613855
106	0xba237350	-0.00062351394
107	0xba223f8a	-0.00061892776
108	0xba237698	-0.00062356284
109	0xba23b30c	-0.00062446366
110	0xba23f30a	-0.0006254172
111	0xba23f30a	-0.0006254172
112	0xba23f30a	-0.0006254172
113	0xba240b9e	-0.00062578346
114	0xba248f9a	-0.0006277502
115	0xba24552b	-0.00062687945
116	0xba319729	-0.0006774539
117	0xba3ae8df	-0.00071300374
118	0xba40a793	-0.0007349189
119	0xba6515ca	-0.00087389036
120	0xb9fb1518	-0.00047890167
121	0x39ec0bf0	0.00045022322
122	0x3a3ed9ee	0.0007280399
123	0x3ab738a7	0.0013978676
124	0x3b080299	0.0020753501
125	0x3b0e63b4	0.0021726908
126	0x3b20f14c	0.0024557887
127	0x3b1fd0de	0.002438597
128	0x3adce993	0.0016854279
129	0x3a314596	0.0006762383
130	0xb9b72b64	-0.00034936809
131	0xb9ac1718	-0.00032823603
132	0xb9c47cee	-0.00037477113
133	0xb9d64768	-0.00040870463
134	0xb9fbce3c	-0.00048028107
135	0xb9f423f3	-0.0004656609
136	0xba19f86d	-0.0005873505
137	0xba23b2ec	-0.0006244618
138	0xba23f30a	-0.0006254172
139	0xba23f30a	-0.0006254172
140	0xba23f30a	-0.0006254172
141	0xba23f30a	-0.0006254172
142	0xba24170a	-0.00062595366
143	0xba2d1451	-0.00066024536
144	0xba78691d	-0.00094761123
145	0xba8decaa	-0.0010827978
146	0xba9ff366	-0.0012203276
147	0xba51df8c	-0.00080060284
148	0x39fbbda1	0.00048015735
149	0x3adec691	0.0016996433
150	0x3b2ff923	0.0026851378
151	0x3b680acd	0.0035406828
152	0x3b9045bc	0.0044028442
153	0x3b93c901	0.0045100455
154	0x3b853e1e	0.004066243
155	0x3b30dc5e	0.0026986818
156	0x3b114a0e	0.0022169384
157	0x3abb3fc5	0.0014285973
158	0xb9a34eb9	-0.00031148436
159	0xbadb02c4	-0.0016709198
160	0xbae795a3	-0.0017668497
161	0xba889e7c	-0.0010423209
162	0xb9ff3b52	-0.00048681587
163	0xb9d3acd7	-0.00040373832
164	0xba11ba7b	-0.0005559099
165	0xba23dc0b	-0.00062507455
166	0xba23c34d	-0.00062470586
167	0xba23f30a	-0.0006254172
168	0xba23f30a	-0.0006254172
169	0xba2482ae	-0.00062755763
170	0xba2b4c4a	-0.00065345
171	0xba5d505e	-0.00084424566
172	0xbaa3e9a0	-0.0012505539
173	0xbac6d3a4	-0.0015169275
174	0xba9f0ba1	-0.0012134203
175	0xb9095476	-0.00013096802
176	0x3aaea802	0.0013325217
177	0x3aa330d8	0.001245047
178	0x3a95fbac	0.0011442802
179	0x3a89dbe7	0.0010517807
180	0x3a8b662e	0.001063531
181	0x39c24881	0.00037056583
182	0xba1e0db1	-0.0006029262
183	0xbae3957d	-0.0017363277
184	0xbad91b5c	-0.001656394
185	0xbab42d72	-0.0013746454
186	0xbaf5be9e	-0.0018748825
187	0xbb6a8a14	-0.0035787867
188	0xbb806447	-0.003918204
189	0xbb41eb9d	-0.00295899
190	0xbac1e05c	-0.0014791596
191	0xba0ec078	-0.000544555
192	0xba1a2402	-0.00058799994
193	0xba23cf63	-0.00062488596
194	0xba23233b	-0.00062232063
195	0xba23ce2f	-0.00062486803
196	0xba23f30a	-0.0006254172
197	0xba32041e	-0.00067907746
198	0xba2c924e	-0.00065830804
199	0xba6e13b7	-0.0009081917
200	0xbac92089	-0.0015344779
201	0xbaebed6a	-0.0017999832
202	0xba38ffba	-0.0007057149
203	0x3606d431	2.0091068e-06
204	0x3a456f0d	0.00075315015
205	0x395fc7aa	0.00021341318
206	0xba7ee065	-0.00097227684
207	0xba9a6d3c	-0.0011781822
208	0xbaa8033a	-0.0012818344
209	0xba9e5bc2	-0.0012081789
210	0xbb20e3da	-0.0024549873
211	0xbb6eb7d5	-0.003642549
212	0xbb4c3ee6	-0.003116542
213	0xbae27696	-0.0017277773
214	0xbae2e0f1	-0.0017309469
215	0xbb924931	-0.0044642915
216	0xbbbcde60	-0.005763814
217	0xbb8ebe75	-0.0043562003
218	0xbb0e7b79	-0.0021741076
219	0xba3f74c2	-0.000730347
220	0xba1d8c04	-0.00060099387
221	0xba235f78	-0.00062321825
222	0xba235808	-0.0006231074
223	0xba23a54e	-0.0006242589
224	0xba23f330	-0.00062541943
225	0xba27ba82	-0.0006398336
226	0xba2e2399	-0.00066428777
227	0xba963592	-0.0011460057
228	0xbaf8d112	-0.0018983206
229	0xbb06dbcc	-0.0020577786
230	0xbaa97816	-0.0012929465
231	0xba14aa59	-0.0005671136
232	0x3a44de2b	0.0007509912
233	0xb98a3ce3	-0.00026366775
234	0xba86f9e8	-0.0010297867
235	0xbaacbd46	-0.0013178966
236	0xb9f23ffd	-0.00046205512
237	0xba91f924	-0.0011136872
238	0xbb25a191	-0.0025273303
239	0xbb482c82	-0.0030544107
240	0xbac099c8	-0.0014694268
241	0x3a1f296f	0.0006071543
242	0x3a4bf178	0.0007779817
243	0xbb40fe51	-0.002944846
244	0xbbb0572e	-0.0053814864
245	0xbba0d027	-0.004907626
246	0xbb24747c	-0.0025093844
247	0xba445f52	-0.00074910105
248	0xba12c788	-0.00055991905
249	0xba2389c0	-0.0006238483
250	0xba23f30a	-0.0006254172
251	0xba23f30a	-0.0006254172
252	0xba23f30a	-0.0006254172
253	0xba2709f5	-0.0006372028
254	0xba27ce6c	-0.00064013037
255	0xbaae52be	-0.0013299806

exp_avg_sq f4 [30, 784]
0	0x36404522	2.865047e-06
1	0x36404522	2.865047e-06
2	0x36404522	2.865047e-06
3	0x36404522	2.865047e-06
4	0x36404522	2.865047e-06
5	0x36404522	2.865047e-06
6	0x36404522	2.865047e-06
7	0x36404522	2.865047e-06
8	0x36404522	2.865047e-06
9	0x36404522	2.865047e-06
10	0x36404522	2.865047e-06
11	0x36404522	2.865047e-06
12	0x364042fc	2.864922e-06
13	0x364016d7	2.8623524e-06
14	0x364016d7	2.8623524e-06
15	0x36404333	2.8649345e-06
16	0x36404522	2.865047e-06
17	0x36404522	2.865047e-06
18	0x36404522	2.865047e-06
19	0x36404522	2.865047e-06
20	0x36404522	2.865047e-06
21	0x36404522	2.865047e-06
22	0x36404522	2.865047e-06
23	0x36404522	2.865047e-06
24	0x36404522	2.865047e-06
25	0x36404522	2.865047e-06
26	0x36404522	2.865047e-06
27	0x36404522	2.865047e-06
28	0x36404522	2.865047e-06
29	0x36404522	2.865047e-06
30	0x36404522	2.865047e-06
31	0x36404522	2.865047e-06
32	0x36404522	2.865047e-06
33	0x36404522	2.865047e-06
34	0x36404522	2.865047e-06
35	0x364046e0	2.8651484e-06
36	0x364044dc	2.865031e-06
37	0x36404adc	2.8653803e-06
38	0x3640634a	2.8668023e-06
39	0x36408008	2.8684753e-06
40	0x3640648c	2.8668755e-06
41	0x36401cb4	2.8626937e-06
42	0x36400e19	2.8618435e-06
43	0x36405348	2.8658706e-06
44	0x3640a6d6	2.870734e-06
45	0x36406512	2.866906e-06
46	0x36404094	2.864782e-06
47	0x36404522	2.865047e-06
48	0x36404522	2.865047e-06
49	0x36404522	2.865047e-06
50	0x36404522	2.865047e-06
51	0x36404522	2.865047e-06
52	0x36404522	2.865047e-06
53	0x36404522	2.865047e-06
54	0x36404522	2.865047e-06
55	0x36404522	2.865047e-06
56	0x36404522	2.865047e-06
57	0x36404522	2.865047e-06
58	0x36404522	2.865047e-06
59	0x36402da2	2.8636791e-06
60	0x36403d04	2.8645745e-06
61	0x364045be	2.8650825e-06
62	0x3640319e	2.863911e-06
63	0x36409e70	2.8702452e-06
64	0x364137a3	2.8791626e-06
65	0x36416b25	2.8821607e-06
66	0x3641e831	2.8894394e-06
67	0x364223c4	2.892907e-06
68	0x3641577e	2.8810168e-06
69	0x363eebaa	2.844938e-06
70	0x363f3187	2.8490047e-06
71	0x363e4176	2.835031e-06
72	0x363f2cac	2.848722e-06
73	0x363fff3b	2.8609782e-06
74	0x363f8603	2.8539223e-06
75	0x363fc627	2.8576558e-06
76	0x363feae3	2.859794e-06
77	0x3640181f	2.862427e-06
78	0x364040fb	2.8648053e-06
79	0x36403d56	2.8645932e-06
80	0x364047d8	2.8652048e-06
81	0x36404949	2.8652887e-06
82	0x36404522	2.865047e-06
83	0x36404522	2.865047e-06
84	0x36404522	2.865047e-06
85	0x36404522	2.865047e-06
86	0x364047ae	2.8651953e-06
87	0x364001a8	2.8611194e-06
88	0x36401fe1	2.8628785e-06
89	0x363f161d	2.847409e-06
90	0x363ed136	2.8433983e-06
91	0x363e4744	2.8353688e-06
92	0x3640a17c	2.8704226e-06
93	0x3643df53	2.9187256e-06
94	0x364768a9	2.971423e-06
95	0x363525ae	2.6993034e-06
96	0x362ba6d2	2.5578088e-06
97	0x362a5f93	2.5387606e-06
98	0x3628ab5a	2.513369e-06
99	0x362fb088	2.6179787e-06
100	0x362c645d	2.5688416e-06
101	0x362b6bb4	2.5543677e-06
102	0x3636ee85	2.725895e-06
103	0x363dd12a	2.8284944e-06
104	0x363cba24	2.8122531e-06
105	0x363dcf9d	2.8284041e-06
106	0x36403f3e	2.8647041e-06
107	0x36401bc5	2.8626393e-06
108	0x3640418e	2.8648387e-06
109	0x364046c1	2.8651414e-06
110	0x36404522	2.865047e-06
111	0x36404522	2.865047e-06
112	0x36404522	2.865047e-06
113	0x364048fb	2.865271e-06
114	0x364037af	2.8642642e-06
115	0x36400a47	2.8616212e-06
116	0x363e8df0	2.8394825e-06
117	0x363be94e	2.8000973e-06
118	0x3639f8fb	2.7712074e-06
119	0x363b8068	2.7939914e-06
120	0x362a8321	2.54083e-06
121	0x3622477b	2.4181488e-06
122	0x361a98f3	2.3036816e-06
123	0x3619f7b3	2.2942957e-06
124	0x3615b8de	2.2310337e-06
125	0x3605b0f0	1.9921536e-06
126	0x360872a9	2.033232e-06
127	0x35f3d851	1.8167867e-06
128	0x35e5cd36	1.7121554e-06
129	0x36030e76	1.9528939e-06
130	0x3606d42d	2.0091059e-06
131	0x36150a8d	2.2208872e-06
132	0x362962ee	2.5240547e-06
133	0x36303d30	2.626166e-06
134	0x363b9376	2.7951005e-06
135	0x36410b6e	2.8765894e-06
136	0x3640b46b	2.8715247e-06
137	0x364053a1	2.8658908e-06
138	0x36404522	2.865047e-06
139	0x36404522	2.865047e-06
140	0x36404522	2.865047e-06
141	0x36404522	2.865047e-06
142	0x36405fca	2.8665986e-06
143	0x3641548b	2.8808452e-06
144	0x363a5872	2.7767642e-06
145	0x36343a7b	2.685613e-06
146	0x362b900d	2.5564834e-06
147	0x3626503c	2.478263e-06
148	0x3622effa	2.4279566e-06
149	0x364a2785	3.012335e-06
150	0x3680ab6f	3.8346548e-06
151	0x369d69f5	4.6912996e-06
152	0x36965a62	4.4808703e-06
153	0x3668c3a0	3.4684563e-06
154	0x36316a10	2.6436792e-06
155	0x35f975a8	1.8586188e-06
156	0x35931c51	1.0960595e-06
157	0x355f21bf	8.312308e-07
158	0x35821f16	9.694802e-07
159	0x35b47ad4	1.3446793e-06
160	0x3602cc4e	1.949043e-06
161	0x3621f7d9	2.4135136e-06
162	0x36302c4f	2.6251835e-06
163	0x363bf4ee	2.800774e-06
164	0x363fda4c	2.8588283e-06
165	0x36406304	2.8667864e-06
166	0x36404748	2.865172e-06
167	0x36404522	2.865047e-06
168	0x36404522	2.865047e-06
169	0x36404082	2.8647778e-06
170	0x363fa3b7	2.8556512e-06
171	0x363d0370	2.8165196e-06
172	0x36379b91	2.7359677e-06
173	0x3634d255	2.694452e-06
174	0x36224f28	2.4185956e-06
175	0x363235fe	2.6555495e-06
176	0x367610c9	3.6666627e-06
177	0x369f0aff	4.7398494e-06
178	0x36ca3a5f	6.0268644e-06
179	0x36e18410	6.7208966e-06
180	0x36c2671c	5.793654e-06
181	0x368149f6	3.85311e-06
182	0x362ae5c7	2.5465722e-06
183	0x35eca7a5	1.7632161e-06
184	0x35c713cd	1.4832418e-06
185	0x355f0391	8.3079163e-07
186	0x352c9310	6.4289e-07
187	0x35a0bc8b	1.1975802e-06
188	0x360005fb	1.9076967e-06
189	0x361643e5	2.2391262e-06
190	0x36303cdf	2.6261475e-06
191	0x36377bea	2.7341252e-06
192	0x363eb8c9	2.8419765e-06
193	0x36404f3a	2.8656345e-06
194	0x36406549	2.8669185e-06
195	0x364044e9	2.865034e-06
196	0x36404522	2.865047e-06
197	0x364086f8	2.8688792e-06
198	0x3640fe20	2.875815e-06
199	0x363e02b9	2.831379e-06
200	0x364122fb	2.8779602e-06
201	0x362bfc81	2.5627962e-06
202	0x3612266b	2.1778058e-06
203	0x3631d83e	2.6500925e-06
204	0x3660dc98	3.3507004e-06
205	0x367cc708	3.7666778e-06
206	0x3680ddd8	3.8405233e-06
207	0x364ccf46	3.0519018e-06
208	0x360a2247	2.0583554e-06
209	0x35950b3a	1.1104632e-06
210	0x355a1805	8.124628e-07
211	0x358a8a77	1.03221e-06
212	0x35a318e2	1.2151688e-06
213	0x356517d7	8.534384e-07
214	0x353941c9	6.90136e-07
215	0x35a4808f	1.2256368e-06
216	0x361551b8	2.2250297e-06
217	0x361a6397	2.3005757e-06
218	0x36287195	2.5100064e-06
219	0x3636028c	2.7121596e-06
220	0x363ed3c3	2.8435468e-06
221	0x36409e70	2.8702452e-06
222	0x36405238	2.8658087e-06
223	0x364044aa	2.8650197e-06
224	0x36404534	2.865051e-06
225	0x36403cca	2.8645613e-06
226	0x3641b1b0	2.8862669e-06
227	0x3640a0f6	2.870392e-06
228	0x3642a389	2.9003443e-06
229	0x362c24c0	2.5651389e-06
230	0x3610fbc6	2.1604224e-06
231	0x361fa555	2.3789082e-06
232	0x360f9ebc	2.1401056e-06
233	0x360bd9c9	2.0839382e-06
234	0x35ed554e	1.7682703e-06
235	0x35adcb4b	1.294867e-06
236	0x35860c6d	9.987394e-07
237	0x35ba9e08	1.3904073e-06
238	0x35e761b5	1.7239278e-06
239	0x357f8e92	9.520237e-07
240	0x34e8fbf0	4.3396676e-07
241	0x35517795	7.803258e-07
242	0x3576c79e	9.193262e-07
243	0x3587d13d	1.011918e-06
244	0x360798db	2.0205541e-06
245	0x3621aa6c	2.4090068e-06
246	0x3626283e	2.4759352e-06
247	0x3633c98c	2.6790394e-06
248	0x363e79df	2.8383145e-06
249	0x364035ee	2.864162e-06
250	0x36404522	2.865047e-06
251	0x36404522	2.865047e-06
252	0x36404522	2.865047e-06
253	0x364047af	2.8651955e-06
254	0x3640218f	2.8629763e-06
255	0x363fc01d	2.8573043e-06

exp_avg f4 [30]
0	0x3a23f30a	0.0006254172
1	0x39c26096	0.00037074526
2	0x35729650	9.037076e-07
3	0x3a530ffc	0.0008051393
4	0x358e1e85	1.0588707e-06
5	0xb83cf147	-4.50474e-05
6	0xba4edd1a	-0.0007891223
7	0xb9ae7cdd	-0.00033280897
8	0xba98c9cc	-0.001165682
9	0x365b3a9f	3.2667665e-06
10	0x358033ec	9.551854e-07
11	0x35ddbc35	1.6520559e-06
12	0xb552e302	-7.8561436e-07
13	0xba23bf5f	-0.0006246473
14	0xb781ab66	-1.5457812e-05
15	0x39965b50	0.00028678263
16	0xba3bdf15	-0.00071667257
17	0xba58545b	-0.0008252316
18	0xb935ec79	-0.00017349598
19	0xba133929	-0.00056161225
20	0x39e7363f	0.0004410017
21	0xbaa82bf3	-0.0012830481
22	0x357ead61	9.4874673e-07
23	0x37187c6f	9.088878e-06
24	0x36c6614a	5.9121858e-06
25	0xba9104b4	-0.0011064024
26	0x362ca3ec	2.5725412e-06
27	0x37995b36	1.8281495e-05
28	0x33101bb9	3.3552826e-08
29	0x36491f41	2.9969526e-06

exp_avg_sq f4 [30]
0	0x36404522	2.865047e-06
1	0x3688ebb4	4.0805553e-06
2	0x3104210f	1.922732e-09
3	0x368b6ad3	4.154959e-06
4	0x31192737	2.2286721e-09
5	0x3352cba5	4.907965e-08
6	0x35b67722	1.3594729e-06
7	0x36d4dce8	6.343809e-06
8	0x35f8944e	1.8520602e-06
9	0x32d7d18d	2.5124587e-08
10	0x316c88c7	3.4420269e-09
11	0x31f50d9f	7.131987e-09
12	0x35a8c70b	1.2574905e-06
13	0x35910679	1.0805226e-06
14	0x35c146c7	1.440022e-06
15	0x35eceeca	1.7652867e-06
16	0x35fbbc46	1.8755752e-06
17	0x346ff119	2.234632e-07
18	0x360644eb	2.0007672e-06
19	0x35193908	5.7079933e-07
20	0x361b3e10	2.3132925e-06
21	0x361862ef	2.2707352e-06
22	0x3322e73b	3.7928867e-08
23	0x33acf38e	8.0536765e-08
24	0x33eff009	1.1172967e-07
25	0x36091a2d	2.0429827e-06
26	0x3283041d	1.5252278e-08
27	0x353179a4	6.611465e-07
28	0x2c3a826a	2.6504584e-12
29	0x32fe6816	2.9616825e-08

exp_avg f4 [4, 30]
0	0x3c90d1a3	0.017678088
1	0x3ccf7f27	0.025329186
2	0x3510203e	5.36911e-07
3	0x3c5c5443	0.013447824
4	0xb5e2da9d	-1.6901937e-06
5	0x36f2c3d9	7.2349617e-06
6	0x3d5f8e56	0.0545791
7	0xbd2f08b8	-0.042732924
8	0x3d5fd548	0.05464676
9	0x35ca99b5	1.5094907e-06
10	0xb5898c0c	-1.0248054e-06
11	0xb6d11cd4	-6.2320414e-06
12	0xbd9f50f2	-0.07779111
13	0x3d6ec297	0.058291044
14	0xbd369f64	-0.0445856
15	0x3c55956e	0.013036115
16	0xbd3eda5a	-0.046594955
17	0x3c008e74	0.0078464635
18	0x3d32f8f5	0.043694455
19	0xbcb36b62	-0.02190179
20	0xbd1fa977	-0.038979974
21	0x3d1ad964	0.037804976
22	0xb6eff9f2	-7.1518525e-06
23	0x379cb95c	1.8682964e-05
24	0xb609bd75	-2.052487e-06
25	0x3cb1ecfc	0.021719448
26	0xb5d1dd21	-1.563607e-06
27	0xb8751ca4	-5.8439226e-05
28	0x340e15cc	1.323271e-07
29	0xb7ef96b3	-2.8561195e-05
30	0x3a9d8d48	0.0012020255
31	0x3d3b38a4	0.045708314
32	0x3482c842	2.4360094e-07
33	0x3c335ac0	0.010946929
34	0xb2dbfb9e	-2.5609378e-08
35	0x367c935e	3.7636705e-06
36	0xbdd20d16	-0.10256402
37	0xbd878685	-0.066174544
38	0xbd936cd3	-0.07198491
39	0x35e74598	1.7231096e-06
40	0xb4ed51af	-4.4204123e-07
41	0xb63e0548	-2.831528e-06
42	0x3e191d4f	0.14952587
43	0xbd0df9a8	-0.03466192
44	0xbd274eeb	-0.040846746
45	0xbdcd93a1	-0.100379236
46	0x3d1625b8	0.036657065
47	0xbbac3279	-0.0052550402
48	0x3d190a99	0.037363622
49	0x3b8955de	0.0041911444
50	0x3df9036d	0.121588565
51	0xbe361356	-0.17780814
52	0xb6bd84d3	-5.6481017e-06
53	0x37a3328b	1.945465e-05
54	0x3625a72f	2.468423e-06
55	0xbca01bb5	-0.019544462
56	0xb49df659	-2.942277e-07
57	0xb8124671	-3.4874716e-05
58	0x322d159e	1.00748405e-08
59	0xb5cbb9d2	-1.517876e-06
60	0x3d4723b8	0.04861805
61	0xbcc2ca27	-0.023778034
62	0xb50b6486	-5.1927816e-07
63	0x3d000f9c	0.031264886
64	0x352175d1	6.014862e-07
65	0xb8bf5c2a	-9.1247566e-05
66	0x3c98dbec	0.018659554
67	0x3dac927c	0.08426377
68	0xbc9507b9	-0.018192159
69	0xb51ce694	-5.8450064e-07
70	0x351f28f5	5.9291716e-07
71	0x36b54d29	5.403203e-06
72	0xbdc2769e	-0.09495281
73	0xbd29e399	-0.04147682
74	0x3d8cd525	0.068765916
75	0x3df2528a	0.11832149
76	0xbd6141fe	-0.054994576
77	0xbc336e0e	-0.010951532
78	0xbd98a540	-0.07453394
79	0xbd8843c0	-0.06653547
80	0xbd3c8969	-0.046029482
81	0x3dc04b99	0.09389419
82	0x37f69472	2.939461e-05
83	0x36d3e8a4	6.315373e-06
84	0x36b4f7c3	5.3932613e-06
85	0xbd6f473a	-0.058417536
86	0x358d9aa5	1.0550326e-06
87	0x38458b85	4.7098398e-05
88	0xb44ca033	-1.905726e-07
89	0x37b406bc	2.1460808e-05
90	0xbd8a3c82	-0.06749822
91	0xbd41932c	-0.047259495
92	0xb48c3fb1	-2.6123374e-07
93	0xbd63fb6e	-0.055659704
94	0x35958fa6	1.1143172e-06
95	0x38a84b47	8.024886e-05
96	0x3cf03b9a	0.029325295
97	0x3cc9e172	0.024643634
98	0x3d11882c	0.035530254
99	0xb631b601	-2.6480996e-06
100	0x356a9804	8.7393005e-07
101	0x3675a48c	3.6603624e-06
102	0x3cbe3379	0.023217903
103	0x3c92353f	0.017847655
104	0x3c8887fe	0.016666409
105	0xbcfdc694	-0.030978478
106	0x3d84fb47	0.0649324
107	0x3c08f8d4	0.0083601065
108	0xbbd5c8da	-0.0065241875
109	0x3dac892e	0.084246024
110	0xbd15d414	-0.036579207
111	0x3d3cdcc3	0.046108972
112	0xb78b34c0	-1.6594655e-05
113	0xb83a730f	-4.4453012e-05
114	0xb6c2ecb1	-5.809205e-06
115	0x3d665e90	0.056242526
116	0x35578016	8.028013e-07
117	0x3841d799	4.6215577e-05
118	0x334ee424	4.8170605e-08
119	0x37109731	8.618271e-06

exp_avg_sq f4 [4, 30]
0	0x3886fd5c	6.43681e-05
1	0x395f13bf	0.00021274293
2	0x303a8e18	6.7868333e-10
3	0x3863865e	5.4246157e-05
4	0x31dd9102	6.448432e-09
5	0x3553d676	7.8915707e-07
6	0x393e52e1	0.00018150687
7	0x3a2dd0ff	0.0006630569
8	0x39c4e448	0.00037554116
9	0x31b8520c	5.3644325e-09
10	0x3159e9f8	3.1710652e-09
11	0x33d189e8	9.757406e-08
12	0x3ab2bc74	0.0013636486
13	0x39e43941	0.00043530206
14	0x3a1b3410	0.00059205387
15	0x38c6e186	9.483383e-05
16	0x3a2a1e78	0.00064895255
17	0x36747f8c	3.6433075e-06
18	0x3985fe03	0.0002555699
19	0x39b14c3d	0.00033816873
20	0x39cd434d	0.0003915079
21	0x39402bd2	0.00018326871
22	0x3555faa6	7.9713425e-07
23	0x34cec699	3.851499e-07
24	0x3262ca92	1.32009905e-08
25	0x38d749ea	0.000102657665
26	0x31c58510	5.748582e-09
27	0x36e1a7ce	6.7250576e-06
28	0x2e354f32	4.1224975e-11
29	0x361309ee	2.1910487e-06
30	0x38e58ab0	0.000109454035
31	0x39a51451	0.0003148639
32	0x2f199c4a	1.3970794e-10
33	0x396922aa	0.00022233525
34	0x2bd9fdfc	1.5489272e-12
35	0x33ba86ed	8.685843e-08
36	0x3a285140	0.00064207986
37	0x39751dc9	0.00023376117
38	0x3a2cf36f	0.0006597554
39	0x31f02e54	6.990186e-09
40	0x303e3f67	6.92117e-10
41	0x3294193a	1.724094e-08
42	0x3b11293c	0.0022149822
43	0x39adee73	0.0003317479
44	0x39357f0d	0.00017308835
45	0x39d859f5	0.00041265754
46	0x39957c22	0.0002851198
47	0x36a4b895	4.909069e-06
48	0x39853554	0.0002540747
49	0x399295d6	0.00027958927
50	0x3aba63ad	0.001422038
51	0x3af82397	0.0018931505
52	0x33322e0d	4.1485738e-08
53	0x34f43741	4.5488744e-07
54	0x323bb1de	1.0925275e-08
55	0x39924e4e	0.00027905632
56	0x2f61b219	2.0526904e-10
57	0x35bf5ddd	1.4257927e-06
58	0x2a8686e1	2.3896773e-13
59	0x3274359d	1.42148595e-08
60	0x390f325e	0.00013656306
61	0x3919f8ca	0.00014683898
62	0x302e80c8	6.348384e-10
63	0x38aa27b5	8.113628e-05
64	0x309028f2	1.0489016e-09
65	0x357ebef3	9.490024e-07
66	0x397cd589	0.00024112141
67	0x3a0b13b2	0.0005305364
68	0x397caf6b	0.00024097941
69	0x305d177a	8.0432694e-10
70	0x30aa6e44	1.2400467e-09
71	0x339b6401	7.2359406e-08
72	0x3a733a71	0.0009278423
73	0x39b07458	0.0003365602
74	0x39b12460	0.00033787172
75	0x3a57dad5	0.00082342076
76	0x39a8375f	0.00032084712
77	0x368aa794	4.132229e-06
78	0x3a0225e5	0.0004964753
79	0x39ebeafb	0.00044997767
80	0x39b6a67c	0.00034837786
81	0x3a247e6d	0.00062749424
82	0x362683ce	2.4812648e-06
83	0x34cdb6dd	3.8317276e-07
84	0x33ad7003	8.076315e-08
85	0x399845cb	0.000290437
86	0x3133ec48	2.6182239e-09
87	0x36a3e6d4	4.8846505e-06
88	0x2ebc062a	8.550345e-11
89	0x35b9cbe8	1.3842919e-06
90	0x3a0ff019	0.00054907944
91	0x3a0ab9d6	0.0005291974
92	0x2f30a72a	1.6066495e-10
93	0x3a07c165	0.00051786593
94	0x311eac80	2.309008e-09
95	0x347612a1	2.2917312e-07
96	0x3978b625	0.00023718977
97	0x3983da34	0.0002514884
98	0x39816470	0.0002467963
99	0x328dd092	1.6509407e-08
100	0x311a852e	2.2485653e-09
101	0x3302d0e7	3.045798e-08
102	0x39c8b62c	0.000382827
103	0x397b3130	0.00023955549
104	0x393c93cd	0.00017984137
105	0x39fa42d6	0.00047733512
106	0x39c37604	0.00037281227
107	0x36b1b0c7	5.2955907e-06
108	0x394a8793	0.00019314727
109	0x3a0f3cd3	0.00054640806
110	0x39e3a1ca	0.00043417356
111	0x3981fb62	0.00024792092
112	0x35248217	6.1284067e-07
113	0x36260073	2.473619e-06
114	0x33a00548	7.451541e-08
115	0x395746d5	0.00020530385
116	0x30d0cee9	1.5192799e-09
117	0x362b86b1	2.5559386e-06
118	0x2cc035df	5.462949e-12
119	0x343f85f4	1.7836993e-07

exp_avg f4 [4]
0	0xba1fb959	-0.00060929876
1	0xb8fefc4b	-0.00012158657
2	0xbb3447f0	-0.0027508698
3	0x3b642e01	0.003481746

exp_avg_sq f4 [4]
0	0x383a78e3	4.445844e-05
1	0x3818865d	3.636476e-05
2	0x381338cd	3.510043e-05
3	0x3846937b	4.734423e-05
