nesy/6q2hevm9/checkpoints/epoch=9-step=330.ckpt (torch, 290531 bytes, 12 tensors)

neural_predicates.digit.net.0.weight f4 [30, 784]
000000 59 d9 6f 3c 6f 30 08 bd 9d bf 7e bc bf 99 13 bd
       0.014639222 -0.033249315 -0.015548614 -0.036035296
000010 71 1a e4 3c af cb 9e bb 2e 69 19 3b 42 a1 c6 bb
       0.02784464 -0.0048460583 0.002340864 -0.006061704
000020 a1 04 a9 3c 42 86 70 bc b6 cc b8 3c 41 15 03 3c
       0.02063209 -0.014680447 0.022558551 0.008000673
000030 63 34 64 bc 37 34 ee bc da 87 9f bc a0 de 27 3b
       -0.013928506 -0.029077632 -0.019473959 0.0025614873
000040 30 81 d8 3c 91 3e 06 bc 6e de 17 bd ea 70 62 bb
       0.026428789 -0.008193628 -0.03707736 -0.0034552165
000050 fc e2 3d 3c 48 e8 14 bd 3b 8d 48 bc 4c 11 31 bc
       0.011589762 -0.036354333 -0.012240703 -0.010807347
000060 85 61 49 3b fa 0a 30 bc d2 4e d2 bc 76 f6 62 3c
       0.0030728292 -0.0107448045 -0.02567235 0.013852706
000070 32 a2 d1 bb b2 e3 b8 3c 06 9a d7 3c fa a4 22 bc
       -0.006397509 0.022569511 0.026318561 -0.009927029
000080 26 36 a2 bc 5e e1 10 bd b8 92 16 3a 0e 83 11 bd
       -0.01980121 -0.035371177 0.00057439087 -0.035525374
000090 b8 b1 21 3c 71 10 0b bd df ce 05 bd 0b 29 e4 3c
       0.009869032 -0.033951227 -0.03266799 0.027851602
0000a0 0a e2 d1 bc 0a 00 64 3b 19 73 f8 3c 78 ef 01 3b
       -0.02562048 0.0034790062 0.03032832 0.0019826572
0000b0 2f e3 18 bd 5c 88 11 bd ae 41 b3 bc c9 df 64 3c
       -0.037326034 -0.035530433 -0.021881904 0.01396937
0000c0 d7 cd a3 bc d1 a9 b3 3c f0 50 b7 bc f3 f8 03 bd
       -0.019995613 0.02193156 -0.022377461 -0.03221984
0000d0 44 53 02 bd 4e e7 14 bd f3 5c f4 bc 37 8b fa bb
       -0.03181769 -0.0363534 -0.029829478 -0.0076459902
0000e0 21 a7 db 3c f7 6b e0 bc a6 6c e9 bc 06 71 05 3d
       0.026813092 -0.027395232 -0.02849419 0.03257849
0000f0 92 a3 c2 3c 0f c1 ec 3c 70 08 d7 bc ad ca fd bc
       0.023759637 0.028900651 -0.02624914 -0.030980432
000100 8d 9b d5 bb 1f 7e bd 3c e9 bf 12 bd 4a 64 0b bb
       -0.0065187872 0.023131428 -0.03582755 -0.0021269494
000110 da a2 fa 3c e5 45 dd bc 4d 85 20 bc 55 c2 f2 3c
       0.030595232 -0.027010867 -0.009797406 0.02963368
000120 d5 03 1d 3b 9e 5a ca bb c0 98 eb bc 68 08 02 bb
       0.0023958583 -0.006175353 -0.02875936 -0.0019841436
000130 b1 25 66 3c a4 a7 62 bc 32 78 85 3c cf 67 0f bd
       0.014047072 -0.013833914 0.016292665 -0.03501111
000140 02 2c d8 3c 56 04 37 bb ac 51 49 bb 3c 4a df 3b
       0.026388172 -0.0027926168 -0.0030718846 0.0068142693
000150 48 d9 fc 3c 5e 3a ab 3c f3 26 97 bc 40 6f 07 3c
       0.030865327 0.020901855 -0.01845119 0.00826627
000160 08 8a e0 3c 7a ab 79 bc 5c 2e 16 bd 5f 10 07 bd
       0.027409568 -0.015238637 -0.036665305 -0.032974597
000170 c1 a1 d5 3c 12 20 ba bc d6 53 9b 39 c5 aa f1 3b
       0.026078107 -0.02272037 0.00029626366 0.0073750936
000180 e7 86 92 3c 20 a7 18 3c 41 35 43 ba c2 9e d3 bc
       0.017886592 0.009317189 -0.0007446595 -0.025832538
000190 f6 43 f7 3c ff 2a e9 3c ba 1a 0b bd 76 e0 8f 3c
       0.030183773 0.028462885 -0.033961035 0.017563086
0001a0 7b 36 e5 3c 88 21 14 ba 64 95 5f bc 69 9b d9 bb
       0.02798008 -0.00056507485 -0.013646457 -0.006640841
0001b0 9a 67 3e 3c db 5d 67 3c a7 55 69 bc 75 fa fc bc
       0.01162138 0.014121498 -0.0142416125 -0.030881146
0001c0 da c0 8d 3c 98 ee f2 3c db c2 3b bc 72 43 c3 bc
       0.017303873 0.029654786 -0.011460031 -0.023835871
0001d0 bd ac c0 bc 27 25 45 3c 8d 88 91 3b 70 d8 a8 bc
       -0.023519868 0.012032784 0.004441327 -0.020611018
0001e0 80 e7 26 bc 3c 00 d5 bc f7 27 67 3c c4 18 9a 3c
       -0.01018703 -0.026001088 0.014108649 0.018810637
0001f0 02 6c 19 3c e6 9a a2 3c 67 5a 90 3c f8 94 26 bb
       0.00936413 0.019849252 0.017621232 -0.0025418382
000200 d1 c9 14 bc 7f 88 e7 bc d2 d6 50 3c fb 1b 50 bc
       -0.00908132 -0.028263329 0.01274653 -0.012701984
000210 81 1f 7d 3c 30 28 18 bc 07 2d 70 3c cb 51 c3 3c
       0.015449406 -0.009286925 0.014659173 0.023842713
000220 f1 d8 b5 bc 16 ab ad 3b 77 46 30 bc 2f 82 33 3b
       -0.022198172 0.005299936 -0.010758988 0.0027390828
000230 f5 a7 ed 3b cc 97 a3 bc 85 73 51 3c 30 c5 26 3c
       0.007252688 -0.019969843 0.01278389 0.010178849
000240 58 69 ae 3c 35 d9 b2 3b a3 b6 ad 3c 1d a9 0f bd
       0.021290466 0.005458022 0.021205252 -0.03507339
000250 ff d8 2d 3c 86 be 9c bb fc b1 9c 3b b8 5d 87 bc
       0.010610818 -0.0047834544 0.0047819596 -0.01652418
000260 9a 71 22 3c f7 03 1d bd a8 a1 08 bd f0 c6 5a bd
       0.00991478 -0.03833386 -0.033357292 -0.053412378
000270 b9 f1 e8 bc f3 d8 6f bd 38 2b 04 bc d7 94 98 bb
       -0.028435575 -0.05855651 -0.008066945 -0.004656415
000280 18 2b 9a bb b5 24 08 bc 09 1c ae 3c 1f 3f fa bc
       -0.004704844 -0.008309533 0.021253603 -0.030547677
000290 50 3c 9e 3b 0f 88 62 bb e3 41 8c ba 26 3b 74 bc
       0.004828967 -0.003456596 -0.0010700788 -0.01490668
0002a0 53 aa e1 3b 75 16 a0 3c 3e fa 21 bc e4 49 91 bc
       0.0068867593 0.019541958 -0.009886323 -0.01773543
0002b0 fd de 89 bc 0b 82 5e bc 28 04 a6 3c ea 6f ec 3b
       -0.016829962 -0.013580809 0.020265654 0.0072154896
0002c0 ca 03 18 3c 84 c9 73 3a 03 77 a6 bc 4a 8b 5c bb
       0.009278247 0.00092997425 -0.020320421 -0.0033652359
0002d0 49 21 9d ba 52 57 cf bc 83 19 25 bc 93 df f1 bc
       -0.0011988069 -0.025310192 -0.010076883 -0.029525554
0002e0 a3 82 f5 3a c5 3d da bc 64 d2 a8 bb 7d a9 98 3b
       0.0018730949 -0.026640782 -0.0051520336 0.0046588765
0002f0 f2 a1 5c bb 19 59 9a bc 14 b2 03 bd 83 e7 95 3c
       -0.0033665863 -0.018841313 -0.03215225 0.01829887
000300 08 fd e2 3c cb a7 76 3c 5b 46 75 bc d9 09 ad 3c
       0.027708545 0.015054653 -0.014970387 0.02112286
000310 8f 54 95 3c 84 c0 57 bc 7c d6 a4 bc 65 4f ee 3c
       0.018228797 -0.013168458 -0.020121805 0.029090593
000320 e2 e7 e9 3c 80 fa 9f bc 02 ef 9d 3c 64 93 0f bd
       0.028552953 -0.019528627 0.019279007 -0.035052672
000330 a6 59 b6 3c 83 a4 67 bc c6 f5 0b bb 37 71 07 bd
       0.022259545 -0.014138344 -0.002135621 -0.033066954
000340 79 73 dc bc 55 cf 49 3c 1e 83 3e 3b e7 d6 04 3b
       -0.02691053 0.012317498 0.002906985 0.0020269693
000350 c7 5d 35 bc f6 07 bf bc 06 dd 01 bd ab 45 f2 bb
       -0.011069722 -0.023319226 -0.031704925 -0.007393559
000360 58 11 b3 3c 3b 46 0f bd 16 12 c7 bc eb 71 b5 3c
       0.021858856 -0.034979086 -0.024300616 0.022149047
000370 36 49 ab bc 68 50 da bc 01 9d 9b 3c 00 b2 16 bc
       -0.020908933 -0.026649669 0.018995764 -0.009197712
000380 fb 70 d0 3c 6b 7a 03 bd 76 b9 d9 bc f5 fc e5 3c
       0.025444498 -0.03209917 -0.026577692 0.02807472
000390 01 d8 a1 ba 4a c1 a9 bb 25 44 18 bc 8b 7b 95 3c
       -0.0012347699 -0.0051805126 -0.009293591 0.018247386
0003a0 ee 87 d0 bc cc f0 9e bc 7f a4 04 bd 0e 13 fb 3a
       -0.025455441 -0.01940193 -0.03238344 0.0019155459
0003b0 39 0b 39 bd 5a d8 ca 3c 7d 4d ae bc 38 5c 4b 3c
       -0.04517672 0.024761368 -0.021277184 0.012412123
0003c0 e8 12 c2 bc 0e c0 8d bd 0d 84 20 bd c8 9a 68 bd
       -0.023690656 -0.06921397 -0.039188433 -0.056788236
0003d0 f2 90 5e bd 06 a7 2b bd dc 7a 87 3c 11 d6 8f 3c
       -0.05433745 -0.041907333 0.016538076 0.01755813
0003e0 72 76 65 bc 08 89 83 bc 1f 5b 38 3c ad 74 28 bc
       -0.01400529 -0.016056553 0.011252194 -0.010281724
0003f0 14 37 55 bc 18 5e 77 3c b7 ac eb 3c 94 68 3d 3c
       -0.01301362 0.015098117 0.02876888 0.011560578

neural_predicates.digit.net.0.bias f4 [30]
000000 3c f3 f6 3c cc 87 5f 3c 93 1a a1 ba 71 d1 be bb
       0.03014528 0.013643216 -0.0012291245 -0.005823307
000010 19 a8 6b 3c 24 5a b3 39 42 c4 f2 b9 e4 c8 f9 3c
       0.014383339 0.000342087 -0.0004630406 0.0304913
000020 2c aa 0c 3c cd 41 a7 bc cb fc 8e 3c a4 b4 df 3c
       0.008585494 -0.020417118 0.017454525 0.027307816
000030 96 92 a9 3c 9d 46 93 3c 1d 65 e9 39 14 b7 00 bd
       0.02069978 0.017978007 0.00044516558 -0.031424597
000040 06 b7 45 3c c0 5e e4 bb b5 5a 84 bc 29 81 2f 3c
       0.012067562 -0.006969303 -0.016156534 0.0107119465
000050 91 31 48 3c ef ba 14 bd 01 e1 59 bc 07 86 1a 3c
       0.012218849 -0.036311086 -0.013298274 0.009431369
000060 24 2c c6 bc 08 15 41 ba 9a 8e a2 3b 46 55 eb 3a
       -0.02419097 -0.00073654996 0.004960847 0.0017954491
000070 4f fd eb 3c 13 24 ed bb
       0.02880731 -0.0072369664

neural_predicates.digit.net.2.weight f4 [2, 30]
000000 39 ad 0b be 39 4f 06 be 9f 13 7b bd 32 b8 47 3e
       -0.13640298 -0.13116159 -0.06129801 0.19503859
000010 35 6d 0a bc 2c 5a 22 3e 5b dd f7 bd c8 89 74 3d
       -0.008448889 0.1585471 -0.12102767 0.05970171
000020 35 5f 89 bd 9c 06 26 3e c2 64 0c be bc c4 6c 3d
       -0.067076124 0.16213459 -0.13710311 0.057804808
000030 36 5c 71 3e 42 c0 96 bd a9 bd a5 bd 6f f3 15 be
       0.23570332 -0.07360889 -0.080928154 -0.14643644
000040 3d 65 6d 3c 5a d1 1a be 91 ea 14 3d 7f 94 3d 3c
       0.014489469 -0.15118924 0.036356512 0.011571049
000050 34 80 c8 bd 50 07 ca bc cb c0 28 3e 94 a3 43 3e
       -0.09790078 -0.02466169 0.16479795 0.19105369
000060 1f d5 85 bd 2a 14 22 3e 0e 2c a8 3d 2c ea 50 3c
       -0.0653479 0.15828004 0.08211528 0.012751143
000070 a0 c1 e3 3b 2c 27 4d bd e8 08 59 3e 38 d5 a7 3d
       0.006950572 -0.050086185 0.21194804 0.08194965
000080 fe 83 30 3e 30 94 48 be c5 29 b9 bd 06 63 15 3e
       0.17237851 -0.19587779 -0.0904117 0.14588556
000090 7d 53 c7 3c 72 9f fd bd 2c 16 e3 3d 9f c2 a5 bc
       0.024331803 -0.123839274 0.11088213 -0.020234404
0000a0 29 31 e9 3d 88 a2 3b 3e 52 76 10 be 0c 76 cd bc
       0.1138633 0.1832372 -0.14107636 -0.025080703
0000b0 bb 13 9d 3d 7a 5f 2c be 37 81 61 be 86 90 c5 3d
       0.07669779 -0.16833296 -0.22021948 0.09646706
0000c0 29 48 b7 bd 21 02 03 be ae f6 35 3e 58 55 d1 bc
       -0.0894931 -0.12793781 0.17769882 -0.02555339
0000d0 15 64 b5 3b d7 c3 46 bd c8 52 31 3e 07 d1 0e be
       0.0055356123 -0.04852661 0.17316735 -0.13946925
0000e0 fd c6 b2 3d 30 86 1c 3e a5 9e 31 3b b1 48 cb 3d
       0.0872936 0.15285563 0.0027102616 0.09925974

neural_predicates.digit.net.2.bias f4 [2]
000000 db f6 1f 3e 56 f9 8f 3d
       0.15621512 0.07029979

exp_avg f4 [30, 784]
000000 19 31 46 38 19 31 46 38 19 31 46 38 19 31 46 38
       4.7252604e-05 4.7252604e-05 4.7252604e-05 4.7252604e-05
000010 19 31 46 38 19 31 46 38 19 31 46 38 19 31 46 38
       4.7252604e-05 4.7252604e-05 4.7252604e-05 4.7252604e-05
000020 19 31 46 38 19 31 46 38 19 31 46 38 19 31 46 38
       4.7252604e-05 4.7252604e-05 4.7252604e-05 4.7252604e-05
000030 19 31 46 38 19 31 46 38 19 31 46 38 19 31 46 38
       4.7252604e-05 4.7252604e-05 4.7252604e-05 4.7252604e-05
000040 19 31 46 38 19 31 46 38 19 31 46 38 19 31 46 38
       4.7252604e-05 4.7252604e-05 4.7252604e-05 4.7252604e-05
000050 19 31 46 38 19 31 46 38 19 31 46 38 19 31 46 38
       4.7252604e-05 4.7252604e-05 4.7252604e-05 4.7252604e-05
000060 19 31 46 38 19 31 46 38 19 31 46 38 19 31 46 38
       4.7252604e-05 4.7252604e-05 4.7252604e-05 4.7252604e-05
000070 19 31 46 38 19 31 46 38 19 31 46 38 19 31 46 38
       4.7252604e-05 4.7252604e-05 4.7252604e-05 4.7252604e-05
000080 19 31 46 38 19 31 46 38 19 31 46 38 19 31 46 38
       4.7252604e-05 4.7252604e-05 4.7252604e-05 4.7252604e-05
000090 19 31 46 38 19 31 46 38 19 31 46 38 8b 41 46 38
       4.7252604e-05 4.7252604e-05 4.7252604e-05 4.726792e-05
0000a0 a5 51 46 38 74 3e 46 38 20 c7 44 38 00 17 4d 38
       4.7282916e-05 4.7265043e-05 4.691549e-05 4.889723e-05
0000b0 60 ba 5d 38 60 83 51 38 19 31 46 38 19 31 46 38
       5.286408e-05 4.9951836e-05 4.7252604e-05 4.7252604e-05
0000c0 19 31 46 38 19 31 46 38 19 31 46 38 19 31 46 38
       4.7252604e-05 4.7252604e-05 4.7252604e-05 4.7252604e-05
0000d0 19 31 46 38 19 31 46 38 19 31 46 38 19 31 46 38
       4.7252604e-05 4.7252604e-05 4.7252604e-05 4.7252604e-05
0000e0 19 31 46 38 19 31 46 38 19 31 46 38 1e 31 46 38
       4.7252604e-05 4.7252604e-05 4.7252604e-05 4.7252623e-05
0000f0 19 31 46 38 19 31 46 38 ad 32 46 38 ae 31 46 38
       4.7252604e-05 4.7252604e-05 4.7254074e-05 4.7253146e-05
000100 1e 31 46 38 19 31 46 38 99 2c 46 38 91 ed 45 38
       4.7252623e-05 4.7252604e-05 4.7248413e-05 4.718971e-05
000110 fe 52 33 38 48 2f 28 b7 97 7c c8 37 94 cd 13 38
       4.2754218e-05 -1.0024589e-05 2.3899875e-05 3.523899e-05
000120 9a fa 8a b7 63 60 c9 b8 51 2e 4d 37 c8 4f 3e 38
       -1.6567577e-05 -9.60238e-05 1.2229736e-05 4.5373832e-05
000130 20 52 44 38 19 31 46 38 19 31 46 38 19 31 46 38
       4.6806526e-05 4.7252604e-05 4.7252604e-05 4.7252604e-05
000140 19 31 46 38 19 31 46 38 19 31 46 38 19 31 46 38
       4.7252604e-05 4.7252604e-05 4.7252604e-05 4.7252604e-05
000150 19 31 46 38 19 31 46 38 2c 2f 46 38 bb 30 46 38
       4.7252604e-05 4.7252604e-05 4.725081e-05 4.7252262e-05
000160 1e 31 46 38 22 31 46 38 1e 31 46 38 90 48 46 38
       4.7252623e-05 4.7252637e-05 4.7252623e-05 4.7274458e-05
000170 8a 6a 19 38 44 dd 21 38 7c 8a 59 38 d5 63 75 38
       3.6577265e-05 3.859146e-05 5.1865805e-05 5.8505528e-05
000180 01 e9 f8 37 87 07 2e b6 ab c9 47 b8 68 f7 86 b8
       2.9672405e-05 -2.5932402e-06 -4.7633115e-05 -6.435701e-05
000190 ea 08 1d b9 f1 46 53 b9 bc 91 ae b8 53 cd 47 38
       -0.00014976008 -0.00020148956 -8.324112e-05 4.763652e-05
0001a0 24 eb 3e 38 e6 8a 4b 38 b9 b9 4e 38 56 37 46 38
       4.551852e-05 4.852833e-05 4.9287195e-05 4.7258414e-05
0001b0 9d 51 46 38 68 3a 46 38 19 31 46 38 19 31 46 38
       4.7282887e-05 4.7261274e-05 4.7252604e-05 4.7252604e-05
0001c0 19 31 46 38 19 31 46 38 a0 2a 46 38 9b 2f 46 38
       4.7252604e-05 4.7252604e-05 4.7246576e-05 4.7251215e-05
0001d0 88 20 46 38 3c 9f 44 38 cb 79 47 38 ce 0d 4e 38
       4.7237176e-05 4.687834e-05 4.7558726e-05 4.9127084e-05
0001e0 b0 64 26 b8 90 28 96 b8 30 22 19 37 88 42 11 38
       -3.9671257e-05 -7.160113e-05 9.127471e-06 3.4632656e-05
0001f0 0f 98 ab 37 43 4d 27 38 10 e6 c1 38 b2 69 dc b6
       2.0455596e-05 3.988786e-05 9.2458096e-05 -6.5688155e-06
000200 80 dd 53 b9 cf 4d d5 b9 3b bb 00 b9 cc 71 15 b8
       -0.00020205043 -0.00040684498 -0.0001227678 -3.563035e-05
000210 80 fa 05 b9 b1 e4 b5 b8 42 14 2f b8 66 ca a0 37
       -0.00012777187 -8.67335e-05 -4.1742118e-05 1.9167735e-05
000220 8e 67 3f 38 ec 31 46 38 19 31 46 38 19 31 46 38
       4.563439e-05 4.7253372e-05 4.7252604e-05 4.7252604e-05
000230 19 31 46 38 19 31 46 38 f8 23 46 38 6c 2d 46 38
       4.7252604e-05 4.7252604e-05 4.7240377e-05 4.724918e-05
000240 3a 17 46 38 ad 96 41 38 24 b6 4f 38 49 79 92 38
       4.722851e-05 4.6155114e-05 4.9522278e-05 6.9844136e-05
000250 da b9 88 b8 55 40 ea b8 19 bd 7b b6 d2 72 46 38
       -6.519603e-05 -0.00011169972 -3.7511984e-06 4.7313813e-05
000260 94 3d 8c 38 0e a5 d8 38 b3 03 01 3a d5 29 d4 39
       6.68719e-05 0.000103304264 0.00049215107 0.00040466958
000270 8a 94 af b8 28 68 3e b9 66 4d 20 b9 f5 f8 f5 b8
       -8.372318e-05 -0.00018158613 -0.00015287622 -0.00011728882
000280 28 c3 8b b9 ea 0e 7e b9 e5 48 44 b9 ea e6 d8 b8
       -0.0002665755 -0.00024228884 -0.00018719172 -0.00010342694
000290 d8 98 ef 35 57 17 46 38 e7 29 46 38 19 31 46 38
       1.7851371e-06 4.7228616e-05 4.7245903e-05 4.7252604e-05
0002a0 19 31 46 38 19 31 46 38 10 2e 46 38 e4 11 46 38
       4.7252604e-05 4.7252604e-05 4.7249778e-05 4.722354e-05
0002b0 12 03 46 38 9a 5a 47 38 db 4e 54 37 26 7f 7c b8
       4.7209738e-05 4.7529677e-05 1.2654545e-05 -6.0199898e-05
0002c0 38 4f d5 b8 e7 b3 ca b7 38 67 8a 38 00 da 04 39
       -0.00010171387 -2.416405e-05 6.599579e-05 0.00012669712
0002d0 d0 e9 eb 38 31 29 89 39 5b 1a d4 39 65 e8 a9 39
       0.00011249224 0.00026161366 0.00040455427 0.0003240734
0002e0 20 df 9e 37 c6 7f 12 b9 e6 6a a6 b9 c9 ef 84 b9
       1.8938968e-05 -0.00013971244 -0.00031741633 -0.00025355656
0002f0 52 bd ad b9 ae 11 73 b9 36 b8 ff b7 ed be 50 38
       -0.00033138186 -0.00023180872 -3.0484149e-05 4.9768878e-05
000300 ac 14 31 b7 26 6d 4c 38 58 39 46 38 b5 32 46 38
       -1.0554835e-05 4.8739043e-05 4.7260284e-05 4.7254103e-05
000310 19 31 46 38 19 31 46 38 c5 2e 46 38 50 2c 46 38
       4.7252604e-05 4.7252604e-05 4.7250436e-05 4.7248148e-05
000320 e4 d4 12 38 7e 08 b3 37 67 31 5c b8 e5 85 35 b9
       3.5007382e-05 2.1342417e-05 -5.2498097e-05 -0.00017311385
000330 20 f9 54 b8 a0 a3 0d 39 e8 fa 5a 39 8e 3a 88 39
       -5.0776755e-05 0.00013507763 0.0002088357 0.00025983568
000340 0c 80 9e 38 7f dc 23 39 66 1a 01 39 a7 f0 8a 38
       7.557878e-05 0.00015627033 0.00012312233 6.625178e-05
000350 06 c8 bf b7 fa 27 24 b9 76 44 54 b9 d6 8c 43 b9
       -2.2862117e-05 -0.00015655151 -0.00020243399 -0.00018649115
000360 c6 f7 40 b9 61 5e 60 b8 a5 f0 ff 38 0e 90 13 39
       -0.0001840285 -5.349366e-05 0.00012204171 0.00014072677
000370 cf 09 dc 38 c0 ac 0f 39 4f 24 46 38 8e 34 46 38
       0.000104922445 0.00013701897 4.7240694e-05 4.7255824e-05
000380 b9 a3 47 38 19 31 46 38 e8 30 46 38 96 30 46 38
       4.7597776e-05 4.7252604e-05 4.7252426e-05 4.7252128e-05
000390 65 68 16 38 5d ea 23 38 f1 a5 b7 b7 fb 2f 24 b9
       3.5860012e-05 3.9080496e-05 -2.1892572e-05 -0.00015658133
0003a0 9d 79 d6 b8 2f ac c3 38 64 60 0e 39 2a e1 5a 38
       -0.000102269674 9.330396e-05 0.00013578084 5.218495e-05
0003b0 5e 40 f2 b8 c5 bc 90 38 a5 48 c1 b8 12 05 83 b8
       -0.000115514486 6.901616e-05 -9.216488e-05 -6.247511e-05
0003c0 1c 9e 0d 39 6f 45 87 38 ee ff e0 37 43 de f7 b8
       0.00013505708 6.450235e-05 2.6822057e-05 -0.00011819277
0003d0 c0 ed 33 b9 a9 16 88 b7 dc e1 9c 38 57 69 4b 38
       -0.00017159339 -1.6223015e-05 7.480729e-05 4.8497077e-05
0003e0 fb f0 89 38 86 32 98 38 19 31 46 38 19 31 46 38
       6.577555e-05 7.2573355e-05 4.7252604e-05 4.7252604e-05
0003f0 19 31 46 38 75 30 46 38 77 76 46 38 a0 40 46 38
       4.7252604e-05 4.7252008e-05 4.7317208e-05 4.7267065e-05

exp_avg_sq f4 [30, 784]
000000 66 ff 59 38 66 ff 59 38 66 ff 59 38 66 ff 59 38
       5.197469e-05 5.197469e-05 5.197469e-05 5.197469e-05
000010 66 ff 59 38 66 ff 59 38 66 ff 59 38 66 ff 59 38
       5.197469e-05 5.197469e-05 5.197469e-05 5.197469e-05
000020 66 ff 59 38 66 ff 59 38 66 ff 59 38 66 ff 59 38
       5.197469e-05 5.197469e-05 5.197469e-05 5.197469e-05
000030 66 ff 59 38 66 ff 59 38 66 ff 59 38 66 ff 59 38
       5.197469e-05 5.197469e-05 5.197469e-05 5.197469e-05
000040 66 ff 59 38 66 ff 59 38 66 ff 59 38 66 ff 59 38
       5.197469e-05 5.197469e-05 5.197469e-05 5.197469e-05
000050 66 ff 59 38 66 ff 59 38 66 ff 59 38 66 ff 59 38
       5.197469e-05 5.197469e-05 5.197469e-05 5.197469e-05
000060 66 ff 59 38 66 ff 59 38 66 ff 59 38 66 ff 59 38
       5.197469e-05 5.197469e-05 5.197469e-05 5.197469e-05
000070 66 ff 59 38 66 ff 59 38 66 ff 59 38 66 ff 59 38
       5.197469e-05 5.197469e-05 5.197469e-05 5.197469e-05
000080 66 ff 59 38 66 ff 59 38 66 ff 59 38 66 ff 59 38
       5.197469e-05 5.197469e-05 5.197469e-05 5.197469e-05
000090 66 ff 59 38 66 ff 59 38 66 ff 59 38 e7 27 5a 38
       5.197469e-05 5.197469e-05 5.197469e-05 5.2012412e-05
0000a0 e1 4f 5a 38 53 20 5a 38 bf c8 59 38 f2 60 59 38
       5.2049643e-05 5.2005355e-05 5.192379e-05 5.182712e-05
0000b0 fd dc 59 38 d9 ee 59 38 66 ff 59 38 66 ff 59 38
       5.1942643e-05 5.1959276e-05 5.197469e-05 5.197469e-05
0000c0 66 ff 59 38 66 ff 59 38 66 ff 59 38 66 ff 59 38
       5.197469e-05 5.197469e-05 5.197469e-05 5.197469e-05
0000d0 66 ff 59 38 66 ff 59 38 66 ff 59 38 66 ff 59 38
       5.197469e-05 5.197469e-05 5.197469e-05 5.197469e-05
0000e0 66 ff 59 38 66 ff 59 38 66 ff 59 38 57 ff 59 38
       5.197469e-05 5.197469e-05 5.197469e-05 5.1974635e-05
0000f0 60 ff 59 38 66 ff 59 38 9e ff 59 38 35 ff 59 38
       5.1974668e-05 5.197469e-05 5.1974894e-05 5.197451e-05
000100 53 ff 59 38 66 ff 59 38 f0 00 5a 38 80 1e 5a 38
       5.197462e-05 5.197469e-05 5.1976123e-05 5.2003656e-05
000110 a7 3f 5a 38 0d be 59 38 96 b4 59 38 a4 88 59 38
       5.203453e-05 5.191383e-05 5.1905015e-05 5.1864088e-05
000120 82 23 5a 38 97 4b 5a 38 56 f0 59 38 44 ef 59 38
       5.200832e-05 5.204565e-05 5.1960662e-05 5.1959665e-05
000130 04 ff 59 38 66 ff 59 38 66 ff 59 38 66 ff 59 38
       5.1974333e-05 5.197469e-05 5.197469e-05 5.197469e-05
000140 66 ff 59 38 66 ff 59 38 66 ff 59 38 66 ff 59 38
       5.197469e-05 5.197469e-05 5.197469e-05 5.197469e-05
000150 66 ff 59 38 66 ff 59 38 c2 d2 59 38 98 f4 59 38
       5.197469e-05 5.197469e-05 5.1933115e-05 5.1964627e-05
000160 57 ff 59 38 64 ff 59 38 66 ff 59 38 f6 fe 59 38
       5.1974635e-05 5.1974683e-05 5.197469e-05 5.1974283e-05
000170 6f f5 59 38 db 12 59 38 20 49 57 38 5f 1a 53 38
       5.196541e-05 5.1754392e-05 5.1328097e-05 5.033088e-05
000180 8f 00 51 38 91 83 50 38 3a 3d 4d 38 db cc 48 38
       4.9830003e-05 4.9713595e-05 4.893283e-05 4.7874502e-05
000190 c2 71 4e 38 aa 42 54 38 7d 1f 56 38 48 42 55 38
       4.9220173e-05 5.0606825e-05 5.10509e-05 5.0844887e-05
0001a0 9b a9 57 38 26 43 58 38 70 6a 58 38 e9 78 59 38
       5.1417952e-05 5.156095e-05 5.159754e-05 5.1849438e-05
0001b0 e6 60 59 38 f2 d1 59 38 66 ff 59 38 66 ff 59 38
       5.1827075e-05 5.193236e-05 5.197469e-05 5.197469e-05
0001c0 66 ff 59 38 66 ff 59 38 92 66 59 38 d7 d4 59 38
       5.197469e-05 5.197469e-05 5.1832358e-05 5.1935054e-05
0001d0 ea fb 59 38 8e ec 59 38 64 e2 59 38 cb 11 59 38
       5.1971445e-05 5.195714e-05 5.1947674e-05 5.1753403e-05
0001e0 e0 d0 57 38 33 0c 55 38 4e 51 4a 38 84 38 38 38
       5.1454525e-05 5.079452e-05 4.8236274e-05 4.3921653e-05
0001f0 9d 11 1c 38 fa 97 dd 37 00 c5 a3 37 11 a6 83 37
       3.7209702e-05 2.6416023e-05 1.952285e-05 1.5693748e-05
000200 c1 c9 9c 37 08 69 bc 37 59 e4 dd 37 0d c3 06 38
       1.8690598e-05 2.2460255e-05 2.6451586e-05 3.2129745e-05
000210 02 15 20 38 98 c2 3b 38 0a a3 4d 38 d6 c5 56 38
       3.8166538e-05 4.4765504e-05 4.902765e-05 5.1205825e-05
000220 3a 65 59 38 7f f8 59 38 66 ff 59 38 66 ff 59 38
       5.1831106e-05 5.196826e-05 5.197469e-05 5.197469e-05
000230 66 ff 59 38 66 ff 59 38 54 ea 59 38 9e f0 59 38
       5.197469e-05 5.197469e-05 5.1955067e-05 5.1960924e-05
000240 ed 07 5a 38 d5 04 5a 38 1f ab 58 38 d5 ec 53 38
       5.198263e-05 5.197975e-05 5.1657782e-05 5.0526887e-05
000250 8e ff 4f 38 bc 48 48 38 36 1a 37 38 d9 76 15 38
       4.959065e-05 4.7751455e-05 4.365501e-05 3.5635054e-05
000260 98 f1 c4 37 bf f4 30 37 86 de b3 36 f0 8b 8a 36
       2.3477522e-05 1.0547402e-05 5.360521e-06 4.1290114e-06
000270 48 fe c1 36 b0 c8 f7 36 86 7f 13 37 7e 63 78 37
       5.7814505e-06 7.3845367e-06 8.791574e-06 1.4805117e-05
000280 52 6c d7 37 55 68 1b 38 a0 7c 42 38 5c e4 53 38
       2.5680438e-05 3.7052047e-05 4.636927e-05 5.0518996e-05
000290 21 d4 58 38 54 f6 59 38 6a ff 59 38 66 ff 59 38
       5.1695974e-05 5.1966243e-05 5.1974705e-05 5.197469e-05
0002a0 66 ff 59 38 66 ff 59 38 6d ff 59 38 95 00 5a 38
       5.197469e-05 5.197469e-05 5.1974715e-05 5.1975792e-05
0002b0 ff 00 5a 38 bb c9 58 38 3b 26 55 38 ba 50 50 38
       5.1976178e-05 5.168629e-05 5.0818762e-05 4.9666247e-05
0002c0 6c 96 47 38 af b4 35 38 95 dd 1e 38 58 04 fe 37
       4.758539e-05 4.3322038e-05 3.78765e-05 3.0281182e-05
0002d0 06 62 a9 37 aa b0 27 37 9d 60 d4 36 76 b3 e1 36
       2.0192016e-05 9.9951085e-06 6.3293396e-06 6.7264145e-06
0002e0 4e 49 22 37 e4 34 36 37 69 f1 2b 37 c5 fd 4f 37
       9.67302e-06 1.086036e-05 1.0248602e-05 1.2397247e-05
0002f0 59 b2 a4 37 12 9b 04 38 a4 b2 34 38 7a ea 4c 38
       1.9633373e-05 3.1615673e-05 4.3081716e-05 4.8855763e-05
000300 11 ec 57 38 74 be 59 38 b4 03 5a 38 68 ff 59 38
       5.147985e-05 5.1914205e-05 5.19787e-05 5.1974697e-05
000310 66 ff 59 38 66 ff 59 38 6d ff 59 38 a0 ed 59 38
       5.197469e-05 5.197469e-05 5.1974715e-05 5.1958137e-05
000320 df ff 59 38 e8 fa 57 38 81 06 52 38 1a ea 4b 38
       5.197513e-05 5.149367e-05 5.007396e-05 4.8616996e-05
000330 7e d7 3c 38 42 3b 25 38 d3 b2 15 38 b0 12 0a 38
       4.5023386e-05 3.9394254e-05 3.569091e-05 3.2919168e-05
000340 53 24 cf 37 c6 b0 44 37 1c 8b c6 36 28 c1 be 36
       2.4693238e-05 1.1723669e-05 5.9170543e-06 5.6849276e-06
000350 e3 9a 01 37 25 fb 2f 37 aa a5 64 37 f6 c8 96 37
       7.725062e-06 1.0489287e-05 1.3628431e-05 1.7974973e-05
000360 b9 9d c8 37 13 e0 03 38 82 11 29 38 c2 83 48 38
       2.3915303e-05 3.144152e-05 4.0309045e-05 4.7806425e-05
000370 c4 02 55 38 7c 03 59 38 bc fe 59 38 6c ff 59 38
       5.0785733e-05 5.1740077e-05 5.197407e-05 5.1974712e-05
000380 1c f6 59 38 66 ff 59 38 fc ff 59 38 a0 d5 59 38
       5.196604e-05 5.197469e-05 5.1975236e-05 5.1935785e-05
000390 51 cb 59 38 cc 7f 57 38 f5 5d 4e 38 36 7a 40 38
       5.1926185e-05 5.1379015e-05 4.920173e-05 4.5890185e-05
0003a0 0a d4 2f 38 32 58 1c 38 29 f8 1e 38 05 1d 1f 38
       4.1920728e-05 3.7275437e-05 3.7901253e-05 3.793558e-05
0003b0 46 2d dd 37 ef a4 27 37 ed 43 04 36 4c 22 2b 36
       2.6366335e-05 9.992377e-06 1.970907e-06 2.550095e-06
0003c0 16 0b 3c 36 c8 06 ad 36 f3 a1 55 37 8b 81 ca 37
       2.8020636e-06 5.156591e-06 1.2733496e-05 2.41406e-05
0003d0 49 e5 07 38 02 46 16 38 ab ee 21 38 0b 9a 3e 38
       3.2400047e-05 3.5827987e-05 3.8607668e-05 4.5442994e-05
0003e0 56 ee 53 38 7c b3 59 38 66 ff 59 38 66 ff 59 38
       5.0528288e-05 5.190399e-05 5.197469e-05 5.197469e-05
0003f0 66 ff 59 38 ed 01 5a 38 2a 09 5a 38 e2 08 5a 38
       5.197469e-05 5.1977044e-05 5.1983785e-05 5.1983523e-05

exp_avg f4 [30]
000000 19 31 46 b8 c5 2e ed b7 2f a4 9f 22 d1 81 69 38
       -4.7252604e-05 -2.827438e-05 4.3270872e-18 5.567243e-05
000010 c8 0b 0c 22 15 bf 02 1f ac 4e 62 1e 3c 6f 12 ae
       1.8979775e-18 2.768663e-20 1.1980609e-20 -3.3295353e-11
000020 06 20 79 22 3e 84 8e 20 78 2d 0c b8 69 80 88 b7
       3.3762746e-18 2.4143246e-19 -3.3420947e-05 -1.6272259e-05
000030 98 7a 63 38 a2 3d bd 20 d4 3a c1 b7 fe a4 39 21
       5.423519e-05 3.205863e-19 -2.3034787e-05 6.2898803e-19
000040 b1 66 0b 38 a2 41 0b b8 fc 28 8e 37 7f fd 5b af
       3.323582e-05 -3.3201308e-05 1.6946804e-05 -2.0007994e-10
000050 d8 2c 1d b8 b6 79 e9 1c 8c fa bf 37 50 9e 25 38
       -3.747348e-05 1.5450108e-21 2.2885644e-05 3.9486506e-05
000060 dc 63 9e 23 ae 04 32 38 dd 5f 48 20 a1 87 a6 22
       1.7172686e-17 4.2442865e-05 1.6972377e-19 4.5137993e-18
000070 af c8 4c 1e 25 21 a1 b7
       1.08411705e-20 -1.920813e-05

exp_avg_sq f4 [30]
000000 66 ff 59 38 ba f7 42 37 99 c9 da 35 2f 64 9c 37
       5.197469e-05 1.1620979e-05 1.6300938e-06 1.86433e-05
000010 e8 e1 29 35 73 af 9b 2e e9 36 69 2d a3 48 a4 34
       6.3286143e-07 7.07975e-11 1.3256709e-11 3.060023e-07
000020 c2 07 8b 35 23 fa b8 31 e1 f8 d3 37 10 fd b9 35
       1.0358565e-06 5.383542e-09 2.5269053e-05 1.3857225e-06
000030 a4 87 19 37 5d d5 09 32 e6 5c bb 33 d2 b2 8d 33
       9.151092e-06 8.022963e-09 8.724764e-08 6.5983514e-08
000040 63 ee 36 37 73 b0 d5 37 04 6b 66 35 5f 38 27 35
       1.0903549e-05 2.5473744e-05 8.5837405e-07 6.229438e-07
000050 74 b2 08 38 d3 38 78 2a e7 05 84 36 ad 1c 86 35
       3.2591124e-05 2.204654e-13 3.9345937e-06 9.992124e-07
000060 5f 47 73 37 b8 63 15 37 ac a8 40 31 c5 df a5 35
       1.4500546e-05 8.90431e-06 2.8035556e-09 1.2358583e-06
000070 9e f6 3e 2d b7 73 7b 36
       1.085501e-11 3.746927e-06

exp_avg f4 [2, 30]
000000 b2 36 f6 3a dd 5c 28 3b 8f 64 a8 a2 f0 de 0b bb
       0.0018784611 0.0025690116 -4.564296e-18 -0.0021342598
000010 84 81 eb 23 da 1c c0 1f c9 80 a1 1e 23 ea b5 ad
       2.5533603e-17 8.1362894e-20 1.7099802e-20 -2.0681295e-11
000020 b2 72 c0 a2 71 91 a3 1e 2f 41 04 3b 36 e2 40 3b
       -5.2163143e-18 1.731845e-20 0.0020180454 0.0029431707
000030 ca 79 0c bb b4 4a 8a a1 ca d2 21 3c dc e5 c5 23
       -0.0021434897 -9.371017e-19 0.009876916 2.1456132e-17
000040 d5 ad b1 ba 00 d2 ef 3a c5 0e 17 bb ba e6 e2 ae
       -0.0013555834 0.0018296838 -0.0023049575 -1.03182754e-10
000050 69 bb e1 3a d4 38 2c 1d 8a ab da ba 17 a0 e3 ba
       0.001722199 2.279339e-21 -0.0016683203 -0.0017366436
000060 c3 0b 02 a4 05 e6 c4 ba 6e 12 40 23 1d c6 20 a3
       -2.819922e-17 -0.0015022164 1.04122435e-17 -8.7155695e-18
000070 c0 34 58 a0 84 69 0b 3b ff 36 f6 ba 0d 5d 28 bb
       -1.8313365e-19 0.002127261 -0.0018784701 -0.0025690228
000080 8f 64 a8 22 05 df 0b 3b 84 81 eb a3 da 1c c0 9f
       4.564296e-18 0.0021342647 -2.5533603e-17 -8.1362894e-20
000090 9f 80 a1 9e f1 b1 c3 2d b2 72 c0 22 71 91 a3 9e
       -1.7099735e-20 2.2247955e-11 5.2163143e-18 -1.731845e-20
0000a0 4f 41 04 bb 64 e2 40 bb eb 79 0c 3b b4 4a 8a 21
       -0.0020180529 -0.0029431814 0.0021434973 9.371017e-19
0000b0 df d2 21 bc dc e5 c5 a3 f9 ad b1 3a 43 d2 ef ba
       -0.009876936 -2.1456132e-17 0.0013555876 -0.0018296916
0000c0 d8 0e 17 3b 59 0d e6 2e ae bb e1 ba d4 38 2c 9d
       0.002304962 1.046156e-10 -0.0017222071 -2.279339e-21
0000d0 a9 ab da 3a 3f a0 e3 3a c3 0b 02 24 27 e6 c4 3a
       0.0016683239 0.0017366483 2.819922e-17 0.0015022204
0000e0 6e 12 40 a3 1d c6 20 23 ce 34 58 20 af 69 0b bb
       -1.04122435e-17 8.7155695e-18 1.8313383e-19 -0.002127271

exp_avg_sq f4 [2, 30]
000000 78 45 9a 3a a5 b5 bc 3a 74 2f d9 35 e9 c8 80 3a
       0.0011769971 0.0014397396 1.6181571e-06 0.0009825501
000010 79 1e a1 38 ef 0f 28 30 19 8c ed 2d 6a a4 eb 33
       7.682754e-05 6.1140687e-10 2.7005996e-11 1.0972947e-07
000020 9f c2 06 36 11 a9 f3 2d b6 b9 5d 3a 72 56 8a 3a
       2.008084e-06 2.7700982e-11 0.0008458154 0.0010554327
000030 f3 97 6b 3a fa 1b a7 33 f2 db 4c 3a 93 2f 42 38
       0.0008987181 7.7816324e-08 0.0007814757 4.629751e-05
000040 11 11 45 3a f2 d5 75 3a c4 fd 80 3a b9 22 3a 35
       0.00075174967 0.00093778886 0.0009841253 6.934093e-07
000050 62 8f 42 3a 05 10 07 2b 82 41 0e 3a d3 a6 5f 38
       0.00074218784 4.7983866e-13 0.00054266315 5.332271e-05
000060 98 bc 34 38 f1 2d 83 3a 6e 24 29 37 4e c3 a0 36
       4.3090986e-05 0.0010008198 1.0081667e-05 4.791108e-06
000070 15 dc 54 31 2e ff 50 3a 7a 45 9a 3a a6 b5 bc 3a
       3.0975162e-09 0.0007972595 0.0011769973 0.0014397397
000080 71 2f d9 35 eb c8 80 3a 77 1e a1 38 e9 0f 28 30
       1.6181567e-06 0.0009825503 7.682753e-05 6.1140654e-10
000090 98 8b ed 2d 6f a4 eb 33 a1 c2 06 36 26 a9 f3 2d
       2.7005773e-11 1.09729505e-07 2.0080845e-06 2.7701019e-11
0000a0 b9 b9 5d 3a 72 56 8a 3a f6 97 6b 3a fa 1b a7 33
       0.0008458156 0.0010554327 0.00089871825 7.7816324e-08
0000b0 f3 db 4c 3a 97 2f 42 38 14 11 45 3a f2 d5 75 3a
       0.00078147574 4.6297526e-05 0.00075174985 0.00093778886
0000c0 c6 fd 80 3a ba 22 3a 35 62 8f 42 3a 07 10 07 2b
       0.0009841255 6.9340933e-07 0.00074218784 4.7983877e-13
0000d0 80 41 0e 3a d7 a6 5f 38 97 bc 34 38 f2 2d 83 3a
       0.00054266304 5.3322725e-05 4.3090982e-05 0.00100082
0000e0 6a 24 29 37 51 c3 a0 36 19 dc 54 31 30 ff 50 3a
       1.0081663e-05 4.7911094e-06 3.0975171e-09 0.0007972596

exp_avg f4 [2]
000000 0d a8 11 39 b4 a8 11 b9
       0.00013890881 -0.00013891124

exp_avg_sq f4 [2]
000000 f1 12 22 3a f1 12 22 3a
       0.0006182632 0.0006182632
