nesy/jgh8hjou/checkpoints/epoch=9-step=130.ckpt (torch, 290467 bytes, 12 tensors)

neural_predicates.digit.net.0.weight f4 [30, 784]
0	0xbbeb1564	-0.007174181
1	0x3d0ca843	0.034340154
2	0xbbda8f3e	-0.006669908
3	0x3c932db5	0.01796613
4	0x3c3c06fb	0.011476274
5	0x3d0fc4af	0.03509968
6	0xbc15f606	-0.009152895
7	0x3cc101f7	0.023560507
8	0xbc01d3cd	-0.007924032
9	0xbb82f105	-0.003996017
10	0xbced807d	-0.028991932
11	0xbbd95209	-0.006632094
12	0xbcd550f1	-0.026039572
13	0x3b204408	0.0024454612
14	0x3cbbd4b6	0.022928577
15	0xbccc8d57	-0.02496974
16	0x3c6dd709	0.0145166
17	0xbca2b32f	-0.019860832
18	0x3c11f03c	0.008907374
19	0xbce6da3f	-0.02818024
20	0xbc1e4606	-0.00966025
21	0x3ca1e5ec	0.019762956
22	0x3c5db1da	0.013531173
23	0xbc65ecb8	-0.014033489
24	0x3b4586db	0.0030140195
25	0xbcaba090	-0.020950586
26	0x3ce0c8f7	0.027439578
27	0xbbcc14cc	-0.006228065
28	0x3cc0390e	0.023464706
29	0xbcc21702	-0.023692612
30	0xbcbf3b4d	-0.023343707
31	0xbd00dd7b	-0.03146122
32	0xbc871bd0	-0.016492754
33	0x3ca4b427	0.020105435
34	0xbc899051	-0.016792448
35	0xbcde3492	-0.027124677
36	0x3cdd5245	0.027016768
37	0x3c813bd8	0.015775606
38	0xbbde346c	-0.0067811515
39	0x3d0bb1f6	0.034105264
40	0xbc91ee45	-0.017813811
41	0xbacc9df8	-0.0015611043
42	0x3c826cdb	0.015921047
43	0x3d19b19f	0.03752291
44	0xbb85d3aa	-0.00408407
45	0x3d147f17	0.036254015
46	0x3c54598a	0.012960801
47	0x3c47a93e	0.012186347
48	0x3c5437d3	0.012952763
49	0xbcfd2019	-0.030899094
50	0xbca0a7ab	-0.0196112
51	0xbd028d0f	-0.031872805
52	0xbc60c336	-0.013718417
53	0x3c0853d0	0.008320764
54	0x3cd26d2a	0.02568682
55	0x3d1526c0	0.036413908
56	0x3c4c7e9e	0.01248136
57	0xbd0244a4	-0.031803742
58	0xbcc41ac7	-0.02393855
59	0x3cbd0795	0.023074904
60	0xbc4b4fc2	-0.012409152
61	0x3d17066a	0.03687135
62	0x3cd85967	0.026409818
63	0x3c8aedff	0.016959189
64	0xbbdfb362	-0.006826804
65	0x3d0afff2	0.033935495
66	0xbbf52483	-0.007481159
67	0x3ac84428	0.0015279101
68	0xbccb71bf	-0.024834512
69	0xbcc38223	-0.023865765
70	0x3c8e4687	0.017367614
71	0x3baad87c	0.005213795
72	0xbcc9b567	-0.024622632
73	0xbc5d4132	-0.013504313
74	0xbc806a79	-0.01567577
75	0x3c8fcdf4	0.01755426
76	0x3c90dc95	0.017683307
77	0x3cb4afb6	0.022056442
78	0x3ced0b5e	0.028936084
79	0xbbfae765	-0.007656979
80	0x3ca6162c	0.020274244
81	0xbbb17741	-0.0054158275
82	0x3cce373a	0.025172818
83	0x3c0e58a1	0.008688123
84	0x3cd3e234	0.025864698
85	0xbcd5aa91	-0.026082309
86	0x3c8f129e	0.017464932
87	0xbb50be67	-0.003185177
88	0x3d13403d	0.035949934
89	0xbca1b8fe	-0.019741531
90	0x3cc2e26d	0.023789609
91	0x3a3a690d	0.00071109907
92	0x3ce79331	0.028268429
93	0xbba9308b	-0.0051632575
94	0x3b98534f	0.004648603
95	0x3cc36907	0.023853792
96	0xbd05527f	-0.032549378
97	0xbccc0808	-0.024906173
98	0x3c4bd268	0.0124403015
99	0x3cbecdeb	0.023291549
100	0x3d08ace6	0.033368014
101	0xba8fa383	-0.0010958764
102	0xbcc30249	-0.0238048
103	0xbc88f2fc	-0.016717426
104	0xbb15a32c	-0.0022832854
105	0x3cbff066	0.02343006
106	0xbbc326c0	-0.005955547
107	0x3be1662a	0.006878634
108	0xbc70db5b	-0.014700736
109	0x3c9d6754	0.01921431
110	0xbc02d647	-0.007985658
111	0xbbb0a08e	-0.0053902334
112	0x3cfa2ce8	0.030538991
113	0x3c18cdec	0.009326439
114	0xbc1e21da	-0.0096516255
115	0x3d054a7d	0.03254174
116	0xbcb92a5b	-0.022603204
117	0x3cc2defe	0.023787972
118	0xbcffd0ed	-0.031227553
119	0xbbc71463	-0.0060754283
120	0xbc817b3d	-0.015805835
121	0x3d05b991	0.032647673
122	0x3cac38ad	0.021023119
123	0xbcda4932	-0.02664623
124	0xbcea468e	-0.028598096
125	0x3b4724c2	0.00303869
126	0x3cda8cd0	0.026678473
127	0x3cb11490	0.02161625
128	0x3cbe6d48	0.023245469
129	0xbcbb2677	-0.02284549
130	0xbd040a06	-0.03223612
131	0x3b08ea3e	0.0020891572
132	0xbcce99b0	-0.025219768
133	0xbcad3f08	-0.02114822
134	0xbc38bd65	-0.011275624
135	0x3d0447ef	0.032295164
136	0x3cef20b5	0.0291904
137	0x3b804adb	0.0039151735
138	0xbb5a2874	-0.0033288272
139	0x3cafa45a	0.021440674
140	0x3c575ada	0.013144219
141	0xbcec61cb	-0.028855225
142	0xbba2a15b	-0.0049630827
143	0x3ce51e30	0.027968496
144	0xba9f2e4b	-0.0012144534
145	0xba48f14c	-0.00076653506
146	0x3cc31667	0.023814393
147	0xba8e6eb3	-0.0010866731
148	0xbc1d11b8	-0.009586744
149	0xbcb576a5	-0.0221513
150	0xbbf98b59	-0.0076154885
151	0x3cbee703	0.023303514
152	0x3d0b5ea1	0.034025792
153	0xbafe92b2	-0.0019422381
154	0xbd386d10	-0.045025885
155	0x3d0cc5f2	0.034368463
156	0x3ca74c00	0.020421982
157	0x3c722a13	0.014780539
158	0x3d1d2e31	0.03837413
159	0xbc850f7d	-0.016242737
160	0x3c85f321	0.016351284
161	0xbc399ed5	-0.011329372
162	0xbc5d69ea	-0.013514021
163	0x3c4b2020	0.012397796
164	0x3cd83e7f	0.026396988
165	0x3d16f2eb	0.03685276
166	0x3bd40c7b	0.0064712144
167	0x3d146657	0.03623041
168	0x3c0b1a87	0.008490211
169	0x3cc8b95e	0.024502452
170	0xbbd28a4e	-0.0064251786
171	0x3cd89fe7	0.026443435
172	0xba3340d3	-0.00068379677
173	0x3cbb55e9	0.022868114
174	0xbce369b5	-0.027760366
175	0xbadeee9a	-0.0017008365
176	0x3c1d53df	0.009602516
177	0xbc80b353	-0.015710508
178	0xbca6da0e	-0.020367648
179	0xbc0d275f	-0.008615344
180	0xb9c52ac7	-0.0003760664
181	0x3bcf4914	0.0063258503
182	0xbcdf4753	-0.02725569
183	0x3c8d42a6	0.017243695
184	0x3c65822c	0.014008086
185	0xbce5932b	-0.028024277
186	0x3d104c64	0.0352291
187	0xbc45d4e4	-0.012074683
188	0x3c74a346	0.014931506
189	0xb97d4c77	-0.00024156446
190	0x3c6a8949	0.014314958
191	0xbc1d2729	-0.009591856
192	0x3c6cc21a	0.014450574
193	0x3d1976b9	0.03746674
194	0x3d011ee2	0.031523593
195	0x3b424579	0.002964346
196	0xbc0673c0	-0.008206308
197	0x3c0e731e	0.008694438
198	0xbc3cc6f1	-0.011522041
199	0x3cfb9feb	0.030715903
200	0x3b40a330	0.0029394142
201	0x3c039a7c	0.008032437
202	0x3bbf3f06	0.0058363704
203	0xbcd4d4e0	-0.025980413
204	0x3bc8d9bd	0.006129472
205	0x3c77a7e9	0.0151157165
206	0xbc455f55	-0.012046655
207	0xbca38f66	-0.019965839
208	0x3ca18e63	0.019721216
209	0xbb8135a8	-0.003943164
210	0xbc297db3	-0.01034491
211	0xbcc74d35	-0.024328807
212	0xbc7b54d8	-0.015340053
213	0xba44292b	-0.0007482941
214	0x3c2f0fe6	0.010684943
215	0xbcd02d8e	-0.025412347
216	0x3bd4c06c	0.006492665
217	0x3d098fa1	0.03358424
218	0x39d3a3d7	0.00040367126
219	0x3c259cb7	0.0101081645
220	0x3d09867a	0.033575512
221	0x3d170cce	0.036877446
222	0x3ca0397f	0.019558666
223	0x3c4c98f4	0.012487639
224	0x3d1c1449	0.038105283
225	0x3d1a7da1	0.037717465
226	0xbca437cd	-0.02004614
227	0xbcdb1786	-0.026744615
228	0x3d170af2	0.036875673
229	0xbc8e7090	-0.017387658
230	0xbca82a69	-0.020528035
231	0x3cf49518	0.02985625
232	0x3b3c0f1e	0.0028695534
233	0x3c655dd8	0.013999425
234	0xbcb77515	-0.022394696
235	0x3b1e39a1	0.0024143236
236	0xbcd61712	-0.026134048
237	0x3cde12b5	0.02710853
238	0x3c8331be	0.01601493
239	0xbc70d3dd	-0.01469895
240	0x3cc0a300	0.023515224
241	0xbc7c0d30	-0.0153840035
242	0xbcb865b8	-0.02250944
243	0x3d123593	0.035695624
244	0x3c5f0217	0.013611338
245	0x3c93082a	0.017948229
246	0x3c117e32	0.008880185
247	0xb95ed95d	-0.00021252544
248	0x3ca9a953	0.020710623
249	0xbc5e8001	-0.013580323
250	0x3bfbf3ab	0.0076889596
251	0x3c8c5c59	0.017133879
252	0xbc66957e	-0.014073728
253	0xb9b5549a	-0.00034586043
254	0x3be7e9c5	0.007077428
255	0x3ce2a32d	0.027665699

neural_predicates.digit.net.0.bias f4 [30]
0	0x3cc60107	0.024170412
1	0x3ba78f19	0.005113494
2	0x3cf38775	0.029727677
3	0x3bdad9fb	0.0066788173
4	0xbc0fd17f	-0.008777975
5	0x3cfdf517	0.031000657
6	0xbd01835d	-0.03161942
7	0xbb85be1a	-0.0040814998
8	0x3d409442	0.04701639
9	0xbc3c3140	-0.0114863515
10	0xbb89e24e	-0.004207886
11	0x3c924e87	0.01785971
12	0x3ca61c42	0.020277146
13	0xbcdd4226	-0.027009081
14	0x3bd3ed2e	0.006467483
15	0x3cd4c566	0.025973033
16	0x3d4b0d2a	0.0495731
17	0xbc1860a8	-0.009300388
18	0x3d00d148	0.031449586
19	0x3b6d1d70	0.0036180876
20	0x3d17dc07	0.03707507
21	0xb9d54551	-0.0004067817
22	0xbcb3f6b0	-0.021968216
23	0x3c6aa634	0.0143218525
24	0xbca96808	-0.020679489
25	0x3cdca9cc	0.026936434
26	0xbcd3e632	-0.025866602
27	0xbcfbdd42	-0.030745152
28	0x3cc5a5db	0.024126938
29	0x3cd263a2	0.025682274

neural_predicates.digit.net.2.weight f4 [2, 30]
0	0xbdc1d81f	-0.0946505
1	0x3e4b0d79	0.19829358
2	0xbde5b321	-0.11215807
3	0x3d161c0a	0.036647834
4	0x3de1a13e	0.11017083
5	0xbe565c4d	-0.20933647
6	0xbc8abc40	-0.016935468
7	0x3d6e3506	0.058156036
8	0x3e1b1913	0.15146284
9	0xbe0fee39	-0.14055718
10	0xbdc75210	-0.09732449
11	0x3d4c206f	0.04983562
12	0x3d00744b	0.031360906
13	0xbe46e33f	-0.19422625
14	0xbd35c1d8	-0.044374317
15	0x3d9309aa	0.07179578
16	0x3e1abaf4	0.1511038
17	0x3e37adb8	0.17937362
18	0x3be90ac2	0.007111878
19	0xbdd41ff0	-0.10357654
20	0x3dd36143	0.103212856
21	0x3d72ee0d	0.059309054
22	0xbe2e200b	-0.17004411
23	0xbe0269d2	-0.1273568
24	0xbe1a7139	-0.15082254
25	0xbd01e70d	-0.031714488
26	0x3e03fbc2	0.12889007
27	0xbda31f4a	-0.07964952
28	0xbe10503f	-0.14093111
29	0x3e1263f3	0.1429594
30	0xbdf57023	-0.11984279
31	0xbd6b480d	-0.05744176
32	0x3e413e9f	0.18871544
33	0xbd363856	-0.04448732
34	0x3e240c3c	0.16020292
35	0xbdf2a30d	-0.11847506
36	0xbc80de88	-0.015731111
37	0xbd63c4a3	-0.05560745
38	0xbcb567d5	-0.022144238
39	0xbd561135	-0.052262504
40	0xbcbfe451	-0.0234243
41	0xbdac6ec0	-0.084195614
42	0x3caaf881	0.020870449
43	0x3d9311a9	0.07181103
44	0xbe0db495	-0.13838418
45	0x3e4b158c	0.19832438
46	0x3d94864d	0.07252178
47	0xbe02d7c2	-0.12777618
48	0x3dbb6660	0.09150386
49	0xbe2ced11	-0.16887309
50	0xbdc3a1c8	-0.09552342
51	0x3da4c751	0.08045829
52	0x3dad1257	0.08450764
53	0x3de79839	0.11308331
54	0x3d01dbfe	0.03170394
55	0x3d12d6b3	0.035849284
56	0xbe46a348	-0.19398224
57	0x3d9fb309	0.0779782
58	0xbc7c56dc	-0.015401568
59	0x3d955054	0.07290712

neural_predicates.digit.net.2.bias f4 [2]
0	0xbe05112b	-0.1299483
1	0xbdc047dc	-0.09388706

exp_avg f4 [30, 784]
0	0xae01ddfc	-2.9528366e-11
1	0xae01ddfc	-2.9528366e-11
2	0xae01ddfc	-2.9528366e-11
3	0xae01ddfc	-2.9528366e-11
4	0xae01ddfc	-2.9528366e-11
5	0xae01ddfc	-2.9528366e-11
6	0xae01ddfc	-2.9528366e-11
7	0xae01ddfc	-2.9528366e-11
8	0xae01ddfc	-2.9528366e-11
9	0xae01ddfc	-2.9528366e-11
10	0xae01ddfc	-2.9528366e-11
11	0xae01ddfc	-2.9528366e-11
12	0xae01ddfc	-2.9528366e-11
13	0xae01ddfc	-2.9528366e-11
14	0xae01ddfc	-2.9528366e-11
15	0xae01ddfc	-2.9528366e-11
16	0xae01ddfc	-2.9528366e-11
17	0xae01ddfc	-2.9528366e-11
18	0xae01ddfc	-2.9528366e-11
19	0xae01ddfc	-2.9528366e-11
20	0xae01ddfc	-2.9528366e-11
21	0xae01ddfc	-2.9528366e-11
22	0xae01ddfc	-2.9528366e-11
23	0xae01ddfc	-2.9528366e-11
24	0xae01ddfc	-2.9528366e-11
25	0xae01ddfc	-2.9528366e-11
26	0xae01ddfc	-2.9528366e-11
27	0xae01ddfc	-2.9528366e-11
28	0xae01ddfc	-2.9528366e-11
29	0xae01ddfc	-2.9528366e-11
30	0xae01ddfc	-2.9528366e-11
31	0xae01ddfc	-2.9528366e-11
32	0xae01ddfc	-2.9528366e-11
33	0xae01ddfc	-2.9528366e-11
34	0xae01ddfc	-2.9528366e-11
35	0xae01ddfc	-2.9528366e-11
36	0xae01ddfc	-2.9528366e-11
37	0xae01ddfc	-2.9528366e-11
38	0xae01ddfc	-2.9528366e-11
39	0xae01ddfc	-2.9528366e-11
40	0xae01ddfc	-2.9528366e-11
41	0xae01ddfc	-2.9528366e-11
42	0xae01ddfc	-2.9528366e-11
43	0xae01ddfc	-2.9528366e-11
44	0xae01ddfc	-2.9528366e-11
45	0xae01ddfc	-2.9528366e-11
46	0xae01ddfc	-2.9528366e-11
47	0xae01ddfc	-2.9528366e-11
48	0xae01ddfc	-2.9528366e-11
49	0xae01ddfc	-2.9528366e-11
50	0xae01ddfc	-2.9528366e-11
51	0xae01ddfc	-2.9528366e-11
52	0xae01ddfc	-2.9528366e-11
53	0xae01ddfc	-2.9528366e-11
54	0xae01ddfc	-2.9528366e-11
55	0xae01ddfc	-2.9528366e-11
56	0xae01ddfc	-2.9528366e-11
57	0xae01ddfc	-2.9528366e-11
58	0xae01ddfc	-2.9528366e-11
59	0xae01ddfc	-2.9528366e-11
60	0xae01ddfc	-2.9528366e-11
61	0xae01ddfc	-2.9528366e-11
62	0xae01ddfc	-2.9528366e-11
63	0xae01ddfc	-2.9528366e-11
64	0xae01ddfc	-2.9528366e-11
65	0xae01ddfc	-2.9528366e-11
66	0xae01ddfc	-2.9528366e-11
67	0xae01ddfc	-2.9528366e-11
68	0xae01ddfc	-2.9528366e-11
69	0xae01ddfc	-2.9528366e-11
70	0xae01ddfc	-2.9528366e-11
71	0xae01ddfc	-2.9528366e-11
72	0xae01ddfc	-2.9528366e-11
73	0xae01ddfc	-2.9528366e-11
74	0xae01ddfc	-2.9528366e-11
75	0xae01ddfc	-2.9528366e-11
76	0xae01ddfc	-2.9528366e-11
77	0xae01ddfc	-2.9528366e-11
78	0xae01ddfc	-2.9528366e-11
79	0xae01ddfc	-2.9528366e-11
80	0xae01ddfc	-2.9528366e-11
81	0xae01ddfc	-2.9528366e-11
82	0xae01ddfc	-2.9528366e-11
83	0xae01ddfc	-2.9528366e-11
84	0xae01ddfc	-2.9528366e-11
85	0xae01ddfc	-2.9528366e-11
86	0xae01ddfc	-2.9528366e-11
87	0xae01ddfc	-2.9528366e-11
88	0xae01ddfc	-2.9528366e-11
89	0xae01ddfc	-2.9528366e-11
90	0xae01ddfc	-2.9528366e-11
91	0xae01ddfc	-2.9528366e-11
92	0xae01ddfc	-2.9528366e-11
93	0xae01ddfc	-2.9528366e-11
94	0xae01ddfc	-2.9528366e-11
95	0xae01ddfc	-2.9528366e-11
96	0xadfed004	-2.8968834e-11
97	0xadf5c8be	-2.7942423e-11
98	0xae07d7ad	-3.0887005e-11
99	0xae002d1d	-2.91439e-11
100	0xae01f2c6	-2.954683e-11
101	0xae00b6a5	-2.926605e-11
102	0xae029183	-2.9687818e-11
103	0xae0dec2e	-3.2269458e-11
104	0xae0b1660	-3.1624814e-11
105	0xae04f7c8	-3.02334e-11
106	0xae06f216	-3.0683088e-11
107	0xae021def	-2.9585164e-11
108	0xae01ddfc	-2.9528366e-11
109	0xae01ddfc	-2.9528366e-11
110	0xae01ddfc	-2.9528366e-11
111	0xae01ddfc	-2.9528366e-11
112	0xae01ddfc	-2.9528366e-11
113	0xae01ddfc	-2.9528366e-11
114	0xae01ddfc	-2.9528366e-11
115	0xae01ddfc	-2.9528366e-11
116	0xae01ddfc	-2.9528366e-11
117	0xae01ddfc	-2.9528366e-11
118	0xae0169e1	-2.9425243e-11
119	0xae012435	-2.9363362e-11
120	0xae012e32	-2.9372234e-11
121	0xaddccfb3	-2.5103341e-11
122	0xaddad42b	-2.4877952e-11
123	0xade41563	-2.5930097e-11
124	0xad164925	-8.542754e-12
125	0x2d0c09f3	7.960288e-12
126	0xac042517	-1.8778917e-12
127	0xacc2509a	-5.52276e-12
128	0xadd2c67e	-2.3962384e-11
129	0xae034639	-2.984832e-11
130	0xae0cc48e	-3.200689e-11
131	0xae055491	-3.031581e-11
132	0xadf07c5c	-2.7340068e-11
133	0xae07d3fe	-3.0883733e-11
134	0xade72071	-2.6276066e-11
135	0xadf13e89	-2.7426299e-11
136	0xae00a43e	-2.9249707e-11
137	0xae01ddfc	-2.9528366e-11
138	0xae01ddfc	-2.9528366e-11
139	0xae01ddfc	-2.9528366e-11
140	0xae01ddfc	-2.9528366e-11
141	0xae01ddfc	-2.9528366e-11
142	0xae01ddfc	-2.9528366e-11
143	0xae01ddfc	-2.9528366e-11
144	0xae094d77	-3.1218996e-11
145	0xae038266	-2.990177e-11
146	0xae001979	-2.9126455e-11
147	0xadff874c	-2.9050228e-11
148	0xadffe162	-2.9090234e-11
149	0xade76dff	-2.6310508e-11
150	0xadc1fd16	-2.2053952e-11
151	0xadbbf614	-2.136872e-11
152	0x2c5a2d0b	3.1004667e-12
153	0x2ddc31c8	2.5033212e-11
154	0x2de40ac5	2.5925382e-11
155	0x2c3a6003	2.6485487e-12
156	0xae13ad10	-3.357764e-11
157	0xae424112	-4.4168287e-11
158	0xae5878f4	-4.9220142e-11
159	0xae3da836	-4.3123026e-11
160	0xae1bf9d1	-3.54648e-11
161	0xadfb2343	-2.8551056e-11
162	0xadcd0cb7	-2.3311448e-11
163	0xadc80f80	-2.2744251e-11
164	0xade72101	-2.6276316e-11
165	0xae01ddfc	-2.9528366e-11
166	0xae01ddfc	-2.9528366e-11
167	0xae01ddfc	-2.9528366e-11
168	0xae01ddfc	-2.9528366e-11
169	0xae01ddfc	-2.9528366e-11
170	0xae01ddfc	-2.9528366e-11
171	0xae01ddfc	-2.9528366e-11
172	0xae0d69a3	-3.2153512e-11
173	0xae0bd626	-3.1795143e-11
174	0xae0b37a2	-3.1654353e-11
175	0xae08b738	-3.108555e-11
176	0xae015d51	-2.9414086e-11
177	0xaded6146	-2.6986979e-11
178	0xadd67064	-2.4378895e-11
179	0xadca9b3d	-2.303368e-11
180	0xac892848	-3.8982463e-12
181	0x2e12b968	3.336123e-11
182	0x2e069f05	3.060931e-11
183	0xad10c6aa	-8.229565e-12
184	0xae471bb0	-4.5271953e-11
185	0xae60f2b2	-5.114726e-11
186	0xae73172f	-5.5272394e-11
187	0xae932798	-6.691819e-11
188	0xae90dd5e	-6.5876846e-11
189	0xae84001b	-6.002684e-11
190	0xae327aa7	-4.058145e-11
191	0xae03f644	-3.000468e-11
192	0xadd6ebb6	-2.443366e-11
193	0xae01ddfc	-2.9528366e-11
194	0xae01ddfc	-2.9528366e-11
195	0xae01ddfc	-2.9528366e-11
196	0xae01ddfc	-2.9528366e-11
197	0xae01ddfc	-2.9528366e-11
198	0xae01ddfc	-2.9528366e-11
199	0xae01ddfc	-2.9528366e-11
200	0xae0889c6	-3.1045187e-11
201	0xae09851c	-3.126842e-11
202	0xae045c69	-3.0095402e-11
203	0xadffa0e4	-2.9061593e-11
204	0xae07d79f	-3.0886956e-11
205	0xae002411	-2.9135864e-11
206	0xae1d186f	-3.571937e-11
207	0xae2a0daa	-3.866566e-11
208	0xad805e9a	-1.4593927e-11
209	0x2d884f21	1.549655e-11
210	0x2d3edb81	1.0848989e-11
211	0xadeb6cb1	-2.6764676e-11
212	0xae41fb69	-4.4106416e-11
213	0xae4b4fbc	-4.6227674e-11
214	0xae69a668	-5.3125865e-11
215	0xae9d01cc	-7.1398526e-11
216	0xaea21285	-7.370197e-11
217	0xaea69898	-7.575912e-11
218	0xae98f8eb	-6.9563764e-11
219	0xae42750a	-4.4214445e-11
220	0xadf461a8	-2.7782956e-11
221	0xae01ddfc	-2.9528366e-11
222	0xae01ddfc	-2.9528366e-11
223	0xae01ddfc	-2.9528366e-11
224	0xae01ddfc	-2.9528366e-11
225	0xae01ddfc	-2.9528366e-11
226	0xae01ddfc	-2.9528366e-11
227	0xae01ddfc	-2.9528366e-11
228	0xae01ddfc	-2.9528366e-11
229	0xae019571	-2.9463935e-11
230	0xae01e076	-2.9530565e-11
231	0xae0e78d0	-3.2394365e-11
232	0xae27c795	-3.8148668e-11
233	0xae59b0bf	-4.949707e-11
234	0xae813dba	-5.877206e-11
235	0xae866e93	-6.1132564e-11
236	0xae49d3bf	-4.5890177e-11
237	0xaca16f60	-4.5882603e-12
238	0x2d0bcf5b	7.947277e-12
239	0xad836f6a	-1.4942454e-11
240	0xae5eb9eb	-5.0642084e-11
241	0xae84b728	-6.0352e-11
242	0xae77e983	-5.6368698e-11
243	0xae88003f	-6.184608e-11
244	0xaea34584	-7.42473e-11
245	0xaebb123f	-8.5070166e-11
246	0xaeb97bce	-8.434818e-11
247	0xae8e9117	-6.4831855e-11
248	0xae35d17d	-4.1340698e-11
249	0xae01ddfc	-2.9528366e-11
250	0xae01ddfc	-2.9528366e-11
251	0xae01ddfc	-2.9528366e-11
252	0xae01ddfc	-2.9528366e-11
253	0xae01ddfc	-2.9528366e-11
254	0xae01ddfc	-2.9528366e-11
255	0xae01ddfc	-2.9528366e-11

exp_avg_sq f4 [30, 784]
0	0x2f136ce8	1.3408263e-10
1	0x2f136ce8	1.3408263e-10
2	0x2f136ce8	1.3408263e-10
3	0x2f136ce8	1.3408263e-10
4	0x2f136ce8	1.3408263e-10
5	0x2f136ce8	1.3408263e-10
6	0x2f136ce8	1.3408263e-10
7	0x2f136ce8	1.3408263e-10
8	0x2f136ce8	1.3408263e-10
9	0x2f136ce8	1.3408263e-10
10	0x2f136ce8	1.3408263e-10
11	0x2f136ce8	1.3408263e-10
12	0x2f136ce8	1.3408263e-10
13	0x2f136ce8	1.3408263e-10
14	0x2f136ce8	1.3408263e-10
15	0x2f136ce8	1.3408263e-10
16	0x2f136ce8	1.3408263e-10
17	0x2f136ce8	1.3408263e-10
18	0x2f136ce8	1.3408263e-10
19	0x2f136ce8	1.3408263e-10
20	0x2f136ce8	1.3408263e-10
21	0x2f136ce8	1.3408263e-10
22	0x2f136ce8	1.3408263e-10
23	0x2f136ce8	1.3408263e-10
24	0x2f136ce8	1.3408263e-10
25	0x2f136ce8	1.3408263e-10
26	0x2f136ce8	1.3408263e-10
27	0x2f136ce8	1.3408263e-10
28	0x2f136ce8	1.3408263e-10
29	0x2f136ce8	1.3408263e-10
30	0x2f136ce8	1.3408263e-10
31	0x2f136ce8	1.3408263e-10
32	0x2f136ce8	1.3408263e-10
33	0x2f136ce8	1.3408263e-10
34	0x2f136ce8	1.3408263e-10
35	0x2f136ce8	1.3408263e-10
36	0x2f136ce8	1.3408263e-10
37	0x2f136ce8	1.3408263e-10
38	0x2f136ce8	1.3408263e-10
39	0x2f136ce8	1.3408263e-10
40	0x2f136ce8	1.3408263e-10
41	0x2f136ce8	1.3408263e-10
42	0x2f136ce8	1.3408263e-10
43	0x2f136ce8	1.3408263e-10
44	0x2f136ce8	1.3408263e-10
45	0x2f136ce8	1.3408263e-10
46	0x2f136ce8	1.3408263e-10
47	0x2f136ce8	1.3408263e-10
48	0x2f136ce8	1.3408263e-10
49	0x2f136ce8	1.3408263e-10
50	0x2f136ce8	1.3408263e-10
51	0x2f136ce8	1.3408263e-10
52	0x2f136ce8	1.3408263e-10
53	0x2f136ce8	1.3408263e-10
54	0x2f136ce8	1.3408263e-10
55	0x2f136ce8	1.3408263e-10
56	0x2f136ce8	1.3408263e-10
57	0x2f136ce8	1.3408263e-10
58	0x2f136ce8	1.3408263e-10
59	0x2f136ce8	1.3408263e-10
60	0x2f136ce8	1.3408263e-10
61	0x2f136ce8	1.3408263e-10
62	0x2f136ce8	1.3408263e-10
63	0x2f136ce8	1.3408263e-10
64	0x2f136ce8	1.3408263e-10
65	0x2f136ce8	1.3408263e-10
66	0x2f136ce8	1.3408263e-10
67	0x2f136ce8	1.3408263e-10
68	0x2f136ce8	1.3408263e-10
69	0x2f136ce8	1.3408263e-10
70	0x2f136ce8	1.3408263e-10
71	0x2f136ce8	1.3408263e-10
72	0x2f136ce8	1.3408263e-10
73	0x2f136ce8	1.3408263e-10
74	0x2f136ce8	1.3408263e-10
75	0x2f136ce8	1.3408263e-10
76	0x2f136ce8	1.3408263e-10
77	0x2f136ce8	1.3408263e-10
78	0x2f136ce8	1.3408263e-10
79	0x2f136ce8	1.3408263e-10
80	0x2f136ce8	1.3408263e-10
81	0x2f136ce8	1.3408263e-10
82	0x2f136ce8	1.3408263e-10
83	0x2f136ce8	1.3408263e-10
84	0x2f136ce8	1.3408263e-10
85	0x2f136ce8	1.3408263e-10
86	0x2f136ce8	1.3408263e-10
87	0x2f136ce8	1.3408263e-10
88	0x2f136ce8	1.3408263e-10
89	0x2f136ce8	1.3408263e-10
90	0x2f136ce8	1.3408263e-10
91	0x2f136ce8	1.3408263e-10
92	0x2f136ce8	1.3408263e-10
93	0x2f136ce8	1.3408263e-10
94	0x2f136ce8	1.3408263e-10
95	0x2f136ce8	1.3408263e-10
96	0x2f107ee6	1.3141807e-10
97	0x2f0b33f3	1.2660432e-10
98	0x2f19434f	1.3939182e-10
99	0x2f0c2ed9	1.274957e-10
100	0x2f1085c3	1.3144245e-10
101	0x2f120c51	1.3282998e-10
102	0x2f14441e	1.3484722e-10
103	0x2f223b16	1.4754806e-10
104	0x2f1eae67	1.4431976e-10
105	0x2f172963	1.3748074e-10
106	0x2f19920c	1.3967155e-10
107	0x2f13b97d	1.3435471e-10
108	0x2f136ce8	1.3408263e-10
109	0x2f136ce8	1.3408263e-10
110	0x2f136ce8	1.3408263e-10
111	0x2f136ce8	1.3408263e-10
112	0x2f136ce8	1.3408263e-10
113	0x2f136ce8	1.3408263e-10
114	0x2f136ce8	1.3408263e-10
115	0x2f136ce8	1.3408263e-10
116	0x2f136ce8	1.3408263e-10
117	0x2f136ce8	1.3408263e-10
118	0x2f12e210	1.3358936e-10
119	0x2f128ee3	1.3329386e-10
120	0x2f129ac8	1.3333612e-10
121	0x2efa396e	1.1378885e-10
122	0x2ef80e56	1.1280281e-10
123	0x2f0121d8	1.1744505e-10
124	0x2e6fdcda	5.4538464e-11
125	0x2d957ed4	1.6995662e-11
126	0x2daf9f87	1.9966041e-11
127	0x2df5d7c0	2.7949087e-11
128	0x2eb8842e	8.390831e-11
129	0x2efc4490	1.14718124e-10
130	0x2f11dfcb	1.326718e-10
131	0x2f0899fe	1.2423837e-10
132	0x2f04796a	1.2048465e-10
133	0x2f1aa6f2	1.4065529e-10
134	0x2f02d5b0	1.1899348e-10
135	0x2f0894cd	1.2421993e-10
136	0x2f11f665	1.327521e-10
137	0x2f136ce8	1.3408263e-10
138	0x2f136ce8	1.3408263e-10
139	0x2f136ce8	1.3408263e-10
140	0x2f136ce8	1.3408263e-10
141	0x2f136ce8	1.3408263e-10
142	0x2f136ce8	1.3408263e-10
143	0x2f136ce8	1.3408263e-10
144	0x2f1c77d2	1.4230686e-10
145	0x2f1565e1	1.3587666e-10
146	0x2f11515b	1.3216576e-10
147	0x2f10eb76	1.3180376e-10
148	0x2f1120ef	1.3199374e-10
149	0x2f03013e	1.1914822e-10
150	0x2eddc0c5	1.0084159e-10
151	0x2ed9920f	9.893963e-11
152	0x2de4a11b	2.5992144e-11
153	0x2cd7fadb	6.138518e-12
154	0x2d27332e	9.504215e-12
155	0x2c6b06e8	3.3399342e-12
156	0x2eb6f94b	8.320685e-11
157	0x2f051ce7	1.2106548e-10
158	0x2f1fa503	1.451959e-10
159	0x2f07d835	1.235499e-10
160	0x2f047c5c	1.2049511e-10
161	0x2f06bd10	1.2254397e-10
162	0x2eea9953	1.0668324e-10
163	0x2ee40906	1.03698425e-10
164	0x2f02d602	1.1899462e-10
165	0x2f136ce8	1.3408263e-10
166	0x2f136ce8	1.3408263e-10
167	0x2f136ce8	1.3408263e-10
168	0x2f136ce8	1.3408263e-10
169	0x2f136ce8	1.3408263e-10
170	0x2f136ce8	1.3408263e-10
171	0x2f136ce8	1.3408263e-10
172	0x2f2196e4	1.4696472e-10
173	0x2f1f9d79	1.4516911e-10
174	0x2f1ed7cf	1.4446687e-10
175	0x2f1bbe72	1.4164828e-10
176	0x2f12d318	1.3353618e-10
177	0x2f065eee	1.2220955e-10
178	0x2ef4c752	1.1131242e-10
179	0x2ee957fb	1.0611242e-10
180	0x2df7d2c6	2.8174251e-11
181	0x2dc8d8aa	2.2833586e-11
182	0x2e13fae5	3.364677e-11
183	0x2c9f7ade	4.532693e-12
184	0x2ec9be80	9.1742614e-11
185	0x2f039409	1.1966973e-10
186	0x2f0b5458	1.2671941e-10
187	0x2f43ad94	1.7796814e-10
188	0x2f4580c9	1.7962799e-10
189	0x2f414808	1.7578838e-10
190	0x2f2777e2	1.5231152e-10
191	0x2f0fd06f	1.3079825e-10
192	0x2ef3cfed	1.1087296e-10
193	0x2f136ce8	1.3408263e-10
194	0x2f136ce8	1.3408263e-10
195	0x2f136ce8	1.3408263e-10
196	0x2f136ce8	1.3408263e-10
197	0x2f136ce8	1.3408263e-10
198	0x2f136ce8	1.3408263e-10
199	0x2f136ce8	1.3408263e-10
200	0x2f1b8670	1.414493e-10
201	0x2f1cbc99	1.4255121e-10
202	0x2f166d29	1.3681202e-10
203	0x2f10b871	1.316225e-10
204	0x2f13122d	1.337603e-10
205	0x2f085b8d	1.2401653e-10
206	0x2f2ca02f	1.5700218e-10
207	0x2f275190	1.5217538e-10
208	0x2deaacad	2.6679403e-11
209	0x2d926c9d	1.6646512e-11
210	0x2da163f4	1.8347969e-11
211	0x2db1fba2	2.0234318e-11
212	0x2eb1cdf0	8.08561e-11
213	0x2ec9e30d	9.180754e-11
214	0x2ef0538b	1.09287766e-10
215	0x2f4e15ca	1.8743332e-10
216	0x2f4ba5ca	1.8521643e-10
217	0x2f560bfc	1.9467444e-10
218	0x2f547b67	1.9325129e-10
219	0x2f355807	1.6493128e-10
220	0x2f000946	1.1644827e-10
221	0x2f136ce8	1.3408263e-10
222	0x2f136ce8	1.3408263e-10
223	0x2f136ce8	1.3408263e-10
224	0x2f136ce8	1.3408263e-10
225	0x2f136ce8	1.3408263e-10
226	0x2f136ce8	1.3408263e-10
227	0x2f136ce8	1.3408263e-10
228	0x2f136ce8	1.3408263e-10
229	0x2f131622	1.3377435e-10
230	0x2f136fd6	1.3409304e-10
231	0x2f2121a4	1.4654816e-10
232	0x2f37a28e	1.6701504e-10
233	0x2f7618ed	2.2382425e-10
234	0x2f701a09	2.1837122e-10
235	0x2f5b5a00	1.9949908e-10
236	0x2e8ad466	6.313243e-11
237	0x2ccdcbb8	5.8490678e-12
238	0x2db3c4ff	2.0437428e-11
239	0x2bf40677	1.7339037e-12
240	0x2ec866cf	9.1132095e-11
241	0x2f11472c	1.3212959e-10
242	0x2eea7420	1.0661716e-10
243	0x2f116a50	1.3225443e-10
244	0x2f5149c1	1.9034642e-10
245	0x2f7f7172	2.3232419e-10
246	0x2f807ebe	2.337312e-10
247	0x2f70a461	2.1886272e-10
248	0x2f3515cd	1.6469599e-10
249	0x2f136ce8	1.3408263e-10
250	0x2f136ce8	1.3408263e-10
251	0x2f136ce8	1.3408263e-10
252	0x2f136ce8	1.3408263e-10
253	0x2f136ce8	1.3408263e-10
254	0x2f136ce8	1.3408263e-10
255	0x2f136ce8	1.3408263e-10

exp_avg f4 [30]
0	0x2e01ddfc	2.9528366e-11
1	0xb9112eca	-0.00013845708
2	0x392a9734	0.00016268791
3	0xb835c5fa	-4.3338143e-05
4	0x30a8be01	1.2277611e-09
5	0x3846e814	4.742302e-05
6	0x2fa71a99	3.0396022e-10
7	0xb87fdc3e	-6.1001854e-05
8	0xb8c4bf9a	-9.381697e-05
9	0x31735f09	3.5415175e-09
10	0x38279684	3.995608e-05
11	0xb897db3b	-7.241076e-05
12	0x2c8431d5	3.757198e-12
13	0x39171f80	0.00014412217
14	0xb8541ad9	-5.0569743e-05
15	0x388f3bfd	6.829945e-05
16	0xb82ff385	-4.1950047e-05
17	0xb92dacfe	-0.0001656301
18	0x383f81b8	4.565876e-05
19	0xb8129594	-3.4948418e-05
20	0xb8e125fb	-0.000107359105
21	0x2f98646e	2.7719999e-10
22	0x390f8c96	0.00013689915
23	0x39084b05	0.00012997918
24	0x2e188944	3.4682715e-11
25	0x2fd96b4a	3.9548304e-10
26	0xb9343f59	-0.00017189737
27	0x38b2c2df	8.523999e-05
28	0x388eba61	6.8058034e-05
29	0xb81cee2a	-3.7415106e-05

exp_avg_sq f4 [30]
0	0x2f136ce8	1.3408263e-10
1	0x375d5405	1.3192189e-05
2	0x37a1605e	1.923757e-05
3	0x3343934d	4.5535945e-08
4	0x33a82bfa	7.831109e-08
5	0x3293105a	1.7120488e-08
6	0x319e2409	4.602502e-09
7	0x34b8aa1d	3.4396444e-07
8	0x3690e003	4.317613e-06
9	0x35100fc2	5.366711e-07
10	0x3360df4f	5.2357162e-08
11	0x360aa245	2.0658056e-06
12	0x2b5f2041	7.9270276e-13
13	0x373d5f4f	1.1287469e-05
14	0x34ab3ca1	3.1895345e-07
15	0x35157960	5.568345e-07
16	0x3301b3df	3.0198745e-08
17	0x37263be7	9.908318e-06
18	0x33a4f2d9	7.681019e-08
19	0x33752e02	5.708535e-08
20	0x36b50500	5.3948024e-06
21	0x318c5643	4.084343e-09
22	0x36925c5a	4.36189e-06
23	0x367af70e	3.7396708e-06
24	0x2dd034f5	2.367038e-11
25	0x3241b76d	1.1275785e-08
26	0x35da08b5	1.62448e-06
27	0x360b7778	2.0782154e-06
28	0x3550c7d2	7.7776815e-07
29	0x3335e4e1	4.235051e-08

exp_avg f4 [2, 30]
0	0xaf532b4a	-1.9205718e-10
1	0xbb8c3c89	-0.0042796773
2	0x3ac4f92d	0.0015027873
3	0xbc2bf067	-0.010494328
4	0xb1e2f760	-6.605589e-09
5	0x3c2a25d8	0.010384999
6	0xb1cdd259	-5.990199e-09
7	0xbbfe819a	-0.0077669146
8	0xbba1cb32	-0.004937553
9	0xb27d0f7c	-1.4730059e-08
10	0x3b8579b0	0.004073344
11	0xbb8bfe50	-0.00427226
12	0xaff3e42f	-4.4363577e-10
13	0x3abd90d8	0.0014462722
14	0xbbf71f99	-0.0075416085
15	0x3b221d46	0.0024736687
16	0xbc3e3e0c	-0.011611473
17	0xbbafc78c	-0.005364364
18	0x3b80c569	0.003929783
19	0xbc035698	-0.008016251
20	0xbbae8fa6	-0.005327183
21	0xb0dd09f8	-1.60827e-09
22	0x3b069c2d	0.0020539865
23	0x3b16c4c2	0.002300546
24	0xadf59b1c	-2.7922158e-11
25	0xb180d145	-3.7490815e-09
26	0xbc0635cf	-0.00819154
27	0x3a8d4d0d	0.0010780409
28	0x3ad8ab45	0.0016530534
29	0xbc213a5d	-0.009840575
30	0x2f532b53	1.920573e-10
31	0x3b8c3c7c	0.0042796712
32	0xbac4f9bf	-0.0015028043
33	0x3c2bf061	0.0104943225
34	0x31e2f760	6.605589e-09
35	0xbc2a25ee	-0.01038502
36	0x31cdd259	5.990199e-09
37	0x3bfe8189	0.0077669066
38	0x3ba1cb27	0.0049375477
39	0x327d0f76	1.4730054e-08
40	0xbb8579d7	-0.0040733623
41	0x3b8bfe45	0.0042722546
42	0x2ff3e438	4.4363602e-10
43	0xbabd9148	-0.0014462853
44	0x3bf71f91	0.007541605
45	0xbb221d81	-0.0024736824
46	0x3c3e3e03	0.011611464
47	0x3bafc779	0.005364355
48	0xbb80c58c	-0.0039297994
49	0x3c035688	0.008016236
50	0x3bae8fa2	0.005327181
51	0x30dd09f8	1.60827e-09
52	0xbb069c66	-0.0020539998
53	0xbb16c4f9	-0.0023005588
54	0x2df59b24	2.7922172e-11
55	0x3180d13f	3.749079e-09
56	0x3c0635c7	0.008191532
57	0xba8d4d89	-0.0010780554
58	0xbad8abe7	-0.0016530723
59	0x3c213a53	0.009840566

exp_avg_sq f4 [2, 30]
0	0x3045bb6a	7.1934514e-10
1	0x3b01279b	0.0019707445
2	0x3aad4149	0.0013218309
3	0x3ab54bba	0.0013831772
4	0x361d26ac	2.3417333e-06
5	0x3a065e9c	0.0005125792
6	0x35fb4c50	1.8723167e-06
7	0x3a57f496	0.0008238045
8	0x3aa98425	0.0012933059
9	0x373c0dcf	1.1208888e-05
10	0x3aae4286	0.0013294972
11	0x3ac1930a	0.0014768553
12	0x323dde8e	1.1051851e-08
13	0x3a4524e7	0.00075204525
14	0x3ae39cfb	0.0017365509
15	0x3a47da1a	0.0007623747
16	0x3aca047d	0.0015412715
17	0x3965b7a6	0.00021907556
18	0x3a1ee399	0.00060611364
19	0x3af9b0fa	0.0019049936
20	0x3a8490ec	0.0010113991
21	0x341b84bb	1.4483787e-07
22	0x3a423267	0.0007408023
23	0x3a165728	0.0005735033
24	0x2d86f2bc	1.5341832e-11
25	0x354ebd1b	7.7016165e-07
26	0x38164512	3.5827114e-05
27	0x3a5b1c87	0.0008358438
28	0x3a1f3254	0.0006072868
29	0x3ada0665	0.0016633986
30	0x3045bb64	7.193448e-10
31	0x3b01279b	0.0019707445
32	0x3aad414d	0.0013218314
33	0x3ab54bbc	0.0013831775
34	0x361d26a9	2.3417326e-06
35	0x3a065e9c	0.0005125792
36	0x35fb4c56	1.8723174e-06
37	0x3a57f491	0.00082380424
38	0x3aa98421	0.0012933054
39	0x373c0dca	1.1208884e-05
40	0x3aae4286	0.0013294972
41	0x3ac19307	0.0014768549
42	0x323dde90	1.1051853e-08
43	0x3a4524e8	0.0007520453
44	0x3ae39cfa	0.0017365508
45	0x3a47da1d	0.0007623749
46	0x3aca047f	0.0015412717
47	0x3965b7a5	0.00021907555
48	0x3a1ee399	0.00060611364
49	0x3af9b0f8	0.0019049933
50	0x3a8490eb	0.001011399
51	0x341b84bb	1.4483787e-07
52	0x3a423267	0.0007408023
53	0x3a165729	0.0005735034
54	0x2d86f2c0	1.5341839e-11
55	0x354ebd14	7.7016125e-07
56	0x3816450d	3.5827095e-05
57	0x3a5b1c87	0.0008358438
58	0x3a1f3254	0.0006072868
59	0x3ada0665	0.0016633986

exp_avg f4 [2]
0	0xba0e3430	-0.00054246467
1	0x3a0e33cc	0.00054245885

exp_avg_sq f4 [2]
0	0x39b25252	0.0003401214
1	0x39b25250	0.00034012133
