nesy/ql5ythw1/checkpoints/epoch=9-step=730.ckpt (torch, 290915 bytes, 12 tensors)

neural_predicates.digit.net.0.weight f4 [30, 784]
0	0xbc0b382c	-0.008497279
1	0x3b992e54	0.004674712
2	0x3b5b1218	0.0033427533
3	0xbb8fca8f	-0.0043881605
4	0x3bf06970	0.007336788
5	0x3d201670	0.039083898
6	0x3cdf6c3e	0.027273294
7	0xbc3e8fa0	-0.011630923
8	0x3d276b34	0.04087372
9	0x3b72c65d	0.0037044503
10	0x3d17f087	0.03709462
11	0xbc812cfc	-0.01576852
12	0xbca1d7b6	-0.01975618
13	0xbc149c94	-0.009070534
14	0x3bf828dc	0.00757323
15	0x3bdbe0de	0.006710156
16	0x3c160dc3	0.0091585545
17	0x3d016e1c	0.03159915
18	0x3c92d578	0.017924055
19	0x3ca53edb	0.020171573
20	0x3cd9b896	0.026577275
21	0x3d196979	0.037454102
22	0xbc751f5a	-0.014961088
23	0x3d0aec3b	0.033916693
24	0x3cbdc4a9	0.023165064
25	0x3c2046c8	0.009782501
26	0x3cca4aa7	0.0246938
27	0xbc8aded3	-0.016951954
28	0x3bbd1356	0.0057701273
29	0xbb3c2498	-0.0028708335
30	0x3bf0f060	0.0073528737
31	0xbc2c7926	-0.010526931
32	0x3d4de40f	0.05026632
33	0xbc9890b4	-0.018623687
34	0x3ba9d3b7	0.005182709
35	0x3d2b4878	0.04181716
36	0x3c9a886d	0.018863881
37	0x3c2d3fb4	0.01057427
38	0xbc06a1d2	-0.008217292
39	0x3c657d4c	0.014006924
40	0x3bdcd2a9	0.00673898
41	0x3c596a17	0.013269923
42	0x3d17de0d	0.037077
43	0x3d4adcea	0.049527086
44	0xbc2e31d6	-0.010631999
45	0x3c3cab75	0.011515488
46	0xbc0f51ac	-0.008747499
47	0x3c8bb281	0.01705289
48	0xbc200a3e	-0.009768067
49	0xbc9bfe32	-0.019042108
50	0xbc86b466	-0.016443443
51	0x3a0b373c	0.000531066
52	0x3d0733ed	0.033008505
53	0x3d4ce611	0.050024096
54	0xbc8b77f9	-0.01702498
55	0x3d39854e	0.045293145
56	0x3d273186	0.040818714
57	0xbbf6f42e	-0.0075364327
58	0xbc94abea	-0.018148381
59	0x3c000847	0.0078144735
60	0xbb7826d1	-0.0037864933
61	0x3c354b62	0.011065336
62	0xbb39149f	-0.002824105
63	0x3d0d87e0	0.03455341
64	0x3d185740	0.037192583
65	0x3c8d25be	0.017229911
66	0x3b2b932b	0.0026180248
67	0x3d0ffdf4	0.035154298
68	0xbceff3a5	-0.029290983
69	0xbc319ede	-0.0108411
70	0xbc759cd6	-0.014991006
71	0x3d120525	0.035649437
72	0x3d0b1257	0.033953037
73	0x3cba7a10	0.022763282
74	0x3d32548d	0.043537665
75	0xbb432f7b	-0.002978294
76	0x3c396747	0.011316127
77	0x3c48c505	0.012254004
78	0x3b364f5b	0.0027818296
79	0xbb4001fc	-0.0029298058
80	0x3d153f9f	0.036437627
81	0xbc1da184	-0.009621028
82	0xbc782930	-0.015146539
83	0xbc6bb079	-0.014385336
84	0xbc606645	-0.013696258
85	0x3c2409ad	0.0100120725
86	0x3c9531fa	0.018212307
87	0x3b58a82a	0.0033059218
88	0x3d1b7e3c	0.037962183
89	0x3c2793d1	0.010228113
90	0x3b777aae	0.0037762332
91	0x3980438a	0.00024464383
92	0xbcaa00b1	-0.020752283
93	0xbd18244e	-0.037143998
94	0xbc9f5d8e	-0.01945379
95	0xbd7c0c2a	-0.061535038
96	0xbd4c2846	-0.049843095
97	0xbd61c7ac	-0.055122063
98	0xbda3a4e2	-0.07990433
99	0xbd7b5c4a	-0.06136731
100	0xbd5d282f	-0.0539934
101	0xbb9049ff	-0.0044033523
102	0x3ccc1398	0.024911687
103	0x3bf03f9c	0.0073318016
104	0x3cd1143b	0.025522342
105	0x3d290fb8	0.041274756
106	0x3d3b4699	0.045721624
107	0x3d02a7a6	0.031898163
108	0x3d4e54bf	0.05037379
109	0x3d4ae0c2	0.049530752
110	0x3d4e4ef6	0.05036827
111	0x3b98d7e2	0.004664407
112	0x3cc2924f	0.023751406
113	0xba60e880	-0.0008579567
114	0xbc70906a	-0.0146828685
115	0xbc104ce7	-0.008807397
116	0x3c89dfb4	0.016830303
117	0x3ce57ccc	0.02801361
118	0x3d2bce72	0.04194493
119	0x3d04f6aa	0.0324618
120	0xbccbd17a	-0.02488016
121	0xbd89f1e5	-0.06735591
122	0xbdda2d62	-0.10653187
123	0xbdab5a5a	-0.083668426
124	0xbdd10800	-0.10206604
125	0xbdc79526	-0.09745245
126	0xbd879caa	-0.06621678
127	0xbda9c91e	-0.08290313
128	0xbd8fa08c	-0.07013044
129	0xbd60c91f	-0.054879304
130	0x3b3ddc01	0.0028970244
131	0x3d7e80e1	0.062134627
132	0x3d7bf37b	0.061511498
133	0x3d20e2e4	0.03927888
134	0x3d67483d	0.056465376
135	0x3cb2a131	0.021805378
136	0x3d0dd72b	0.03462903
137	0x3c84997f	0.016186474
138	0x3d4f8921	0.050667886
139	0x3d05b294	0.03264101
140	0x3bff3708	0.0077885427
141	0x3d05e2d7	0.032687034
142	0xbb1b584d	-0.0023703754
143	0x3ca4fb33	0.020139312
144	0x3b90e62c	0.00442197
145	0x3d1db16b	0.038499277
146	0xbb9a6d93	-0.0047127693
147	0xbd60b32a	-0.054858364
148	0xbd79e300	-0.0610075
149	0xbde7073f	-0.11280679
150	0xbde8dc31	-0.11370123
151	0xbde0e42c	-0.1098102
152	0xbddc950e	-0.107706174
153	0xbdb19bb4	-0.08672276
154	0xbdca366d	-0.09873662
155	0xbdefcb3c	-0.11708686
156	0xbdedfb6d	-0.11620221
157	0xbc253c42	-0.010085167
158	0x3c989a53	0.018628275
159	0x3d9f291a	0.077715114
160	0x3da8234e	0.08209859
161	0x3dcbbe00	0.09948349
162	0x3d78888b	0.060677093
163	0x3d29d806	0.04146578
164	0x3bb7ebec	0.005612841
165	0x3b68a885	0.0035500836
166	0x3d01e27c	0.031710133
167	0x3c9730ba	0.018455852
168	0x3d155d01	0.03646565
169	0x3cb47a69	0.022031026
170	0xba8a94fc	-0.0010572965
171	0xbc969aa0	-0.018384278
172	0x3d4a6b05	0.049418468
173	0x3d0a9ded	0.033842016
174	0xbd510659	-0.051031444
175	0xbd171d51	-0.036893193
176	0xbdc21de9	-0.09478361
177	0xbd333186	-0.0437484
178	0xbdb62346	-0.088934466
179	0xbdb71cb0	-0.089410186
180	0xbd7e96ed	-0.062155653
181	0xbde2bef7	-0.1107158
182	0xbdce0cb6	-0.10061018
183	0xbdc652cb	-0.0968376
184	0xbd44d860	-0.048057914
185	0x3d48a4b8	0.048985213
186	0x3d27d6de	0.040976398
187	0x3db9b52f	0.09067761
188	0x3dc00346	0.09375624
189	0x3d321d18	0.043484777
190	0x3dbba6a7	0.09162646
191	0x3da52260	0.08063197
192	0x3d16fb57	0.03686079
193	0x3d1e5078	0.03865096
194	0x3d50e421	0.05099881
195	0x3d163ecf	0.036680993
196	0xbc763dd7	-0.015029392
197	0x3d114bcd	0.03547268
198	0xbba2ed42	-0.004972131
199	0xbc935243	-0.017983561
200	0x3c8d17aa	0.017223198
201	0xbc57efd7	-0.013179741
202	0xbb9e1826	-0.004824656
203	0xbcad3cd3	-0.021147167
204	0xbd03b5a3	-0.032155644
205	0xbd823e50	-0.063595414
206	0xbd964df0	-0.07339084
207	0xbdb8272d	-0.08991847
208	0xbdbd3267	-0.09238129
209	0xbdaa26d6	-0.083081886
210	0xbdaf5098	-0.08560294
211	0xbd2c5963	-0.042077433
212	0x3ae1f70a	0.0017239761
213	0x3da25a20	0.07927346
214	0x3d91fccc	0.07128295
215	0x3d2fe654	0.042944267
216	0x3ccdb6d6	0.025111597
217	0x3d6d4116	0.0579234
218	0x3d4557cf	0.048179444
219	0x3cdccb6e	0.026952472
220	0x3d425e49	0.0474532
221	0xbae498b4	-0.0017440529
222	0x3cad4bec	0.021154366
223	0x3cea400e	0.028594997
224	0x3ceeb8cd	0.029140854
225	0x3cfce854	0.030872501
226	0x3d0f39c5	0.034967203
227	0xbc3fcf76	-0.011707177
228	0x3d01a50a	0.031651534
229	0x3b8f2756	0.004368703
230	0xbc1af6b9	-0.009458237
231	0xbc6c8461	-0.0144358585
232	0xbc3fcde8	-0.011706807
233	0xbd8fa29b	-0.070134364
234	0xbd5e6e47	-0.054304387
235	0xbd799561	-0.060933474
236	0xbdc2dc6b	-0.09514698
237	0xbd973e76	-0.0738496
238	0x3d0567c4	0.03256966
239	0x3d386f6b	0.04502813
240	0x3d881ae7	0.06645756
241	0x3db9d1cc	0.09073219
242	0x3d452d31	0.0481388
243	0x3d1c4163	0.038148295
244	0x3d4c28f1	0.049843732
245	0x3c9eb014	0.01937107
246	0x3d39a7c5	0.045326013
247	0x3d2d15a7	0.042256977
248	0x3b994f1e	0.004678621
249	0x3c83242e	0.016008463
250	0x3d284cfc	0.041089043
251	0xbba33a2b	-0.0049812994
252	0xbc507fcc	-0.012725782
253	0xbbc81826	-0.0061063943
254	0xbc924bbb	-0.017858377
255	0x3cc04cec	0.02347418

neural_predicates.digit.net.0.bias f4 [30]
0	0x3c02fe95	0.007995267
1	0xbcd00f23	-0.025397843
2	0x3c06465d	0.008195487
3	0x3c852e89	0.016257541
4	0x3c56fe13	0.013122099
5	0xbc901104	-0.017586239
6	0xbc7ee059	-0.015556418
7	0xbd025990	-0.031823695
8	0xbc13f6c9	-0.009031006
9	0xbbc4ab82	-0.0060018906
10	0xbba83a47	-0.0051339003
11	0xbd0b3bc7	-0.033992555
12	0xbd4170b9	-0.04722664
13	0x3d1ab26d	0.037767816
14	0xbb1d2f38	-0.0023984443
15	0xbb518b90	-0.0031974055
16	0xbcd2a340	-0.02571261
17	0xbc50658d	-0.012719524
18	0xbb349055	-0.002755185
19	0xbbf381c3	-0.0074312403
20	0xbc5a1a50	-0.013311937
21	0xbaeb7b70	-0.0017965864
22	0x3cb73d7b	0.022368183
23	0xbcc17b08	-0.023618236
24	0x3cd341a1	0.02578813
25	0x3d229c76	0.039699994
26	0x3b0bcae4	0.002133065
27	0x3cb314c5	0.02186049
28	0x3cf06021	0.029342713
29	0xbc3cfd08	-0.011534937

neural_predicates.digit.net.2.weight f4 [3, 30]
0	0x3da9f6cd	0.08299027
1	0x3e4683ae	0.1938617
2	0xbe5eb064	-0.21746975
3	0x3cbbed61	0.02294034
4	0xbe85305e	-0.26013464
5	0xbdd2494b	-0.10267886
6	0x3dd6d254	0.10489336
7	0xbe224318	-0.15845907
8	0xbe198c7c	-0.14994997
9	0xbb3310d1	-0.0027323256
10	0x3c0bd7b7	0.008535317
11	0x3e0db1c0	0.13837337
12	0xbe345cd4	-0.17613536
13	0x3e72b3f8	0.23701465
14	0xbdbe334a	-0.09287126
15	0xbe0546cf	-0.13015293
16	0xbd5bc128	-0.053651005
17	0x3e606223	0.21912436
18	0xbe4929bf	-0.19644831
19	0xbe13c8cb	-0.14432065
20	0xbcc0c5f1	-0.023531886
21	0xbc5db29d	-0.013531354
22	0xbe203267	-0.15644227
23	0xbd0a31d6	-0.033738934
24	0xbd99a350	-0.075018525
25	0x3e47dcf5	0.19517882
26	0xbe16d438	-0.14729393
27	0xbe722af8	-0.23649204
28	0xbe312623	-0.17299704
29	0x3e0a508f	0.13507293
30	0x3e3fe9de	0.18741557
31	0xbdb34290	-0.0875293
32	0xbe1ae897	-0.15127788
33	0x3e68ff6f	0.2275369
34	0xbe077766	-0.1322914
35	0x3e3c7f8a	0.18408027
36	0xbd9d72bd	-0.076879
37	0x3e068db9	0.1314
38	0xbd5d5445	-0.054035444
39	0xbd09f19a	-0.033677675
40	0x3e632581	0.22182275
41	0xbd457ce1	-0.048214797
42	0x3e3ca9ef	0.184242
43	0xbd7a4d0d	-0.061108638
44	0xbc0ca90a	-0.008585224
45	0xbe2edd14	-0.17076522
46	0x3df21101	0.118196495
47	0xbe64dde1	-0.22350265
48	0x3d28d708	0.041220695
49	0xbab1f7a3	-0.001357783
50	0xbbdca902	-0.0067340145
51	0xbd725973	-0.059167337
52	0x3e0bcf8c	0.13653392
53	0xbc5a80ae	-0.013336344
54	0x3d9cbf5e	0.07653688
55	0xbe3f4a21	-0.18680622
56	0x3d663da8	0.056211144
57	0x3df2cdfd	0.118556954
58	0x3e3b7f3a	0.18310252
59	0xbe35b334	-0.17744142
60	0xbe707caf	-0.23485063
61	0xbe0229ad	-0.1271121
62	0x3e4df537	0.20113073
63	0xbe16e995	-0.14737542
64	0xbd858b45	-0.06520704
65	0x3c1f3c47	0.009718961
66	0xbc075bcb	-0.008261631
67	0xbdd30c3b	-0.10305067
68	0x3d9cc99e	0.07655643
69	0xbd175310	-0.03694445
70	0xbea6cdb4	-0.32578814
71	0xbe21e070	-0.15808272
72	0xbe57b890	-0.21066499
73	0xbcc17467	-0.023615075
74	0xbeb00e0e	-0.34385723
75	0xbe3189f0	-0.17337775
76	0xbd26e9eb	-0.040750425
77	0xbdaf4ced	-0.08559594
78	0x3da314e9	0.07962973
79	0x3dd652a0	0.10464978
80	0xbe7f5301	-0.24934007
81	0xbd9a1343	-0.07523205
82	0x3d952562	0.07282521
83	0x3c8c83ed	0.01715275
84	0xbe2b2eb4	-0.16717035
85	0x3e4a6eae	0.19768783
86	0x3d2e070d	0.042487193
87	0x3e1b2688	0.15151417
88	0x3d5a0742	0.053229578
89	0xbd904718	-0.0704481

neural_predicates.digit.net.2.bias f4 [3]
0	0xbdb80ff3	-0.08987417
1	0xbce168b7	-0.027515752
2	0x3e0e4459	0.1389326

exp_avg f4 [30, 784]
0	0x39a5320a	0.00031508534
1	0x39a5320a	0.00031508534
2	0x39a5320a	0.00031508534
3	0x39a5320a	0.00031508534
4	0x39a5320a	0.00031508534
5	0x39a5320a	0.00031508534
6	0x39a5320a	0.00031508534
7	0x39a5320a	0.00031508534
8	0x39a5320a	0.00031508534
9	0x39a5320a	0.00031508534
10	0x39a5320a	0.00031508534
11	0x39a5320a	0.00031508534
12	0x39a5320a	0.00031508534
13	0x39a5320a	0.00031508534
14	0x39a5320a	0.00031508534
15	0x39a5320a	0.00031508534
16	0x39a5320a	0.00031508534
17	0x39a5320a	0.00031508534
18	0x39a5320a	0.00031508534
19	0x39a5320a	0.00031508534
20	0x39a5320a	0.00031508534
21	0x39a5320a	0.00031508534
22	0x39a5320a	0.00031508534
23	0x39a5320a	0.00031508534
24	0x39a5320a	0.00031508534
25	0x39a5320a	0.00031508534
26	0x39a5320a	0.00031508534
27	0x39a5320a	0.00031508534
28	0x39a5320a	0.00031508534
29	0x39a5320a	0.00031508534
30	0x39a5320a	0.00031508534
31	0x39a5320a	0.00031508534
32	0x39a5320a	0.00031508534
33	0x39a5320a	0.00031508534
34	0x39a5320a	0.00031508534
35	0x39a5320a	0.00031508534
36	0x39a5320a	0.00031508534
37	0x39a5320a	0.00031508534
38	0x39a5320a	0.00031508534
39	0x39a5320a	0.00031508534
40	0x39a5320a	0.00031508534
41	0x39a5320a	0.00031508534
42	0x39a43d8e	0.0003132638
43	0x39a42d83	0.00031314426
44	0x39b2d650	0.0003411048
45	0x39a68a63	0.00031765093
46	0x39a532c9	0.0003150909
47	0x39a5320a	0.00031508534
48	0x39a5320a	0.00031508534
49	0x39a5320a	0.00031508534
50	0x39a5320a	0.00031508534
51	0x39a5320a	0.00031508534
52	0x39a5320a	0.00031508534
53	0x39a5320a	0.00031508534
54	0x39a5320a	0.00031508534
55	0x39a5320a	0.00031508534
56	0x39a5320a	0.00031508534
57	0x39a5320a	0.00031508534
58	0x39a5320a	0.00031508534
59	0x39a5320a	0.00031508534
60	0x39a5320a	0.00031508534
61	0x39a5320a	0.00031508534
62	0x39a5320a	0.00031508534
63	0x39a5320a	0.00031508534
64	0x39a5320a	0.00031508534
65	0x39a5321e	0.00031508593
66	0x39c63e9d	0.00037812153
67	0x39e720ef	0.0004408429
68	0x39a6e578	0.00031832955
69	0x39a773a8	0.00031938893
70	0x39d016dd	0.00039689886
71	0x39d9d02f	0.00041544574
72	0x39d936d1	0.00041430307
73	0x39d5d310	0.0004078378
74	0x39b2e6db	0.00034122806
75	0x39a53aec	0.00031515153
76	0x39a5320a	0.00031508534
77	0x39a5320a	0.00031508534
78	0x39a5320a	0.00031508534
79	0x39a5320a	0.00031508534
80	0x39a5320a	0.00031508534
81	0x39a5320a	0.00031508534
82	0x39a5320a	0.00031508534
83	0x39a5320a	0.00031508534
84	0x39a5320a	0.00031508534
85	0x39a5320a	0.00031508534
86	0x39a531d7	0.00031508386
87	0x39a531fe	0.000315085
88	0x39a5320a	0.00031508534
89	0x39a5320a	0.00031508534
90	0x39a5320a	0.00031508534
91	0x39a53207	0.00031508526
92	0x39a58fb7	0.00031578328
93	0x39a66438	0.00031736656
94	0x39b375f5	0.00034229425
95	0x3a171217	0.00057628885
96	0x3a33c0bd	0.00068570283
97	0x3a5dd4b0	0.0008462174
98	0x3a8f160e	0.0010916607
99	0x3a6ae3d1	0.0008960339
100	0x3a438d2b	0.00074596953
101	0x39cd1afc	0.00039120752
102	0x399d88c4	0.00030047272
103	0x3986dcee	0.00025723077
104	0x39541643	0.00020226189
105	0x39767a9c	0.00023506064
106	0x39a59af6	0.00031586707
107	0x39a475cd	0.00031368286
108	0x39a45f89	0.00031351697
109	0x39a4f5c7	0.00031463636
110	0x39a5320a	0.00031508534
111	0x39a5320a	0.00031508534
112	0x39a5320a	0.00031508534
113	0x39a5320a	0.00031508534
114	0x39a5315e	0.00031508034
115	0x39a531df	0.0003150841
116	0x39a52031	0.00031495237
117	0x39a5320a	0.00031508534
118	0x39a52b21	0.00031503386
119	0x39a510e1	0.00031483828
120	0x39a4ca22	0.00031431118
121	0x39993eaa	0.00029229122
122	0x39bf0b55	0.00036438802
123	0x3a49ec35	0.0007702739
124	0x3a8152b1	0.0009866563
125	0x3a6b93f0	0.0008986583
126	0x3a83fcfe	0.0010069904
127	0x3a697230	0.000890526
128	0x39aceb5e	0.0003298176
129	0x38e333d1	0.00010833855
130	0x398e3be9	0.00027128987
131	0x3981036b	0.00024607344
132	0x377056fc	1.4325367e-05
133	0x374ec478	1.2324301e-05
134	0x39495837	0.00019201716
135	0x3978b19d	0.00023717289
136	0x39a0ace4	0.00030646392
137	0x39a5854a	0.0003157056
138	0x39a5320a	0.00031508534
139	0x39a5320a	0.00031508534
140	0x39a5320a	0.00031508534
141	0x39a5320a	0.00031508534
142	0x39a52c35	0.0003150419
143	0x39a52b8d	0.000315037
144	0x39a52c9c	0.0003150449
145	0x39a538d7	0.000315136
146	0x39a5a7d2	0.00031596288
147	0x39a5c952	0.00031621248
148	0x39b55b95	0.00034591244
149	0x39906fa7	0.00027549008
150	0x3a2062ad	0.00061182195
151	0x3a193c41	0.00058454653
152	0x3a115879	0.00055444945
153	0x3a001800	0.0004886389
154	0x3a45fb1c	0.0007552372
155	0x3a160684	0.0005723017
156	0xb9774765	-0.00023582352
157	0xba04c46a	-0.00050646684
158	0xb9e774b9	-0.0004414672
159	0xb99c532e	-0.00029816612
160	0xb9194d0c	-0.00014619919
161	0xb9235099	-0.00015574916
162	0x38e2307f	0.00010785553
163	0x395705fe	0.0002050623
164	0x399b2613	0.0002959227
165	0x39a641b7	0.0003171095
166	0x39a53206	0.00031508523
167	0x39a5320a	0.00031508534
168	0x39a5320a	0.00031508534
169	0x39a5320a	0.00031508534
170	0x39a5309b	0.00031507466
171	0x39a53437	0.00031510156
172	0x39a5428d	0.00031520837
173	0x39a63e39	0.00031708347
174	0x38a1c81d	7.714352e-05
175	0xb9185543	-0.00014527612
176	0x38b844c5	8.786613e-05
177	0x39d56e58	0.00040708738
178	0x3a40ab92	0.0007349785
179	0x39d71c98	0.000410293
180	0x3a001abe	0.00048867974
181	0x39e6f899	0.00044054238
182	0x3a0c1e6b	0.0005345109
183	0xb8cf1338	-9.874109e-05
184	0xba74cf3b	-0.0009338741
185	0xba9cc130	-0.001195943
186	0xba41dc7b	-0.000739522
187	0xba00fcda	-0.00049204903
188	0xb9a4abfd	-0.0003140866
189	0xb90c8f6b	-0.00013404868
190	0x381ba2f3	3.7106638e-05
191	0x392904f5	0.00016118943
192	0x399f487b	0.00030380845
193	0x39bbb6c8	0.00035803602
194	0x39a52ea3	0.00031506
195	0x39a5320a	0.00031508534
196	0x39a5320a	0.00031508534
197	0x39a5320a	0.00031508534
198	0x39a52d71	0.0003150511
199	0x39a542f6	0.00031521142
200	0x398a7e75	0.0002641563
201	0x38ee027f	0.00011349189
202	0xb8d86359	-0.000103181876
203	0xb879eddb	-5.9587746e-05
204	0x39a3bb54	0.00031229353
205	0x39d47dc9	0.00040529508
206	0x3a1109ff	0.00055328006
207	0x3a27cdbd	0.0006401202
208	0x3a129a58	0.0005592457
209	0x398e3a15	0.00027127625
210	0xb9980af1	-0.0002899985
211	0xba447f54	-0.000749578
212	0xba965719	-0.0011470049
213	0xbab454ef	-0.0013758222
214	0xba59be9e	-0.0008306297
215	0xb9f45a17	-0.0004660643
216	0xb9857b1b	-0.00025459458
217	0xb8a39000	-7.799268e-05
218	0xb8940492	-7.058041e-05
219	0x380ce922	3.3595723e-05
220	0x39bf8059	0.00036525985
221	0x39b7eb7f	0.00035079938
222	0x39a529fc	0.00031502533
223	0x39a5320a	0.00031508534
224	0x39a19778	0.00030821166
225	0x39a53264	0.00031508796
226	0x39a530f4	0.00031507725
227	0x39a53ecf	0.00031518048
228	0x398bf5a7	0.0002669517
229	0x38dbc47e	0.00010479333
230	0xb8df5126	-0.00010648584
231	0xb88625e9	-6.396679e-05
232	0x395dfd26	0.00021170508
233	0x39d16d4d	0.00039945022
234	0x3a04702c	0.00050521153
235	0x3a0ccbc8	0.0005370942
236	0x38165bc0	3.5848236e-05
237	0xba1ccbb9	-0.0005981285
238	0xba0a6fed	-0.00052809605
239	0xba1a62bc	-0.00058893464
240	0xba4c89d4	-0.00078025204
241	0xba5c3a65	-0.00084010354
242	0xba06d803	-0.00051438826
243	0xb99d6a83	-0.0003002473
244	0xb8485734	-4.776493e-05
245	0xb8edc3dc	-0.00011337522
246	0xb928b771	-0.00016090066
247	0x392654bc	0.0001586256
248	0x39a6284e	0.00031692017
249	0x39a52382	0.00031497708
250	0x39a5320a	0.00031508534
251	0x39a5320a	0.00031508534
252	0x39a5320a	0.00031508534
253	0x39a4b7d0	0.0003141747
254	0x39a5320a	0.00031508534
255	0x39a52c04	0.00031504047

exp_avg_sq f4 [30, 784]
0	0x36f6c16f	7.35389e-06
1	0x36f6c16f	7.35389e-06
2	0x36f6c16f	7.35389e-06
3	0x36f6c16f	7.35389e-06
4	0x36f6c16f	7.35389e-06
5	0x36f6c16f	7.35389e-06
6	0x36f6c16f	7.35389e-06
7	0x36f6c16f	7.35389e-06
8	0x36f6c16f	7.35389e-06
9	0x36f6c16f	7.35389e-06
10	0x36f6c16f	7.35389e-06
11	0x36f6c16f	7.35389e-06
12	0x36f6c177	7.3538936e-06
13	0x36f6c246	7.3539877e-06
14	0x36f6c246	7.3539877e-06
15	0x36f6c177	7.3538936e-06
16	0x36f6c16f	7.35389e-06
17	0x36f6c16f	7.35389e-06
18	0x36f6c16f	7.35389e-06
19	0x36f6c16f	7.35389e-06
20	0x36f6c16f	7.35389e-06
21	0x36f6c16f	7.35389e-06
22	0x36f6c16f	7.35389e-06
23	0x36f6c16f	7.35389e-06
24	0x36f6c16f	7.35389e-06
25	0x36f6c16f	7.35389e-06
26	0x36f6c16f	7.35389e-06
27	0x36f6c16f	7.35389e-06
28	0x36f6c16f	7.35389e-06
29	0x36f6c16f	7.35389e-06
30	0x36f6c16f	7.35389e-06
31	0x36f6c16f	7.35389e-06
32	0x36f6c16f	7.35389e-06
33	0x36f6c16f	7.35389e-06
34	0x36f6c16f	7.35389e-06
35	0x36f6c08c	7.3537867e-06
36	0x36f6a2ca	7.3503224e-06
37	0x36f6a65a	7.350737e-06
38	0x36f68b06	7.3475558e-06
39	0x36f687ff	7.3472033e-06
40	0x36f6ae7a	7.351683e-06
41	0x36f6c282	7.354015e-06
42	0x36f51fbc	7.3052634e-06
43	0x36f5278f	7.306174e-06
44	0x36f7a2ee	7.380141e-06
45	0x36f753cc	7.370929e-06
46	0x36f6b1e2	7.3520796e-06
47	0x36f6c16f	7.35389e-06
48	0x36f6c16f	7.35389e-06
49	0x36f6c16f	7.35389e-06
50	0x36f6c16f	7.35389e-06
51	0x36f6c16f	7.35389e-06
52	0x36f6c16f	7.35389e-06
53	0x36f6c16f	7.35389e-06
54	0x36f6c16f	7.35389e-06
55	0x36f6c16f	7.35389e-06
56	0x36f6c16f	7.35389e-06
57	0x36f6c16f	7.35389e-06
58	0x36f6c16f	7.35389e-06
59	0x36f6bf49	7.35364e-06
60	0x36f6c0b1	7.3538035e-06
61	0x36f6c16e	7.3538895e-06
62	0x36f6c148	7.353872e-06
63	0x36f6a7db	7.3509123e-06
64	0x36f48065	7.2867138e-06
65	0x36f2ac77	7.2322396e-06
66	0x36f34fa1	7.2512344e-06
67	0x36f46ba2	7.2842968e-06
68	0x36f481a8	7.2868606e-06
69	0x36f59d22	7.3198617e-06
70	0x36eeba84	7.114666e-06
71	0x36efa7c2	7.1422846e-06
72	0x36eec5e1	7.115989e-06
73	0x36f34379	7.249819e-06
74	0x36f5f222	7.329757e-06
75	0x36f6c4b2	7.3542697e-06
76	0x36f6bd0f	7.3533806e-06
77	0x36f6bd8b	7.353437e-06
78	0x36f6c11a	7.3538513e-06
79	0x36f6bffd	7.3537217e-06
80	0x36f6b830	7.3528136e-06
81	0x36f6bb82	7.3532e-06
82	0x36f6c16f	7.35389e-06
83	0x36f6c16f	7.35389e-06
84	0x36f6c16f	7.35389e-06
85	0x36f6c16f	7.35389e-06
86	0x36f6bfb2	7.3536876e-06
87	0x36f6bac0	7.353112e-06
88	0x36f6bf6e	7.3536567e-06
89	0x36f6e0ce	7.357542e-06
90	0x36f69446	7.3486326e-06
91	0x36f6a45a	7.3505043e-06
92	0x36f499fa	7.289692e-06
93	0x36f07d82	7.1671684e-06
94	0x36ebe582	7.030264e-06
95	0x36e860f6	6.9254265e-06
96	0x36e398c8	6.7829133e-06
97	0x36dccece	6.580586e-06
98	0x36d3aef0	6.3086554e-06
99	0x36d14d57	6.237689e-06
100	0x36d41692	6.32072e-06
101	0x36da3b03	6.503776e-06
102	0x36e3644a	6.7768024e-06
103	0x36ead3a0	6.99838e-06
104	0x36ef278f	7.1273603e-06
105	0x36f165b9	7.1942018e-06
106	0x36f5f05a	7.3295496e-06
107	0x36f69d8f	7.3497135e-06
108	0x36f6ab9e	7.35135e-06
109	0x36f6b7e1	7.3527776e-06
110	0x36f6c16f	7.35389e-06
111	0x36f6c16f	7.35389e-06
112	0x36f6c16f	7.35389e-06
113	0x36f6c16f	7.35389e-06
114	0x36f6bb76	7.3531946e-06
115	0x36f6be79	7.3535452e-06
116	0x36f604e2	7.3319397e-06
117	0x36f30591	7.2426124e-06
118	0x36f21cae	7.215501e-06
119	0x36f046f3	7.160817e-06
120	0x36ef979c	7.1404047e-06
121	0x36e65159	6.8640043e-06
122	0x36e30486	6.765654e-06
123	0x36e10ec3	6.707241e-06
124	0x36d35fc9	6.299441e-06
125	0x36b91e78	5.5169767e-06
126	0x36a9f1c7	5.064739e-06
127	0x369d97ff	4.6966593e-06
128	0x36901e2c	4.295047e-06
129	0x3686f66a	4.0221976e-06
130	0x368eae95	4.252254e-06
131	0x36a96ca6	5.049241e-06
132	0x36c11d07	5.7552274e-06
133	0x36d73ae3	6.4143546e-06
134	0x36ec355e	7.039561e-06
135	0x36f2d24d	7.2366443e-06
136	0x36f4b7f7	7.293183e-06
137	0x36f6abde	7.3513793e-06
138	0x36f6c16f	7.35389e-06
139	0x36f6c16f	7.35389e-06
140	0x36f6c16f	7.35389e-06
141	0x36f6c16f	7.35389e-06
142	0x36f6c53c	7.3543324e-06
143	0x36f6d99d	7.356705e-06
144	0x36f571ba	7.3148085e-06
145	0x36f1a97f	7.2020916e-06
146	0x36ee336c	7.098939e-06
147	0x36ecc44a	7.056199e-06
148	0x36ed597e	7.0735687e-06
149	0x36f080fd	7.1675736e-06
150	0x36f779fa	7.3753736e-06
151	0x36ef985d	7.1404925e-06
152	0x36d2b4ce	6.279536e-06
153	0x36b34dba	5.3436643e-06
154	0x369cca58	4.672718e-06
155	0x368231f8	3.880119e-06
156	0x3668c67f	3.4686234e-06
157	0x3657fa38	3.2183143e-06
158	0x3660ec58	3.3516171e-06
159	0x368c24d4	4.1766125e-06
160	0x36a418e8	4.8904803e-06
161	0x36b5e11b	5.420426e-06
162	0x36d9fb53	6.496362e-06
163	0x36e9090c	6.9449943e-06
164	0x36ef3454	7.128847e-06
165	0x36f6452c	7.339424e-06
166	0x36f6c1ee	7.3539477e-06
167	0x36f6c16f	7.35389e-06
168	0x36f6c16f	7.35389e-06
169	0x36f6c16f	7.35389e-06
170	0x36f6bf0c	7.353612e-06
171	0x36f71a0e	7.364207e-06
172	0x36f54e51	7.310686e-06
173	0x36eeb186	7.113619e-06
174	0x36ec63ff	7.044989e-06
175	0x36ee89ba	7.108986e-06
176	0x36f087c4	7.1683626e-06
177	0x37014c31	7.706739e-06
178	0x37022efc	7.759543e-06
179	0x36f21b8a	7.215368e-06
180	0x36c895d5	5.977907e-06
181	0x36aab309	5.0872372e-06
182	0x368bfb52	4.1717803e-06
183	0x367ad703	3.7378056e-06
184	0x36509b28	3.1084728e-06
185	0x364b8c65	3.0331078e-06
186	0x36511f41	3.116162e-06
187	0x3683390f	3.9107467e-06
188	0x3695b7b6	4.461933e-06
189	0x36ad6164	5.1671395e-06
190	0x36d1a0f7	6.247424e-06
191	0x36e8a976	6.9338666e-06
192	0x36f04b37	7.1613135e-06
193	0x36f5d201	7.3260167e-06
194	0x36f6c0a3	7.353797e-06
195	0x36f6c18e	7.353904e-06
196	0x36f6c16f	7.35389e-06
197	0x36f6c16f	7.35389e-06
198	0x36f6d99d	7.356705e-06
199	0x36f64a62	7.3400306e-06
200	0x36f3aedd	7.262321e-06
201	0x36ecec62	7.0608667e-06
202	0x36ee2c94	7.0981423e-06
203	0x36eb1788	7.006285e-06
204	0x36f1c1ab	7.2049056e-06
205	0x36fcb550	7.531293e-06
206	0x36fb7740	7.4942654e-06
207	0x36db326a	6.5325776e-06
208	0x36b3495e	5.3431568e-06
209	0x36911e7e	4.3248865e-06
210	0x366fd2ba	3.5736434e-06
211	0x365b6bb5	3.2696237e-06
212	0x3646b6d5	2.9610721e-06
213	0x3652798a	3.1363184e-06
214	0x3650b8e2	3.1102031e-06
215	0x3678d6e1	3.7079956e-06
216	0x368c456c	4.180407e-06
217	0x36ac2cfa	5.1312354e-06
218	0x36d0caf5	6.2225104e-06
219	0x36e3e020	6.7912188e-06
220	0x36f1d5d3	7.207252e-06
221	0x36f560be	7.3128313e-06
222	0x36f6be6b	7.353539e-06
223	0x36f6c1b4	7.3539213e-06
224	0x36f67c97	7.3458755e-06
225	0x36f6bb1a	7.353153e-06
226	0x36f6cf38	7.3554947e-06
227	0x36f675f9	7.345105e-06
228	0x36f35988	7.252387e-06
229	0x36f0a6e2	7.171985e-06
230	0x36ebf1b3	7.0316833e-06
231	0x36e65a0c	6.865017e-06
232	0x36e4efa8	6.822829e-06
233	0x36eb04bc	7.004097e-06
234	0x36e55f4c	6.835826e-06
235	0x36bde028	5.658734e-06
236	0x3698d150	4.55432e-06
237	0x3676a5fc	3.6753472e-06
238	0x3660e465	3.3511544e-06
239	0x365b5fab	3.268923e-06
240	0x364da61d	3.064407e-06
241	0x364870f7	2.9868077e-06
242	0x364d0528	3.0550382e-06
243	0x3674b01c	3.6461342e-06
244	0x36914628	4.329504e-06
245	0x36b5bb2e	5.416011e-06
246	0x36d51e36	6.3514117e-06
247	0x36e71562	6.8868258e-06
248	0x36f3bc49	7.2638836e-06
249	0x36f6866c	7.34702e-06
250	0x36f6c16f	7.35389e-06
251	0x36f6c16f	7.35389e-06
252	0x36f6c16f	7.35389e-06
253	0x36f689d4	7.3474166e-06
254	0x36f6c3a8	7.3541487e-06
255	0x36f694c9	7.348692e-06

exp_avg f4 [30]
0	0xb9a5320a	-0.00031508534
1	0xb9c051b3	-0.00036681964
2	0x3a55bb5c	0.0008153224
3	0xb99367e8	-0.0002811544
4	0x398c5256	0.00026764226
5	0xb97396ef	-0.00023230513
6	0x38604068	5.3465745e-05
7	0x02435a4f	1.4352255e-37
8	0x39c1903b	0.0003691929
9	0x01e1212d	8.269955e-38
10	0xba800598	-0.0009767292
11	0x044b6f95	2.3913771e-36
12	0xb9c149c9	-0.00036866803
13	0xb94f4a2f	-0.00019768694
14	0xb9b2bab5	-0.00034089913
15	0x02bd5bd1	2.7823754e-37
16	0x02a65cf4	2.444486e-37
17	0xb9325b64	-0.00017009448
18	0x39a05110	0.00030577974
19	0x39e94f59	0.00044500342
20	0xba0851fd	-0.00052002055
21	0x022d5054	1.2733086e-37
22	0x38fae104	0.000119628414
23	0x02ee0138	3.4971656e-37
24	0x02ae3321	2.5596349e-37
25	0x39e96e2d	0.0004452331
26	0x03122ce2	4.2957067e-37
27	0x39d58d16	0.00040731643
28	0x3921a26a	0.0001541466
29	0x03bf617c	1.1248352e-36

exp_avg_sq f4 [30]
0	0x36f6c16f	7.35389e-06
1	0x372ef206	1.0427559e-05
2	0x37c2546a	2.316591e-05
3	0x36dce2c8	6.5829117e-06
4	0x36294af9	2.5226602e-06
5	0x363e81ba	2.8387717e-06
6	0x358bf9ad	1.0428972e-06
7	0x31b0d4d0	5.146468e-09
8	0x36860cd0	3.9950028e-06
9	0x30ead8c5	1.708735e-09
10	0x375774f6	1.2842231e-05
11	0x359713eb	1.1256174e-06
12	0x3728bef3	1.0058039e-05
13	0x36faf595	7.47917e-06
14	0x3691d205	4.3457862e-06
15	0x32bdd63e	2.2099922e-08
16	0x3233a978	1.0457704e-08
17	0x374ddb68	1.2270037e-05
18	0x36b43ba6	5.371362e-06
19	0x3691bddc	4.3434393e-06
20	0x36d41537	6.320562e-06
21	0x321270a0	8.5239265e-09
22	0x36a4e217	4.913901e-06
23	0x330f4e44	3.3365964e-08
24	0x3240b225	1.1216376e-08
25	0x377071f4	1.43316465e-05
26	0x32bca168	2.195948e-08
27	0x378acbda	1.6545808e-05
28	0x36e1397a	6.7122137e-06
29	0x34e1ed8f	4.2082362e-07

exp_avg f4 [3, 30]
0	0xbb5c51e9	-0.0033618158
1	0xbbf0efc2	-0.0073528
2	0xbb924c08	-0.00446463
3	0xb9420106	-0.00018501663
4	0xba841682	-0.0010077509
5	0x3b814580	0.0039450526
6	0xbc689e61	-0.014197917
7	0x81edeac5	-8.739693e-38
8	0xbb198bc5	-0.0023429256
9	0x02d0eeb1	3.0699855e-37
10	0xbad55512	-0.0016275963
11	0x04a53b5d	3.884583e-36
12	0x3a155a34	0.000569734
13	0xbc1e4929	-0.009660997
14	0xbb99aa64	-0.0046895016
15	0x03e8fac8	1.3693311e-36
16	0x82b6a1f5	-2.6835455e-37
17	0xbc3d8fb8	-0.01156991
18	0xba22418d	-0.00061895774
19	0x39c19256	0.00036920857
20	0xbac68e95	-0.0015148694
21	0x03aa5b4c	1.0012663e-36
22	0x3aba5ace	0.0014217736
23	0x840e3b00	-1.6719111e-36
24	0x81389f8f	-3.390994e-38
25	0xbc80d64f	-0.01572719
26	0x83d9d4b4	-1.2802948e-36
27	0xb9bc90c4	-0.00035966013
28	0x3addbb7f	0.001691684
29	0x03fbd091	1.4800339e-36
30	0xbbb63ec9	-0.005561684
31	0xbbaee6e1	-0.0053375815
32	0xbb1e9bcf	-0.0024201756
33	0xbb9858a3	-0.004649238
34	0xbb3ec30d	-0.0029107959
35	0xbc129243	-0.008946004
36	0xbac67a18	-0.0015142588
37	0x01f96f4d	9.1627863e-38
38	0xbb124723	-0.0022320233
39	0x01c70921	7.3114154e-38
40	0xbbda7df0	-0.006667845
41	0x8354a7c0	-6.249377e-37
42	0xbb7cf1d3	-0.0038596287
43	0xbb993b7f	-0.004676282
44	0xbba32f7c	-0.004980026
45	0x02bddea0	2.7898835e-37
46	0x02e47375	3.3567858e-37
47	0xbba737ff	-0.005103111
48	0xbb9564b3	-0.0045591234
49	0x3a6dd476	0.00090724917
50	0xbbbf961e	-0.005846753
51	0x835dba19	-6.5159693e-37
52	0xbbc8cd42	-0.0061279843
53	0x036e9d6f	7.012264e-37
54	0x02ea4508	3.4422832e-37
55	0xbb931ce3	-0.0044895275
56	0x02528e75	1.5469247e-37
57	0xbb993cfb	-0.004676459
58	0xbbd095aa	-0.0063654976
59	0x025b255c	1.61003e-37
60	0x3c1233e2	0.008923503
61	0x3c4feb5a	0.0126903895
62	0x3be199ef	0.0068848054
63	0x3b9e68b6	0.00483426
64	0x3b80671c	0.0039185416
65	0x3ba3df01	0.0050009494
66	0x3c80b6d4	0.01571218
67	0x802e11d9	-4.230835e-39
68	0x3b95e96b	0.0045749447
69	0x83015874	-3.801123e-37
70	0x3c07e99e	0.008295445
71	0x848aa652	-3.2596385e-36
72	0x3b579b53	0.0032898977
73	0x3c6ae6f3	0.014337289
74	0x3c1e6cf9	0.009669536
75	0x840c393e	-1.6483205e-36
76	0x81b74630	-6.73243e-38
77	0x3c8895e4	0.016673036
78	0x3ba9acdc	0.005178077
79	0xbaa74ecd	-0.0012764573
80	0x3bf139c7	0.007361624
81	0x82edf904	-3.4966948e-37
82	0x3b9a369b	0.0047062165
83	0x03a52764	9.706872e-37
84	0x82d3312c	-3.1031887e-37
85	0x3ca59d90	0.020216733
86	0x03bf82f5	1.1256037e-36
87	0x3ba50606	0.0050361184
88	0x3b9926cb	0.004673814
89	0x840b9aa0	-1.6410372e-36

exp_avg_sq f4 [3, 30]
0	0x39386da4	0.00017588452
1	0x3b0d1eb8	0.0021533202
2	0x3abf8671	0.001461221
3	0x390e0a19	0.00013545937
4	0x3a6a679f	0.00089418323
5	0x3a12064a	0.0005570395
6	0x3bd42421	0.0064740335
7	0x31032453	1.9083657e-09
8	0x3a671aad	0.00088159257
9	0x32ca4513	2.3547306e-08
10	0x390caa4c	0.00013414881
11	0x366c3730	3.5198864e-06
12	0x3918bae2	0.00014565469
13	0x3b7f014d	0.0038910687
14	0x3977a6d2	0.00023617901
15	0x34fea1e6	4.7428983e-07
16	0x324fb41c	1.2089938e-08
17	0x3b811479	0.003939208
18	0x3a610b51	0.0008584755
19	0x3a13d762	0.00056396995
20	0x3a8fe74b	0.0010978965
21	0x348d5b41	2.6329693e-07
22	0x3a2e8583	0.0006657468
23	0x3530da42	6.5882716e-07
24	0x321ee691	9.249235e-09
25	0x3bf8e00f	0.0075950692
26	0x348abdf4	2.5842712e-07
27	0x3a37053c	0.0006981676
28	0x3a4b4aff	0.0007755011
29	0x3524cf9e	6.1396884e-07
30	0x3a568f3d	0.00081847963
31	0x3a2641d9	0.00063422095
32	0x3afb8d09	0.0019191812
33	0x3a6d5594	0.00090535847
34	0x3b0f7b65	0.0021893617
35	0x3b6c98a2	0.0036101718
36	0x3ae22cdd	0.0017255802
37	0x31102563	2.097601e-09
38	0x3ae103b5	0.0017167242
39	0x30b78fbb	1.3355853e-09
40	0x3a40dbd6	0.0007356977
41	0x33f3fdb6	1.1361719e-07
42	0x3a82013d	0.0009918582
43	0x3a980689	0.0011598627
44	0x3ab69d07	0.0013932296
45	0x32aa169c	1.9800886e-08
46	0x32e10b9a	2.6198723e-08
47	0x3ab43d8f	0.0013751256
48	0x3b51c5e5	0.0032008823
49	0x3ab9bcb3	0.0014170617
50	0x3a8a729f	0.0010562724
51	0x33e60653	1.071136e-07
52	0x3b4682f1	0.003029045
53	0x334cacd1	4.7654627e-08
54	0x32ab74cd	1.9960135e-08
55	0x3b87ce63	0.0041444763
56	0x31609ce5	3.2685474e-09
57	0x3b185354	0.0023243027
58	0x3b799d52	0.0038088155
59	0x31a2aab1	4.734226e-09
60	0x3a5a7e7e	0.0008334889
61	0x3b10873a	0.0022053258
62	0x3b4b8f01	0.0031060579
63	0x3a35a086	0.0006928522
64	0x3b32b07f	0.0027265844
65	0x3b68875c	0.003548107
66	0x3bc759fa	0.006083724
67	0x2c9d59f9	4.4721974e-12
68	0x3b19c9d7	0.0023466253
69	0x331b0b19	3.6098843e-08
70	0x3a3aa40e	0.0007119783
71	0x361f5a85	2.3745536e-06
72	0x3a4ea07e	0.00078821916
73	0x3b737853	0.0037150576
74	0x3a9744f2	0.0011540933
75	0x3538a898	6.879068e-07
76	0x316472ee	3.3243697e-09
77	0x3b91feab	0.0044554076
78	0x3b64bde0	0.0034903213
79	0x3afcac32	0.0019277392
80	0x3afbdb75	0.0019215184
81	0x33148001	3.4575354e-08
82	0x3b51515d	0.0031939365
83	0x34c8e70b	3.742101e-07
84	0x33356803	4.2236945e-08
85	0x3c239ebd	0.009986577
86	0x34763b4f	2.2932112e-07
87	0x3b2d651a	0.0026457966
88	0x3b7f61ac	0.003896813
89	0x354203bc	7.2276066e-07

exp_avg f4 [3]
0	0xba802e66	-0.0009779453
1	0xba9591f0	-0.0011411291
2	0x3b0ae02f	0.0021190753

exp_avg_sq f4 [3]
0	0x392471d5	0.00015682665
1	0x390a56e3	0.00013193073
2	0x395bb39e	0.0002095238
