nesy/1xyt08sn/checkpoints/epoch=9-step=250.ckpt (torch, 290467 bytes, 12 tensors)

neural_predicates.digit.net.0.weight f4 [30, 784]
00000000: ab94 0bbd c2c5 d63c 47f5 7f3c 9533 e8bc
00000010: bc62 9a3c 9017 b6bc 74e6 f5bc 25b2 74bc
00000020: 8157 ad3c 59b8 953c 4815 843c ae35 2bbc
00000030: f3f5 de39 b237 c4bc b86c 863c 832b ac3a
00000040: daf5 55bc 18c0 843c c02b 283b 04e3 a23c
00000050: 87be cf3b e967 d23c 277d bcbc c51d 4f3c
00000060: 7bb3 e9bb 17bb 923c a33b 123c 1633 ab3c
00000070: 71f2 973c 598a 35bb 9c9f 24bd 5b35 28bd
00000080: 1489 1abc c9aa d5bc 86e0 e4bc 5c78 4e3c
00000090: 87ec b93c 084c cdbc c89d b93c 68ad 0cbd
000000a0: 9d3c 81bc 5017 ac3c 0ef1 26bc 1d4d 0e3c
000000b0: 5f22 e5bb 6d96 c0bb 3850 0dbd bd6e d73b
000000c0: 91c7 eebc 8884 023c de3a 72ba dfeb 0bbc
000000d0: 77fa d33a b363 21bd 1c77 04bc cdb4 a2bc
000000e0: 8f0c 27bd c002 86bc a797 14bc 08c9 e33a
000000f0: 96e4 dc3c 5dc9 8dbb dacb 073b 60b6 42bc
00000100: ba56 053b 0be3 88bc 5f65 a6bc e05d 183c
00000110: b574 12bd db10 29bd 853b 34bd e670 49bc
00000120: 3cb1 8b3b bb73 7abc 0520 86bc 8373 e7bb
00000130: c415 8cbc 0095 b3bc 320a bbbc 96fd 313c
00000140: 1138 04bd ed19 bf3b 4724 cd3c ae70 db3b
00000150: fff7 d63a 114c 963c 5547 9dbc 93d0 e4bb
00000160: 6ce8 67bc b20b 20bd 4ab7 2b3b ee62 d83c
00000170: d228 923c a674 51bc e955 bdbc 998f 09bc
00000180: e3cb 7abc 3d12 27bd 2218 05bd acfe 75bb
00000190: 42bf c139 e9b7 91bd 061f a5bc ef12 c8bc
000001a0: bceb c8bb f9a2 d4bb a21b 2bbd 1216 c53b
000001b0: 191b ad3c 6a27 763a d464 c33c 9f27 c33c
000001c0: f9c5 0bbd eff5 37bc 4bcb c0bc 1cc0 12bc
000001d0: 83d8 0cbc 7833 23bd b402 08bd 11ea bd3a
000001e0: 9b26 68bc a8e7 c3bc 2a25 983c 537d 10bb
000001f0: 695b a8bb c9f0 3fbc 5adf fd3b 4fbc 5abd
00000200: e07d e4bc 43e7 b9bc 3773 303d 4c5f fb3c
00000210: 41c0 12bd d6af 19bd c8df 32bd 8be1 2b3c
00000220: 1514 b03c 1a58 123b efd8 013a ad7f 973c
00000230: 20d2 1fbd 8f42 6c3c f3d4 97bc 3289 2ebc
00000240: cf56 8cbb 6663 03bc d5ef 6a3c a428 c5b9
00000250: 585f f2bb 0874 45bd da3a 34bd 6790 b9bb
00000260: cf26 113c abbc d9bc 1f3b 823d 2412 4a3d
00000270: a398 0d3d b997 233c 26ab 0d3d ca4f 0f3c
00000280: f8cd 84bd 3c21 00bd fa08 9fbd 9580 3fbd
00000290: 7a27 45bc 2395 11bd 52cb fdbc 375a 9dbc
000002a0: 75e1 2fbd af28 ac3c aa6f b63c bad2 d5bc
000002b0: 7dcf 053c 369e cdbc 66ee e5bc 176f 5bbb
000002c0: 3b40 a6ba a309 c3bc 4c31 f9bb 5fb5 27bc
000002d0: c96d 42bc c4f0 f5bc f8fe 083d ddf2 873d
000002e0: 0a6e a23c 1414 3b3c ecf9 84ba 9bd2 13bb
000002f0: af94 3abd c95f 82bc 74e3 08bd 84ed 7c3a
00000300: a1d9 86bb 93b6 3dbb f6b3 403c fbdc 71bc
00000310: a835 0abd 06ff 9bbc eaaa 163c e565 9fbc
00000320: e564 303c 331d f3bc 14d5 35bd f128 55bc
00000330: ada1 d0bc 2627 113d 26f0 733c f8f2 173d
00000340: e211 b83c 53d0 c53c 6d71 2d3d 2d35 783b
00000350: e028 2f3d 3f31 913d dd84 a73c 57c2 243d
00000360: 2d15 1ebd 4ff5 b5bc 7cef f03c 6ce9 0e3d
00000370: 1bad bbbc 6eda e4bc 78d1 a63b 20da 71ba
00000380: 6165 553c a0d7 053c dfac 28bd ba43 703c
00000390: 31df 823c 81a1 a2bc 2fcf 51bc f35c 59bc
000003a0: 9fb9 16bd b13e 013d 5839 993c cfe0 133d
000003b0: f072 b23b 5d20 62bb d4ed 7bbc 7a46 ee3c
000003c0: 5b42 9b3d 3b6d 613d 5879 a43c 04ef 8ebc
000003d0: 47b0 d13c c7f7 21bb 094c 2a3d d423 0e3d
000003e0: 4797 2fbc 1dbc 49bc 8c6e bc3b 1fac ca3b
000003f0: d3b1 08bd acb8 2dbd b74e 8d3c 55dd 013c
-0.034077328 0.026217345 0.0156224435 -0.028344909 0.018845908 -0.022228032 -0.030017115 -0.014935051
0.02115989 0.01827638 0.016123429 -0.01044981 0.00042526386 -0.023952339 0.016409263 0.0013135526
-0.013059104 0.016204879 0.0025660843 0.01988364 0.0063398513 0.025684314 -0.023008896 0.012641375
-0.0071319914 0.017911477 0.008925351 0.020898383 0.018548222 -0.002770087 -0.040191278 -0.04106651
-0.009432096 -0.026082413 -0.027939092 0.012601938 0.022695793 -0.025060669 0.022658244 -0.03434506
-0.015775973 0.02100721 -0.010189308 0.008685377 -0.0069926227 -0.005877307 -0.03450033 0.0065744803
-0.029147895 0.007966168 -0.0009240339 -0.008540123 0.0016172667 -0.03940172 -0.0080850385 -0.019861603
-0.04078346 -0.016358733 -0.00906936 0.0017378638 0.026964467 -0.004326983 0.002072087 -0.011884302
0.0020345883 -0.016709825 -0.02031201 0.009299725 -0.03575583 -0.04127584 -0.044002075 -0.0122949835
0.0042630713 -0.015286381 -0.01637269 -0.0070633306 -0.017100222 -0.021921635 -0.02283201 0.010863682
-0.03228003 0.005831948 0.025041712 0.006696782 0.0016400813 0.018346818 -0.019199053 -0.006982872
-0.014154535 -0.039073654 0.0026201778 0.02641436 0.01784173 -0.012784159 -0.023112254 -0.008396053
-0.015307399 -0.040788878 -0.032493718 -0.003753583 0.00036954327 -0.07115156 -0.020156395 -0.02442309
-0.0061316174 -0.0064891544 -0.0417744 0.006014594 0.021131085 0.00093900284 0.02385179 0.023822604
-0.03412435 -0.011228069 -0.023534438 -0.008956935 -0.008596542 -0.039844006 -0.033205703 0.0014489313
-0.0141693605 -0.023914173 0.018572409 -0.0022047355 -0.00513785 -0.0117151225 0.007747573 -0.05340224
-0.027892053 -0.022693282 0.043078627 0.03068509 -0.03582788 -0.037521206 -0.043670446 0.010490785
0.02149395 0.0022330345 0.0004953285 0.018493498 -0.03901875 0.014420166 -0.01853416 -0.010652827
-0.0042828093 -0.008019304 0.014339407 -0.00037605048 -0.0073966198 -0.04820636 -0.044001438 -0.005662966
0.00885935 -0.026579222 0.06358933 0.049333706 0.034569394 0.009984904 0.034587048 0.008747051
-0.06484598 -0.031281695 -0.07765384 -0.046753485 -0.012033338 -0.03554262 -0.03098074 -0.019208057
-0.042939622 0.021015493 0.022270042 -0.026101459 0.008167145 -0.025099855 -0.028067779 -0.0033482963
-0.0012683937 -0.023808306 -0.0076047536 -0.010236113 -0.011866995 -0.030022033 0.033446282 0.06638119
0.019827861 0.011418361 -0.0010145283 -0.002255595 -0.045551952 -0.015914815 -0.03342004 0.00096484297
-0.004115299 -0.0028947934 0.011761656 -0.0147621585 -0.033742577 -0.019042503 0.0091960225 -0.019457767
0.010766243 -0.02967701 -0.04439266 -0.0130102495 -0.025467718 0.035437725 0.014888799 0.037096947
0.022469465 0.024147188 0.0423445 0.0037873492 0.04276359 0.07089471 0.020449096 0.0402244
-0.038594414 -0.022211699 0.02941107 0.034890577 -0.022909692 -0.027936187 0.0050908886 -0.00092259236
0.013024659 0.008169085 -0.041180488 0.014664585 0.015975567 -0.019852402 -0.012805744 -0.01326679
-0.036798116 0.031553928 0.018704101 0.036103066 0.0054458305 -0.0034504153 -0.015376527 0.02908634
0.07581016 0.05503581 0.020077392 -0.017447956 0.02559675 -0.0024714337 0.04157642 0.034702137
-0.01071722 -0.012312916 0.005750483 0.006185069 -0.03337271 -0.042412445 0.017249448 0.007926305

neural_predicates.digit.net.0.bias f4 [30]
00000000: d8e1 17bc 0d28 32bb 2db1 72bc fb21 d8bc
00000010: e216 7cbc b82f 9bbc 9e7f b63c e7b3 333d
00000020: 9df8 be3c b7fd e93c ab3e 58bc 1c42 01bd
00000030: 9afa ce3c 3d1b a93c be5c fbbc f997 debc
00000040: b15a a93b ba39 00bd 9248 c2bc 55aa 8ab9
00000050: d4e8 59b9 9168 b83b 3dca b83c ae94 f8bb
00000060: b584 48bc 850f c03c 1b1f 243d ea95 b8bc
00000070: 8c69 29bc f1ac df3c
-0.009270154 -0.0027184517 -0.01481275 -0.02638339 -0.015386315 -0.018943653 0.02227765 0.04387274
0.023311907 0.028563363 -0.013198535 -0.031557187 0.02526598 0.020642871 -0.030683871 -0.027172076
0.005168282 -0.031305052 -0.023716245 -0.00026448318 -0.00020781468 0.0056276997 0.022557372 -0.0075860834
-0.012238671 0.0234449 0.040068727 -0.022532422 -0.010340106 0.027304145

neural_predicates.digit.net.2.weight f4 [2, 30]
00000000: a18a 843d 020b adbd 8546 20be 3051 2b3d
00000010: 8b23 3f3e 847a 1f3d 1cac 7e3e 4ff6 023e
00000020: bc52 36be 54a4 52be ee77 823d de79 1fbe
00000030: 9b20 a8bd 3f52 543e 9242 073d a5d9 6fbd
00000040: 2111 3bbe 9c25 e0bd c5e4 0bbe 75a5 69bd
00000050: 509d da3d e3a5 c9bd 8ae1 6a3e fbef febd
00000060: e873 6f3e 43f7 1d3e 9108 703e 96b2 f1bd
00000070: 9113 5fbe 45e1 a63d 269e 7abe 3b4c 613e
00000080: cb55 26be 7433 963e 4704 82be cd88 71bd
00000090: 3f18 e03c a6c6 99bd 7215 0d3e 73c9 203e
000000a0: 504d b4bd ffe1 333e d2e9 043e e802 84be
000000b0: 94f6 eebd d7d6 b63c 99eb d33c fbf1 4d3d
000000c0: 67e7 ec3d d952 0b3e 89e4 f83b cb76 043e
000000d0: b50e ecbd 087b 573e 152d 60bc 00d7 b53d
000000e0: aa72 15be 494a 9938 14aa cdbc 264a 66be
0.06471754 -0.08449365 -0.15651901 0.041825473 0.18665902 0.0389352 0.24870342 0.12789272
-0.17804998 -0.20570499 0.06370531 -0.15573832 -0.08209344 0.207345 0.03302247 -0.05855717
-0.18268253 -0.109446734 -0.13661487 -0.057042558 0.10674536 -0.098460935 0.22937599 -0.124481164
0.23384058 0.15426354 0.23440768 -0.11801641 -0.21784808 0.081484355 -0.24474391 0.22001736
-0.16243665 0.2933613 -0.25393888 -0.058968354 0.027355311 -0.07508592 0.13777712 0.15701847
-0.08803809 0.1756668 0.1297982 -0.25783467 -0.11668125 0.02231924 0.025869178 0.0502796
0.11567574 0.13605823 0.007595603 0.12935941 -0.11526243 0.21043026 -0.013682623 0.088788986
-0.14594522 7.309445e-05 -0.025105514 -0.22489223

neural_predicates.digit.net.2.bias f4 [2]
00000000: ccda 0c3e d28a debd
0.1375534 -0.108663216

exp_avg f4 [30, 784]
00000000: a2b7 96b7 a2b7 96b7 a2b7 96b7 a2b7 96b7
00000010: a2b7 96b7 a2b7 96b7 a2b7 96b7 a2b7 96b7
00000020: a2b7 96b7 a2b7 96b7 a2b7 96b7 a2b7 96b7
00000030: a2b7 96b7 a2b7 96b7 a2b7 96b7 a2b7 96b7
00000040: a2b7 96b7 a2b7 96b7 a2b7 96b7 a2b7 96b7
00000050: a2b7 96b7 a2b7 96b7 a2b7 96b7 a2b7 96b7
00000060: a2b7 96b7 a2b7 96b7 a2b7 96b7 a2b7 96b7
00000070: a2b7 96b7 a2b7 96b7 a2b7 96b7 a2b7 96b7
00000080: a2b7 96b7 a2b7 96b7 a2b7 96b7 a2b7 96b7
00000090: a2b7 96b7 a2b7 96b7 a2b7 96b7 c7b7 96b7
000000a0: ebb7 96b7 bfb7 96b7 f9b6 96b7 81d5 96b7
000000b0: 9b0d 97b7 9fe0 96b7 a2b7 96b7 a2b7 96b7
000000c0: a2b7 96b7 a2b7 96b7 a2b7 96b7 a2b7 96b7
000000d0: a2b7 96b7 a2b7 96b7 a2b7 96b7 a2b7 96b7
000000e0: a2b7 96b7 a2b7 96b7 a2b7 96b7 a2b7 96b7
000000f0: a2b7 96b7 a2b7 96b7 a8b7 96b7 a4b7 96b7
00000100: a2b7 96b7 a2b7 96b7 a2b7 96b7 bdb7 96b7
00000110: ed84 96b7 26dd 93b7 cf31 96b7 beb4 96b7
00000120: f092 94b7 6b8e 91b7 3d78 95b7 b5ae 96b7
00000130: 84b5 96b7 a2b7 96b7 a2b7 96b7 a2b7 96b7
00000140: a2b7 96b7 a2b7 96b7 a2b7 96b7 a2b7 96b7
00000150: a2b7 96b7 a2b7 96b7 a2b7 96b7 a2b7 96b7
00000160: a2b7 96b7 a2b7 96b7 a2b7 96b7 eab7 96b7
00000170: 4055 96b7 e56a 96b7 3ad9 96b7 7736 97b7
00000180: 45cb 96b7 f512 9cb7 1440 a1b7 dff0 9bb7
00000190: 855a 90b7 5f64 8eb7 4910 93b7 accb 96b7
000001a0: 7ab5 96b7 61b8 96b7 63b8 96b7 deb7 96b7
000001b0: f9b7 96b7 bbb7 96b7 a2b7 96b7 a2b7 96b7
000001c0: a2b7 96b7 a2b7 96b7 a2b7 96b7 a2b7 96b7
000001d0: a2b7 96b7 40b7 96b7 b2cf 96b7 d611 97b7
000001e0: 6c52 93b7 ad34 91b7 1ddb 92b7 d305 91b7
000001f0: 0960 91b7 7f67 87b7 57f4 85b7 6627 77b7
00000200: 717d d7b7 9f62 dab7 d07f d2b7 6785 9ab7
00000210: 86a3 86b7 8610 92b7 1534 96b7 99a1 96b7
00000220: 9fc0 96b7 a7b7 96b7 a2b7 96b7 a2b7 96b7
00000230: a2b7 96b7 a2b7 96b7 a2b7 96b7 aab7 96b7
00000240: a2b7 96b7 a1c2 96b7 7043 97b7 5ad2 9ab7
00000250: 8ad8 96b7 50df 99b7 259f a7b7 90f7 a1b7
00000260: 269a 88b6 388d 2038 3f4d 60b7 be4f 0eb8
00000270: 5c1d e4b7 16bd fab7 4a29 07b8 a081 e7b7
00000280: babb a9b7 400e 8eb7 91ed 75b7 5c20 85b7
00000290: 5f60 96b7 a2b7 96b7 a2b7 96b7 a2b7 96b7
000002a0: a2b7 96b7 a2b7 96b7 a2b7 96b7 a2b7 96b7
000002b0: b9b7 96b7 61d8 96b7 93dd 97b7 0b69 97b7
000002c0: ef38 9ab7 4637 a2b7 6f52 a5b7 1287 beb7
000002d0: d438 fab6 7e5c 0038 2012 6e37 1006 15b8
000002e0: e8a8 1ab8 8fd9 06b8 45b9 0cb8 cce9 fcb7
000002f0: 2740 bfb7 38ac acb7 dc6f 98b7 1cb4 97b7
00000300: bcef 96b7 a1bb 96b7 b4b7 96b7 a2b7 96b7
00000310: a2b7 96b7 a2b7 96b7 a2b7 96b7 a2b7 96b7
00000320: db6d 95b7 2fa8 95b7 941a 98b7 ef97 92b7
00000330: d7a6 a0b7 6200 aab7 ec22 b4b7 41fa c5b7
00000340: 2e62 e736 c462 ec37 3ae9 2437 7ac2 11b8
00000350: 5fcd 08b8 1539 19b8 5a34 16b8 b540 fbb7
00000360: 6e55 d8b7 f019 d6b7 08c5 b5b7 fa53 9bb7
00000370: 240f a1b7 cc1d 9ab7 a2b7 96b7 a2b7 96b7
00000380: 72b8 96b7 a2b7 96b7 a4b7 96b7 a2b7 96b7
00000390: 5fa2 95b7 a718 96b7 b34a 98b7 fd75 96b7
000003a0: 5180 a1b7 a8dc a9b7 ab26 b9b7 d1c4 b7b7
000003b0: 7831 8837 656f c137 eb3b 4437 0039 0ab8
000003c0: 0c32 28b8 10ca 2ab8 fc30 9536 ba29 75b7
000003d0: 8c6e f1b7 fad1 dab7 b5d0 b1b7 c69c 94b7
000003e0: 923e 9bb7 653e 99b7 a2b7 96b7 a2b7 96b7
000003f0: a2b7 96b7 a2b7 96b7 76b9 96b7 0bb8 96b7
-1.7966904e-05 -1.7966904e-05 -1.7966904e-05 -1.7966904e-05 -1.7966904e-05 -1.7966904e-05 -1.7966904e-05 -1.7966904e-05
-1.7966904e-05 -1.7966904e-05 -1.7966904e-05 -1.7966904e-05 -1.7966904e-05 -1.7966904e-05 -1.7966904e-05 -1.7966904e-05
-1.7966904e-05 -1.7966904e-05 -1.7966904e-05 -1.7966904e-05 -1.7966904e-05 -1.7966904e-05 -1.7966904e-05 -1.7966904e-05
-1.7966904e-05 -1.7966904e-05 -1.7966904e-05 -1.7966904e-05 -1.7966904e-05 -1.7966904e-05 -1.7966904e-05 -1.7966904e-05
-1.7966904e-05 -1.7966904e-05 -1.7966904e-05 -1.7966904e-05 -1.7966904e-05 -1.7966904e-05 -1.7966904e-05 -1.7966971e-05
-1.7967037e-05 -1.7966957e-05 -1.7966597e-05 -1.7980814e-05 -1.8006938e-05 -1.798599e-05 -1.7966904e-05 -1.7966904e-05
-1.7966904e-05 -1.7966904e-05 -1.7966904e-05 -1.7966904e-05 -1.7966904e-05 -1.7966904e-05 -1.7966904e-05 -1.7966904e-05
-1.7966904e-05 -1.7966904e-05 -1.7966904e-05 -1.7966904e-05 -1.7966904e-05 -1.7966904e-05 -1.7966915e-05 -1.7966908e-05
-1.7966904e-05 -1.7966904e-05 -1.7966904e-05 -1.7966953e-05 -1.7943292e-05 -1.7626746e-05 -1.7904587e-05 -1.7965558e-05
-1.7711398e-05 -1.7351666e-05 -1.7818174e-05 -1.7962748e-05 -1.7965918e-05 -1.7966904e-05 -1.7966904e-05 -1.7966904e-05
-1.7966904e-05 -1.7966904e-05 -1.7966904e-05 -1.7966904e-05 -1.7966904e-05 -1.7966904e-05 -1.7966904e-05 -1.7966904e-05
-1.7966904e-05 -1.7966904e-05 -1.7966904e-05 -1.7967035e-05 -1.7921091e-05 -1.793117e-05 -1.7982547e-05 -1.8025965e-05
-1.7976048e-05 -1.8605477e-05 -1.9222534e-05 -1.8589604e-05 -1.720829e-05 -1.6974458e-05 -1.7531349e-05 -1.7976236e-05
-1.79659e-05 -1.7967252e-05 -1.7967255e-05 -1.7967013e-05 -1.7967062e-05 -1.796695e-05 -1.7966904e-05 -1.7966904e-05
-1.7966904e-05 -1.7966904e-05 -1.7966904e-05 -1.7966904e-05 -1.7966904e-05 -1.7966726e-05 -1.797811e-05 -1.8008908e-05
-1.7562146e-05 -1.7309876e-05 -1.7506589e-05 -1.728806e-05 -1.7330067e-05 -1.6141448e-05 -1.5968615e-05 -1.473152e-05
-2.568841e-05 -2.603355e-05 -2.5093468e-05 -1.842035e-05 -1.6050191e-05 -1.741225e-05 -1.7905646e-05 -1.7956643e-05
-1.797109e-05 -1.7966913e-05 -1.7966904e-05 -1.7966904e-05 -1.7966904e-05 -1.7966904e-05 -1.7966904e-05 -1.7966919e-05
-1.7966904e-05 -1.7972025e-05 -1.8032006e-05 -1.8456183e-05 -1.7982227e-05 -1.834301e-05 -1.9982059e-05 -1.9307976e-05
-4.071061e-06 3.8278493e-05 -1.3369426e-05 -3.3929704e-05 -2.719339e-05 -2.9890372e-05 -3.222496e-05 -2.7597707e-05
-2.0233787e-05 -1.6934355e-05 -1.4658451e-05 -1.5869904e-05 -1.792627e-05 -1.7966904e-05 -1.7966904e-05 -1.7966904e-05
-1.7966904e-05 -1.7966904e-05 -1.7966904e-05 -1.7966904e-05 -1.7966946e-05 -1.7982153e-05 -1.8103781e-05 -1.8049517e-05
-1.8384742e-05 -1.9337644e-05 -1.9707919e-05 -2.2712662e-05 -7.4571963e-06 3.060372e-05 1.41901255e-05 -3.5530014e-05
-3.6873767e-05 -3.2150707e-05 -3.3551147e-05 -3.0149611e-05 -2.2798848e-05 -2.0584193e-05 -1.81719e-05 -1.8084473e-05
-1.7993028e-05 -1.7968765e-05 -1.7966937e-05 -1.7966904e-05 -1.7966904e-05 -1.7966904e-05 -1.7966904e-05 -1.7966904e-05
-1.781334e-05 -1.78405e-05 -1.8132188e-05 -1.7475306e-05 -1.9151177e-05 -2.0265757e-05 -2.1473934e-05 -2.3600764e-05
6.895766e-06 2.8179384e-05 9.829464e-06 -3.4751814e-05 -3.2616193e-05 -3.6531204e-05 -3.5811543e-05 -2.9951663e-05
-2.5788988e-05 -2.5522866e-05 -2.1668631e-05 -1.8516545e-05 -1.9199746e-05 -1.8372106e-05 -1.7966904e-05 -1.7966904e-05
-1.7967282e-05 -1.7966904e-05 -1.7966908e-05 -1.7966904e-05 -1.7837794e-05 -1.7892873e-05 -1.8154597e-05 -1.7936336e-05
-1.9252448e-05 -2.0249121e-05 -2.2071725e-05 -2.190695e-05 1.6235499e-05 2.3059265e-05 1.1696461e-05 -3.295485e-05
-4.010093e-05 -4.0719344e-05 4.4462486e-06 -1.4612853e-05 -2.8780916e-05 -2.6085403e-05 -2.1197231e-05 -1.7715978e-05
-1.8506576e-05 -1.8268076e-05 -1.7966904e-05 -1.7966904e-05 -1.7966904e-05 -1.7966904e-05 -1.7967755e-05 -1.7967095e-05

exp_avg_sq f4 [30, 784]
00000000: f063 fd32 f063 fd32 f063 fd32 f063 fd32
00000010: f063 fd32 f063 fd32 f063 fd32 f063 fd32
00000020: f063 fd32 f063 fd32 f063 fd32 f063 fd32
00000030: f063 fd32 f063 fd32 f063 fd32 f063 fd32
00000040: f063 fd32 f063 fd32 f063 fd32 f063 fd32
00000050: f063 fd32 f063 fd32 f063 fd32 f063 fd32
00000060: f063 fd32 f063 fd32 f063 fd32 f063 fd32
00000070: f063 fd32 f063 fd32 f063 fd32 f063 fd32
00000080: f063 fd32 f063 fd32 f063 fd32 f063 fd32
00000090: f063 fd32 f063 fd32 f063 fd32 ee63 fd32
000000a0: eb63 fd32 ee63 fd32 1a58 fd32 b027 fd32
000000b0: 41e5 fc32 3d28 fd32 f063 fd32 f063 fd32
000000c0: f063 fd32 f063 fd32 f063 fd32 f063 fd32
000000d0: f063 fd32 f063 fd32 f063 fd32 f063 fd32
000000e0: f063 fd32 f063 fd32 f063 fd32 f063 fd32
000000f0: f063 fd32 f063 fd32 f063 fd32 f063 fd32
00000100: f063 fd32 f063 fd32 f063 fd32 ee63 fd32
00000110: f55e fd32 3da9 fc32 4ae1 fc32 e24e fd32
00000120: fd09 fb32 a903 fb32 79ec fb32 ec60 fd32
00000130: 3563 fd32 f063 fd32 f063 fd32 f063 fd32
00000140: f063 fd32 f063 fd32 f063 fd32 f063 fd32
00000150: f063 fd32 f063 fd32 f063 fd32 f063 fd32
00000160: f063 fd32 f063 fd32 f063 fd32 e863 fd32
00000170: 38de fc32 63e6 fc32 f052 fd32 8617 fd32
00000180: 09db fb32 d7b2 f532 9c5d f432 5681 f632
00000190: 2945 ec32 b24e ef32 424b f932 fb53 fd32
000001a0: b461 fd32 8063 fd32 e163 fd32 ee63 fd32
000001b0: ec63 fd32 f063 fd32 f063 fd32 f063 fd32
000001c0: f063 fd32 f063 fd32 f063 fd32 f063 fd32
000001d0: f063 fd32 db63 fd32 345f fd32 0c57 fd32
000001e0: 709f fa32 0789 fa32 97f1 fa32 102f fa32
000001f0: 8351 f732 cd92 c232 dfd7 b232 5c50 9c32
00000200: e4d6 a032 98aa ad32 ae78 b032 7530 d532
00000210: 79ea e632 299c f932 9b8b fb32 1abd fc32
00000220: 232e fd32 f063 fd32 f063 fd32 f063 fd32
00000230: f063 fd32 f063 fd32 e663 fd32 b863 fd32
00000240: f063 fd32 0060 fd32 0146 fd32 30a2 fc32
00000250: 668c f932 08e1 f532 961e f032 6bde ee32
00000260: c1cf d632 df57 9232 5778 3f32 1e99 3b32
00000270: cc12 7a32 91d8 5c32 bf6d 4d32 dd6c 9232
00000280: e488 ad32 7df2 c932 8e91 ec32 49bd e632
00000290: 9646 fc32 f063 fd32 f063 fd32 f063 fd32
000002a0: f063 fd32 f063 fd32 ee63 fd32 f063 fd32
000002b0: ec63 fd32 0f53 fd32 35d3 fb32 b86c f932
000002c0: ea92 f732 a29d f332 dd19 e632 98e9 da32
000002d0: f4d8 a432 861b 4132 8d92 3532 ecfe 3932
000002e0: 561d 4232 7236 8832 b443 8432 04af 8232
000002f0: 004b 9232 f905 b632 a824 dd32 7f48 f632
00000300: 8f78 fc32 6963 fd32 e663 fd32 f063 fd32
00000310: f063 fd32 f063 fd32 f063 fd32 e363 fd32
00000320: 6247 fb32 ad9c fa32 f7b3 f932 751a f832
00000330: 62ce f732 a862 ea32 8510 d532 5d94 c432
00000340: 99dd 8a32 5fb2 3632 d511 3432 9a26 3a32
00000350: f0cf 4832 8e33 5c32 aa36 6532 f022 7732
00000360: 8dc2 8c32 d82f 9732 8c4e b032 a376 d332
00000370: 4e92 d732 b96c e632 f063 fd32 f063 fd32
00000380: 9d5f fd32 f063 fd32 f063 fd32 f063 fd32
00000390: e852 fb32 1a4d fa32 3059 f932 db37 f432
000003a0: 5b8e ea32 59b9 e232 f2ff cf32 556f b632
000003b0: 2a4c 6032 c7d7 2432 571f 2332 2e77 4532
000003c0: e648 8332 b03f 8032 e503 3b32 b166 4e32
000003d0: 7483 8932 f1fd 9332 6456 bb32 5dc1 eb32
000003e0: 1a75 f632 451c fd32 f063 fd32 f063 fd32
000003f0: f063 fd32 f063 fd32 a463 fd32 df63 fd32
2.9498523e-08 2.9498523e-08 2.9498523e-08 2.9498523e-08 2.9498523e-08 2.9498523e-08 2.9498523e-08 2.9498523e-08
2.9498523e-08 2.9498523e-08 2.9498523e-08 2.9498523e-08 2.9498523e-08 2.9498523e-08 2.9498523e-08 2.9498523e-08
2.9498523e-08 2.9498523e-08 2.9498523e-08 2.9498523e-08 2.9498523e-08 2.9498523e-08 2.9498523e-08 2.9498523e-08
2.9498523e-08 2.9498523e-08 2.9498523e-08 2.9498523e-08 2.9498523e-08 2.9498523e-08 2.9498523e-08 2.9498523e-08
2.9498523e-08 2.9498523e-08 2.9498523e-08 2.9498523e-08 2.9498523e-08 2.9498523e-08 2.9498523e-08 2.949852e-08
2.9498514e-08 2.949852e-08 2.949314e-08 2.9471124e-08 2.9440914e-08 2.9471375e-08 2.9498523e-08 2.9498523e-08
2.9498523e-08 2.9498523e-08 2.9498523e-08 2.9498523e-08 2.9498523e-08 2.9498523e-08 2.9498523e-08 2.9498523e-08
2.9498523e-08 2.9498523e-08 2.9498523e-08 2.9498523e-08 2.9498523e-08 2.9498523e-08 2.9498523e-08 2.9498523e-08
2.9498523e-08 2.9498523e-08 2.9498523e-08 2.949852e-08 2.9496258e-08 2.9413622e-08 2.943911e-08 2.9488948e-08
2.9224788e-08 2.922191e-08 2.9327781e-08 2.9497151e-08 2.949819e-08 2.9498523e-08 2.9498523e-08 2.9498523e-08
2.9498523e-08 2.9498523e-08 2.9498523e-08 2.9498523e-08 2.9498523e-08 2.9498523e-08 2.9498523e-08 2.9498523e-08
2.9498523e-08 2.9498523e-08 2.9498523e-08 2.9498509e-08 2.9437714e-08 2.9441429e-08 2.9490792e-08 2.9463774e-08
2.9319851e-08 2.860308e-08 2.8447907e-08 2.8696984e-08 2.7505466e-08 2.7859048e-08 2.9021638e-08 2.9491266e-08
2.9497507e-08 2.9498324e-08 2.9498496e-08 2.949852e-08 2.9498516e-08 2.9498523e-08 2.9498523e-08 2.9498523e-08
2.9498523e-08 2.9498523e-08 2.9498523e-08 2.9498523e-08 2.9498523e-08 2.9498485e-08 2.949637e-08 2.949266e-08
2.9176334e-08 2.9166143e-08 2.9213693e-08 2.9125232e-08 2.8791652e-08 2.265133e-08 2.0820094e-08 1.8197333e-08
1.8724172e-08 2.0217428e-08 2.0543975e-08 2.48185e-08 2.688215e-08 2.9058429e-08 2.9283731e-08 2.9422655e-08
2.9474057e-08 2.9498523e-08 2.9498523e-08 2.9498523e-08 2.9498523e-08 2.9498523e-08 2.9498505e-08 2.9498423e-08
2.9498523e-08 2.9496732e-08 2.948491e-08 2.9410415e-08 2.9051261e-08 2.8624086e-08 2.7953586e-08 2.780799e-08
2.5007354e-08 1.7036596e-08 1.1145025e-08 1.0919647e-08 1.4556189e-08 1.2854927e-08 1.1957524e-08 1.7046142e-08
2.0202101e-08 2.350975e-08 2.7540207e-08 2.6861601e-08 2.936876e-08 2.9498523e-08 2.9498523e-08 2.9498523e-08
2.9498523e-08 2.9498523e-08 2.949852e-08 2.9498523e-08 2.9498516e-08 2.9490847e-08 2.9316292e-08 2.9036855e-08
2.8821393e-08 2.8360606e-08 2.6787285e-08 2.5484766e-08 1.9190772e-08 1.1240337e-08 1.0568908e-08 1.082638e-08
1.1298956e-08 1.5857243e-08 1.539761e-08 1.521358e-08 1.7030743e-08 2.1190305e-08 2.5744455e-08 2.8671137e-08
2.9391485e-08 2.9498283e-08 2.9498505e-08 2.9498523e-08 2.9498523e-08 2.9498523e-08 2.9498523e-08 2.94985e-08
2.9252707e-08 2.9175078e-08 2.9069254e-08 2.8883031e-08 2.8848437e-08 2.7286049e-08 2.4803976e-08 2.288487e-08
1.6166085e-08 1.0634351e-08 1.04814335e-08 1.0835402e-08 1.1688812e-08 1.2817408e-08 1.33419835e-08 1.4385236e-08
1.6386617e-08 1.760047e-08 2.0524816e-08 2.4617583e-08 2.5095826e-08 2.6824965e-08 2.9498523e-08 2.9498523e-08
2.9496556e-08 2.9498523e-08 2.9498523e-08 2.9498523e-08 2.9257947e-08 2.9138892e-08 2.9027973e-08 2.8430739e-08
2.7305921e-08 2.6394149e-08 2.4214362e-08 2.1238217e-08 1.3055834e-08 9.5951185e-09 9.494975e-09 1.14940075e-08
1.5283558e-08 1.4930123e-08 1.0885718e-08 1.20141275e-08 1.6008677e-08 1.7228531e-08 2.1808951e-08 2.7445532e-08
2.869142e-08 2.9465932e-08 2.9498523e-08 2.9498523e-08 2.9498523e-08 2.9498523e-08 2.9498388e-08 2.9498493e-08

exp_avg f4 [30]
00000000: a2b7 9637 769d 93b7 0000 0000 0b3e 76b7
00000010: d178 d637 0000 0000 d06b 5837 36b8 4637
00000020: 5de1 99b7 64ef afb7 0000 0000 1ae8 a0b7
00000030: 2c82 4db7 44a8 e237 0000 0000 0000 0000
00000040: ff97 49b7 e358 1db7 0000 0000 6866 3eb7
00000050: 0000 0000 91da 5cb7 27a7 a737 329e a2b7
00000060: 3def 7037 0000 0000 5068 b937 0000 0000
00000070: 8362 3db7 a240 9537
1.7966904e-05 -1.7597089e-05 0.0 -1.4677188e-05 2.5567047e-05 0.0 1.2899705e-05 1.184461e-05
-1.8343964e-05 -2.09731e-05 0.0 -1.9181567e-05 -1.224926e-05 2.7019654e-05 0.0 0.0
-1.2015923e-05 -9.378625e-06 0.0 -1.1348726e-05 0.0 -1.3163911e-05 1.9985788e-05 -1.938557e-05
1.4360817e-05 0.0 2.2102293e-05 0.0 -1.1288214e-05 1.7792281e-05

exp_avg_sq f4 [30]
00000000: f063 fd32 bb00 fd32 0000 0000 06df 9b32
00000010: 56a3 8333 0000 0000 81c2 7532 de0c 5932
00000020: 901a 0133 6c6a 3933 0000 0000 aa72 1a33
00000030: cb3e 6a32 24b5 9733 0000 0000 0000 0000
00000040: 54bd 6832 7167 e831 0000 0000 c7c3 2532
00000050: 0000 0000 6262 8b32 8767 2133 01f4 1a33
00000060: 7e5e a032 0000 0000 7c9b 4633 0000 0000
00000070: 2948 2f32 04af fb32
2.9498523e-08 2.9453409e-08 0.0 1.8145794e-08 6.1298735e-08 0.0 1.4305102e-08 1.2633988e-08
3.005931e-08 4.317046e-08 0.0 3.5960205e-08 1.363487e-08 7.064435e-08 0.0 0.0
1.3547226e-08 6.7638486e-09 0.0 9.648779e-09 0.0 1.6226469e-08 3.757989e-08 3.607784e-08
1.8669422e-08 0.0 4.624188e-08 0.0 1.0202748e-08 2.9299834e-08

exp_avg f4 [2, 30]
00000000: cb79 3537 afae 9639 0000 0000 1134 6139
00000010: 8cf2 89b8 0000 0000 b2b8 2c39 8d08 9238
00000020: 2e20 9b39 a89f 9e39 0000 0000 2957 8d39
00000030: 36a5 8d39 b3d4 ea38 0000 0000 0000 0000
00000040: 1424 ae39 9988 4e39 0000 0000 15b6 5639
00000050: 0000 0000 41ac 8d39 d3af 1db8 5cb1 7239
00000060: 5526 3d38 0000 0000 1c21 4437 0000 0000
00000070: 3686 8439 957d 9e37 f386 35b7 76af 96b9
00000080: 0000 0000 0f36 61b9 eaf0 8938 0000 0000
00000090: ebb9 2cb9 820a 92b8 d821 9bb9 69a0 9eb9
000000a0: 0000 0000 fd57 8db9 eaa5 8db9 38d7 eab8
000000b0: 0000 0000 0000 0000 0925 aeb9 ea89 4eb9
000000c0: 0000 0000 97b7 56b9 0000 0000 12ad 8db9
000000d0: 51ac 1d38 b0b2 72b9 f929 3db8 0000 0000
000000e0: 6b2e 44b7 0000 0000 4087 84b9 1b85 9eb7
1.0816798e-05 0.0002874038 0.0 0.00021477068 -6.577847e-05 0.0 0.00016472003 6.963415e-05
0.0002958788 0.00030255062 0.0 0.00026958555 0.00027016707 0.00011197608 0.0 0.0
0.00033214747 0.00019696578 0.0 0.00020476461 0.0 0.00027021955 -3.7595466e-05 0.0002314499
4.509681e-05 0.0 1.1690219e-05 0.0 0.00025276997 1.8893546e-05 -1.0819861e-05 -0.00028740958
0.0 -0.0002147781 6.577543e-05 0.0 -0.00016472458 -6.96378e-05 -0.0002958912 -0.00030255623
0.0 -0.00026959172 -0.0002701723 -0.00011198077 0.0 0.0 -0.0003321546 -0.00019697068
0.0 -0.00020477023 0.0 -0.00027022563 3.75922e-05 -0.00023145485 -4.51002e-05 0.0
-1.1693318e-05 0.0 -0.0002527777 -1.889705e-05

exp_avg_sq f4 [2, 30]
00000000: 1c6a a435 3db5 e035 0000 0000 96fc e735
00000010: 5968 9835 0000 0000 938f 9c36 a069 5636
00000020: edfb cb36 9205 f235 0000 0000 ad9f 1e36
00000030: beeb cd35 650d 8636 0000 0000 0000 0000
00000040: cc31 2d36 2bd7 3635 0000 0000 18b7 5035
00000050: 0000 0000 9d20 f335 54a8 bf35 6cd8 b135
00000060: 735f b335 0000 0000 f737 d735 0000 0000
00000070: 9b5d f935 6213 db35 146a a435 38b5 e035
00000080: 0000 0000 97fc e735 5268 9835 0000 0000
00000090: 938f 9c36 9869 5636 f9fb cb36 9c05 f235
000000a0: 0000 0000 b19f 1e36 bbeb cd35 660d 8636
000000b0: 0000 0000 0000 0000 ce31 2d36 2dd7 3635
000000c0: 0000 0000 1db7 5035 0000 0000 a720 f335
000000d0: 4fa8 bf35 72d8 b135 755f b335 0000 0000
000000e0: f237 d735 0000 0000 a95d f935 5c13 db35
1.2249834e-06 1.6742048e-06 0.0 1.7284353e-06 1.1355252e-06 0.0 4.6658765e-06 3.1949967e-06
6.0791995e-06 1.8032026e-06 0.0 2.3636778e-06 1.53423e-06 3.9950705e-06 0.0 0.0
2.5807994e-06 6.8113394e-07 0.0 7.7752475e-07 0.0 1.8114403e-06 1.4279599e-06 1.3250515e-06
1.3364319e-06 0.0 1.6035036e-06 0.0 1.8579188e-06 1.6322413e-06 1.2249825e-06 1.6742042e-06
0.0 1.7284354e-06 1.1355244e-06 0.0 4.6658765e-06 3.1949949e-06 6.079205e-06 1.8032038e-06
0.0 2.3636787e-06 1.5342297e-06 3.995071e-06 0.0 0.0 2.5808e-06 6.8113405e-07
0.0 7.7752503e-07 0.0 1.8114414e-06 1.4279593e-06 1.3250522e-06 1.3364321e-06 0.0
1.603503e-06 0.0 1.8579204e-06 1.6322406e-06

exp_avg f4 [2]
00000000: 7dba 7238 75bc 72b8
5.7870977e-05 -5.787281e-05

exp_avg_sq f4 [2]
00000000: d061 b834 da61 b834
3.434384e-07 3.4343867e-07
