nesy/fvrrxrrc/checkpoints/epoch=9-step=370.ckpt (torch, 122019 bytes, 12 tensors)

neural_predicates.digit.conv1.weight f4 [32, 1, 3, 3]
000000 b3 1e 11 3e 0d 91 a1 bb 83 c7 3b be ae 00 82 3e
       0.14171867 -0.0049306215 -0.18337826 0.25391144
000010 77 2f b7 3d 39 1d 90 3e 20 48 75 be ca d2 67 be
       0.089446 0.28147295 -0.23953295 -0.22639003
000020 9e 13 a0 be 92 13 1b 3e df 6b bb 3d 67 5f 2f bc
       -0.31264967 0.15144184 0.09151434 -0.010703898
000030 54 d8 e1 bd d7 3f 6c 3e b9 11 b4 3c ad e8 84 bd
       -0.110275894 0.23071228 0.021981107 -0.06489692
000040 4e 56 b9 3d 5c e2 8d 3d d5 ab e4 3d fc 15 43 3e
       0.090496644 0.0692794 0.11165587 0.19051355
000050 f4 7a ce bd 92 2b 35 3e 2f f4 86 bd 76 64 13 3e
       -0.10082045 0.17692402 -0.06589543 0.14393792
000060 34 3a 3c be 89 b1 6d 3e b9 e2 12 3e 8a 9b 0c 3e
       -0.18381578 0.23212256 0.143443 0.13731208
000070 74 88 17 be a6 8b 2a 3e d6 ec 4e 3e c5 6e 9c be
       -0.14798146 0.16654834 0.20207533 -0.3055326
000080 2e ba 60 3b 10 9e d2 3d 94 26 6a bd 75 8d a2 be
       0.003429066 0.10284054 -0.057165697 -0.31748548
000090 94 bd 25 be 5b c5 80 be 46 50 33 3e 4c ca 92 3e
       -0.161856 -0.2515057 0.1751109 0.28669965
0000a0 85 65 3d be 5f 90 0e 3e b6 fc 0b 3e 59 98 b6 bd
       -0.18495758 0.1392226 0.1367062 -0.08915777
0000b0 51 27 7c 3e c8 cd 86 3e 1c 83 aa bd 00 96 83 3e
       0.24624373 0.26328874 -0.083257884 0.25700378
0000c0 0a b5 8c be 71 87 dd bd 9d 38 80 bd 54 9d 85 3e
       -0.27481872 -0.10816849 -0.06260798 0.26096594
0000d0 c9 b5 9f be 07 dc 90 bd 72 77 46 be 7c 8f 79 bd
       -0.3119338 -0.07073217 -0.19381502 -0.060927853
0000e0 0d f2 38 bd 3f f8 35 3d 43 f7 8e be 2d ab 57 be
       -0.045152713 0.0444262 -0.2792302 -0.21061392
0000f0 f7 22 94 bd 0e 38 78 be 0e eb 48 bc 7b 26 ae 3e
       -0.072332315 -0.24240133 -0.012263073 0.34013733
000100 f1 8f 3c be fd c8 8c 3e 20 81 65 3e 81 d9 8f be
       -0.18414284 0.27497092 0.22412539 -0.2809563
000110 87 21 80 3d 5f b7 cb bd ce 8d e1 bd 0d 02 1a be
       0.06256395 -0.09947085 -0.11013375 -0.15039845
000120 ce e7 e9 3c e9 10 68 3d 92 f8 a1 be d3 c4 9a be
       0.028552916 0.05665675 -0.31634957 -0.3022829
000130 c6 ef 77 be 76 c6 9a 3e 27 95 57 3d 14 9d 69 be
       -0.2421256 0.3022954 0.052632477 -0.22813827
000140 47 4f 98 be 42 98 80 bd 32 94 19 3e 6a 1f d0 bd
       -0.29747984 -0.06279041 0.14997938 -0.10162242
000150 b5 ed 32 3e f9 c5 8d be ba 3f 78 3e b1 29 14 be
       0.1747349 -0.27690104 0.2424306 -0.14469029
000160 c2 07 2f 3e 4f 3b d0 bd ec 8c b5 3c 02 d2 7e bd
       0.17092803 -0.10167562 0.022161923 -0.062211998
000170 87 2c 74 ba 84 b0 95 be 85 d8 6a 3e 15 dc 5e be
       -0.00093144964 -0.29236233 0.22934158 -0.21763642
000180 2f 50 8a 3e 95 c9 9b be 0b ba 26 be ea 67 9a 3d
       0.270143 -0.30427232 -0.16281907 0.07539351
000190 26 f9 76 3e 52 f8 fe bd 48 c2 09 3e 73 d9 9d bc
       0.2411848 -0.12449707 0.13453019 -0.019268727
0001a0 4b 2b 35 be 70 7c 91 3d ad d4 04 bd 9f a1 11 be
       -0.17692296 0.07103813 -0.032429386 -0.1422181
0001b0 2c 77 8f be 4f 01 3d be 47 f6 f5 3d 97 73 ae 3d
       -0.28020608 -0.1845753 0.12009864 0.08518141
0001c0 1f 30 07 3e 77 c2 32 3e 6c 06 91 be 82 00 7f 3e
       0.1320195 0.17456995 -0.28325212 0.24902537
0001d0 f7 20 1c be ba 67 75 bd ea a7 ae bd 05 c7 8c 3e
       -0.1524695 -0.059913374 -0.08528121 0.2749559
0001e0 68 ec 6e be ab ac 2f be 11 f9 1e bd 00 76 1d be
       -0.2333237 -0.17155711 -0.038811747 -0.15377045
0001f0 b8 9d 5e 3e e5 cb 9f be 7e ff 13 3e 6f 2f 8d 3e
       0.21739852 -0.31210247 0.14452931 0.2757525
000200 46 48 86 3e ce 8f 05 3d 45 28 5d be 2c 46 8a 3e
       0.26227015 0.032607846 -0.21597393 0.27006662
000210 83 fa 92 be 7f d7 3d 3e 61 d9 d8 3d 03 09 40 3e
       -0.2870675 0.18539236 0.10588337 0.18753438
000220 b3 80 0e 3e f6 33 7b be 45 3d 4c 3d 59 bf 4e be
       0.13916282 -0.2453154 0.04986312 -0.20190181
000230 d6 76 14 be 97 4d 5c be e0 c1 69 3e 50 86 0c 3e
       -0.14498457 -0.21513973 0.22827864 0.13723111
000240 a0 6c 1b 3e 6c e5 d5 b9 91 ee d8 3d 14 f1 87 3e
       0.15178156 -0.00040797458 0.10592378 0.26551116
000250 de 11 95 bc f8 17 4b be fb 11 7b be f7 fe 1f bd
       -0.018196996 -0.19833362 -0.24518578 -0.039061513
000260 bd cb d4 3c 56 64 3e be 85 20 1e 3e 1a 61 8e be
       0.025976056 -0.18592963 0.15442093 -0.27808458
000270 e6 e8 eb 3c d1 c9 50 3d f1 6e 8e 3d ba 2e ab be
       0.028797578 0.050973717 0.06954754 -0.33434087
000280 76 96 5d 3d 60 b0 b5 3b 84 aa 50 be d3 4e 39 be
       0.05409857 0.005544707 -0.20377547 -0.18096475
000290 6c 12 4a be 4f e6 8a be e7 61 55 be 82 0b c7 bd
       -0.1973359 -0.27128837 -0.20838128 -0.09718992
0002a0 98 53 a1 3e 3e e5 d2 3d af c5 94 be 73 7d 84 3e
       0.3150909 0.10297631 -0.2905707 0.2587696
0002b0 88 da c3 3d b3 1e 20 3e 15 d5 12 be 8b b6 c4 bd
       0.09563166 0.15636711 -0.14339097 -0.0960513
0002c0 c0 9d 82 be e7 50 53 be bf 6f 01 be cb d9 1f 3d
       -0.2551098 -0.2063633 -0.12640284 0.039026063
0002d0 96 bb c1 bc 8c b3 c6 bd cf 38 cc bd e4 9e 6f 3e
       -0.023649018 -0.097022146 -0.09971773 0.23400456
0002e0 51 49 a8 3e 0b 0a 1d 3e 87 5a 7f bd c4 70 1d 3e
       0.32868436 0.15335862 -0.062342193 0.15375048
0002f0 80 78 8f be b1 f9 29 be 58 d9 e4 3d db fd d0 3d
       -0.28021622 -0.16599156 0.111742675 0.10204669
000300 6e 7b cf 3d b4 d0 7a be 0a 2d 5b 3e b6 25 5b be
       0.10130964 -0.24493676 0.214039 -0.21401104
000310 cc cb 4e bd 58 c1 aa bd 9c a5 9f be 08 20 4e be
       -0.050487325 -0.08337659 -0.31181037 -0.20129406
000320 20 5d d1 bc ce 83 5d 3d 4a d2 d3 bd 1e 36 d2 bd
       -0.0255571 0.054080777 -0.10342844 -0.10264228
000330 5a d7 9c be b6 90 1a be db 29 0a 3e a5 58 72 3e
       -0.3063305 -0.15094265 0.13492529 0.23666628
000340 7e 92 b9 3d 81 ac 9a be 7a 0e ac be f9 1e e8 bc
       0.09061144 -0.30209735 -0.33604795 -0.028335081
000350 50 71 43 3e 56 fa 91 3e ad be 95 bd 34 40 0f 3e
       0.19086194 0.28511304 -0.07311759 0.13989335
000360 46 bf 5c 3e 20 94 51 be 90 e2 10 3e 3e b6 49 bc
       0.2155734 -0.20466661 0.14148927 -0.012311516
000370 a4 eb 35 3e 2e 9d 62 be 55 de a6 3e 88 61 8d bd
       0.17765671 -0.22130272 0.325915 -0.06903368
000380 65 bf 0e be 91 11 ea bd 73 01 87 3e 5e c0 81 3e
       -0.13940199 -0.11429132 0.26368293 0.25342077
000390 ea ec 3b 3d 6a 9d 9e be 8d 4f 7a be 85 de 1f 3e
       0.045880236 -0.30979472 -0.24444409 0.15612228
0003a0 30 45 a4 be 5a 65 77 be 73 25 53 3e cc 93 74 3e
       -0.32084036 -0.24159756 0.20619754 0.23884505
0003b0 58 0a 8f 3e 3e 90 ad bc eb 37 9e be ce 96 9d 3c
       0.2793758 -0.021186944 -0.30902037 0.019236948
0003c0 52 10 87 be 9f 31 2b be 08 25 0c 3e db d3 e3 3d
       -0.2637964 -0.16718148 0.13686001 0.111243926
0003d0 70 04 30 be e3 87 93 be ca 47 40 bd 62 99 6f 3e
       -0.17189193 -0.2881461 -0.046943463 0.23398355
0003e0 bc a9 f5 3d 74 fa 09 be 0d 53 ac 3e 0d 51 21 be
       0.11995265 -0.13474447 0.33657113 -0.15753575
0003f0 b5 38 d7 3d 14 2d 7d 3e 82 4d 25 bd 06 82 6c be
       0.10508863 0.24724227 -0.04035712 -0.23096475

neural_predicates.digit.conv1.bias f4 [32]
000000 a3 2d a8 bd df e3 7c be 8f 24 4f 3e a6 a9 db 3d
       -0.082118295 -0.24696301 0.2022879 0.10725717
000010 3b 73 5b 3e d2 ed 96 3e 7d b5 33 3b c3 b0 32 3e
       0.21430676 0.29478317 0.0027421408 0.17450242
000020 ad bc 78 3c 9f ea 9b be 6e 0f 25 be 00 08 68 3c
       0.015181703 -0.3045244 -0.16119167 0.014162064
000030 25 d0 92 3c e1 eb 0b 3e 37 98 2b be b3 22 a9 be
       0.017921517 0.136642 -0.16757284 -0.33034286
000040 90 fe 10 bd 95 15 28 be cc 46 7c be 94 28 9e 3e
       -0.03539902 -0.16414483 -0.24636382 0.30890334
000050 5e ac e3 bd b0 98 31 3e 3a 96 91 3e 87 60 27 3e
       -0.11116861 0.17343402 0.28434926 0.16345416
000060 60 2e 81 be a6 05 18 3d 82 8e 51 3b b6 6e 11 3e
       -0.25230694 0.03711476 0.003197581 0.14202389
000070 50 9b f7 bd 1c 01 99 be 63 5a 8c be e1 48 4e be
       -0.120901704 -0.2988366 -0.2741271 -0.20144989

neural_predicates.digit.conv2.weight f4 [32, 32, 3, 3]
000000 97 0b 8e bd a6 fc 4b 3d 63 4a 24 bd bc 5d ac 3c
       -0.06935804 0.04980149 -0.040110003 0.02104079
000010 8f c3 39 3c fc b9 78 3d 0f 25 7a bd bb 0e 25 bd
       0.011338129 0.060724244 -0.061070498 -0.04029725
000020 79 9d 3e bd de 2b b1 bc a7 7a 07 bc a8 ba a3 bc
       -0.046536896 -0.021627363 -0.008268989 -0.019986466
000030 e4 6e 45 bd 09 59 31 3d 9f 6d 2d 3d c6 43 2c 3d
       -0.048201457 0.0432978 0.04234087 0.04205682
000040 fa 67 32 bd c8 ad 44 3d c5 23 31 bd 99 99 64 3d
       -0.04355619 0.048017293 -0.043247003 0.055810545
000050 3d d3 73 3d fd a4 06 bd 41 87 97 3c 06 60 41 3c
       0.059527624 -0.03287219 0.018497111 0.011802679
000060 fc e2 5c bd c8 a7 4a 3d 33 bd 4a 3d a9 0b e8 3c
       -0.053927407 0.049476415 0.04949684 0.028325872
000070 c4 66 c0 3c 4a 0d 66 bd 24 5c 6d 3c 5d cf 6f bd
       0.023486502 -0.056165017 0.0144873 -0.058547366
000080 22 4e ba 3c f8 72 e5 3c 0a 44 20 bd bf 06 3b 3b
       0.022742335 0.028008923 -0.039127387 0.0028537957
000090 12 cb 85 ba 47 ff 77 3d 20 d8 4b bd 5c ef f2 3b
       -0.0010207614 0.060546186 -0.04976666 0.007413788
0000a0 08 20 1b bd 45 6d 23 bd 63 1e 89 bc bd 93 36 3d
       -0.037872344 -0.03989913 -0.016738122 0.044574488
0000b0 bd ef a5 bc 59 cf 36 bd 51 91 00 bc 44 5e 12 3d
       -0.020255918 -0.044631336 -0.007847146 0.03573443
0000c0 96 1a 18 bd ef 54 1d bd 64 99 4a bd 6a f8 20 3d
       -0.03713473 -0.038411077 -0.04946269 0.039299406
0000d0 07 ec e3 3c 37 15 ab bc e6 99 e1 bc a6 4f 36 bd
       0.027822508 -0.02088414 -0.027539205 -0.044509552
0000e0 8e 26 ed bc fb 13 59 bd b0 b2 34 3d 77 5c 70 3c
       -0.028949048 -0.05299757 0.044115722 0.014670483
0000f0 e0 71 45 3d 85 28 3b 3d ea 97 56 bd 11 89 41 bc
       0.048204303 0.04569294 -0.05239097 -0.011812464
000100 85 80 99 3c 38 60 0b bc 1d 91 72 bc 50 7a 54 bc
       0.01873804 -0.008506827 -0.0148051055 -0.012968615
000110 4d f8 14 3d a0 76 c3 bc df 2e 2a 3d 97 ea b3 3c
       0.03636961 -0.023860276 0.041548606 0.021962447
000120 af 78 32 bd b6 6d 61 3d 0b c7 91 bc 3a 35 e9 3a
       -0.043572124 0.05503627 -0.017795106 0.0017792352
000130 28 7f 01 3d 0c ac ef bc 08 80 83 bc fb 3e 9f 3c
       0.031615406 -0.029256843 -0.016052261 0.019439211
000140 75 a7 02 bc 30 06 ca bc 38 c3 1e 3d 77 95 45 3d
       -0.007974495 -0.024661154 0.038760394 0.048238244
000150 e8 36 1d 3d c4 11 47 3b 7d 07 05 3d a2 eb 1c 3d
       0.03838244 0.003037558 0.032477845 0.038310654
000160 06 39 1c 3d c2 c9 4d bd c8 88 58 3c 91 59 8d bb
       0.03814032 -0.05024124 0.013216205 -0.0043136557
000170 80 9a 1f 3d e2 08 d4 3c 6a 80 71 bc d8 ae 3d bd
       0.038965702 0.025883142 -0.014740089 -0.046309322
000180 f2 bf 0e 3d a8 ef 36 bd 5a 0d 4a bd e7 78 5a 3c
       0.034851022 -0.044662148 -0.04932914 0.013334489
000190 e6 28 21 3d 1d 3a ca bc 75 47 40 3c eb d7 b3 3c
       0.039345644 -0.024685914 0.011735787 0.021953544
0001a0 96 49 8d bc 5e ef 5f bc 29 ae 15 bd 06 a1 9e bb
       -0.017247003 -0.013667909 -0.036543045 -0.004840973
0001b0 a5 72 de bb 1b 4c de 3c ef 70 47 bc b1 66 f8 bc
       -0.006788569 0.0271359 -0.012172922 -0.030322405
0001c0 bb 57 e3 3c d2 41 6c bd fc d5 30 3d b6 fa 5f bd
       0.027751794 -0.05767996 0.04317282 -0.054682456
0001d0 80 d4 63 3c 3a df 99 3c f0 ce f3 3b c0 69 fa bc
       0.013905644 0.0187832 0.0074404404 -0.030568004
0001e0 17 01 28 bd 19 3b 39 3d c8 3f 6b bd 62 a8 76 bd
       -0.041016664 0.045222376 -0.057433873 -0.060219176
0001f0 e5 1e a6 3c dd c6 04 3d cd 8e 8d 3b c7 bf b9 b9
       0.020278404 0.032416213 0.0043200017 -0.00035428835
000200 c4 96 4a bc 5f 3f 55 3d ae 06 82 3c 56 ce 70 3d
       -0.012365047 0.05206239 0.015872326 0.058790527
000210 3f d2 42 bd 2a f0 b2 3c 91 a3 0f bd 88 0e 1c bb
       -0.047563788 0.021843035 -0.0350681 -0.0023812372
000220 62 fd f2 bc 99 0b f1 3b 82 0f 2a bd 2d c8 dd bc
       -0.029661838 0.007356119 -0.041518696 -0.02707299
000230 ad 15 46 bc 65 b8 45 3c c6 1d 5a 3d cb 1f 2a 3b
       -0.012090129 0.012067889 0.05325105 0.0025958891
000240 8f dd a2 3c 8e 38 9b 3c 92 09 01 bd 10 05 41 bd
       0.019881038 0.018947866 -0.031503268 -0.04712397
000250 4d c6 00 bd c3 72 d9 bc 03 24 ae 3c 9c 80 b3 3c
       -0.031439114 -0.02654398 0.021257406 0.021911912
000260 b5 08 0f bd e5 2e 32 bb be 07 62 bc 17 82 7c bd
       -0.034920413 -0.0027188596 -0.013795791 -0.0616475
000270 7e 2c 0c bd 8f 43 2f 3d 4d 01 f4 bc 05 f2 e7 bc
       -0.03422212 0.04278904 -0.029785777 -0.028313646
000280 f2 27 a5 3a 5d b6 b4 bc 24 73 fe bc 46 91 ca bc
       0.0012600406 -0.022059614 -0.031060763 -0.024727475
000290 ad 4f 9f bd c5 fb 17 3d f1 df d3 3c a8 87 26 bd
       -0.07778869 0.03710534 0.02586362 -0.040656716
0002a0 61 ee 9d bb 3f d3 85 3c ca 29 d6 3c dd 22 fe 3b
       -0.0048196767 0.016336082 0.026142973 0.007755621
0002b0 67 5a e7 bc 5c bb 87 bd d5 ab 5b bd c4 86 2e 3d
       -0.02824135 -0.06627533 -0.05363067 0.04260899
0002c0 74 9d a6 bc d5 33 7d bd 5a 88 3b 3b 9c ec 69 bd
       -0.020338751 -0.06181701 0.0028615207 -0.057110414
0002d0 c8 7f 39 bd 1c 58 ca 3b 73 b8 26 3c 15 ec 90 bc
       -0.045287877 0.0061750542 0.010175812 -0.017690698
0002e0 ce 4d 2d bd a5 7a dd bc 7f ab 41 bb 4b 5f ef bc
       -0.04231053 -0.02703602 -0.0029551683 -0.029220244
0002f0 01 75 55 bd a5 14 d7 3b 41 ec 55 3d 7c 2c 45 3d
       -0.052113537 0.0065637403 0.052227262 0.048138127
000300 c6 8d 22 bd c7 2e 9e 3c 0a 35 2a 3d d8 ad cd 3c
       -0.039685987 0.019309415 0.04155449 0.02510731
000310 b8 b5 44 bb 60 b7 3e bb a8 85 10 bc f8 a0 39 3d
       -0.003001554 -0.0029101 -0.008820929 0.045319527
000320 9f 62 03 3d 7d 5c ff 3c c6 29 99 bc c7 db 61 bd
       0.032076474 0.031172032 -0.018696677 -0.055141237
000330 5e a8 08 bd cf cf 32 bd 93 4c ac 3c 14 66 82 bd
       -0.033363692 -0.043655213 0.021032607 -0.06367126
000340 ae da 83 bc b3 c8 5b bd af 43 f2 bc f9 bb c5 3c
       -0.016095486 -0.0536582 -0.02957329 0.024137484
000350 e7 0b 19 3d a2 39 47 bd 6b 12 42 bd db ba ab 3c
       0.037364867 -0.048638947 -0.047380846 0.020963123
000360 5f 3e 6a bb eb e5 45 3c 00 61 fc bc 46 26 8a bc
       -0.0035742742 0.0120787425 -0.030807972 -0.016863953
000370 67 d1 a9 bc 7f d1 68 3b 35 e3 10 bd 54 0a 07 bd
       -0.020729734 0.003552526 -0.03537293 -0.032968834
000380 22 1b 68 bd 4d e4 08 3d 50 26 5c bd f7 35 29 3d
       -0.0566665 0.03342085 -0.053747475 0.04131123
000390 66 69 61 3c 74 0e b2 b8 18 d7 4f b9 f5 d1 0a 3d
       0.013758039 -8.4903935e-05 -0.00019821187 0.033891637
0003a0 a4 dd 94 bc 3f 7a 69 3c 5d 20 36 3d 26 3e d6 bc
       -0.018172093 0.014250337 0.044464458 -0.026152682
0003b0 6f ea 16 bd ed 02 63 3c e1 08 c4 3b 8b 7e 9e bc
       -0.036844667 0.013855678 0.0059825038 -0.01934745
0003c0 0a 58 75 bd 5c 52 61 3d ba bf 36 3d 2b 63 f5 3c
       -0.059898414 0.055010185 0.04461644 0.029954514
0003d0 24 c3 09 bd ed d4 e7 3c a9 20 f1 3c 0f 62 ad 3c
       -0.033633366 0.028299773 0.029434519 0.021164922
0003e0 0f 9c 7b bd 29 9d ec bc df a2 ea 3b 0c 02 98 3c
       -0.061428126 -0.028883534 0.007160529 0.018555664
0003f0 f5 c4 a7 bc 4c 01 1f bd 9d ff 73 3d 4c 54 d2 bb
       -0.020479659 -0.038819596 0.059569944 -0.0064187404

neural_predicates.digit.conv2.bias f4 [32]
000000 0f 3b 4c 3c cb 53 5d bd 32 8a 7f bd a6 41 42 3c
       0.012465253 -0.05403499 -0.062387653 0.011856472
000010 18 eb a5 3c 99 a7 1a 3d 8c 3a 5e bd 04 d5 c0 bc
       0.020253703 0.03775749 -0.054255053 -0.023539074
000020 03 48 0a bd 93 6f 33 3d 9c 38 66 39 4f 95 45 bd
       -0.033760082 0.043807577 0.00021955598 -0.048238095
000030 78 8e 35 3d d1 01 e2 bc 23 72 9f 3c f1 71 61 bd
       0.044325322 -0.027588757 0.019463604 -0.055040304
000040 c2 23 3e 3d e8 44 43 bd 89 bf 54 3c 44 bb 4b 3d
       0.04642082 -0.047673136 0.012985119 0.049739137
000050 a2 22 39 3d 3f 19 6c bd c5 71 85 bd 9e 40 97 3b
       0.045199044 -0.057641264 -0.065158404 0.0046158573
000060 3f 43 96 bc f9 c0 ed 3c 4b 03 14 bc 70 2f e7 bb
       -0.018342612 0.02902268 -0.009033988 -0.0070552155
000070 86 e1 8e 3c d6 59 2e ba 81 de 07 bb 88 ae 22 3c
       0.017441522 -0.000665096 -0.0020731988 0.009929307

exp_avg f4 [32, 1, 3, 3]
000000 61 7b 97 b8 76 63 8c b8 11 72 8a b8 50 bf 92 b8
       -7.223222e-05 -6.694246e-05 -6.601599e-05 -6.997457e-05
000010 b3 47 98 b8 24 99 5f b8 ac 97 70 b8 30 bd 3e b8
       -7.26128e-05 -5.3309966e-05 -5.7361714e-05 -4.5475725e-05
000020 b3 f9 d3 b7 06 5b a7 37 62 c4 c1 36 a3 14 41 b7
       -2.5269435e-05 1.9950337e-05 5.77471e-06 -1.1508501e-05
000030 e6 67 c9 37 47 2c e4 36 3c df fb b6 30 22 d5 37
       2.4009449e-05 6.800084e-06 -7.506371e-06 2.5407498e-05
000040 31 2e f8 35 16 84 cc b4 81 57 7d b7 c1 27 50 38
       1.8490883e-06 -3.8094066e-07 -1.5100349e-05 4.9628088e-05
000050 82 2d 45 38 47 87 ba b7 2a 69 06 38 2c 95 15 37
       4.7010843e-05 -2.2235921e-05 3.204603e-05 8.915824e-06
000060 64 38 67 b7 69 42 e1 37 5c 2d e5 36 ac 0f 38 36
       -1.3781802e-05 2.6853015e-05 6.8300124e-06 2.7427259e-06
000070 2c 97 ec b7 57 30 1b b8 5b c6 9e 37 52 3d 78 b7
       -2.8203787e-05 -3.69999e-05 1.8927434e-05 -1.4796229e-05
000080 55 34 0c b8 f2 e8 42 36 b0 9a 1f b7 79 8f 68 b7
       -3.342734e-05 2.9043845e-06 -9.5131545e-06 -1.3861682e-05
000090 f8 cb 79 36 7b 72 5a 36 fd 1c 51 b6 0c 7d f1 37
       3.7222617e-06 3.2551168e-06 -3.11603e-06 2.8787668e-05
0000a0 97 95 0d 37 e8 50 87 b6 2f 9e a5 37 9d 51 57 37
       8.439084e-06 -4.0327322e-06 1.9743193e-05 1.2834001e-05
0000b0 89 62 69 b7 c9 da 3a b8 c2 15 3c b8 9f 1c d0 b7
       -1.3910824e-05 -4.4549615e-05 -4.4842956e-05 -2.480886e-05
0000c0 40 21 f0 b7 cf 25 11 b8 b7 d4 da b7 ec 7f 36 b8
       -2.8625713e-05 -3.4605906e-05 -2.6086678e-05 -4.3511318e-05
0000d0 ca 1f 00 b8 f0 e2 03 b8 47 aa 68 b6 b1 4c 07 b8
       -3.0547184e-05 -3.1444186e-05 -3.4669808e-06 -3.2257933e-05
0000e0 36 25 1c b8 89 86 99 b5 71 a2 ba b7 71 87 4a b7
       -3.7227954e-05 -1.1438543e-06 -2.224857e-05 -1.2071673e-05
0000f0 7e 02 a3 37 a0 fc 85 37 31 4c 6c 37 92 60 0a b8
       1.9432275e-05 1.5972473e-05 1.4084436e-05 -3.2991702e-05
000100 60 4d 37 b6 ab 17 31 b7 dc c1 96 b7 1a 32 b4 32
       -2.7314163e-06 -1.0555533e-05 -1.7971666e-05 2.0977541e-08
000110 d3 35 42 b7 85 e6 80 b5 f7 2b d3 36 f2 6f 2e b7
       -1.1575833e-05 -9.603833e-07 6.293408e-06 -1.03972725e-05
000120 aa 59 76 37 e2 e1 06 b6 1e 72 21 37 c6 5e a5 36
       1.4683619e-05 -2.0099037e-06 9.622918e-06 4.9284163e-06
000130 6a b6 2e b7 48 fa bd b6 05 b6 5c 36 df 5f 8d b7
       -1.041368e-05 -5.6617755e-06 3.2888504e-06 -1.6853153e-05
000140 a6 96 e2 b6 63 c0 37 36 4b c6 6b b5 9a e5 ad 34
       -6.7528626e-06 2.7381109e-06 -8.7832876e-07 3.2390818e-07
000150 e9 ce 91 36 f8 ab 06 b5 7b f8 e0 b5 9b 98 87 36
       4.3454243e-06 -5.016914e-07 -1.6761618e-06 4.041079e-06
000160 4f 0f 6c b5 e2 9a 34 34 1c 03 ae b7 3a 16 d5 35
       -8.793913e-07 1.6820152e-07 -2.0743864e-05 1.5876205e-06
000170 09 ca 5e 37 4f d8 0c b8 68 34 80 b7 5c de bd b6
       1.3279271e-05 -3.3580054e-05 -1.5283193e-05 -5.658525e-06
000180 a8 03 cc b7 67 df 90 b7 4e b7 e4 b6 df 66 83 37
       -2.4320398e-05 -1.7270168e-05 -6.816269e-06 1.566432e-05
000190 66 02 83 37 af c8 e6 37 7c 93 65 b6 87 ce b6 36
       1.5617534e-05 2.7511587e-05 -3.4209506e-06 5.4480656e-06
0001a0 15 22 d1 36 4b 6e dc 36 3e 4d a0 37 f1 2a b2 37
       6.232653e-06 6.5693507e-06 1.9109455e-05 2.123925e-05
0001b0 0a 5f 91 37 6a a2 6a 37 69 5f 9f b5 32 c3 14 b6
       1.7329603e-05 1.3985302e-05 -1.1874191e-06 -2.2167337e-06
0001c0 c3 40 ce b7 95 fc e6 b7 5b 9b 47 b7 74 81 fd b7
       -2.458727e-05 -2.7535754e-05 -1.1897496e-05 -3.0220232e-05
0001d0 91 1b 81 b7 d5 d9 81 b7 6f a4 4c b7 c4 9b e7 36
       -1.5390835e-05 -1.5479434e-05 -1.2197633e-05 6.90247e-06
0001e0 9e e8 78 b7 9d 72 77 b7 90 1c 33 b7 61 c6 b3 b6
       -1.4836112e-05 -1.4749033e-05 -1.0675882e-05 -5.35771e-06
0001f0 54 1e d2 b6 f5 f3 57 b5 6c 5d a0 b6 a9 f2 b5 b6
       -6.2620184e-06 -8.0448746e-07 -4.7792473e-06 -5.4224697e-06
000200 bc 32 20 35 f0 37 10 b7 3b 48 f8 36 72 a5 50 37
       5.9678473e-07 -8.596093e-06 7.3993847e-06 1.2436287e-05
000210 ca 3e 95 b7 91 5a 9a b5 d6 e1 08 37 38 e3 80 b7
       -1.7791423e-05 -1.1500252e-06 8.158813e-06 -1.5364596e-05
000220 ef d5 8b b7 c1 42 65 b5 a3 5f 9d b7 3c f7 a9 b7
       -1.6669712e-05 -8.540629e-07 -1.8760393e-05 -2.0261497e-05
000230 55 98 62 b5 22 5c 37 b7 35 f4 77 b7 ff 8d 38 b7
       -8.4413233e-07 -1.0929101e-05 -1.4779206e-05 -1.1000316e-05
000240 2c 91 80 b7 85 4f bd b6 2d a3 a9 37 8b 6f a3 b7
       -1.532639e-05 -5.641896e-06 2.0222355e-05 -1.9483055e-05
000250 d9 ea 3b 37 b1 be 01 38 3e 5f c2 b6 2a 75 56 37
       1.1200748e-05 3.0933592e-05 -5.792738e-06 1.2782673e-05
000260 2a 2d 3c 38 f3 11 1c b8 fa 86 75 b7 9b c2 8c b6
       4.4864755e-05 -3.7210015e-05 -1.4634565e-05 -4.19498e-06
000270 1f 73 18 b8 44 f1 2e b5 a2 45 24 37 2b 03 19 b8
       -3.634684e-05 -6.517114e-07 9.791374e-06 -3.6480993e-05
000280 92 54 01 37 d5 c8 ab 37 6f 50 05 37 35 b5 93 37
       7.70869e-06 2.0478308e-05 7.946145e-06 1.7608147e-05
000290 c8 08 fc 36 25 f3 bb 37 fc 05 90 37 d4 e0 3c b6
       7.5112075e-06 2.240536e-05 1.7168924e-05 -2.814505e-06
0002a0 88 a0 c1 36 3a a5 56 36 f7 e4 64 b6 1a 30 8f b8
       5.7705365e-06 3.198466e-06 -3.4107923e-06 -6.827731e-05
0002b0 8e 11 63 b8 d7 4c ea b7 6f 16 5e b8 c5 8b 57 b8
       -5.4137367e-05 -2.7930755e-05 -5.2949817e-05 -5.1390165e-05
0002c0 1e 4d e5 b7 92 9b 9d b8 8e 6c 39 b8 7f 78 b5 b7
       -2.7334838e-05 -7.5153206e-05 -4.4208537e-05 -2.1632992e-05
0002d0 0d ef 1c 38 3a c0 0e 38 16 e7 51 38 71 96 89 37
       3.741593e-05 3.4034463e-05 5.00447e-05 1.6401727e-05
0002e0 ee 8f a3 37 f2 16 1f 38 3b 43 2e 37 b6 7d 9a 37
       1.9498137e-05 3.7929924e-05 1.03868615e-05 1.841677e-05
0002f0 83 e7 d2 37 aa 48 ad 37 29 55 16 38 6c e8 b0 37
       2.5141757e-05 2.0657044e-05 3.58421e-05 2.1089065e-05
000300 0c eb fa 37 7e 07 f3 37 5b 2d a0 37 ae a3 58 37
       2.9911775e-05 2.8971346e-05 1.9094607e-05 1.2912713e-05
000310 cc 79 bd 37 64 cf cd 37 bd 12 1e 36 81 47 15 37
       2.2587272e-05 2.4534478e-05 2.3554742e-06 8.89774e-06
000320 f0 d0 3b 37 aa 53 a2 36 47 d6 e6 b5 dd e3 4a 36
       1.1194716e-05 4.837716e-06 -1.7198698e-06 3.023298e-06
000330 87 46 a5 b7 9f c9 3f b7 9e fb 21 b4 be b4 03 b6
       -1.9702375e-05 -1.1431431e-05 -1.5085831e-07 -1.9625727e-06
000340 db f4 87 37 86 36 6f 37 dd 0d 40 b7 5a d2 92 37
       1.6207274e-05 1.4258205e-05 -1.144732e-05 1.7502509e-05
000350 95 83 fb 37 43 3a cb b7 2a d7 3e 37 ca cc 2c 38
       2.9982804e-05 -2.4226616e-05 1.1374979e-05 4.119872e-05
000360 e4 3c 7e b7 02 45 71 36 eb 6a ea 37 ec 86 27 b7
       -1.5153757e-05 3.5951966e-06 2.7944761e-05 -9.98539e-06
000370 41 d8 35 b5 06 3b c3 37 f8 24 84 b7 1b 9b 93 b7
       -6.7742445e-07 2.3273296e-05 -1.5752841e-05 -1.7595992e-05
000380 4c e1 dc 36 02 a6 70 37 6d 02 c5 37 3e 6f 4d b7
       6.582739e-06 1.4343766e-05 2.348536e-05 -1.2244853e-05
000390 6f 40 c4 37 eb 22 a0 37 d5 a6 1d b7 3c d1 db 36
       2.3395025e-05 1.9089746e-05 -9.396773e-06 6.5510667e-06
0003a0 5e 3f 26 37 f5 9a 7a b7 74 5f 9c b7 48 c4 04 b7
       9.909125e-06 -1.493724e-05 -1.8641098e-05 -7.913513e-06
0003b0 2c cc d1 b6 57 f4 17 37 b2 6d f8 35 8d f2 82 b7
       -6.252454e-06 9.057191e-06 1.8509365e-06 -1.5610154e-05
0003c0 11 7a 55 37 db ba d5 b4 41 80 21 b8 97 94 cc 37
       1.272421e-05 -3.9810297e-07 -3.8504837e-05 2.4387888e-05
0003d0 f6 69 c6 37 c4 18 69 37 b5 a9 43 37 66 0d fb 35
       2.3652781e-05 1.3893648e-05 1.1662419e-05 1.8704857e-06
0003e0 2f eb 3e 37 01 fc aa 36 33 47 1a 36 00 35 07 33
       1.13796405e-05 5.095732e-06 2.2989232e-06 3.148034e-08
0003f0 54 6c 8c 37 c7 b0 2c 38 2d 83 19 38 ee 1d 8b 37
       1.6739745e-05 4.1172632e-05 3.660021e-05 1.6584028e-05

exp_avg_sq f4 [32, 1, 3, 3]
000000 4d 42 b4 33 c5 44 9b 33 9d e8 95 33 c4 26 a1 33
       8.393963e-08 7.230259e-08 6.980665e-08 7.504198e-08
000010 a2 ec a4 33 6b 4e 9c 33 cb c7 86 33 79 33 91 33
       7.6798884e-08 7.27858e-08 6.2762034e-08 6.7614515e-08
000020 ab 7b 92 33 82 f3 84 32 2e 59 9c 32 5e 08 3e 32
       6.82115e-08 1.5477557e-08 1.8201344e-08 1.1061358e-08
000030 83 bb 89 32 f7 00 a2 32 20 03 63 32 90 36 96 32
       1.603417e-08 1.8859721e-08 1.321385e-08 1.748711e-08
000040 4f 49 ab 32 93 2f 89 32 55 1b 1f 33 12 ca 10 33
       1.9940357e-08 1.5970533e-08 3.704493e-08 3.3711395e-08
000050 86 b5 ed 32 b4 c4 e9 32 1f ee e1 32 9c ec db 32
       2.7672979e-08 2.721422e-08 2.6301732e-08 2.5602553e-08
000060 02 ba 0a 33 aa 54 0a 33 6a f0 05 33 06 72 a3 33
       3.2299802e-08 3.220763e-08 3.118513e-08 7.61102e-08
000070 63 95 a3 33 c5 2d 99 33 ae e1 d1 33 5e c9 d1 33
       7.617452e-08 7.132943e-08 9.773372e-08 9.7689494e-08
000080 27 db e0 33 3a bd e7 33 63 6b f1 33 d6 f6 00 34
       1.04706764e-07 1.0791196e-07 1.12419706e-07 1.2010727e-07
000090 33 b6 77 33 b1 7c 74 33 62 56 34 33 11 dd 44 33
       5.7674878e-08 5.6924083e-08 4.198808e-08 4.5835865e-08
0000a0 bc 67 4a 33 58 83 28 33 78 0f 3e 33 a6 f1 36 33
       4.7126136e-08 3.9235005e-08 4.425189e-08 4.2594955e-08
0000b0 71 5d 1b 33 36 13 aa 33 2e fa d2 33 33 e4 c2 33
       3.6173734e-08 7.919736e-08 9.8243945e-08 9.075338e-08
0000c0 66 2d b6 33 5b f9 ec 33 7b 0a db 33 bd 48 9d 33
       8.4832934e-08 1.1034964e-07 1.01998886e-07 7.324113e-08
0000d0 83 ba bc 33 c3 3c b6 33 ff be ca 33 8c 33 dd 33
       8.7883585e-08 8.486088e-08 9.4411e-08 1.0300491e-07
0000e0 cb 4e e4 33 b9 85 d1 33 64 fb d6 33 12 63 dd 33
       1.063141e-07 9.756645e-08 1.0010879e-07 1.0309135e-07
0000f0 7d 6b db 33 16 67 e0 33 ce 10 e3 33 39 2f 99 33
       1.0217534e-07 1.0449564e-07 1.0573568e-07 7.1332074e-08
000100 8f 4e 97 33 e1 8a bb 33 b8 e2 d2 33 4c 96 cb 33
       7.045775e-08 8.733128e-08 9.820127e-08 9.480263e-08
000110 79 22 ce 33 78 1c bf 33 d3 9c c0 33 6d d2 bf 33
       9.598893e-08 8.899309e-08 8.969223e-08 8.932407e-08
000120 48 40 6f 33 10 5a 77 33 92 87 91 33 37 38 90 33
       5.5704987e-08 5.759108e-08 6.776749e-08 6.715748e-08
000130 eb 4f 7f 33 04 96 90 33 51 3a 96 33 bd 29 8a 33
       5.94445e-08 6.73281e-08 6.995527e-08 6.433718e-08
000140 b0 0d 9b 33 42 b4 c1 30 c5 b7 a0 30 b0 da 93 30
       7.22024e-08 1.409383e-09 1.1693763e-09 1.0757812e-09
000150 1b 93 b6 30 3c d7 93 30 d7 e2 b7 30 d5 67 b4 30
       1.3284053e-09 1.0756831e-09 1.3379474e-09 1.3126235e-09
000160 79 2b af 30 4c 9b 01 31 a5 c1 9c 33 7c f4 ce 33
       1.2745281e-09 1.8860247e-09 7.29954e-08 9.637094e-08
000170 c4 17 dd 33 d8 cf 9a 33 ff f7 cc 33 0c 96 e2 33
       1.02954374e-07 7.2089904e-08 9.5446005e-08 1.05512385e-07
000180 d0 20 95 33 9d a5 cb 33 3b e3 fa 33 de 76 96 33
       6.944322e-08 9.483049e-08 1.1682865e-07 7.006541e-08
000190 4b e3 b9 33 67 06 a6 33 4e 84 af 33 36 66 c0 33
       8.656078e-08 7.731142e-08 8.1731386e-08 8.959289e-08
0001a0 65 94 da 33 10 7a a9 33 4e 49 b9 33 ab ea de 33
       1.0178409e-07 7.891879e-08 8.628068e-08 1.03803664e-07
0001b0 18 bd 7f 33 e0 11 63 33 b5 3e 65 33 19 2c 93 33
       5.9543794e-08 5.2868813e-08 5.337525e-08 6.853242e-08
0001c0 e9 07 90 33 be 39 84 33 16 02 9d 33 f4 7c 9d 33
       6.7069614e-08 6.157232e-08 7.3112616e-08 7.333611e-08
0001d0 85 00 94 33 ff fd 57 33 1b 9c 60 33 a4 e9 52 33
       6.8918816e-08 5.0289596e-08 5.229604e-08 4.910693e-08
0001e0 87 af 76 33 90 d1 8b 33 7e 29 83 33 df b9 af 33
       5.743598e-08 6.510811e-08 6.10771e-08 8.182882e-08
0001f0 3f 6d a9 33 e8 f5 97 33 08 9b 85 32 6a a0 90 32
       7.8895475e-08 7.0762155e-08 1.5553738e-08 1.6836754e-08
000200 db e1 75 32 1d c9 85 32 f4 17 7a 32 cb 2e a7 32
       1.43122305e-08 1.5574694e-08 1.45573615e-08 1.9462638e-08
000210 f2 fc a5 32 91 91 d0 32 be e5 bd 32 8f a7 78 32
       1.9323554e-08 2.4280583e-08 2.210697e-08 1.4473598e-08
000220 c2 93 2d 32 e9 f5 ac 32 3d 3f 78 32 4d a4 9b 32
       1.0103522e-08 2.0135262e-08 1.4449879e-08 1.811909e-08
000230 45 c0 bf 32 2c 6d 4d 32 a3 b7 70 32 28 6e 9a 32
       2.232276e-08 1.1957393e-08 1.4011593e-08 1.7978053e-08
000240 70 30 d3 32 28 c7 35 33 c3 08 58 33 96 9e f3 32
       2.458566e-08 4.2323478e-08 5.0299388e-08 2.836104e-08
000250 aa 5c 2c 33 17 ca 63 33 89 48 f3 32 9b db 3d 33
       4.0131148e-08 5.3036356e-08 2.8321908e-08 4.420472e-08
000260 55 7c 7b 33 b1 89 a3 33 ce 49 a4 33 7f 7b 88 33
       5.855357e-08 7.615325e-08 7.65027e-08 6.355457e-08
000270 c3 df 9c 33 0b 5e 95 33 69 33 91 33 d1 ba 93 33
       7.305018e-08 6.9554595e-08 6.76144e-08 6.8792026e-08
000280 e7 38 97 33 d7 0d b0 33 72 9f ff 33 c2 43 09 34
       7.041836e-08 8.198156e-08 1.1903366e-07 1.278377e-07
000290 52 13 0a 34 50 8a ff 33 1b fe 00 34 b6 7d f8 33
       1.285928e-07 1.1899522e-07 1.2013372e-07 1.15712666e-07
0002a0 cc 8f cf 33 23 00 cb 33 38 c1 d4 33 c3 74 9e 33
       9.665345e-08 9.452949e-08 9.9071656e-08 7.378687e-08
0002b0 c4 37 93 33 ea 24 a9 33 9e a0 a0 33 8f 73 a6 33
       6.8553646e-08 7.8763904e-08 7.479797e-08 7.750997e-08
0002c0 3d 6e b4 33 fe 2a 87 33 69 5e 95 33 e0 c6 a4 33
       8.4019554e-08 6.2942476e-08 6.955526e-08 7.67302e-08
0002d0 69 f5 09 33 6b 7f de 32 9f 38 f9 32 24 75 38 33
       3.2120997e-08 2.5902144e-08 2.9013163e-08 4.2947377e-08
0002e0 2a b7 13 33 3a 6c d5 32 df 53 10 33 7c ed fd 32
       3.439269e-08 2.484568e-08 3.3603893e-08 2.9561072e-08
0002f0 6a 87 e2 32 89 0b 9d 33 ac 7a d7 33 1e ba 0b 34
       2.6371442e-08 7.3129804e-08 1.00340316e-07 1.3013093e-07
000300 f4 e8 d7 33 b5 c8 e9 33 b9 64 02 34 b7 8e e8 33
       1.00540916e-07 1.08864164e-07 1.2143836e-07 1.08293015e-07
000310 0a c7 d1 33 02 6e d6 33 fd 16 b3 33 4e 80 cf 33
       9.768526e-08 9.985162e-08 8.3395186e-08 9.662527e-08
000320 63 e7 ec 33 96 6c a9 33 b4 22 ce 33 03 16 f1 33
       1.10316954e-07 7.8894274e-08 9.598935e-08 1.1226441e-07
000330 48 2c bf 33 a4 9a d5 33 7a 9c 03 34 e2 3c 5a 33
       8.902185e-08 9.9467144e-08 1.2257252e-07 5.0812453e-08
000340 eb 38 87 33 04 c1 87 33 3e b2 52 33 0d 90 9d 33
       6.296781e-08 6.321537e-08 4.9056545e-08 7.337085e-08
000350 36 31 8a 33 48 fa 49 33 1a 3d 71 33 d8 16 83 33
       6.435077e-08 4.702659e-08 5.6167757e-08 6.104318e-08
000360 0c 26 85 32 bd 75 bd 32 24 59 e6 32 6b 42 95 32
       1.550054e-08 2.2056037e-08 2.681606e-08 1.7376086e-08
000370 9e 28 96 32 fc 51 c8 32 46 6f 6e 32 10 9c 7b 32
       1.7480769e-08 2.3320347e-08 1.3878724e-08 1.4645607e-08
000380 c7 88 b6 32 99 00 87 33 fd c2 b6 33 36 9c b6 33
       2.1249788e-08 6.286536e-08 8.5105036e-08 8.50345e-08
000390 06 88 ac 33 94 ff b1 33 25 74 93 33 21 dd a2 33
       8.034117e-08 8.288694e-08 6.8663475e-08 7.583936e-08
0003a0 8c 89 ac 33 d0 82 96 33 4d 7e 5c 33 d8 3b 33 33
       8.034394e-08 7.008714e-08 5.133761e-08 4.1731113e-08
0003b0 7c 90 04 33 72 80 6d 33 b5 d1 7a 33 e0 04 36 33
       3.0865053e-08 5.5297683e-08 5.839839e-08 4.237961e-08
0003c0 d4 b7 81 33 1f 52 6c 33 fe 42 4d 33 18 f8 a6 33
       6.040469e-08 5.502272e-08 4.779121e-08 7.7751054e-08
0003d0 f4 ad 8a 33 f9 80 6e 33 d5 77 98 33 5b d1 9b 33
       6.457768e-08 5.5530993e-08 7.099849e-08 7.2558315e-08
0003e0 b8 14 97 33 29 4b ae 33 0e 2f b9 33 a2 6e b7 33
       7.035254e-08 8.116178e-08 8.623293e-08 8.5417255e-08
0003f0 76 8d 97 32 24 11 b8 32 81 e1 e6 32 b6 4b 4e 33
       1.7643043e-08 2.1428214e-08 2.6878071e-08 4.803197e-08

exp_avg f4 [32]
000000 36 26 89 37 b6 02 15 37 15 3a a5 37 4c e1 e5 37
       1.6349466e-05 8.881723e-06 1.969658e-05 2.740384e-05
000010 b9 f8 ed b7 5a 4b d4 36 15 77 9d 37 5f 79 0f b7
       -2.8368422e-05 6.3268644e-06 1.877131e-05 -8.551723e-06
000020 3c b4 f2 36 94 38 11 b6 0c 66 26 37 4e bb 9d 37
       7.233144e-06 -2.1639617e-06 9.918131e-06 1.8803079e-05
000030 ac 0b 1a b8 38 c2 31 37 b4 20 34 37 f8 be db b6
       -3.672733e-05 1.0595242e-05 1.073645e-05 -6.5489403e-06
000040 4d 67 9c b7 7a 81 54 38 40 86 af b6 2f 2d 9f 36
       -1.8644752e-05 5.0665323e-05 -5.231035e-06 4.7438293e-06
000050 4a 03 65 37 6e e7 a7 b6 77 ff 28 b7 65 8b 09 37
       1.3650229e-05 -5.00393e-06 -1.007306e-05 8.198292e-06
000060 b3 d8 3d b7 a3 29 67 b6 ec 77 f3 b7 80 00 1b b7
       -1.1315732e-05 -3.4445918e-06 -2.90237e-05 -9.238836e-06
000070 d3 4b 0c b7 b2 83 9e 37 05 86 18 b7 df c8 35 36
       -8.3623045e-06 1.8896393e-05 -9.09111e-06 2.7088024e-06

exp_avg_sq f4 [32]
000000 5a 5d 8e 33 e7 4b b5 32 89 ed 4c 33 5a 83 fb 33
       6.629371e-08 2.110569e-08 4.771349e-08 1.1711991e-07
000010 d7 9d 4a 33 c6 c9 d5 33 17 99 e6 33 f6 fa 9f 33
       4.7175345e-08 9.955288e-08 1.07380565e-07 7.449664e-08
000020 ed 27 8f 33 dd b2 06 31 c4 59 03 34 21 ae dd 33
       6.666219e-08 1.9601238e-09 1.2232982e-07 1.0322788e-07
000030 c5 ff 85 33 38 2e 95 33 8b ee b0 32 3e 69 cf 32
       6.239819e-08 6.94676e-08 2.0597573e-08 2.414583e-08
000040 12 ca 5c 33 7c 7c a7 33 c6 c5 0d 34 89 12 a5 33
       5.1406523e-08 7.799187e-08 1.3203598e-07 7.686783e-08
000050 ac ed 55 33 01 b9 b9 33 db 13 d9 33 83 b4 c3 33
       4.980909e-08 8.648386e-08 1.01084616e-07 9.11323e-08
000060 b5 29 d6 32 bf 6c 9b 33 21 2f 8f 33 2c 46 95 33
       2.4931845e-08 7.237531e-08 6.667529e-08 6.9511174e-08
000070 bf 66 e9 32 03 97 e5 32 ec 66 ee 32 6a fd bd 32
       2.7171493e-08 2.672778e-08 2.775365e-08 2.2117735e-08

exp_avg f4 [32, 32, 3, 3]
000000 80 07 62 b7 f1 04 8a b8 1b 8c d5 35 73 37 22 b8
       -1.3472396e-05 -6.581273e-05 1.5910513e-06 -3.867545e-05
000010 03 db a4 b8 c4 86 f9 b6 f9 f2 89 b7 63 f1 d9 b8
       -7.8609235e-05 -7.436467e-06 -1.6444816e-05 -0.00010392328
000020 21 b3 cf 38 da 0b 82 b7 c8 87 06 38 04 68 b5 37
       9.9038945e-05 -1.5502726e-05 3.2074546e-05 2.1625317e-05
000030 53 e7 15 b7 65 c8 2c b7 34 f8 7a 37 6b 36 11 b7
       -8.934951e-06 -1.0298657e-05 1.49589505e-05 -8.655344e-06
000040 ea f2 82 37 4f 37 a8 b6 03 28 26 b8 51 8a 8a 37
       1.5610323e-05 -5.013229e-06 -3.9614748e-05 1.651529e-05
000050 20 c7 3c 38 4d 8b 1f b8 0f 38 25 b7 a7 b9 5f 38
       4.5008142e-05 -3.8038288e-05 -9.847819e-06 5.3340245e-05
000060 cd 45 46 b7 26 d5 1c 38 b0 42 ad 38 8b a6 0e b9
       -1.1817971e-05 3.739181e-05 8.261704e-05 -0.00013604217
000070 1f bb 3e b9 ca 3e 4e 37 03 3e 01 b9 d2 8e 4d b9
       -0.0001818952 1.2293176e-05 -0.000123255 -0.00019603528
000080 5e dc 83 38 74 67 9b b8 dc d5 3a b9 aa 7a 87 38
       6.287613e-05 -7.4102456e-05 -0.00017818011 6.4601496e-05
000090 27 fa b8 35 8f e4 54 b9 a8 8d d4 37 8e 50 62 b8
       1.3781872e-06 -0.0002030304 2.5338333e-05 -5.395762e-05
0000a0 d3 b0 63 b9 26 d9 57 37 37 b8 42 38 c8 86 23 b9
       -0.00021714279 1.2865557e-05 4.6424768e-05 -0.00015595101
0000b0 5f 0b 11 37 ab 24 74 b9 9b eb 62 b9 d9 8b 01 38
       8.645321e-06 -0.00023283313 -0.0002164081 3.088624e-05
0000c0 4f 83 20 b9 e8 d2 8f b9 84 de 21 38 cf 7d 3a b9
       -0.00015307705 -0.00027432223 3.8592625e-05 -0.0001778521
0000d0 74 e9 7c b9 34 21 90 38 ec 8f 14 ba b0 31 15 ba
       -0.00024119561 6.87264e-05 -0.0005667198 -0.0005691303
0000e0 5a 8f 4f b7 27 ca 0a ba 7a 81 08 ba 8f d4 55 36
       -1.2371538e-05 -0.0005294405 -0.0005207282 3.1863199e-06
0000f0 23 cb ed b9 36 fe 09 ba fc d2 ca 36 58 05 dd b7
       -0.0004535551 -0.00052640156 6.044631e-06 -2.6347741e-05
000100 a1 40 e6 b8 cc 36 5b 38 3d 72 0b b7 16 c6 10 b9
       -0.00010979293 5.2264702e-05 -8.311644e-06 -0.00013806703
000110 66 92 6f 37 9e 50 df 36 2a 24 13 b9 a8 86 fb 37
       1.4279596e-05 6.655303e-06 -0.00014032485 2.9984236e-05
000120 5a d0 0e ba e9 4f 0a ba 28 d6 c8 b6 99 67 eb b9
       -0.0005447917 -0.000527619 -5.9853955e-06 -0.0004489988
000130 f0 ad 10 ba cc 30 96 36 7e 9f d6 b9 8e 34 fb b9
       -0.0005519083 4.476029e-06 -0.00040936092 -0.00047913607
000140 3d 86 2a 38 be 19 b6 33 38 46 ee b5 6b 8b d3 34
       4.0656178e-05 8.479718e-08 -1.7752818e-06 3.9403253e-07
000150 f6 e8 32 b5 7b 47 91 35 cd 58 0b b6 3e f6 38 b5
       -6.664917e-07 1.0824145e-06 -2.0764303e-06 -6.890367e-07
000160 50 f3 d0 34 e8 79 21 b5 b2 64 37 b9 c2 2e 5d b9
       3.8920052e-07 -6.015457e-07 -0.00017489752 -0.00021093621
000170 34 10 93 b6 f9 56 11 b9 82 2c 55 b9 30 2d b5 37
       -4.3828277e-06 -0.00013860677 -0.00020329843 2.1597923e-05
000180 56 7b f0 b8 2e 5e 3f b9 71 c0 4c 37 0e c3 b6 36
       -0.00011467065 -0.00018250264 1.2204154e-05 5.44673e-06
000190 33 75 0a b7 4c ae a2 38 84 4f 69 38 25 07 29 b6
       -8.252729e-06 7.757227e-05 5.5625584e-05 -2.518712e-06
0001a0 ba 3e b3 38 38 84 63 38 1d 6f 05 b7 08 e4 0b 39
       8.547069e-05 5.4244156e-05 -7.953288e-06 0.00013341021
0001b0 dd 65 c3 b8 bd ee 25 b9 4a fb 5c b6 39 f2 0f b9
       -9.317298e-05 -0.00015824563 -3.2928824e-06 -0.00013727778
0001c0 5e c8 a6 b8 d5 ee 5d 37 81 5e e9 b8 e3 c0 de b7
       -7.952818e-05 1.3228234e-05 -0.000111279085 -2.6554282e-05
0001d0 4c 02 4c b8 d7 e9 d0 b9 3e aa c0 b9 c0 42 c7 37
       -4.863953e-05 -0.00039847076 -0.00036747934 2.3753732e-05
0001e0 08 c4 c8 b9 f3 0d c4 b9 4d 5f 7f b6 d5 09 bb b9
       -0.00038293027 -0.00037394426 -3.8053433e-06 -0.00035674745
0001f0 40 12 98 b9 9b 75 6c 36 6e 06 87 b6 4a a8 a3 38
       -0.00029005297 3.5235196e-06 -4.024062e-06 7.803792e-05
000200 cb 72 98 38 2e 21 85 b7 13 7a 7e 37 dd d1 b9 b4
       7.269307e-05 -1.5870286e-05 1.5168002e-05 -3.461163e-07
000210 26 98 2a b8 6e 41 6c b7 94 7c 6f 37 73 3d 7b b7
       -4.0672858e-05 -1.408193e-05 1.4274516e-05 -1.4975073e-05
000220 e6 b9 b5 36 c9 f6 14 37 06 9e 21 b7 2c fe 87 35
       5.415862e-06 8.878947e-06 -9.6331405e-06 1.0132258e-06
000230 67 ee a9 b7 16 33 32 37 6e c4 05 33 b9 a6 66 38
       -2.0257385e-05 1.0621521e-05 3.1145127e-08 5.4991546e-05
000240 2d 78 d6 37 24 f7 eb b6 3a 5e a4 37 cf d8 db 37
       2.556675e-05 -7.0323167e-06 1.9594201e-05 2.6207794e-05
000250 66 80 08 b7 01 75 06 36 9f 6a f4 37 a1 cc f0 b7
       -8.136127e-06 2.0035661e-06 2.9136716e-05 -2.8705517e-05
000260 95 fa 8e 38 f8 ad 1d b9 dd fd 21 b9 eb ed 30 36
       6.817762e-05 -0.00015037495 -0.00015448728 2.636453e-06
000270 3a f0 1b b9 a9 d7 03 b9 15 c3 4d b4 6a dd 0e b9
       -0.00014871443 -0.00012573473 -1.9163083e-07 -0.00013624658
000280 db 94 be b8 be c2 b0 b7 f8 0c cd b9 70 57 f3 b9
       -9.0876325e-05 -2.1071519e-05 -0.0003911031 -0.00046413718
000290 22 c7 86 b8 e6 6f b0 b9 06 d5 f4 b9 71 f0 a2 37
       -6.426709e-05 -0.00033652707 -0.00046698021 1.942387e-05
0002a0 85 b7 84 b9 39 e7 d9 b9 68 3f 0a 37 fa e7 92 b9
       -0.00025313735 -0.0004156174 8.240204e-06 -0.00028020126
0002b0 cd c5 94 b9 e6 74 64 38 99 c5 84 b9 6d af 96 b9
       -0.00028376133 5.4468306e-05 -0.00025324224 -0.00028740932
0002c0 e8 e5 19 38 35 d1 94 b9 d8 59 a8 b9 6a c3 9c 37
       3.669216e-05 -0.0002838463 -0.00032110396 1.8687646e-05
0002d0 0c dc 0f 38 6b 2b 92 b7 6c 45 85 37 25 b6 6a b7
       3.429879e-05 -1.7424774e-05 1.5887163e-05 -1.3989896e-05
0002e0 a0 76 f3 b7 0b d1 18 38 71 32 ae 37 c2 f2 8d b6
       -2.9023096e-05 3.643431e-05 2.0765905e-05 -4.230388e-06
0002f0 cd 1c 90 38 ad e5 6c b9 c8 09 97 b9 92 4f 4f 38
       6.87182e-05 -0.00022592275 -0.00028808252 4.942675e-05
000300 92 c1 6c b9 34 65 99 b9 9b 45 9d 34 d7 5b 5b b9
       -0.00022578824 -0.00029257836 2.9294173e-07 -0.0002091968
000310 9d 1a 66 b9 20 ca 84 38 92 dd 38 ba 07 ec 2b ba
       -0.00021944423 6.331899e-05 -0.00070520595 -0.0006558303
000320 85 9a 28 b7 cb 17 2e ba ee a1 1a ba b3 00 e4 37
       -1.0049557e-05 -0.00066411187 -0.0005898763 2.7180044e-05
000330 37 2e 17 ba a6 d2 05 ba dc 23 0e 38 25 69 5d b8
       -0.00057670794 -0.00051049364 3.3888835e-05 -5.278843e-05
000340 59 b3 37 b8 15 46 9c 37 f4 57 b7 b7 7f 0e 53 b8
       -4.379763e-05 1.8629284e-05 -2.1856256e-05 -5.031982e-05
000350 3b 19 a6 b7 1c 2e e3 36 63 4e 78 b6 81 ec b1 37
       -1.9800491e-05 6.770495e-06 -3.7000507e-06 2.1210175e-05
000360 7d e3 83 36 5c ba 98 36 ab 50 93 37 fc 40 a9 37
       3.9305874e-06 4.551648e-06 1.756133e-05 2.017663e-05
000370 e6 a3 de b5 44 db 48 38 d5 7d 0d 38 94 ad 63 36
       -1.658799e-06 4.7887923e-05 3.373421e-05 3.3926672e-06
000380 d6 9a c7 38 68 a1 86 b9 f1 d9 92 b9 f9 97 8a 37
       9.5179e-05 -0.0002567873 -0.0002800967 1.652165e-05
000390 b2 b7 7e b9 e2 f5 9e b9 68 8c ec 37 22 e9 80 b9
       -0.0002429176 -0.00030319305 2.8198774e-05 -0.0002458776
0003a0 cf 83 a8 b9 74 be 96 38 19 a9 13 b7 90 b7 86 b8
       -0.00032141662 7.188032e-05 -8.801254e-06 -6.423809e-05
0003b0 4b f4 3a 38 96 1c 11 37 8a c2 da b8 03 33 5d b6
       4.457337e-05 8.649329e-06 -0.00010431286 -3.296126e-06
0003c0 fa 50 ef b7 11 4e 59 b9 2a ca 73 37 81 4f 83 b8
       -2.8528728e-05 -0.00020723815 1.4530999e-05 -6.2613755e-05
0003d0 1e 18 27 b9 8e 00 8c b7 12 a1 c7 b8 01 19 c5 b8
       -0.00015935345 -1.6689559e-05 -9.519061e-05 -9.398349e-05
0003e0 ca 80 3c 38 6e f3 d5 b7 e4 ae 50 b8 28 e5 c0 38
       4.4942637e-05 -2.5504934e-05 -4.9753944e-05 9.197957e-05
0003f0 d5 b1 23 b7 49 71 cc 36 ba a8 99 38 29 25 49 38
       -9.756962e-06 6.092862e-06 7.327036e-05 4.7956742e-05

exp_avg_sq f4 [32, 32, 3, 3]
000000 02 88 0a 34 88 9f e6 33 ed 5b 65 33 65 70 84 33
       1.2901731e-07 1.0739228e-07 5.3401823e-08 6.1671734e-08
000010 6e fa 8c 33 7e 37 aa 33 cc 84 56 33 53 91 e6 32
       6.564811e-08 7.926336e-08 4.9946536e-08 2.684161e-08
000020 9b 8e 04 33 28 a2 61 31 bb 6c 39 32 06 b4 81 32
       3.0863344e-08 3.2833984e-09 1.079314e-08 1.5099442e-08
000030 58 38 7e 30 24 3f 00 32 ff 9a 84 32 9e e2 71 30
       9.248473e-10 7.464937e-09 1.5437307e-08 8.799733e-10
000040 81 3e 8d 31 14 88 3b 32 3c 25 98 33 ab 2b 0f 34
       4.110746e-09 1.0915773e-08 7.0848245e-08 1.3333799e-07
000050 42 be 5b 34 49 cf bd 32 47 8a a6 33 91 cf 42 34
       2.046518e-07 2.2096758e-08 7.75513e-08 1.814317e-07
000060 c6 68 cc 32 e4 1a 69 33 c7 ac 05 34 2a 83 b4 34
       2.3796371e-08 5.4273997e-08 1.2449446e-07 3.3623047e-07
000070 6d 27 aa 34 4b cf 1b 34 29 16 a6 34 86 0e 8f 34
       3.1693654e-07 1.4510913e-07 3.0936033e-07 2.6646393e-07
000080 cc 40 10 34 6e a8 a1 34 4d bb 87 34 9a 84 02 34
       1.3434618e-07 3.0111136e-07 2.528199e-07 1.2155434e-07
000090 e6 00 ab 33 2e 9a 4b 34 b8 41 12 34 04 71 49 33
       7.9629714e-08 1.8961939e-07 1.3621218e-07 4.6901746e-08
0000a0 b5 36 3d 34 c0 8b d1 33 2d 68 8b 33 66 f8 3e 34
       1.7621899e-07 9.757741e-08 6.4916414e-08 1.7785496e-07
0000b0 80 19 da 33 fc 49 02 35 65 13 18 35 b2 0d b2 34
       1.01560545e-07 4.8536435e-07 5.6652635e-07 3.3165048e-07
0000c0 3b 42 e3 34 9a 08 f6 34 3b 4b a3 34 d5 6b c8 34
       4.2330234e-07 4.582733e-07 3.0415853e-07 3.733136e-07
0000d0 1f 4b d6 34 c7 62 93 34 f7 fd ab 35 0b 59 bf 35
       3.9915264e-07 2.7452754e-07 1.2814406e-06 1.4256524e-06
0000e0 24 10 6a 35 2c 0f b3 35 61 6d c2 35 62 96 8c 35
       8.719528e-07 1.3340955e-06 1.448596e-06 1.047458e-06
0000f0 33 f7 b8 35 35 f4 c3 35 e0 a4 91 35 b0 64 c7 34
       1.3781013e-06 1.4599706e-06 1.0851327e-06 3.7139898e-07
000100 2f fa d1 34 01 5c 48 34 a6 63 95 34 74 0b 81 34
       3.9111316e-07 1.8659922e-07 2.7825917e-07 2.4036456e-07
000110 c5 ca 1f 34 b0 b2 6f 34 a8 d0 4a 34 dc cc e7 33
       1.4881796e-07 2.2323616e-07 1.8888625e-07 1.07940394e-07
000120 8e 61 6b 35 a2 65 8a 35 51 77 20 35 56 fa 72 35
       8.768628e-07 1.031138e-06 5.9778273e-07 9.051631e-07
000130 23 a3 83 35 38 c9 3b 35 64 aa 80 35 2e 63 84 35
       9.80774e-07 6.995574e-07 9.586333e-07 9.863631e-07
000140 44 fb 3d 35 9c 54 00 2e 45 38 ba 2e 49 b6 0e 2f
       7.0773626e-07 2.917898e-11 8.468296e-11 1.2979585e-10
000150 5f ed a3 2d 91 36 99 2e 04 96 ac 2e ba 78 0b 2e
       1.8636368e-11 6.9673274e-11 7.8483026e-11 3.1712168e-11
000160 e6 fd 65 2e 1c dc d1 2e ae 4d e5 33 6f fe f8 33
       5.229408e-11 9.543319e-11 1.0677773e-07 1.1594681e-07
000170 f7 f0 84 33 f4 51 f0 33 7a ee f2 33 19 25 92 33
       6.19056e-08 1.1190778e-07 1.1312382e-07 6.805403e-08
000180 5f fe 0a 34 42 8b f6 33 48 3c 9c 33 f8 b3 23 34
       1.2944791e-07 1.14805985e-07 7.275281e-08 1.524603e-07
000190 af 9c a3 33 a7 9e 87 33 91 66 e9 33 92 26 1d 33
       7.6187796e-08 6.315286e-08 1.0868565e-07 3.658949e-08
0001a0 aa bb 7f 33 70 ec a1 33 1c 21 f5 32 f3 31 58 33
       5.9542494e-08 7.5401545e-08 2.853681e-08 5.0336848e-08
0001b0 68 8d a7 33 fb d5 0f 34 35 2a 04 34 d4 9f 42 33
       7.802265e-08 1.3395758e-07 1.2308813e-07 4.5314508e-08
0001c0 b8 d1 df 33 61 65 b2 33 c3 d1 18 33 bf 96 d8 33
       1.0422394e-07 8.3072116e-08 3.5581035e-08 1.00857044e-07
0001d0 45 3a d6 33 7a 56 18 35 9a a9 33 35 2f b0 e9 34
       9.975751e-08 5.675025e-07 6.69295e-07 4.3527822e-07
0001e0 5f 0d 18 35 35 6c 30 35 4c 80 02 35 94 a0 1b 35
       5.664387e-07 6.572257e-07 4.861547e-07 5.797567e-07
0001f0 dd 5f 29 35 aa 3c 06 35 54 56 58 33 37 72 fb 33
       6.3096905e-07 5.000717e-07 5.0369934e-08 1.1708874e-07
000200 0e c7 1a 34 d4 27 ea 32 fd 7f e5 33 1c d2 18 34
       1.4414783e-07 2.7259297e-08 1.06869244e-07 1.423254e-07
000210 2c cd 1e 32 56 53 94 33 3c 6b 02 34 0e 8d a8 31
       9.243461e-09 6.906946e-08 1.2146205e-07 4.9054796e-09
000220 45 d2 0e 32 66 df df 31 06 84 a3 31 ad 76 aa 30
       8.313298e-09 6.5155517e-09 4.7589337e-09 1.2402858e-09
000230 5f 51 12 32 21 ca 5b 31 39 7e 60 31 c0 81 95 31
       8.51682e-09 3.1983591e-09 3.266804e-09 4.3512216e-09
000240 b1 58 bc 33 8a 80 89 33 36 e5 12 33 fa a2 45 33
       8.770565e-08 6.402941e-08 3.420174e-08 4.6015863e-08
000250 9a 27 be 32 20 7a 12 33 38 2a f5 32 a1 3a 51 32
       2.213692e-08 3.4104346e-08 2.8540953e-08 1.2178732e-08
000260 1c 4e 95 32 8f 44 7b 33 45 c3 93 33 2f 13 4d 33
       1.7381403e-08 5.8502845e-08 6.88074e-08 4.774773e-08
000270 df 90 6c 33 ca 26 86 33 84 9e 3a 33 b7 3f 6d 33
       5.507979e-08 6.246917e-08 4.345067e-08 5.523881e-08
000280 c7 1f 8f 33 22 37 3e 33 f4 dd 26 35 25 f8 38 35
       6.664737e-08 4.4287965e-08 6.2162803e-07 6.890644e-07
000290 fa 5f ea 34 bd 46 3d 35 1f 15 4a 35 15 2a 04 35
       4.365573e-07 7.0510924e-07 7.52816e-07 4.923507e-07
0002a0 cd bd 4c 35 64 af 55 35 74 5a 1b 35 60 5d 1d 35
       7.627212e-07 7.960391e-07 5.7873626e-07 5.8622936e-07
0002b0 4e 06 25 35 90 a8 dd 34 3b 4e 05 35 e3 82 fc 34
       6.1476464e-07 4.1287103e-07 4.96602e-07 4.703389e-07
0002c0 d4 04 cf 34 9f a4 cc 34 c7 81 d6 34 6a d5 b3 34
       3.8560268e-07 3.811774e-07 3.9955032e-07 3.3496627e-07
0002d0 ee e2 68 33 06 63 da 32 73 4e 50 33 fa 26 ba 32
       5.42231e-08 2.542357e-08 4.8500123e-08 2.1670974e-08
0002e0 9c ff 80 32 ac 78 3d 33 09 98 a8 32 56 e9 e9 31
       1.5017399e-08 4.4114742e-08 1.9626912e-08 6.8077197e-09
0002f0 f0 56 1a 33 c1 a3 9a 34 5d 60 e6 34 47 8b 7e 34
       3.593499e-08 2.8803882e-07 4.2910952e-07 2.3706262e-07
000300 19 8f 87 34 64 ac d4 34 90 59 92 34 e1 a9 80 34
       2.5249827e-07 3.9613508e-07 2.7259784e-07 2.396546e-07
000310 ef 59 cc 34 3e db 8f 34 f5 5a fa 35 3e 4c 0e 36
       3.8063396e-07 2.6795345e-07 1.8652923e-06 2.1204028e-06
000320 05 aa b7 35 b4 72 03 36 1e 86 0e 36 f1 d7 cd 35
       1.3684045e-06 1.9587287e-06 2.1237715e-06 1.5336537e-06
000330 14 9f 05 36 ca 8c 0f 36 4b 38 db 35 0e 53 1c 33
       1.991114e-06 2.139061e-06 1.6333155e-06 3.6397118e-08
000340 97 e3 71 33 ad a2 96 33 9f 9b 38 33 4b c0 fd 32
       5.6319177e-08 7.01451e-08 4.2982375e-08 2.9540521e-08
000350 17 14 89 33 1e 17 33 33 32 6e 35 33 db 53 a9 33
       6.383214e-08 4.169771e-08 4.224257e-08 7.884929e-08
000360 43 7e d4 32 36 dc e3 31 d5 79 8f 32 69 d2 98 32
       2.4737465e-08 6.6316046e-09 1.6702794e-08 1.7790812e-08
000370 4c 76 10 31 f2 3f 83 32 f7 e1 48 32 dd d4 ab 30
       2.1022002e-09 1.5279486e-08 1.1692911e-08 1.2502387e-09
000380 0e 95 46 32 22 d6 14 35 b7 59 0f 35 f9 a9 b4 34
       1.1559008e-08 5.54459e-07 5.3402204e-07 3.3651284e-07
000390 b6 c2 e7 34 62 01 f3 34 4f 61 c2 34 63 1a d9 34
       4.3168774e-07 4.5263283e-07 3.6206117e-07 4.04386e-07
0003a0 aa 8d de 34 22 07 b0 34 f4 19 82 34 98 ac 90 34
       4.1453796e-07 3.2787744e-07 2.423327e-07 2.694767e-07
0003b0 91 fb 3a 34 6a 59 0f 34 58 ae 4b 34 13 70 40 34
       1.7414119e-07 1.3350441e-07 1.8969274e-07 1.7922166e-07
0003c0 0f 68 09 33 ad 49 1c 34 6d 4e 1e 34 f3 37 86 33
       3.199244e-08 1.4555435e-07 1.4743428e-07 6.250038e-08
0003d0 da fc c0 33 8c 53 e1 33 27 a7 4b 33 39 89 4a 33
       8.98669e-08 1.0492576e-07 4.7416645e-08 4.7156593e-08
0003e0 b0 47 a2 33 a4 e0 52 33 bc 61 58 33 98 41 92 33
       7.556753e-08 4.9098745e-08 5.0380308e-08 6.810586e-08
0003f0 71 6d a8 33 6a c3 c8 32 cb ea 53 33 a2 08 48 33
       7.843017e-08 2.3371928e-08 4.934081e-08 4.657398e-08

exp_avg f4 [32]
000000 70 1d 08 ba d2 ca 83 b4 7f 1e b5 1e cf a0 bd 1f
       -0.0005192375 -2.4548223e-07 1.9176733e-20 8.031065e-20
000010 37 10 d3 2e b6 1b 89 b6 1f 39 df b5 b5 ec 11 1d
       9.5980494e-11 -4.086144e-06 -1.6631419e-06 1.9312965e-21
000020 a2 b0 1a b8 2a 31 2b 21 5a 32 9d 32 4a 7f 03 37
       -3.6880963e-05 5.800212e-19 1.8300103e-08 7.837845e-06
000030 56 9d e4 38 24 f8 a5 1e e0 2f 9e b7 53 53 05 1d
       0.00010901193 1.7572683e-20 -1.8857361e-05 1.7645481e-21
000040 2b 0e 33 25 97 8b 9a b7 7a af d0 b6 84 a6 c3 1d
       1.5530575e-16 -1.8423232e-05 -6.219311e-06 5.1788243e-21
000050 b3 3c 4c b8 0b 59 e2 19 f5 d6 52 1e ea f6 69 24
       -4.869392e-05 2.3403816e-23 1.11617595e-20 5.0732966e-17
000060 f2 73 4d 37 99 10 34 b6 cc 4b 23 20 d7 15 1c 1f
       1.2245948e-05 -2.6831751e-06 1.3831716e-19 3.305235e-20
000070 99 e5 68 36 70 67 84 b6 33 02 de b6 86 03 7c b5
       3.4704337e-06 -3.9459483e-06 -6.6163716e-06 -9.388244e-07

exp_avg_sq f4 [32]
000000 34 44 a3 35 a4 04 bb 34 9a 9e 12 33 b2 cf 1d 34
       1.2164296e-06 3.483484e-07 3.413752e-08 1.4697324e-07
000010 5c 83 91 34 f5 41 a1 34 14 40 32 35 9e f7 d6 2f
       2.710393e-07 3.0036577e-07 6.6403413e-07 3.9102316e-10
000020 af 67 88 35 fd 79 e3 34 e7 30 16 35 c1 4f 02 35
       1.0162966e-06 4.2370803e-07 5.5950517e-07 4.854483e-07
000030 70 e6 17 35 ed bd 15 33 21 a9 22 35 3d 5f ba 30
       5.6587214e-07 3.4864502e-08 6.059582e-07 1.356035e-09
000040 6c b4 d6 31 f4 fd 4a 34 18 6f 37 35 47 52 f9 31
       6.2487313e-09 1.8905104e-07 6.8334475e-07 7.2562076e-09
000050 0b 94 bc 35 70 7a 7a 2a 0f 9e 20 32 e9 a0 a9 30
       1.4050178e-06 2.224694e-13 9.349164e-09 1.2342102e-09
000060 fc 2f aa 34 0b 54 6f 35 25 c4 b6 34 ba 55 80 33
       3.169988e-07 8.9156737e-07 3.4042856e-07 5.976058e-08
000070 70 07 18 35 7c 01 b7 34 c2 fa 09 35 8a 47 66 33
       5.6635236e-07 3.4087486e-07 5.140138e-07 5.3616112e-08
