nesy/jd97xsk6/checkpoints/epoch=0-step=50.ckpt (torch, 290467 bytes, 12 tensors)

neural_predicates.digit.net.0.weight f4 [30, 784]
-0.037469484 0.007403199 0.032739278 0.013786009 -0.0072286515 0.0029289816 0.012883666 0.033036366
0.024796456 0.0220723 -0.02923609 0.018279213 0.003493739 -0.024157485 0.02830142 -0.033508364
0.001000129 -0.005976346 0.03288917 0.006607673 0.014584429 0.011432995 0.018529817 -0.027998768
-0.00546136 -0.031527847 0.028760618 -0.0038967829 -0.034467723 -0.010857682 -0.025149805 0.011340369
-0.0007233236 -0.033203557 0.007274336 0.01087269 -0.032919373 -0.035551544 -0.009271926 0.0008972829
-0.0036440333 -0.012831255 -0.009803108 -0.03133318 -0.018917216 -0.023781866 -0.02631179 0.012457269
-0.0281203 0.024129752 0.027031884 -0.02911265 0.028927853 0.008972956 0.0027482624 -0.033145223
0.0025948866 0.0015920005 -0.034767304 -0.01260359 -0.037366785 0.0030457736 0.0048307492 -0.009050086
0.016281035 0.01337707 0.010776871 0.012757562 0.010779891 0.012483247 0.0014780252 -0.021937167
0.03324536 0.028042737 -0.010689874 -0.02633306 -0.008444887 0.0080518145 0.013287739 -0.020842206
-0.0041053714 -0.007180052 -0.036009107 -0.022690102 0.0033590016 -0.0050864997 -0.011092143 0.02069477
0.025140287 0.008439386 -0.01788393 0.02996301 -0.03739633 0.007951821 -0.014415961 0.015998801
0.029415334 -0.017312922 -0.028076334 -0.00994175 -0.028121829 0.024151368 0.01858826 0.009987207
0.012605917 -0.018156089 -0.026332954 0.01210164 -0.010925755 0.02106008 0.022065757 -0.027523959
0.010278499 -0.02644286 0.027115265 0.028864352 0.010446036 -0.007255932 -0.0071878266 -0.02355814
-0.0030700443 -0.024643637 0.013630949 -0.024852129 -0.034042925 -0.0043365727 -0.028440366 0.03284307
0.025106529 -0.027289862 -0.015316438 -0.006128662 0.005730089 0.019528309 0.020957008 -0.012846112
-0.027633905 0.031361677 0.019535035 -0.017712222 0.012226363 0.014790012 0.019397136 0.015827833
-0.0142917195 -0.008154679 0.017212307 -0.027227364 -0.021057304 -0.0005752521 -0.03176001 0.0076559726
-0.02533045 -0.030870704 -0.0031707312 -0.015673343 -0.0021935026 -0.0050228406 -0.04427701 -0.04505545
0.029038152 -0.017128821 -0.031021457 -0.02620105 0.033921022 -0.03224332 -0.017765574 -0.013516062
0.03218783 0.023609797 -0.026324427 0.0003478527 -0.00052067655 -0.024559 -0.00100507 -0.013681926
-0.014290329 -0.0012960203 -0.013751626 -0.045747306 -0.008424746 -0.049350455 -0.039280348 -0.018764013
-0.025135832 -0.042161316 -0.041156325 0.014536212 -0.012788197 0.012148364 -8.986473e-05 0.00190369
-0.02438942 0.015012605 0.018671844 0.006310449 -0.00094597595 -0.025066251 -0.01924045 0.007379907
-0.016022231 0.008053176 -0.0006104137 -0.018471396 -0.031648584 -0.0012248601 -0.03984161 0.013192619
-0.024048164 -0.027936595 -0.025932772 0.0040394934 -0.042028334 -0.022069175 -0.032742426 -0.00041920884
-0.0238525 -0.02864532 -0.021653594 -0.0046080975 -0.026045479 -0.0076699597 0.024341283 -0.007918113
-0.024190757 0.013070195 -0.028133234 -0.023208823 0.0035578748 0.025723632 0.00043285004 0.017144645
-0.049829174 -0.051386386 -0.008730619 0.008602623 -0.039986003 0.0051063965 -0.018757269 -0.011773249
0.0062213666 -0.019793298 -0.0321682 -0.039023854 -0.057234228 -0.03309968 0.011286785 -0.012371377
0.014182203 -0.014063823 -0.013662895 0.016927583 -0.018996773 -0.01522312 0.018075604 -0.03597571
00000000: 9a79 19bd 8996 f23b 9f19 063d b6de 613c
00000010: 53de ecbb 28f4 3f3b 0316 533c 2451 073d
00000020: f021 cb3c f8d0 b43c 8680 efbc 4abe 953c
00000030: 37f7 643b ebe5 c5bc 61d8 e73c 1140 09bd
00000040: c316 833a 39d5 c3bb cbb6 063d 2e85 d83b
00000050: 87f3 6e3c 7551 3b3c d8cb 973c ac5d e5bc
00000060: 35f5 b2bb 5823 01bd 639b eb3c 2b61 7fbb
00000070: 072e 0dbd 6be4 31bc f706 cebc f4cc 393c
00000080: 6d9d 3dba 7400 08bd 8e5d ee3b 5e23 323c
00000090: 77d6 06bd 7f9e 11bd 47e9 17bc a337 6b3a
000000a0: bcd0 6ebb 2f3a 52bc 379d 20bc 3857 00bd
000000b0: 47f8 9abc 30d2 c2bc d38b d7bc 9319 4c3c
000000c0: 8b5c e6bc c2ab c53c f871 dd3c a77d eebc
000000d0: 1bfa ec3c 4e03 133c 311c 343b 49c3 07bd
000000e0: f90e 2a3b acaa d03a 2968 0ebd 4a7f 4ebc
000000f0: ea0d 19bd 9a9b 473b 434b 9e3b d046 14bc
00000100: ce5f 853c 802b 5b3c 7991 303c 1805 513c
00000110: 249e 303c 8886 4c3c 4cba c13a 93b5 b3bc
00000120: 492c 083d e2b9 e53c 9524 2fbc 6eb8 d7bc
00000130: 6c5c 0abc c2eb 033c d1b4 593c 46bd aabc
00000140: 5a86 86bb a446 ebbb 497e 13bd 98e0 b9bc
00000150: b222 5c3b a7ac a6bb d2bb 35bc 1488 a93c
00000160: 01f3 cd3c 5a45 0a3c 5281 92bc fd74 f53c
00000170: e52c 19bd 5b48 023c ec30 6cbc eb0f 833c
00000180: 6df8 f03c d4d3 8dbc 5700 e6bc b9e2 22bc
00000190: c05f e6bc 17d9 c53c 6846 983c 62a1 233c
000001a0: 0c89 4e3c 14bc 94bc 35b8 d7bc f545 463c
000001b0: f001 33bc 3086 ac3c 3fc3 b43c ed79 e1bc
000001c0: 2667 283c b29e d8bc d520 de3c ef74 ec3c
000001d0: da25 2b3c 2bc3 edbb dc87 ebbb 00fd c0bc
000001e0: cc32 49bb 74e1 c9bc 5854 5f3c b196 cbbc
000001f0: 9870 0bbd cf19 8ebb c5fb e8bc 7486 063d
00000200: 35ac cd3c fd8e dfbc ccf1 7abc f1d2 c8bb
00000210: 78c3 bb3b d5f9 9f3c 08ae ab3c 8078 52bc
00000220: 8060 e2bc 1a75 003d f007 a03c 3919 91bc
00000230: 1551 483c ce51 723c bee6 9e3c 5fa9 813c
00000240: d127 6abc 349b 05bc d300 8d3c ec0b dfbc
00000250: 5e80 acbc 84cc 16ba c916 02bd f4de fa3b
00000260: ce81 cfbc 8fe4 fcbc 0bcc 4fbb 6265 80bc
00000270: dec0 0fbb a496 a4bb cf5b 35bd 108c 38bd
00000280: 6be1 ed3c be51 8cbc b620 febc 96a3 d6bc
00000290: c5f0 0a3d 9211 04bd 1c89 91bc 7972 5dbc
000002a0: 63d7 033d 5569 c13c 53a6 d7bc 0060 b639
000002b0: 037e 08ba f52f c9bc 8ebc 83ba 282a 60bc
000002c0: fc21 6abc 3adf a9ba 804e 61bc 8761 3bbd
000002d0: f207 0abc b423 4abd 6ee4 20bd fdb6 99bc
000002e0: a9e9 cdbc 58b1 2cbd 8993 28bd 4b29 6e3c
000002f0: 9685 51bc ef09 473c c275 bcb8 3d85 f93a
00000300: 52cc c7bc 6ef7 753c b2f5 983c e2c7 ce3b
00000310: 5ffb 77ba bd57 cdbc 269e 9dbc 26d3 f13b
00000320: 0e41 83bc 78f1 033c 2c04 20ba 5351 97bc
00000330: f2a1 01bd 7c8b a0ba f530 23bd db25 583c
00000340: a800 c5bc 49db e4bc f770 d4bc ba5d 843b
00000350: e725 2cbd 6aca b4bc ec1c 06bd 42c9 dbb9
00000360: 5166 c3bc 97a9 eabc e162 b1bc 86ff 96bb
00000370: 545d d5bc 4954 fbbb 5f67 c73c f9ba 01bc
00000380: b22b c6bc 5f24 563c ab77 e6bc 6e20 bebc
00000390: 3c2b 693b 5eba d23c 26f0 e239 ed72 8c3c
000003a0: ad19 4cbd 887a 52bd df0a 0fbc 04f2 0c3c
000003b0: 5dc8 23bd 8f53 a73b d8a8 99bc 96e4 40bc
000003c0: 9bdc cb3b 8e25 a2bc cdc2 03bd 7ad7 1fbd
000003d0: 706e 6abd 8893 07bd 35ec 383c 51b1 4abc
000003e0: 795c 683c f36b 66bc 56da 5fbc b7ab 8a3c
000003f0: 1f9f 9bbc 656a 79bc 4a13 943c 445b 13bd

neural_predicates.digit.net.0.bias f4 [30]
0.010140103 -0.0014594183 0.010938374 0.002391394 0.023661176 -0.01535447 -0.022783868 -0.033084795
-0.032997604 0.023720399 0.040048964 -0.005944031 0.032935828 -0.023522291 -0.022677599 -0.00091163337
0.027848592 0.011186967 -0.014904272 0.0086855525 -0.00045082686 0.0010865063 0.004188389 -0.032817375
-0.034009185 -0.022564696 -0.016932996 -0.03138041 0.008582156 0.03513732
00000000: ad22 263c f449 bfba de36 333c efb8 1c3b
00000010: 15d5 c13c 5191 7bbc 3ca5 babc ec83 07bd
00000020: 7f28 07bd 4851 c23c 620a 243d 25c6 c2bb
00000030: b8e7 063d d2b1 c0bc 5fc6 b9bc aefa 6eba
00000040: bb22 e43c 8a49 373c 0c31 74bc d94d 0e3c
00000050: f55c ecb9 1a69 8e3a c13e 893b 836b 06bd
00000060: 374d 0bbd 99d9 b8bc 11b7 8abc bf88 00bd
00000070: 2c9c 0c3c 27ec 0f3d

neural_predicates.digit.net.2.weight f4 [2, 30]
0.0314362 0.1796666 0.0018452986 0.078794226 -0.1538478 -0.076108895 -0.008504975 -0.01444128
-0.17993487 -0.16829331 -0.041078355 0.16432874 0.190325 -0.114578925 -0.02555801 -0.17236471
0.15294757 0.11875736 -0.15064868 0.105057225 0.16285679 -0.07121721 0.20562737 0.08868364
-0.02404369 0.022323832 0.08061478 -0.19991328 -0.13388807 0.08030036 0.12009129 0.07258264
-0.073027484 -0.11192778 0.2012727 -0.1697957 0.07026114 0.14496532 0.15325384 -0.0295322
-0.1449157 0.014751783 0.096118495 0.04395223 0.09187865 -0.01683778 0.050894413 -0.051911492
-0.07187758 0.03449686 -0.14664783 0.08799034 0.089622505 0.1486965 0.0228626 0.09500492
0.099218 -0.09384297 -0.19317716 -0.07777921
00000000: 3fc3 003d 85fa 373e f2dd f13a de5e a13d
00000010: 478a 1dbe fbde 9bbd 7358 0bbc 1e9b 6cbc
00000020: d940 38be 1555 2cbe c741 28bd cb45 283e
00000030: 8fe4 423e 5ba8 eabd 085f d1bc 6080 30be
00000040: 4a9e 1c3e 0f37 f33d a643 1abe 3e28 d73d
00000050: eec3 263e 54da 91bd fb8f 523e c59f b53d
00000060: 46f7 c4bc 78e0 b63c 5d19 a53d 11b6 4cbe
00000070: f419 09be 8474 a43d 6cf2 f53d 35a6 943d
00000080: 6f8f 95bd 643a e5bd 6e1a 4e3e edde 2dbe
00000090: 13e5 8f3d ca71 143e 93ee 1c3e 83ed f1bc
000000a0: c864 14be 76b1 713c c6d9 c43d 4107 343d
000000b0: e02a bc3d 62ef 89bc a976 503d 25a1 54bd
000000c0: 8d34 93bd 944c 0d3d d92a 16be 4834 b43d
000000d0: 018c b73d e543 183e 594a bb3c f191 c23d
000000e0: cf32 cb3d be30 c0bd 3cd0 45be b54a 9fbd

neural_predicates.digit.net.2.bias f4 [2]
0.101784654 -0.09675129
00000000: 7974 d03d 8a25 c6bd

exp_avg f4 [30, 784]
1.1996238e-05 1.1996238e-05 1.1996238e-05 1.1996238e-05 1.1996238e-05 1.1996238e-05 1.1996238e-05 1.1996238e-05
1.1996238e-05 1.1996238e-05 1.1996238e-05 1.1996238e-05 1.1996238e-05 1.1996238e-05 1.1996238e-05 1.1996238e-05
1.1996238e-05 1.1996238e-05 1.1996238e-05 1.1996238e-05 1.1996238e-05 1.1996238e-05 1.1996238e-05 1.1996238e-05
1.1996238e-05 1.1996238e-05 1.1996238e-05 1.1996238e-05 1.1996238e-05 1.1996238e-05 1.1996238e-05 1.1996238e-05
1.1996238e-05 1.1996238e-05 1.1996238e-05 1.1996238e-05 1.1996238e-05 1.1996238e-05 1.1996238e-05 1.5983618e-05
1.9877532e-05 1.523598e-05 1.0566881e-05 1.1443065e-05 1.5211632e-05 1.36540975e-05 1.1996238e-05 1.1996238e-05
1.1996238e-05 1.1996238e-05 1.1996238e-05 1.1996238e-05 1.1996238e-05 1.1996238e-05 1.1996238e-05 1.1996238e-05
1.1996238e-05 1.1996238e-05 1.1996238e-05 1.20145005e-05 1.2002535e-05 1.1996238e-05 1.2298937e-05 1.2258202e-05
1.2039075e-05 1.1996238e-05 1.1989518e-05 1.477091e-05 1.7177881e-05 -3.9521533e-06 -2.8801671e-06 -3.8075539e-06
-1.2525223e-05 -2.0039815e-05 -3.2360665e-06 -4.966144e-06 7.968139e-06 1.1996238e-05 1.1996238e-05 1.1996238e-05
1.1996238e-05 1.1996238e-05 1.1996238e-05 1.1996238e-05 1.1996238e-05 1.1996238e-05 1.1991611e-05 1.2048041e-05
1.2013879e-05 1.1997735e-05 1.19971e-05 1.2328775e-05 1.0423628e-05 6.0315297e-06 7.28129e-06 1.4744971e-05
-2.679384e-05 -3.1124964e-05 -1.49037005e-05 7.930469e-06 -3.3769193e-05 -2.4199977e-05 -2.1205047e-05 -1.2129893e-05
1.5384123e-05 2.6613809e-05 2.1115682e-05 1.2157335e-05 1.2288403e-05 1.2079871e-05 1.1996238e-05 1.1996238e-05
1.1996238e-05 1.1996238e-05 1.1980376e-05 1.1998381e-05 1.10856045e-05 3.6980543e-06 5.4254842e-06 7.1744903e-06
-1.4610146e-05 -3.40038e-05 -3.1839965e-05 -4.348946e-05 -0.00012363303 -6.371355e-05 1.6753922e-05 6.1104492e-06
-3.5652225e-05 -6.670231e-05 -1.7788945e-05 -1.6069316e-05 -3.9683706e-05 -4.663933e-05 -3.7232003e-05 9.45494e-06
1.6631946e-05 1.2007945e-05 1.1996238e-05 1.1996238e-05 1.1996238e-05 1.1996238e-05 1.1981306e-05 1.1871948e-05
9.540376e-06 -1.1674039e-05 -8.935774e-06 -8.90045e-07 -2.958204e-05 -8.568863e-05 -3.9541377e-05 -3.0332432e-05
-7.144705e-05 -6.792068e-05 2.8866429e-05 4.436488e-05 7.386285e-05 5.7660887e-05 -3.224142e-05 -9.2826944e-05
-0.00014189063 -0.000112635935 -0.00010954054 -2.979478e-05 1.5010357e-05 1.15819e-05 1.1956884e-05 1.1996238e-05
1.1996238e-05 1.1996238e-05 1.1993061e-05 1.1747917e-05 9.176637e-06 -2.55037e-06 -3.1845728e-05 -6.7057066e-05
-8.094835e-05 -2.8000131e-05 5.9714616e-06 1.4241804e-05 -4.056789e-05 -2.8106497e-05 6.849546e-05 9.478469e-05
0.00022264829 0.00020331779 -8.614255e-05 -0.0001747451 -0.00016636797 -4.2657866e-05 -2.2862363e-05 1.519602e-05
5.725205e-06 1.2527841e-05 1.2726828e-05 1.2087335e-05 1.1996238e-05 1.1996238e-05 1.1951144e-05 1.2004045e-05
1.1628705e-05 3.3972808e-06 -5.8300648e-05 -0.00011475657 -5.7471312e-05 4.114741e-05 8.188766e-05 5.976856e-05
3.748076e-05 2.04397e-05 6.372621e-05 0.000114659604 0.00018428212 0.00019114785 -3.828371e-05 -7.886886e-05
-4.5542074e-05 4.1133913e-05 8.8580404e-05 6.748082e-05 3.7694303e-05 3.209888e-05 1.2001338e-05 1.2188421e-05
1.2310387e-05 1.1996238e-05 1.2034374e-05 1.19894985e-05 1.1836877e-05 2.3856526e-05 -3.212352e-05 -0.000103903316
-3.9192768e-05 1.9767507e-05 5.4075917e-05 8.4818465e-05 8.910081e-05 9.4256075e-06 -5.040684e-06 3.6627123e-05
0.00017810431 0.00021560489 9.95082e-06 2.4836212e-05 5.7332523e-05 9.9624136e-05 0.00012077608 9.403185e-05
4.1727897e-05 1.6764283e-05 1.1996238e-05 1.1996238e-05 1.1996238e-05 1.1958675e-05 1.215085e-05 1.2050621e-05
00000000: 7343 4937 7343 4937 7343 4937 7343 4937
00000010: 7343 4937 7343 4937 7343 4937 7343 4937
00000020: 7343 4937 7343 4937 7343 4937 7343 4937
00000030: 7343 4937 7343 4937 7343 4937 7343 4937
00000040: 7343 4937 7343 4937 7343 4937 7343 4937
00000050: 7343 4937 7343 4937 7343 4937 7343 4937
00000060: 7343 4937 7343 4937 7343 4937 7343 4937
00000070: 7343 4937 7343 4937 7343 4937 7343 4937
00000080: 7343 4937 7343 4937 7343 4937 7343 4937
00000090: 7343 4937 7343 4937 7343 4937 8f14 8637
000000a0: adbe a637 099e 7f37 6948 3137 97fb 3f37
000000b0: 7635 7f37 e713 6537 7343 4937 7343 4937
000000c0: 7343 4937 7343 4937 7343 4937 7343 4937
000000d0: 7343 4937 7343 4937 7343 4937 7343 4937
000000e0: 7343 4937 7343 4937 7343 4937 e391 4937
000000f0: 7f5e 4937 7343 4937 8857 4e37 94a8 4d37
00000100: 6ffb 4937 7343 4937 9626 4937 93d0 7737
00000110: 3819 9037 bd9c 84b6 e548 41b6 4785 7fb6
00000120: 6c23 52b7 2d1b a8b7 332b 59b6 daa2 a6b6
00000130: e5ae 0537 7343 4937 7343 4937 7343 4937
00000140: 7343 4937 7343 4937 7343 4937 7343 4937
00000150: 7343 4937 7343 4937 942f 4937 f121 4a37
00000160: 388f 4937 e149 4937 2747 4937 afd7 4e37
00000170: 24e1 2e37 7262 ca36 ce51 f436 2b61 7737
00000180: 55c3 e0b7 2d8c 02b8 e80a 7ab7 1b0d 0537
00000190: 65a3 0db8 0e01 cbb7 7ee1 b1b7 7e81 4bb7
000001a0: 270d 8137 b840 df37 9521 b137 5bf7 4b37
000001b0: 4a2a 4e37 a7aa 4a37 7343 4937 7343 4937
000001c0: 7343 4937 7343 4937 53ff 4837 a74c 4937
000001d0: 4ffc 3937 172c 7836 8e0c b636 67bc f036
000001e0: 191e 75b7 4d9f 0eb8 e78b 05b8 7468 36b8
000001f0: 7da3 01b9 f49d 85b8 c68a 8c37 5c08 cd36
00000200: 4989 15b8 88e2 8bb8 7839 95b7 98cc 86b7
00000210: 0e72 26b8 999e 43b8 8f29 1cb8 a8a0 1e37
00000220: d584 8b37 bb75 4937 7343 4937 7343 4937
00000230: 7343 4937 7343 4937 5103 4937 a12d 4737
00000240: 9a0f 2037 9edb 43b7 dbea 15b7 6deb 6eb5
00000250: f226 f8b7 bcb3 b3b8 3bd9 25b8 6772 feb7
00000260: d8d5 95b8 a370 8eb8 2f26 f237 6d14 3a38
00000270: d1e6 9a38 e8d8 7138 f63a 07b8 16ac c2b8
00000280: 7ac8 14b9 f536 ecb8 21b9 e5b8 ceef f9b7
00000290: fed4 7b37 e24f 4237 6d9a 4837 7343 4937
000002a0: 7343 4937 7343 4937 ce35 4937 eb18 4537
000002b0: 5bf5 1937 0627 2bb6 1792 05b8 fda0 8cb8
000002c0: d1c2 a9b8 d3e1 eab7 775e c836 15f0 6e37
000002d0: 7127 2ab8 3ec6 ebb7 38a5 8f38 25c7 c638
000002e0: b276 6939 b431 5539 6ea7 b4b8 c83b 37b9
000002f0: 1073 2eb9 89eb 32b8 8dc8 bfb7 69f2 7e37
00000300: 231b c036 ab2e 5237 4f85 5537 b5ca 4a37
00000310: 7343 4937 7343 4937 c681 4837 fb64 4937
00000320: e818 4337 d7fc 6336 d887 74b8 77a9 f0b8
00000330: 5a0d 71b8 b295 2c38 1abb ab38 01b0 7a38
00000340: a934 1d38 ec75 ab37 c0a4 8538 6875 f038
00000350: db3b 4139 dc6e 4839 d292 20b8 6666 a5b8
00000360: 6e04 3fb8 3487 2c38 3ec4 b938 7d84 8d38
00000370: f319 1e38 e9a1 0638 5b59 4937 df7c 4c37
00000380: b688 4e37 7343 4937 3ee7 4937 8126 4937
00000390: 0097 4637 801f c837 5ebc 06b8 abe6 d9b8
000003a0: ea62 24b8 66d2 a537 93cf 6238 91e0 b138
000003b0: a2db ba38 ad22 1e37 2523 a9b6 13a0 1938
000003c0: 83c1 3a39 ff13 6239 72f2 2637 5c57 d037
000003d0: 5478 7038 4ded d038 2a49 fd38 f732 c538
000003e0: fd04 2f38 06a1 8c37 7343 4937 7343 4937
000003f0: 7343 4937 1ea2 4837 81db 4b37 062d 4a37

exp_avg_sq f4 [30, 784]
8.2946165e-08 8.2946165e-08 8.2946165e-08 8.2946165e-08 8.2946165e-08 8.2946165e-08 8.2946165e-08 8.2946165e-08
8.2946165e-08 8.2946165e-08 8.2946165e-08 8.2946165e-08 8.2946165e-08 8.2946165e-08 8.2946165e-08 8.2946165e-08
8.2946165e-08 8.2946165e-08 8.2946165e-08 8.2946165e-08 8.2946165e-08 8.2946165e-08 8.2946165e-08 8.2946165e-08
8.2946165e-08 8.2946165e-08 8.2946165e-08 8.2946165e-08 8.2946165e-08 8.2946165e-08 8.2946165e-08 8.2946165e-08
8.2946165e-08 8.2946165e-08 8.2946165e-08 8.2946165e-08 8.2946165e-08 8.2946165e-08 8.2946165e-08 8.306112e-08
8.317804e-08 8.303919e-08 8.295074e-08 8.281945e-08 8.291782e-08 8.279954e-08 8.2946165e-08 8.2946165e-08
8.2946165e-08 8.2946165e-08 8.2946165e-08 8.2946165e-08 8.2946165e-08 8.2946165e-08 8.2946165e-08 8.2946165e-08
8.2946165e-08 8.2946165e-08 8.2946165e-08 8.294929e-08 8.294727e-08 8.2946165e-08 8.2936936e-08 8.277225e-08
8.2899966e-08 8.2946165e-08 8.2946904e-08 8.30163e-08 8.276532e-08 8.066003e-08 7.962793e-08 7.997992e-08
8.3788606e-08 8.267863e-08 8.2474834e-08 8.251462e-08 8.283495e-08 8.2946165e-08 8.2946165e-08 8.2946165e-08
8.2946165e-08 8.2946165e-08 8.2946165e-08 8.2946165e-08 8.2946165e-08 8.2946165e-08 8.294612e-08 8.295531e-08
8.294918e-08 8.294623e-08 8.29462e-08 8.2735625e-08 8.292648e-08 8.278717e-08 8.311865e-08 8.333437e-08
7.8944666e-08 7.5421546e-08 7.173749e-08 7.063579e-08 8.1941344e-08 8.111459e-08 7.353555e-08 7.001275e-08
7.327615e-08 8.1298815e-08 8.269532e-08 8.275231e-08 8.263287e-08 8.2850256e-08 8.2946165e-08 8.2946165e-08
8.2946165e-08 8.2946165e-08 8.294602e-08 8.294431e-08 8.2944204e-08 8.25753e-08 8.282252e-08 8.2220836e-08
8.167899e-08 8.070106e-08 7.508758e-08 6.847483e-08 6.395847e-08 5.881325e-08 5.4801564e-08 5.619783e-08
5.6982785e-08 5.023517e-08 4.7043514e-08 5.5036576e-08 6.190288e-08 6.748475e-08 7.392438e-08 8.012894e-08
8.291507e-08 8.293689e-08 8.2946165e-08 8.2946165e-08 8.2946165e-08 8.2946165e-08 8.281079e-08 8.286938e-08
8.2908066e-08 8.186916e-08 8.1880586e-08 7.887728e-08 7.6465994e-08 7.815865e-08 7.27482e-08 6.094851e-08
4.5992273e-08 4.3478586e-08 3.7938122e-08 4.7243734e-08 5.5386426e-08 4.7250882e-08 4.8241574e-08 5.997955e-08
6.7268985e-08 7.019322e-08 7.407259e-08 8.150345e-08 8.266215e-08 8.280034e-08 8.294654e-08 8.2946165e-08
8.2946165e-08 8.2946165e-08 8.29123e-08 8.293112e-08 8.261141e-08 8.178518e-08 7.815155e-08 7.25629e-08
7.125771e-08 7.310133e-08 7.463337e-08 8.041326e-08 9.2872035e-08 7.905783e-08 6.4501414e-08 6.795038e-08
7.914228e-08 9.7467e-08 1.1152502e-07 1.285e-07 1.1989334e-07 8.935336e-08 8.403499e-08 8.083222e-08
8.300029e-08 8.3525514e-08 8.292696e-08 8.296215e-08 8.2946165e-08 8.2946165e-08 8.261211e-08 8.3272575e-08
8.2928935e-08 8.151983e-08 7.6245996e-08 6.94132e-08 7.0366255e-08 8.211338e-08 1.1096299e-07 1.7715703e-07
1.9967686e-07 1.4677377e-07 8.439927e-08 5.398989e-08 5.878283e-08 1.1702973e-07 1.8794019e-07 2.4077488e-07
2.0567676e-07 1.4206086e-07 1.11636545e-07 8.470709e-08 8.120971e-08 8.2876525e-08 8.295115e-08 8.29811e-08
8.310003e-08 8.2946165e-08 8.286255e-08 8.308951e-08 8.285789e-08 8.100789e-08 7.294842e-08 7.0463386e-08
7.765516e-08 1.10599586e-07 1.9940425e-07 3.0335258e-07 3.1573083e-07 1.7252964e-07 5.0329156e-08 1.7949315e-08
1.7550333e-08 5.573914e-08 1.8483813e-07 3.4562794e-07 3.4777395e-07 2.4028805e-07 1.4555992e-07 9.346182e-08
7.774498e-08 8.2788674e-08 8.2946165e-08 8.2946165e-08 8.2946165e-08 8.29471e-08 8.2943515e-08 8.295096e-08
00000000: 2320 b233 2320 b233 2320 b233 2320 b233
00000010: 2320 b233 2320 b233 2320 b233 2320 b233
00000020: 2320 b233 2320 b233 2320 b233 2320 b233
00000030: 2320 b233 2320 b233 2320 b233 2320 b233
00000040: 2320 b233 2320 b233 2320 b233 2320 b233
00000050: 2320 b233 2320 b233 2320 b233 2320 b233
00000060: 2320 b233 2320 b233 2320 b233 2320 b233
00000070: 2320 b233 2320 b233 2320 b233 2320 b233
00000080: 2320 b233 2320 b233 2320 b233 2320 b233
00000090: 2320 b233 2320 b233 2320 b233 555f b233
000000a0: 9c9f b233 4753 b233 a722 b233 79da b133
000000b0: 8e10 b233 87cf b133 2320 b233 2320 b233
000000c0: 2320 b233 2320 b233 2320 b233 2320 b233
000000d0: 2320 b233 2320 b233 2320 b233 2320 b233
000000e0: 2320 b233 2320 b233 2320 b233 db21 b233
000000f0: be20 b233 2320 b233 101b b233 87c0 b133
00000100: bd06 b233 2320 b233 8b20 b233 b246 b233
00000110: b7bc b133 5237 ad33 ebff aa33 6dc1 ab33
00000120: 46ef b333 0f8d b133 051d b133 e432 b133
00000130: ffe2 b133 2320 b233 2320 b233 2320 b233
00000140: 2320 b233 2320 b233 2320 b233 2320 b233
00000150: 2320 b233 2320 b233 1d20 b233 2a25 b233
00000160: cb21 b233 2c20 b233 2820 b233 64ac b133
00000170: 5115 b233 bac8 b133 f67e b233 8ef5 b233
00000180: 4a88 a933 6ff7 a133 1a0e 9a33 70b0 9733
00000190: bbf7 af33 3831 ae33 99ea 9d33 eb59 9633
000001a0: fd5b 9d33 7f96 ae33 3c96 b133 90b5 b133
000001b0: e773 b133 69eb b133 2320 b233 2320 b233
000001c0: 2320 b233 2320 b233 0f20 b233 1e1f b233
000001d0: 0f1f b233 4054 b133 29dc b133 6291 b033
000001e0: 8067 af33 e04d ad33 d53f a133 700c 9333
000001f0: 8a59 8933 da99 7c33 f55e 6b33 2b5e 7133
00000200: 3cbd 7433 27c2 5733 e40c 4a33 5b61 6c33
00000210: 78ef 8433 22ec 9033 5cc0 9e33 5a13 ac33
00000220: 0b0f b233 0a1b b233 2320 b233 2320 b233
00000230: 2320 b233 2320 b233 b7d5 b133 ecf5 b133
00000240: 310b b233 0cd0 af33 54d6 af33 3e63 a933
00000250: a035 a433 2cd8 a733 bf39 9c33 cce2 8233
00000260: 0a89 4533 36bd 3a33 68f1 2233 09e9 4a33
00000270: 05e2 6d33 e5f0 4a33 2c32 4f33 1bce 8033
00000280: 8475 9033 21bd 9633 d611 9f33 ff06 af33
00000290: ff83 b133 f8cf b133 5820 b233 2320 b233
000002a0: 2320 b233 2320 b233 850d b233 de17 b233
000002b0: 1a68 b133 e1a1 af33 45d4 a733 e0d3 9b33
000002c0: 5706 9933 e2fb 9c33 2146 a033 a8af ac33
000002d0: f170 c733 80c6 a933 0784 8a33 1eec 9133
000002e0: eef4 a933 0d4f d133 877f ef33 d0f9 0934
000002f0: 08bc 0034 87e2 bf33 b976 b433 fc95 ad33
00000300: e43d b233 a35e b333 9415 b233 ed28 b233
00000310: 2320 b233 2320 b233 7d68 b133 95d3 b233
00000320: aa16 b233 0010 af33 aebc a333 4f10 9533
00000330: 421c 9733 4f56 b033 8d4a ee33 8e38 3e34
00000340: c266 5634 de98 1d34 fd3e b533 83e2 6733
00000350: 6878 7c33 c651 fb33 9bcc 4934 d943 8134
00000360: ffd7 5c34 6489 1834 d7bc ef33 37e8 b533
00000370: 8365 ae33 daf9 b133 e122 b233 5833 b233
00000380: ba74 b233 2320 b233 2bf2 b133 f16e b233
00000390: 9bef b133 8ff6 ad33 d1a7 9c33 a851 9733
000003a0: 60c3 a633 c482 ed33 d31b 5634 76dc a234
000003b0: b781 a934 9640 3934 7e29 5833 f62e 9a32
000003c0: 97c1 9632 d565 6f33 eb77 4634 be8e b934
000003d0: b0b5 ba34 f000 8134 354b 1c34 2eb5 c833
000003e0: c1f4 a633 8ec9 b133 2320 b233 2320 b233
000003f0: 2320 b233 a720 b233 ae1e b233 c622 b233

exp_avg f4 [30]
-1.1996238e-05 -1.2289413e-05 -7.6708675e-06 3.278939e-06 -4.9580212e-05 -1.5909434e-05 -9.910643e-06 -2.4663417e-05
-3.2698346e-05 -1.52565935e-05 -2.2687933e-05 -3.6906138e-05 -9.554741e-06 -3.1020576e-05 -2.3183458e-05 3.139699e-07
2.1195817e-06 -3.2586056e-05 -8.147018e-06 9.4326815e-06 -0.00012319548 5.534803e-06 -2.5706313e-05 -9.907027e-06
3.3928213e-06 2.830345e-07 3.910903e-06 -1.4191252e-05 3.8194607e-06 -5.6164718e-05
00000000: 7343 49b7 a02e 4eb7 20b2 00b7 be0b 5c36
00000010: 59f4 4fb8 4075 85b7 e345 26b7 49e4 ceb7
00000020: 9525 09b8 92f6 7fb7 f751 beb7 aacb 1ab8
00000030: 4d4d 20b7 171c 02b8 197a c2b7 b28f a834
00000040: 233e 0e36 03ad 08b8 2daf 08b7 0f41 1e37
00000050: 092e 01b9 99b7 b936 e3a3 d7b7 5b36 26b7
00000060: 3ab0 6336 f7f3 9734 673a 8336 f716 6eb7
00000070: eb28 8036 6892 6bb8

exp_avg_sq f4 [30]
8.2946165e-08 1.3895492e-07 7.049578e-08 5.598651e-08 4.0126824e-06 2.3474523e-07 4.5286207e-08 1.3155295e-07
2.2000154e-06 3.723857e-07 3.4663174e-07 7.1385637e-07 1.3703756e-07 6.660683e-07 3.434819e-07 2.862329e-10
2.457268e-08 5.991247e-07 2.977255e-08 2.0617223e-07 4.574482e-06 5.3262198e-08 3.9870523e-07 2.2965112e-08
2.4455726e-08 2.3260677e-10 1.8509855e-08 8.174651e-08 7.70106e-09 1.4353695e-06
00000000: 2320 b233 a333 1534 7763 9733 d275 7033
00000010: aea4 8636 470e 7c34 b680 4233 0041 0d34
00000020: faa3 1336 4dec c734 b418 ba34 d69f 3f35
00000030: 9924 1334 ddcb 3235 cb67 b834 b35b 9d2f
00000040: e513 d332 89d3 2035 88be ff32 3160 5d34
00000050: 807e 9936 68c2 6433 a10d d634 d144 c532
00000060: b612 d232 fcc0 7f2f 9aff 9e32 9e8c af33
00000070: 9f4d 0432 eca6 c035

exp_avg f4 [2, 30]
0.011438773 -0.013377217 -0.013403555 -0.007576978 0.011202612 -0.011730233 0.013361534 0.013859083
0.01199977 0.012872837 -0.012646933 -0.0117958365 -0.012773527 0.0128972735 0.0110648 -1.211431e-07
1.0599969e-05 -0.010823539 0.014726048 6.9762624e-05 -0.012339024 -5.526511e-06 -0.010522903 0.010840954
-1.1795268e-05 -2.6315936e-07 -4.1572992e-05 0.015126727 -0.015457409 -0.012549831 -0.011438783 0.013377212
0.013403542 0.0075769727 -0.011202621 0.0117302295 -0.013361544 -0.013859093 -0.011999786 -0.012872845
0.012646927 0.011795833 0.0127735175 -0.012897278 -0.011064807 1.211431e-07 -1.0599969e-05 0.010823531
-0.014726061 -6.9762624e-05 0.012339019 5.526511e-06 0.0105229 -0.010840961 1.1795268e-05 2.6315936e-07
4.1572992e-05 -0.015126735 0.015457402 0.012549824
00000000: b169 3b3c 1d2c 5bbc 969a 5bbc 4c48 f8bb
00000010: 298b 373c 2a30 40bc 56ea 5a3c 3511 633c
00000020: af9a 443c 97e8 523c 1535 4fbc 5343 41bc
00000030: 0e48 51bc 164f 533c 2349 353c 9013 02b4
00000040: 85d6 3137 3755 31bc 8645 713c 864d 9238
00000050: 9e29 4abc 5e70 b9b6 4168 2cbc 429e 313c
00000060: 4ae4 45b7 5948 8db4 a95e 2eb8 17d6 773c
00000070: 1341 7dbc ce9d 4dbc bc69 3bbc 182c 5b3c
00000080: 889a 5b3c 4148 f83b 338b 37bc 2630 403c
00000090: 61ea 5abc 4011 63bc c09a 44bc a0e8 52bc
000000a0: 0e35 4f3c 4f43 413c 0448 513c 1b4f 53bc
000000b0: 2a49 35bc 9013 0234 85d6 31b7 2e55 313c
000000c0: 9445 71bc 864d 92b8 9929 4a3c 5e70 b936
000000d0: 3e68 2c3c 499e 31bc 4ae4 4537 5948 8d34
000000e0: a95e 2e38 20d6 77bc 0b41 7d3c c79d 4d3c

exp_avg_sq f4 [2, 30]
0.00026517911 0.00042772215 0.0004085821 8.8422275e-06 0.00027139674 0.00061215577 0.00025980125 0.00039661973
0.00032150385 0.0005552109 0.00042790262 0.0004786143 0.00040093946 0.0004139774 0.00025995134 4.26129e-11
3.4181423e-07 0.0003498562 0.0003189787 1.3917566e-05 0.00027635813 7.0904086e-08 0.00027661954 0.00025840706
3.4061358e-07 2.010857e-10 2.6048235e-06 0.00055234303 0.00024681044 0.00047844436 0.00026517911 0.00042772217
0.00040858213 8.842227e-06 0.0002713967 0.00061215577 0.00025980125 0.0003966197 0.00032150385 0.0005552108
0.00042790262 0.0004786143 0.00040093946 0.00041397745 0.0002599513 4.261287e-11 3.4181429e-07 0.00034985621
0.0003189787 1.3917566e-05 0.00027635807 7.0904065e-08 0.0002766196 0.00025840712 3.4061358e-07 2.010856e-10
2.6048237e-06 0.00055234315 0.0002468104 0.00047844445
00000000: bd07 8b39 e53f e039 f636 d639 1459 1437
00000010: 414a 8e39 1479 203a ef35 8839 66f1 cf39
00000020: 848f a839 938b 113a 1e58 e039 86ee fa39
00000030: 2f35 d239 1b0b d939 144a 8839 dc69 3b2e
00000040: 9782 b734 e76c b739 993c a739 7e7f 6937
00000050: 29e4 9039 ef43 9833 3f07 9139 cf7a 8739
00000060: 93dd b634 9818 5d2f 87ce 2e36 1dcb 103a
00000070: 5666 8139 b7d7 fa39 bd07 8b39 e63f e039
00000080: f736 d639 1359 1437 404a 8e39 1479 203a
00000090: ef35 8839 65f1 cf39 848f a839 918b 113a
000000a0: 1e58 e039 86ee fa39 2f35 d239 1d0b d939
000000b0: 134a 8839 d469 3b2e 9982 b734 e86c b739
000000c0: 993c a739 7e7f 6937 27e4 9039 ec43 9833
000000d0: 4107 9139 d17a 8739 93dd b634 9118 5d2f
000000e0: 88ce 2e36 1fcb 103a 5566 8139 bad7 fa39

exp_avg f4 [2]
-0.0002739532 0.00027395005
00000000: 60a1 8fb9 f4a0 8f39

exp_avg_sq f4 [2]
5.3770844e-05 5.377084e-05
00000000: 0188 6138 0088 6138
