nesy/cwn8g8cx/checkpoints/epoch=9-step=130.ckpt (torch, 290467 bytes, 12 tensors)

neural_predicates.digit.net.0.weight f4 [30, 784]
-0.01828194 -0.019951908 -0.013559128 0.019041497 0.008705545 -0.0044159894 0.019308098 -0.018616311
0.023944404 -0.0430993 0.01919063 -0.019537581 0.011392761 -0.0022716678 0.008838277 0.013347706
-0.0045071715 -0.020404989 -0.014492973 -0.032318752 0.018616093 0.01954346 0.009837836 -0.038296923
-0.011265966 -0.031949382 -0.022759054 0.0073171463 0.010599545 -0.022835817 -0.022528244 0.006758743
-0.016614756 -0.028207272 -0.013189106 -0.000851196 -0.012146277 -0.034547757 -0.037221976 0.014065814
-0.006706415 0.017075604 0.011740058 -0.015894696 -0.0077231093 0.01944046 -0.021753732 -0.020745374
-0.023773184 0.02165589 -0.004292721 -5.3446878e-05 -0.03552246 -0.035514303 -0.02814329 -0.0311964
-0.0017677353 -0.0003756417 0.011389422 0.012676902 -0.0065669017 -0.028362213 -0.019915648 -0.007864243
-0.008507539 0.026388021 0.014149412 0.018003391 -0.03185653 0.020693582 -0.002863528 -0.04487286
-0.04202197 -0.0031105368 0.009510661 -0.017792799 -0.008988839 0.0015512136 -0.0056629824 -0.025899138
0.016588142 -0.02682616 -0.0274649 -0.031232592 -0.003135549 0.01893815 0.0118275415 -0.03344853
-0.009992636 0.0044725607 -0.0011273957 0.002537924 0.0064476877 0.011227378 -0.043261003 -0.038252227
0.021228502 -0.00914336 -0.017012075 -0.04301625 -0.018198412 -0.031156827 -0.019251622 0.017027127
-0.02712703 -0.04235367 -0.0035021352 0.0048123794 -0.009487265 -0.016451282 -0.03381491 0.024940794
-0.01536323 0.011300793 0.026208503 0.013073391 0.026950357 0.015170143 0.02454389 -0.009300041
-0.0024865489 -0.035612766 -0.002420675 -0.014145892 -0.03570121 0.018585822 0.018767215 -0.008814279
0.008950848 -0.019344082 -0.035928506 -0.039325647 0.014274585 0.015800605 -0.03676961 -0.0051941266
-0.018729987 2.0320269e-05 -0.03369663 -0.04038361 -0.018768061 0.006966782 -0.009777093 -0.019493457
-0.03838186 -0.03976589 0.02319098 0.002517327 0.010990382 0.0032361338 0.023084523 -0.031982675
-0.009576289 0.0044699707 0.021053951 -0.025325093 0.038076572 -0.013264967 -0.009559413 -0.03300635
-0.019725114 -0.031338964 -0.04592541 0.0123388525 -0.036890216 -0.02650347 0.016018005 -0.00016597915
-0.022933695 -0.011801566 0.004340598 -0.015427062 -0.020271938 0.013739671 -0.041079096 -0.031866804
-0.04023777 0.019482346 0.036833126 0.018671717 0.015802339 0.03920894 0.018605245 -0.009291883
-0.0048714154 0.056673083 0.018075643 0.008796604 0.020905552 -0.0010077097 -0.020520996 0.010297807
-0.0003269485 -0.01677141 0.008791437 0.023913167 -0.004872124 -0.005667525 -0.038716014 0.021358067
-0.002640498 -0.001928768 0.018103229 0.016524544 -0.031995818 -0.010056165 0.00080708833 0.007359238
0.03198098 0.018443935 -0.00037759257 -0.013429018 -0.001345074 0.0043014875 0.016753944 0.0384248
-0.0075371885 0.019922152 -0.0106072975 0.031217728 -0.008661413 0.0012386683 -0.0007351194 -0.008343199
0.008504614 -0.026114428 -0.028928738 0.019037692 -0.017262992 0.0020127282 -0.014901833 0.02712205
-0.00018567804 -0.0030957435 -0.0035336846 -0.0074726497 0.038893178 -0.013394074 -0.00030890098 -0.0094767725
0.016510535 0.0561522 0.042172015 0.03185083 -0.015043796 -0.0035322781 0.009614626 0.015514352
0.014149324 -0.027204316 -0.006570155 0.016668836 -0.021214481 0.00012771462 0.012162576 -0.028169468
00000000: 02c4 95bc 2f72 a3bc 1b27 5ebc eafc 9b3c
00000010: b4a1 0e3c 01b4 90bb 042c 9e3c 3c81 98bc
00000020: 0e27 c43c e488 30bd ab35 9d3c 470d a0bc
00000030: b4a8 3a3c 43e0 14bb 6cce 103c 56b0 5a3c
00000040: e5b0 93bb 5d28 a7bc ef73 6dbc ab60 04bd
00000050: c780 983c 9b19 a03c e02e 213c 3cdd 1cbd
00000060: e394 38bc 5bdd 02bd 3271 babc acc4 ef3b
00000070: b7a9 2d3c 2e12 bbbc 278d b8bc 7278 dd3b
00000080: ab1b 88bc f012 e7bc 1f17 58bc cc22 5fba
00000090: 2e01 47bc f381 0dbd 1276 18bd 4d74 663c
000000a0: 7dc1 dbbb 23e2 8b3c 5f59 403c 9835 82bc
000000b0: 2312 fdbb 9941 9f3c e234 b2bc 34f2 a9bc
000000c0: fbbf c2bc b167 b13c f4a9 8cbb 262c 60b8
000000d0: 0080 11bd 7277 11bd c28c e6bc 988f ffbc
000000e0: 5bb3 e7ba c7f1 c4b9 b39a 3a3c c8b2 4f3c
000000f0: 2a2f d7bb df57 e8bc 2426 a3bc 07d9 00bc
00000100: 3463 0bbc b12b d83c efd2 673c d97b 933c
00000110: fe7b 02bd 9685 a93c 07aa 3bbb 9bcc 37bd
00000120: 3b1f 2cbd 26da 4bbb 9ad2 1b3c 34c2 91bc
00000130: ec45 13bc 1752 cb3a 8a90 b9bb 6e2a d4bc
00000140: dbe3 873c 89c2 dbbc 12fe e0bc 7edb ffbc
00000150: c87d 4dbb 2e24 9b3c 4ec8 413c 5301 09bd
00000160: 27b8 23bc 8f8e 923b 1fc5 93ba 4d53 263b
00000170: 2047 d33b 09f3 373c 7332 31bd 5eae 1cbd
00000180: 65e7 ad3c 08ce 15bc e85c 8bbc cf31 30bd
00000190: d614 95bc 9a3c ffbc 94b5 9dbc 797c 8b3c
000001a0: 8139 debc 0b7b 2dbd 1484 65bb 2ab1 9d3b
000001b0: 7970 1bbc d7c4 86bc 8181 0abd a350 cc3c
000001c0: 0fb6 7bbc f626 393c 37b3 d63c c731 563c
000001d0: ffc6 dc3c 318c 783c 4510 c93c 335f 18bc
000001e0: 5ef5 22bb b1de 11bd 30a4 1ebb 2cc4 67bc
000001f0: 6f3b 12bd 4b41 983c b4bd 993c c469 10bc
00000200: 94a6 123c 7b77 9ebc c529 13bd ee13 21bd
00000210: f3df 693c 4570 813c bb9b 16bd 7e33 aabb
00000220: a16f 99bc 7275 aa37 7a05 0abd 4969 25bd
00000230: 7abf 99bc 9a49 e43b 1a30 20bc beb0 9fbc
00000240: 4c36 1dbd 8fe1 22bd 03fb bd3c bdf9 243b
00000250: 0111 343c 5115 543b c11b bd3c 4400 03bd
00000260: dee5 1cbc d578 923b 5679 ac3c 9276 cfbc
00000270: 2ef6 1b3d 4e55 59bc 169f 1cbc ab31 07bd
00000280: 9096 a1bc 495d 00bd 481c 3cbd e628 4a3c
00000290: 321a 17bd ce1d d9bc 3138 833c b00a 2eb9
000002a0: 72df bbbc 5b5b 41bc 933b 8e3b cac1 7cbc
000002b0: 5611 a6bc 5b1c 613c 8e42 28bd c486 02bd
000002c0: 5cd0 24bd 7199 9f3c 55de 163d 6ef5 983c
000002d0: e873 813c 8e99 203d 076a 983c fb3c 18bc
000002e0: 65a0 9fbb 0922 683d 5f13 943c a21f 103c
000002f0: 1f42 ab3c 2015 84ba a61b a8bc 22b8 283c
00000300: 496a abb9 3264 89bc f609 103c 8ce5 c33c
00000310: 57a6 9fbb a5b6 b9bb af94 1ebd 1df7 ae3c
00000320: 350c 2dbb b7ce fcba 394d 943c 7b5e 873c
00000330: 0c0e 03bd 9dc2 24bc c892 533a c325 f13b
00000340: 7dfe 023d bc17 973c 9ef7 c5b9 6205 5cbc
00000350: 324d b0ba 7ef3 8c3b 913f 893c 5363 1d3d
00000360: 85fa f6bb c833 a33c 3bca 2dbc 52bc ff3c
00000370: 99e8 0dbc d05a a23a 07b5 40ba eab1 08bc
00000380: f056 0b3c eded d5bc f6fb ecbc eff4 9b3c
00000390: 1e6b 8dbc fae7 033b d126 74bc 102f de3c
000003a0: 92b2 42b9 f5e1 4abb 6495 67bb 21dd f4bb
000003b0: 744e 1f3d d172 5bbc fdf3 a1b9 7744 1bbc
000003c0: 1a41 873c d9ff 653d 90bc 2c3d 0476 023d
000003d0: 417a 76bc cb7d 67bb aa86 1d3c e92f 7e3c
000003e0: 91d2 673c 96db debc 744a d7bb 158d 883c
000003f0: fec9 adbc 22eb 0539 8b45 473c a8c3 e6bc

neural_predicates.digit.net.0.bias f4 [30]
0.029892357 -0.040910717 0.013213413 -0.037816685 0.007941189 0.024836406 -0.032044373 -0.014546408
-0.025465747 0.008845762 -0.02252161 0.0147238085 0.017721785 0.027176924 -0.014262738 0.045038763
0.013748146 0.0044913813 -0.034322005 0.0026617865 -0.019178916 -0.013868092 0.03756609 0.02714193
0.01496746 0.0031095364 0.0007440213 0.020980377 0.013027765 -0.0048369537
00000000: d1e0 f43c ff91 27bd 127d 583c abe5 1abd
00000010: c31b 023c b875 cb3c f640 03bd 0f54 6ebc
00000020: 8b9d d0bc d1ed 103c 3d7f b8bc 213c 713c
00000030: 472d 913c 24a2 de3c 42ae 69bc 917a 383d
00000040: e73f 613c 702c 933b 3b95 0cbd 5e71 2e3b
00000050: 1a1d 9dbc fe36 63bc e6de 193d c158 de3c
00000060: 143a 753c 5dc9 4b3b 6d0a 433a 0adf ab3c
00000070: 6872 553c 4f7f 9ebb

neural_predicates.digit.net.2.weight f4 [2, 30]
-0.053867504 0.16835949 0.10750969 -0.052528497 -0.16905077 -0.035960034 -0.07645712 -0.10329001
-0.14672534 0.10577133 -0.0032079632 0.03115535 0.21234332 -0.13252127 0.19054191 0.14193906
0.17588362 0.1112109 0.08540899 -0.20290741 0.031339858 0.16473 -0.13397205 -0.046121772
0.207532 0.17766045 0.10426775 0.02652255 -0.17703904 0.054632172 -0.18121195 -0.043066286
-0.119146615 0.14135416 0.01638792 0.13081689 -0.13751777 -0.04771562 0.14291285 0.17542756
0.155097 0.07420694 -0.04421414 0.17944804 0.010059792 -0.076941445 -0.18984808 0.102849826
-0.09858655 0.14411777 -0.022488495 -0.037296142 -0.0026274123 -0.0939679 -0.020698633 -0.20402819
0.09728604 -0.17206836 -0.05085036 0.12535116
00000000: 2ca4 5cbd 6e66 2c3e 0a2e dc3d 1f28 57bd
00000010: a51b 2dbe d44a 13bd 8d95 9cbd b689 d3bd
00000020: 2b3f 16be a49e d83d b13c 52bb 8139 ff3c
00000030: 8770 593e a8b3 07be 6b1d 433e 7958 113e
00000040: d61a 343e 8ac2 e33d e9ea ae3d f6c6 4fbe
00000050: 395e 003d fbae 283e f82f 09be 2fea 3cbd
00000060: 4583 543e 9fec 353e 558a d53d d245 d93c
00000070: b949 35be fcc5 5f3d a08f 39be 4666 30bd
00000080: 2403 f4bd 25bf 103e f63f 863c ddf4 053e
00000090: 75d1 0cbe 7471 43bd bf57 123e 48a3 333e
000000a0: bfd1 1e3e cff9 973d e319 35bd 3ac1 373e
000000b0: d3d1 243c 7a93 9dbd 8967 42be eea2 d23d
000000c0: bfe7 c9bd 9c93 133e cb39 b8bc d7c3 18bd
000000d0: aa30 2cbb 3e72 c0bd 2e90 a9bc c4ec 50be
000000e0: e73d c73d b032 30be 7848 50bd 0e5c 003e

neural_predicates.digit.net.2.bias f4 [2]
-0.080366984 0.1557227
00000000: 7297 a4bd c575 1f3e

exp_avg f4 [30, 784]
1.6595257e-05 1.6595257e-05 1.6595257e-05 1.6595257e-05 1.6595257e-05 1.6595257e-05 1.6595257e-05 1.6595257e-05
1.6595257e-05 1.6595257e-05 1.6595257e-05 1.6595257e-05 1.6595257e-05 1.6595257e-05 1.6595257e-05 1.6595257e-05
1.6595257e-05 1.6595257e-05 1.6595257e-05 1.6595257e-05 1.6595257e-05 1.6595257e-05 1.6595257e-05 1.6595257e-05
1.6595257e-05 1.6595257e-05 1.6595257e-05 1.6595257e-05 1.6595257e-05 1.6595257e-05 1.6595257e-05 1.6595257e-05
1.6595257e-05 1.6595257e-05 1.6595257e-05 1.6595257e-05 1.6595257e-05 1.6595257e-05 1.6595257e-05 1.6380605e-05
1.6170976e-05 1.6420847e-05 1.6982163e-05 9.727777e-06 -3.6931424e-06 6.9063394e-06 1.6595257e-05 1.6595257e-05
1.6595257e-05 1.6595257e-05 1.6595257e-05 1.6595257e-05 1.6595257e-05 1.6595257e-05 1.6595257e-05 1.6595257e-05
1.6595257e-05 1.6595257e-05 1.6595257e-05 1.659487e-05 1.659513e-05 1.6595257e-05 1.6558093e-05 1.6581636e-05
1.6594675e-05 1.6595257e-05 1.6600317e-05 1.6576907e-05 1.9600147e-05 4.7147736e-05 4.7044286e-05 4.4751006e-05
3.6436264e-05 4.702093e-05 2.701876e-05 2.4230945e-05 1.8406527e-05 1.6595257e-05 1.6595257e-05 1.6595257e-05
1.6595257e-05 1.6595257e-05 1.6595257e-05 1.6595257e-05 1.6595257e-05 1.6595257e-05 1.6600818e-05 1.6595497e-05
1.659487e-05 1.6594944e-05 1.659504e-05 1.6539914e-05 1.8493138e-05 2.120908e-05 1.9097106e-05 1.5171464e-05
4.4417746e-05 8.52981e-05 0.00014766416 0.00010895078 0.00011854001 0.000118430464 6.43218e-05 3.273325e-05
2.9692606e-05 2.1287022e-05 1.5487334e-05 1.6579937e-05 1.6442738e-05 1.6551596e-05 1.6595257e-05 1.6595257e-05
1.6595257e-05 1.6595257e-05 1.6614313e-05 1.6599397e-05 1.697977e-05 2.0000498e-05 1.8768395e-05 1.724393e-05
3.6560985e-05 4.9383227e-05 4.5305518e-05 4.136193e-05 7.318577e-05 8.4145766e-05 5.2365944e-05 7.742381e-05
5.2671447e-05 8.222169e-05 -2.372091e-05 4.464343e-05 0.00020255822 0.00024423463 0.00017038647 7.0587026e-05
2.063106e-05 1.6590355e-05 1.6595257e-05 1.6595257e-05 1.6595257e-05 1.6595257e-05 1.661747e-05 1.6653796e-05
1.7654349e-05 2.6881027e-05 2.5143445e-05 2.9049179e-05 7.562922e-05 0.00016727168 6.00307e-05 2.2895174e-05
3.0175423e-05 4.2777145e-05 -6.1031395e-05 -3.5202887e-05 -3.1308926e-05 -7.25365e-05 -1.6191954e-05 0.00018314846
0.00042791 0.00046031945 0.0003934485 0.00021787776 5.7244717e-05 1.6781927e-05 1.6604537e-05 1.6595257e-05
1.6595257e-05 1.6595257e-05 1.6600137e-05 1.6902895e-05 1.8280656e-05 2.3260005e-05 9.915576e-05 0.00021178086
0.0002692364 0.00015145593 1.2689398e-05 1.2643387e-05 6.256742e-05 5.6888755e-05 1.9615301e-05 -4.4696248e-05
-0.00018813586 -0.00015384925 0.00020262491 0.00037226596 0.00047243616 0.00040970987 0.00020033744 5.4595068e-05
5.599561e-05 1.6217606e-05 1.6496195e-05 1.6591455e-05 1.6595257e-05 1.6595257e-05 1.6645721e-05 1.6599111e-05
2.1189244e-05 4.6857698e-05 0.00020855863 0.0003169648 0.00022796949 3.356855e-05 -6.8642057e-06 2.0988153e-05
0.000111179754 0.00015008381 0.00012342601 2.4066901e-05 -0.000120950805 -3.525357e-05 0.00015845602 0.0002816881
0.00035609872 0.00025217643 -4.1985015e-05 -0.0001117381 -7.240219e-05 -2.4267834e-05 1.6603886e-05 1.6587235e-05
1.531335e-05 1.6595257e-05 1.660483e-05 1.6599688e-05 2.069507e-05 1.7260367e-05 0.00014969397 0.00030787496
0.00025115817 7.610364e-05 9.162432e-05 0.00017537712 0.00022010457 0.00019806634 0.00023250634 9.380191e-05
-0.00017964072 -0.00014687252 0.00011429568 0.00021843682 0.00024563933 0.00015655985 -5.511477e-05 -6.493723e-05
-1.6916474e-05 9.209339e-06 1.6595257e-05 1.6595257e-05 1.6595257e-05 1.6615179e-05 1.6479184e-05 1.6569902e-05
00000000: 0b36 8b37 0b36 8b37 0b36 8b37 0b36 8b37
00000010: 0b36 8b37 0b36 8b37 0b36 8b37 0b36 8b37
00000020: 0b36 8b37 0b36 8b37 0b36 8b37 0b36 8b37
00000030: 0b36 8b37 0b36 8b37 0b36 8b37 0b36 8b37
00000040: 0b36 8b37 0b36 8b37 0b36 8b37 0b36 8b37
00000050: 0b36 8b37 0b36 8b37 0b36 8b37 0b36 8b37
00000060: 0b36 8b37 0b36 8b37 0b36 8b37 0b36 8b37
00000070: 0b36 8b37 0b36 8b37 0b36 8b37 0b36 8b37
00000080: 0b36 8b37 0b36 8b37 0b36 8b37 0b36 8b37
00000090: 0b36 8b37 0b36 8b37 0b36 8b37 1569 8937
000000a0: e8a6 8737 80bf 8937 eb74 8e37 7c34 2337
000000b0: b4d7 77b6 01bd e736 0b36 8b37 0b36 8b37
000000c0: 0b36 8b37 0b36 8b37 0b36 8b37 0b36 8b37
000000d0: 0b36 8b37 0b36 8b37 0b36 8b37 0b36 8b37
000000e0: 0b36 8b37 0b36 8b37 0b36 8b37 3635 8b37
000000f0: c535 8b37 0b36 8b37 3ce6 8a37 cb18 8b37
00000100: cb34 8b37 0b36 8b37 e940 8b37 a30e 8b37
00000110: ff6a a437 7fc0 4538 6b51 4538 07b3 3b38
00000120: 24d3 1838 5738 4538 58a6 e237 8f43 cb37
00000130: b767 9a37 0b36 8b37 0b36 8b37 0b36 8b37
00000140: 0b36 8b37 0b36 8b37 0b36 8b37 0b36 8b37
00000150: 0b36 8b37 0b36 8b37 fc41 8b37 8f36 8b37
00000160: 3635 8b37 5f35 8b37 9435 8b37 32bf 8a37
00000170: b621 9b37 27ea b137 b932 a037 f188 7e37
00000180: 314d 3a38 12e2 b238 4cd6 1a39 817c e438
00000190: af98 f838 df5d f838 81e4 8638 0f4b 0938
000001a0: 6314 f937 8891 b237 ccea 8137 2515 8b37
000001b0: 83ee 8937 48d8 8a37 0b36 8b37 0b36 8b37
000001c0: 0b36 8b37 0b36 8b37 f75e 8b37 ef3e 8b37
000001d0: c76f 8e37 bec6 a737 d270 9d37 0fa7 9037
000001e0: 0f59 1938 d620 4f38 6e06 3e38 097c 2d38
000001f0: 507b 9938 6a77 b038 81a3 5b38 975e a238
00000200: 89eb 5c38 6f6e ac38 44fc c6b7 853f 3b38
00000210: cf65 5439 9e0c 8039 c5a9 3239 1f08 9438
00000220: dd10 ad37 842b 8b37 0b36 8b37 0b36 8b37
00000230: 0b36 8b37 0b36 8b37 bf65 8b37 c1b3 8b37
00000240: 6d18 9437 917e e137 23eb d237 a3ae f337
00000250: 219b 9e38 a665 2f39 79c9 7b38 030f c037
00000260: 3a21 fd37 9c6b 3338 f6fb 7fb8 d0a6 13b8
00000270: b451 03b8 bd1e 98b8 f5d3 87b7 8a0b 4039
00000280: 1c59 e039 0857 f139 c447 ce39 1e76 6439
00000290: 0c1a 7038 eac6 8c37 f949 8b37 0b36 8b37
000002a0: 0b36 8b37 0b36 8b37 8640 8b37 b1ca 8d37
000002b0: 6959 9937 7b1e c337 d8f1 cf38 7e11 5e39
000002c0: 4c28 8d39 24d0 1e39 8de4 5437 ef1e 5437
000002d0: a136 8338 d69b 6e38 8a8b a437 3b78 3bb8
000002e0: 5646 45b9 9852 21b9 b677 5439 b12c c339
000002f0: 4fb1 f739 54ce d639 ac11 5239 02fd 6438
00000300: d4dc 6a38 0b0b 8837 4f61 8a37 e12d 8b37
00000310: 0b36 8b37 0b36 8b37 6aa2 8b37 523e 8b37
00000320: 8ebf b137 1289 4438 88b0 5a39 4c2e a639
00000330: 180b 6f39 f5cb 0c38 1453 e6b6 b70f b037
00000340: 2d29 e938 d15f 1d39 eb6b 0139 47e3 c937
00000350: f8a6 fdb8 3cdd 13b8 3727 2639 89af 9339
00000360: c3b2 ba39 8c36 8439 1119 30b8 f054 eab8
00000370: a1d6 97b8 c792 cbb7 9348 8b37 d124 8b37
00000380: 2b75 8037 0b36 8b37 9a4a 8b37 8f3f 8b37
00000390: 539a ad37 5bca 9037 2bf7 1c39 476a a139
000003a0: e1ad 8339 d599 9f38 6f26 c038 70e5 3739
000003b0: dfcb 6639 07b0 4f39 f2cc 7339 84b7 c438
000003c0: f05d 3cb9 cb01 1ab9 07b2 ef38 300c 6539
000003d0: 27c9 8039 372a 2439 092b 67b8 e92e 88b8
000003e0: dae7 8db7 cf81 1a37 0b36 8b37 0b36 8b37
000003f0: 0b36 8b37 d360 8b37 c73c 8a37 98ff 8a37

exp_avg_sq f4 [30, 784]
6.169919e-07 6.169919e-07 6.169919e-07 6.169919e-07 6.169919e-07 6.169919e-07 6.169919e-07 6.169919e-07
6.169919e-07 6.169919e-07 6.169919e-07 6.169919e-07 6.169919e-07 6.169919e-07 6.169919e-07 6.169919e-07
6.169919e-07 6.169919e-07 6.169919e-07 6.169919e-07 6.169919e-07 6.169919e-07 6.169919e-07 6.169919e-07
6.169919e-07 6.169919e-07 6.169919e-07 6.169919e-07 6.169919e-07 6.169919e-07 6.169919e-07 6.169919e-07
6.169919e-07 6.169919e-07 6.169919e-07 6.169919e-07 6.169919e-07 6.169919e-07 6.169919e-07 6.1702826e-07
6.170864e-07 6.170193e-07 6.165855e-07 6.1515664e-07 6.141715e-07 6.153301e-07 6.169919e-07 6.169919e-07
6.169919e-07 6.169919e-07 6.169919e-07 6.169919e-07 6.169919e-07 6.169919e-07 6.169919e-07 6.169919e-07
6.169919e-07 6.169919e-07 6.169919e-07 6.169613e-07 6.169819e-07 6.169919e-07 6.179137e-07 6.1580573e-07
6.1661837e-07 6.169919e-07 6.169901e-07 6.1702076e-07 6.1718686e-07 6.16561e-07 6.2036844e-07 6.207681e-07
6.166951e-07 6.165386e-07 6.1626037e-07 6.167261e-07 6.169015e-07 6.169919e-07 6.169919e-07 6.169919e-07
6.169919e-07 6.169919e-07 6.169919e-07 6.169919e-07 6.169919e-07 6.169919e-07 6.169913e-07 6.1690355e-07
6.16729e-07 6.1629913e-07 6.163329e-07 6.14748e-07 6.1603635e-07 6.160658e-07 6.15925e-07 6.1664286e-07
6.1427227e-07 5.994669e-07 5.94533e-07 6.0228786e-07 6.0848515e-07 6.0641935e-07 5.999733e-07 6.0639144e-07
6.1622137e-07 6.187843e-07 6.1638485e-07 6.169614e-07 6.17032e-07 6.1700285e-07 6.169919e-07 6.169919e-07
6.169919e-07 6.169919e-07 6.1699006e-07 6.168569e-07 6.164074e-07 6.168739e-07 6.1796777e-07 6.164676e-07
6.082589e-07 5.949233e-07 5.805523e-07 5.3457006e-07 4.538244e-07 3.716524e-07 3.0907987e-07 2.8115994e-07
2.9673146e-07 2.9493202e-07 3.0370256e-07 3.59165e-07 4.583452e-07 5.3644044e-07 5.787038e-07 6.057644e-07
6.1559206e-07 6.1661115e-07 6.169919e-07 6.169919e-07 6.169919e-07 6.169919e-07 6.1708954e-07 6.1640054e-07
6.162223e-07 6.1761426e-07 6.1342314e-07 6.0251887e-07 5.849075e-07 5.6049953e-07 5.3497865e-07 4.5860105e-07
3.5031258e-07 2.6332674e-07 2.0048434e-07 2.0567778e-07 2.3370228e-07 1.9737334e-07 1.4936255e-07 2.0700656e-07
3.5989777e-07 4.841504e-07 5.729213e-07 5.9854807e-07 6.0854234e-07 6.166633e-07 6.168251e-07 6.169919e-07
6.169919e-07 6.169919e-07 6.170162e-07 6.169749e-07 6.1468506e-07 6.097535e-07 6.009433e-07 5.80978e-07
5.556133e-07 5.464281e-07 5.588392e-07 5.047023e-07 4.401578e-07 3.695897e-07 2.9653145e-07 2.5826787e-07
2.9935538e-07 3.4155892e-07 2.8410977e-07 3.0433816e-07 3.387844e-07 4.4449664e-07 5.494473e-07 5.9831115e-07
6.063993e-07 6.1807646e-07 6.1675786e-07 6.169804e-07 6.169919e-07 6.169919e-07 6.169891e-07 6.1696414e-07
6.151375e-07 6.078607e-07 5.8989065e-07 5.6026323e-07 5.6205647e-07 5.9828244e-07 6.3798785e-07 6.392661e-07
6.1977426e-07 4.5263442e-07 2.2063611e-07 1.4383664e-07 1.8799385e-07 3.2259283e-07 3.9871077e-07 5.1560437e-07
5.022655e-07 4.998166e-07 5.48027e-07 6.0601946e-07 6.016421e-07 6.1984474e-07 6.1617226e-07 6.1696653e-07
6.170567e-07 6.169919e-07 6.170107e-07 6.16914e-07 6.149835e-07 6.067059e-07 5.69267e-07 5.539692e-07
6.0011143e-07 6.7428743e-07 7.723215e-07 8.608982e-07 7.7418014e-07 3.44319e-07 7.750577e-08 5.151704e-08
7.80335e-08 1.5728412e-07 3.906355e-07 7.087535e-07 7.997756e-07 6.564867e-07 5.73668e-07 5.877549e-07
5.8595555e-07 6.1375107e-07 6.169919e-07 6.169919e-07 6.169919e-07 6.167665e-07 6.168938e-07 6.1672114e-07
00000000: 5c9f 2535 5c9f 2535 5c9f 2535 5c9f 2535
00000010: 5c9f 2535 5c9f 2535 5c9f 2535 5c9f 2535
00000020: 5c9f 2535 5c9f 2535 5c9f 2535 5c9f 2535
00000030: 5c9f 2535 5c9f 2535 5c9f 2535 5c9f 2535
00000040: 5c9f 2535 5c9f 2535 5c9f 2535 5c9f 2535
00000050: 5c9f 2535 5c9f 2535 5c9f 2535 5c9f 2535
00000060: 5c9f 2535 5c9f 2535 5c9f 2535 5c9f 2535
00000070: 5c9f 2535 5c9f 2535 5c9f 2535 5c9f 2535
00000080: 5c9f 2535 5c9f 2535 5c9f 2535 5c9f 2535
00000090: 5c9f 2535 5c9f 2535 5c9f 2535 dca1 2535
000000a0: dba5 2535 3ea1 2535 6f83 2535 3e21 2535
000000b0: 8bdd 2435 2a2d 2535 5c9f 2535 5c9f 2535
000000c0: 5c9f 2535 5c9f 2535 5c9f 2535 5c9f 2535
000000d0: 5c9f 2535 5c9f 2535 5c9f 2535 5c9f 2535
000000e0: 5c9f 2535 5c9f 2535 5c9f 2535 429d 2535
000000f0: ac9e 2535 5c9f 2535 b5de 2535 d94d 2535
00000100: b185 2535 5c9f 2535 3d9f 2535 58a1 2535
00000110: c2ac 2535 c081 2535 6587 2635 dca2 2635
00000120: f78a 2535 3680 2535 176d 2535 188d 2535
00000130: 2699 2535 5c9f 2535 5c9f 2535 5c9f 2535
00000140: 5c9f 2535 5c9f 2535 5c9f 2535 5c9f 2535
00000150: 5c9f 2535 5c9f 2535 529f 2535 4a99 2535
00000160: 4b8d 2535 c16f 2535 1372 2535 2905 2535
00000170: b25d 2535 b85f 2535 0b56 2535 6087 2535
00000180: 78e4 2435 0deb 2035 ff97 1f35 e8ac 2135
00000190: c856 2335 d2c8 2235 da0d 2135 e7c6 2235
000001a0: 696a 2535 891a 2635 a575 2535 449d 2535
000001b0: 1ea2 2535 1da0 2535 5c9f 2535 5c9f 2535
000001c0: 5c9f 2535 5c9f 2535 3c9f 2535 1596 2535
000001d0: 3277 2535 4097 2535 6ce2 2535 557b 2535
000001e0: 3c47 2335 d1b2 1f35 40d7 1b35 607f 0f35
000001f0: 27a5 f334 8487 c734 9def a534 54f2 9634
00000200: 764e 9f34 2657 9e34 900c a334 43d3 c034
00000210: 7c12 f634 e8ff 0f35 3958 1b35 d09b 2235
00000220: 2a3f 2535 3285 2535 5c9f 2535 5c9f 2535
00000230: 5c9f 2535 5c9f 2535 12a6 2535 b976 2535
00000240: 796a 2535 21ca 2535 1eaa 2435 c8bc 2135
00000250: 8a02 1d35 3c75 1635 749b 0f35 a635 f634
00000260: 9812 bc34 5a5f 8d34 b744 5734 47d8 5c34
00000270: 98ef 7a34 92ed 5334 7760 2034 8845 5e34
00000280: f937 c134 90f6 0135 daca 1935 e9ab 2035
00000290: b65a 2335 c888 2535 e693 2535 5c9f 2535
000002a0: 5c9f 2535 5c9f 2535 08a1 2535 319e 2535
000002b0: d600 2535 f1ad 2335 8250 2135 81f4 1b35
000002c0: 7525 1535 41ae 1235 2303 1635 e17a 0735
000002d0: d44e ec34 066c c634 f932 9f34 11a8 8a34
000002e0: 17b7 a034 805f b734 c087 9834 eb63 a334
000002f0: 2ce2 b534 27a3 ee34 bb7d 1335 a19b 2035
00000300: 71c7 2235 e4e9 2535 478f 2535 929e 2535
00000310: 5c9f 2535 5c9f 2535 2b9f 2535 749d 2535
00000320: ed1f 2535 df2b 2335 fa58 1e35 ff64 1635
00000330: 3ae0 1635 a899 2035 3142 2b35 089a 2b35
00000340: 905e 2635 9a01 f334 fee7 6c34 8471 1a34
00000350: 5bdb 4934 d230 ad34 640e d634 1068 0a35
00000360: 6cd3 0635 232b 0635 211c 1335 57ad 2235
00000370: 8880 2135 6863 2635 0967 2535 9e9d 2535
00000380: d0a3 2535 5c9f 2535 a7a0 2535 029a 2535
00000390: 5815 2535 83dc 2235 bbcf 1835 79b4 1435
000003a0: 5817 2135 ae00 3535 8851 4f35 7918 6735
000003b0: 41d1 4f35 d8da b834 3f71 a633 9643 5d33
000003c0: 5f93 a733 eee1 2834 89b8 d134 2b41 3e35
000003d0: 29b0 5635 6c39 3035 2afe 1935 36c6 1d35
000003e0: 8f4a 1d35 a7c0 2435 5c9f 2535 5c9f 2535
000003f0: 5c9f 2535 df8f 2535 9e98 2535 c18c 2535

exp_avg f4 [30]
-1.6595257e-05 1.0228177e-09 1.6294843e-09 4.7661164e-10 4.4726084e-10 5.2533408e-11 2.3402809e-09 9.640002e-10
5.860398e-09 1.136237e-09 4.1217896e-09 1.4442798e-10 -8.161798e-05 4.2897685e-05 -4.3719323e-05 -6.358561e-05
-8.983599e-05 4.2754454e-12 2.031226e-09 4.7311725e-05 1.0095059e-09 -4.898625e-05 1.8765437e-05 6.084595e-10
-5.839311e-05 -9.7568234e-05 2.1946608e-11 -5.2101084e-05 1.8038221e-05 2.9980693e-10
00000000: 0b36 8bb7 3393 8c30 62f4 df30 9002 0330
00000010: 5ee2 f52f 5c0b 672e a8d2 2031 be7d 8430
00000020: 9b5c c931 c929 9c30 a59f 8d31 ddcc 1e2f
00000030: 522a abb8 0aed 3338 445f 37b8 4459 85b8
00000040: 5466 bcb8 ca6d 962c b595 0b31 9470 4638
00000050: d5be 8a30 9676 4db8 786a 9d37 8840 2730
00000060: 20eb 74b8 8c9d ccb8 5e0b c12d 1d87 5ab8
00000070: c950 9737 13d2 a42f

exp_avg_sq f4 [30]
6.169919e-07 5.4551112e-08 1.4081577e-07 1.2755889e-08 1.1233201e-08 1.5497188e-10 1.3923449e-07 5.747783e-08
1.84847e-06 7.653574e-08 8.550808e-07 1.1713438e-09 9.028739e-06 2.4756098e-06 9.153735e-07 2.471448e-06
4.471613e-06 1.0264656e-12 2.415289e-07 9.840277e-06 5.7263655e-08 7.8318413e-07 2.0954263e-07 2.4347635e-08
2.588693e-06 2.1275166e-05 2.7046828e-11 1.5222129e-06 2.0220992e-07 4.631009e-09
00000000: 5c9f 2535 954b 6a33 2533 1734 fe24 5b32
00000010: 24fc 4032 b564 2a2f 7c80 1534 8bdd 7633
00000020: f218 f835 f85b a433 b588 6535 fffc a030
00000030: 247a 1737 a722 2636 fdb7 7535 27db 2536
00000040: dd0a 9636 5276 902b 7bab 8134 ab17 2537
00000050: 0ef2 7533 013c 5235 a4fe 6034 0425 d132
00000060: 68b9 2d36 1278 b237 0be8 ed2d d64e cc35
00000070: 0a1f 5934 c91e 9f31

exp_avg f4 [2, 30]
-0.008712815 1.3769628e-09 9.322376e-10 -2.2654231e-10 -5.114256e-10 -2.197962e-11 1.3909955e-08 -2.8819758e-09
-5.4334364e-09 -4.3262682e-09 -9.690415e-09 -1.9551416e-10 -0.006121699 0.007232424 -0.008587631 -0.010599236
-0.008415015 -1.1482656e-10 3.371018e-09 0.005407925 6.042673e-09 -0.00877559 0.0069311443 2.455199e-09
-0.009507796 -0.008405428 -6.7913336e-10 -0.008224006 0.008550159 -2.9455756e-09 0.008712829 -1.3769628e-09
-9.322368e-10 2.2654235e-10 5.114256e-10 2.197962e-11 -1.3909955e-08 2.8819758e-09 5.4334364e-09 4.3262682e-09
9.690415e-09 1.9551416e-10 0.0061217113 -0.0072324392 0.008587651 0.010599246 0.008415028 1.1482656e-10
-3.371018e-09 -0.0054079355 -6.042673e-09 0.008775606 -0.0069311536 -2.455199e-09 0.009507814 0.008405438
6.7913336e-10 0.008224019 -0.008550172 2.9455736e-09
00000000: 32c0 0ebc 923f bd30 3220 8030 fe15 79af
00000010: 6194 0cb0 b455 c1ad a1f8 6e32 410c 46b1
00000020: 03b1 bab1 42a6 94b1 e57a 26b2 58f8 56af
00000030: 8998 c8bb f8fd ec3b 23b3 0cbc 6ba8 2dbc
00000040: 22df 09bc 9b81 fcae 93a7 6731 f734 b13b
00000050: ea9f cf31 7ec7 0fbc a71e e33b 51b8 2831
00000060: 96c6 1bbc ecb6 09bc c3ad 3ab0 fbbd 06bc
00000070: f715 0c3c 1d6b 4ab1 41c0 0e3c 923f bdb0
00000080: 2b20 80b0 0116 792f 6194 0c30 b455 c12d
00000090: a1f8 6eb2 410c 4631 03b1 ba31 42a6 9431
000000a0: e57a 2632 58f8 562f a398 c83b 19fe ecbb
000000b0: 38b3 0c3c 76a8 2d3c 30df 093c 9b81 fc2e
000000c0: 93a7 67b1 0d35 b1bb ea9f cfb1 8fc7 0f3c
000000d0: bb1e e3bb 51b8 28b1 aac6 1b3c f6b6 093c
000000e0: c3ad 3a30 09be 063c 0516 0cbc 146b 4a31

exp_avg_sq f4 [2, 30]
0.0002085286 1.0565335e-07 4.604958e-08 2.8819103e-09 1.4687469e-08 2.7128258e-11 7.848806e-06 4.921647e-07
1.6409971e-06 1.0625756e-06 4.9246887e-06 2.146534e-09 0.00060025783 0.00095483835 0.0018586349 0.00045153458
0.0009472835 7.4040013e-10 6.4094996e-07 0.001495911 2.0458817e-06 0.00080209685 0.0012628605 3.601877e-07
0.0014498262 0.00057041855 2.589952e-08 0.0005787227 0.0013609581 4.6783416e-07 0.00020852863 1.05653335e-07
4.6049546e-08 2.8819107e-09 1.46874655e-08 2.7128251e-11 7.8488065e-06 4.9216453e-07 1.6409964e-06 1.0625756e-06
4.9246887e-06 2.146534e-09 0.0006002579 0.0009548383 0.001858635 0.00045153464 0.0009472842 7.4040013e-10
6.4094996e-07 0.0014959108 2.045881e-06 0.00080209697 0.0012628604 3.601877e-07 0.0014498263 0.0005704187
2.5899531e-08 0.0005787227 0.0013609579 4.6783398e-07
00000000: 78a8 5a39 8be3 e233 0cc8 4533 1a0b 4631
00000010: 2c54 7c32 689f ee2d 5dae 0337 4d1d 0435
00000020: 3b40 dc35 d29d 8e35 c13e a536 3a82 1331
00000030: 9f5a 1d3a 1e4e 7a3a 709d f33a f2bb ec39
00000040: 1f53 783a 0785 4b30 bf0d 2c35 7212 c43a
00000050: fb4b 0936 cf43 523a 9186 a53a d25f c134
00000060: 1808 be3a 2488 153a a679 de32 6cb5 173a
00000070: 2d62 b23a a32a fb34 7aa8 5a39 89e3 e233
00000080: 03c8 4533 1c0b 4631 2854 7c32 649f ee2d
00000090: 5eae 0337 4a1d 0435 3540 dc35 d29d 8e35
000000a0: c13e a536 3a82 1331 a05a 1d3a 1d4e 7a3a
000000b0: 719d f33a f4bb ec39 2b53 783a 0785 4b30
000000c0: bf0d 2c35 7012 c43a f84b 0936 d143 523a
000000d0: 9086 a53a d25f c134 1908 be3a 2788 153a
000000e0: ac79 de32 6cb5 173a 2b62 b23a 9d2a fb34

exp_avg f4 [2]
-0.00013314433 0.00013314122
00000000: a99c 0bb9 d39b 0b39

exp_avg_sq f4 [2]
0.000102253274 0.000102253274
00000000: cf70 d638 cf70 d638
